Result/FD001/hsm.pth (torch, 54146 bytes, 28 tensors)

feature_embedding.weight f4 [15, 14]
000000 8e 20 2e bd bb b6 ed bc 09 54 62 3e 82 af aa 3d
       -0.042511515 -0.029017797 0.2210237 0.08334257
000010 97 a2 0c 3e ae b6 0c bd 5a e9 af 3d 15 8f 04 be
       0.13733898 -0.034353904 0.0858943 -0.12945206
000020 56 97 8f bc 75 27 4a be cc 40 15 be 69 4c e8 3d
       -0.017528217 -0.19741614 -0.145755 0.11342699
000030 92 7b d4 bd a8 6c 15 3c 6a 47 39 bd 0b 50 46 be
       -0.10375132 0.009120144 -0.04523412 -0.19366471
000040 b8 74 52 bc ad 79 9f be 11 61 2b be a6 2c 45 3e
       -0.012845211 -0.3114752 -0.16736247 0.19255313
000050 f4 e3 8c 3e 8e 86 e6 bd 50 68 14 3d 3e b3 6f 3b
       0.27517664 -0.11256133 0.036232293 0.0036575343
000060 fe 4b 87 3e 9c 0a 83 3e 16 5e 04 be 30 ba 70 be
       0.26425165 0.25594032 -0.12926516 -0.23508525
000070 98 37 dc bd d1 44 51 be ca c5 cb 3c 2b 1d a4 3d
       -0.10752791 -0.20436408 0.024874587 0.08013376
000080 b1 c6 16 3e dd f1 03 be 80 ff 58 be 85 af 98 bd
       0.14724232 -0.12885232 -0.21191216 -0.07455353
000090 a9 ad 98 3d 8e c4 e8 3d 02 59 f2 3d 44 4d f5 3d
       0.07454998 0.11365615 0.11833383 0.11977628
0000a0 f0 7b 72 be f0 b6 85 be 64 51 7c 3c 30 5d c0 3d
       -0.23680091 -0.26116133 0.015400264 0.09392774
0000b0 b2 90 63 3e 1e 0b 44 3d fa e7 22 be 0c f2 6e bd
       0.22223166 0.047862165 -0.15908805 -0.058336303
0000c0 72 1d 21 3e e9 2f bc bd 3f e5 21 be b1 c9 e6 bd
       0.15733889 -0.09188826 -0.15810107 -0.11268938
0000d0 fe 18 69 be 14 5f 8c be 36 fc 4e 3e f5 ca e2 bd
       -0.2276344 -0.2741629 0.20213398 -0.11073867
0000e0 68 91 92 3e 72 77 87 3d 0d e7 c0 3c be d1 10 3e
       0.2862656 0.06614579 0.023547674 0.1414251
0000f0 58 45 70 3e 3c 7d ab 3e 4d be 0f be 55 8f 46 bd
       0.23463953 0.33493984 -0.14037438 -0.048476536
000100 6b a4 81 3e 42 6a ff 3d 6d 14 35 3e d7 70 62 3e
       0.25320753 0.12471439 0.17683573 0.22113357
000110 9a fc 87 bd 29 bf b6 bd 82 b2 47 3d 31 7f 03 3e
       -0.06639977 -0.0892318 0.048754223 0.12841488
000120 cb 03 f4 bd c7 9c 26 be 13 fe 42 bd db c4 4b 3e
       -0.11914786 -0.16270743 -0.047605585 0.19899313
000130 d0 e5 43 3e e2 7d 19 3e b4 90 fe 3d 34 75 0b 3e
       0.19130635 0.14989427 0.12429944 0.13618928
000140 9e 32 2e 3d da 10 9d 3d ea 7e 4b be 31 7f ff bc
       0.04252874 0.0766923 -0.19872633 -0.03118858
000150 35 c0 a8 bc 11 9a 2f be 79 25 9e bc df 03 9a be
       -0.020599464 -0.17148615 -0.019304978 -0.30081078
000160 4a 67 63 3e 57 cf 59 3d 47 40 67 3e 1e a4 63 3b
       0.2220737 0.05317625 0.22583114 0.0034735273
000170 21 21 d5 3c ee 61 83 3e 80 66 76 3e a4 c7 10 be
       0.026016774 0.25660652 0.24062538 -0.14138657
000180 82 c0 36 3d 11 27 41 3d f9 e3 16 be 0d 97 6b 3e
       0.044617184 0.047156397 -0.14735402 0.2300684
000190 68 2b e8 bd a0 3d e3 3c 81 a2 b0 3d 84 86 99 bd
       -0.11336404 0.027739346 0.08624745 -0.0749636
0001a0 53 cd 3e 3c 38 65 c8 bb 80 a7 57 3e c4 0f 58 3e
       0.011645633 -0.006115582 0.2105999 0.21099764
0001b0 76 71 83 3e 7a 1a 2a be c0 42 4d 3e 22 5a e4 bd
       0.256725 -0.16611663 0.20044994 -0.11150004
0001c0 84 0d 0c 3e 61 56 90 3d 1e 49 24 3e 24 b3 42 be
       0.13677031 0.070477255 0.16043517 -0.19013649
0001d0 27 b5 d7 bd 17 f8 63 3e 0b 17 b0 3d 6a 5e 5d be
       -0.10532599 0.22262608 0.08598145 -0.21618047
0001e0 86 48 24 3e a1 bf eb bd 97 4f db 3b 0c 7f 58 be
       0.1604329 -0.1151116 0.0066928375 -0.21142215
0001f0 2d 8d 28 3e 79 5d fb 3c 24 ba 1c be 88 26 66 3e
       0.16460104 0.03068422 -0.15305382 0.22475636
000200 79 af d7 3d 16 58 17 bc 0a 33 4d 3e b6 0a cf 3c
       0.10531516 -0.00923731 0.20039001 0.025273662
000210 4d 5f b9 3d 31 78 50 3e e0 f1 19 bc 32 cd 28 3e
       0.0905138 0.2035835 -0.009396046 0.16484526
000220 6e e9 19 bd 5c 52 ae bc a0 44 6e 3e 91 14 aa 3d
       -0.03757613 -0.021279506 0.23268366 0.08304704
000230 b9 48 a6 3e d8 f9 71 3e d9 21 30 3e 6d 18 e1 3d
       0.32477358 0.23630464 0.17200412 0.10990987
000240 cc 8f bf bd d6 4e 1a 3e 7c af 45 3e 00 4f 13 3e
       -0.09353599 0.15069136 0.19305223 0.14385605
000250 ff 4b 90 bd 88 68 f8 3d 40 a8 1f be 5a 83 6d 3e
       -0.07045745 0.12129313 -0.15591526 0.23194638
000260 94 30 00 be 99 9c 0a 3e f4 ca eb 3d 62 16 ca 3d
       -0.12518531 0.135363 0.115133196 0.098675504
000270 62 ff 81 3e 21 2f 70 be 55 dd 4d 3e 81 91 ca bd
       0.25390154 -0.23455478 0.20103963 -0.09891034
000280 68 ae f2 3d 90 36 d7 bd 43 4e 27 be 66 d2 02 be
       0.118496716 -0.10508454 -0.16338448 -0.12775573
000290 b7 85 1b be 1a 96 15 3e d2 ff 5a bd d3 27 74 3e
       -0.15187727 0.1460804 -0.053466626 0.23843317
0002a0 53 f4 f0 bd 58 1b 3b be 54 23 0f be 65 90 48 3d
       -0.11765351 -0.1827215 -0.1397832 0.04896583
0002b0 70 aa 94 3c e1 a8 00 3e 72 f8 f3 3a fa ce 7e be
       0.018147677 0.12564422 0.0018613471 -0.24883643
0002c0 48 0f 98 3e a5 f9 72 bd c6 2d 3c 3e 64 3a 36 be
       0.2969916 -0.05932011 0.18376836 -0.17795712
0002d0 6b 23 3e be 12 27 66 be 94 52 6d 3e 66 87 80 3c
       -0.18568198 -0.22475842 0.23176032 0.015689563
0002e0 74 a4 5d 3d cf 27 bd 3b ec f5 e6 bd 41 f9 5d 3d
       0.054111913 0.005772568 -0.112773746 0.054192785
0002f0 60 34 c0 bd de 94 8f be 25 61 19 3e 79 2e b2 bd
       -0.0938499 -0.28043264 0.14978464 -0.0870027
000300 9f a5 3a be c4 ac 57 3d e9 f7 c2 bd a8 ce 27 3d
       -0.18227242 0.052654997 -0.09519941 0.040968567
000310 48 59 30 3d 1e a3 f8 bd 96 70 49 be 7a 41 46 3d
       0.043053895 -0.12140487 -0.19671854 0.048402287
000320 9f 44 0e 3e 3d ac 96 3e 8b 8e fa bd 5c a3 1f 3d
       0.13893364 0.29428282 -0.12234219 0.03897415
000330 89 79 85 be 52 97 ee 3d 4b 83 3f 3e f0 06 f7 3d
       -0.26069286 0.11649956 0.18702428 0.1206187
000340 bf 9c 5c 3b 6d c6 89 3d
       0.0033662764 0.067273

feature_embedding.bias f4 [15]
000000 50 5c 96 bd 78 dd a3 bc 34 25 71 3e 2a a6 ba 3d
       -0.07341826 -0.020003065 0.23549348 0.091137245
000010 9c d4 ca 3c 5c d0 ba bd 7b 11 81 be 9c f2 26 3e
       0.024759583 -0.09121773 -0.2520865 0.16303486
000020 ef 19 7a 3e 24 93 67 3e e1 51 42 be e9 58 d0 bd
       0.24423955 0.22614723 -0.18976547 -0.10173208
000030 5b 4a 59 be bc 95 7c bd e5 81 46 bd
       -0.2121977 -0.061666235 -0.04846372

transformer_encoder.layers.0.self_attn.in_proj_weight f4 [45, 15]
000000 e2 77 43 3e 11 8d 9c bd c3 ee 3f 3e db d8 4d 3e
       0.190887 -0.07644094 0.18743424 0.20102255
000010 ab f2 86 be a2 06 2e be 07 be c0 3d 79 5c 40 be
       -0.26357016 -0.16994718 0.09411245 -0.18785276
000020 a7 6d 1f be 8e ee 9d bd 4a 52 32 be 93 d0 f9 3d
       -0.15569173 -0.07711516 -0.17414203 0.121979855
000030 de 64 4c 3e 01 91 01 3e ea ee 9b 3e 08 94 23 3e
       0.19960353 0.12652971 0.30455714 0.15974438
000040 34 22 19 be b5 b7 89 3e 0f 28 26 3e 9a 54 99 3d
       -0.14954454 0.2689797 0.16226219 0.074868396
000050 76 75 0f 3e da 00 8d be d1 66 7e be bc 5c 34 bd
       0.14009652 -0.27539712 -0.24843909 -0.04403375
000060 8b 62 83 3b 14 c1 1e be f7 e2 9d be fc 13 a9 bd
       0.00400955 -0.15503341 -0.30837223 -0.08255765
000070 89 7f 0a be d9 02 d6 bd 77 13 16 3e a2 79 67 bd
       -0.13525213 -0.10449762 0.14655863 -0.056512482
000080 6f 37 a1 bd b4 1f 85 be 87 43 65 3e db 80 67 3e
       -0.07871901 -0.2600075 0.22389041 0.22607748
000090 ee 41 ab 3d c0 1d 8d be dc 79 92 be 5a ef 37 3e
       0.083621845 -0.2756176 -0.28608596 0.17962399
0000a0 ae 7b 87 3e 35 b5 8b 3e 23 ae 42 3e 7b 99 ad be
       0.26461548 0.27286687 0.1901174 -0.3390616
0000b0 3b c6 ba be d3 cd 99 be 76 28 3d be 3b 1e 47 3e
       -0.36479363 -0.30039844 -0.18472466 0.19445126
0000c0 80 1a 94 3e 26 67 85 3e ae bc 9f be c2 d6 ad bd
       0.28926468 0.2605526 -0.3119864 -0.084882274
0000d0 59 1a 7b 3e 37 21 c3 bd 46 cb 45 be b4 67 43 bc
       0.2452177 -0.095278196 -0.19315824 -0.01192658
0000e0 30 6d 0d be 6e dc 9b 3e 72 90 9b 3e 94 a5 70 3c
       -0.13811183 0.30441612 0.3038364 0.014687914
0000f0 51 38 81 be ca 1c f3 3d 74 ca 5a be 8b f2 a0 3e
       -0.25238279 0.118707255 -0.21366292 0.31435046
000100 4f bf 8d 3e b1 47 77 3e a8 a5 70 be 22 6c 13 be
       0.2768502 0.24148442 -0.23500693 -0.14396718
000110 0e 47 17 3e 05 b3 3a 3e c6 20 9b 3d c4 14 43 be
       0.14773199 0.18232353 0.075746104 -0.1905089
000120 08 7e a8 3e 70 e4 17 3e b6 bd c5 bd e8 c2 b0 3d
       0.32908654 0.14833236 -0.09655325 0.086309254
000130 2e 8f 69 3d b4 0b 3e 3d b6 8f a1 3e 31 64 21 3e
       0.057021312 0.04639788 0.31554955 0.15760876
000140 d1 45 22 be 28 da 45 be 5f 4c c1 bd 40 67 f0 3d
       -0.15846945 -0.19321501 -0.09438395 0.117384434
000150 e8 05 a5 3e d5 75 a0 3e ea d1 9d 3e 59 61 4c be
       0.3223107 0.313399 0.30824214 -0.1995901
000160 6e f1 91 3e f4 e8 26 3d 1f d3 aa 3e 6a 2b 94 3e
       0.2850451 0.040749505 0.33364198 0.28939372
000170 f0 c4 5c bd 2a d2 98 be fd 01 50 be 25 93 63 3e
       -0.05389875 -0.29847842 -0.20313258 0.222241
000180 b7 b1 fb 3d dc 40 70 be 54 52 89 3e 1c 1e 13 3e
       0.12289756 -0.23462242 0.26820624 0.14366955
000190 db ac 64 3d 9a 53 38 3d b6 64 a6 3e c9 fa a4 bd
       0.05582891 0.045001604 0.3249871 -0.08055646
0001a0 06 61 8f be 9f ae d8 bd af e1 40 3e 2d d1 18 3e
       -0.2800371 -0.10580181 0.18836091 0.14923544
0001b0 78 b2 b8 3d 5d 00 1c be c0 b6 68 3e b0 cc 6b 3d
       0.09018415 -0.15234514 0.22725964 0.057568252
0001c0 96 44 99 3e 1e b5 ce 3c 28 aa 80 be ca 68 67 3c
       0.2993514 0.025232848 -0.2512982 0.014124105
0001d0 d5 83 93 be 74 25 8e 3e 92 e7 2a 3e d1 e9 8d be
       -0.28811517 0.2776295 0.166899 -0.2771745
0001e0 04 7a 77 3e ea 3e 83 3e 0c 55 82 3e 80 f9 19 3d
       0.24167639 0.25633937 0.2545551 0.037591457
0001f0 18 2a c0 3d bc 4f a6 be 80 3d 17 3e 78 c3 40 bb
       0.09383029 -0.32482708 0.14769554 -0.0029413383
000200 98 a9 9a be 74 84 72 3c ff da c1 3d 08 8d ed 3d
       -0.30207515 0.014802087 0.09465598 0.11599165
000210 21 4d 8f 3e ad 38 9a 3d 3a 9c 8d 3e 3c 5b db 3d
       0.27988532 0.07530341 0.27658254 0.10710761
000220 09 fe 58 bc f9 f7 03 3e 30 3e d9 3d e0 a0 19 3d
       -0.01324416 0.12887563 0.106075644 0.037506938
000230 1f d7 1e 3c e0 51 1f 3e ee 79 81 be 03 2a f0 3d
       0.009694844 0.15558577 -0.25288337 0.11726763
000240 0b d3 84 be c5 a3 ce bd 9f 3b 9b 3e cb d5 42 3e
       -0.25942263 -0.1008983 0.30318925 0.19026868
000250 90 53 73 3e a2 3e 24 3e be 6f 92 be d0 a7 d7 bc
       0.23762345 0.16039518 -0.28600878 -0.026325136
000260 e3 f1 3e 3d 3b de a2 be c8 d5 81 be b4 28 e4 bc
       0.0466174 -0.31810173 -0.25358415 -0.02785144
000270 c6 ab 8e be 94 c4 7e be 6f 9f c2 3d 94 69 72 be
       -0.27865428 -0.24879676 0.09503066 -0.23673087
000280 e6 e9 62 3e d1 a7 6a be 1b d4 83 bd fe 2d 6c be
       0.22159538 -0.2291558 -0.0643694 -0.2306442
000290 6e 20 61 be 04 5c 30 3e 33 9c 91 3e 36 ca 17 3e
       -0.21985027 0.17222601 0.28439483 0.14823231
0002a0 a9 3a 35 be 46 bf 6e bb 16 c6 08 3e 19 6a 99 be
       -0.17698158 -0.0036429926 0.13356814 -0.2996376
0002b0 c6 9a 9a be 96 c3 76 3e 96 8b 16 3d a0 68 61 be
       -0.30196208 0.24098048 0.036754213 -0.22012568
0002c0 cb ae 1f 3d d8 e8 11 3e 36 84 67 3e c1 86 78 be
       0.038985055 0.14248979 0.22609028 -0.24270155
0002d0 42 82 3f 3d cd b7 cc 3d 3d 5d 16 be 1a 4e a1 3e
       0.046755083 0.09995995 -0.14684005 0.315049
0002e0 fb c3 45 be e4 03 e4 bd d6 5c 81 3e 90 ba 1e 3e
       -0.19313042 -0.111335546 0.2526614 0.15500855
0002f0 f3 a8 63 3e d3 51 a4 3e 81 05 3b 3e be 6b 34 be
       0.22232418 0.32093677 0.18263818 -0.17619225
000300 46 8c 20 3e 47 47 b8 3d c0 eb 58 3e 1d 30 a4 be
       0.1567851 0.0899797 0.21183681 -0.32067958
000310 6a 3f 3d be 41 52 e9 3c 41 08 83 3d 75 eb a1 bc
       -0.18481222 0.028481605 0.06398059 -0.019765595
000320 1a 2d 81 be 7b 8f 3e be 0d 0c 61 3d 7e 32 19 3e
       -0.25229722 -0.18609421 0.054943133 0.14960667
000330 53 9a 56 bd ec ea a9 3d 19 95 a4 3d 1a b0 a3 bc
       -0.05239327 0.08296761 0.080362506 -0.019981433
000340 54 1d 95 be 34 91 63 3e a3 c1 3a 3e 45 9e a0 3a
       -0.29123938 0.2222336 0.18237929 0.0012254199
000350 73 24 24 be ec 32 41 3d 8b 7e fc bd bf b3 1a 3e
       -0.1602953 0.047167704 -0.12328824 0.1510763
000360 c5 60 89 be ce d6 48 be 74 4e 16 be 74 c8 a3 3d
       -0.26831642 -0.19613191 -0.14678365 0.07997218
000370 7d 1c c0 3c f2 78 45 bd f4 80 8f be f9 16 b3 be
       0.023451084 -0.048211046 -0.2802807 -0.34978464
000380 78 39 4e bd eb c5 9e 3d ad e7 3b be 5b 83 05 be
       -0.050347775 0.077525936 -0.18350096 -0.1303839
000390 8a 56 5a bd a6 37 26 3e 74 75 7d be 4b 71 fc 3d
       -0.053305186 0.16232166 -0.24751836 0.123262964
0003a0 74 5a 48 3e 57 06 87 be 5b ba 42 3d f9 d1 a8 3e
       0.19565755 -0.26372024 0.047541004 0.32972696
0003b0 eb 8a 74 3e 80 8e db 3d da c2 c2 3d b2 80 81 3e
       0.23881118 0.10720539 0.09509821 0.252935
0003c0 d4 61 19 be 2e 0c 26 3e ff f2 0d 3e b0 eb 74 3d
       -0.14978725 0.16215584 0.13862227 0.05979508
0003d0 66 d1 b2 be 76 48 38 be d0 79 08 be ff e8 27 3c
       -0.34925383 -0.17996392 -0.13327718 0.010248422
0003e0 44 57 1f 3e d7 2d 70 be 84 dd 6f 3d 6c de a8 be
       0.15560633 -0.23454987 0.058560863 -0.32982194
0003f0 f8 8a a1 be 62 3b b4 be f9 0f a0 bd ee 85 c3 bd
       -0.31551337 -0.35201555 -0.078155465 -0.095470294

transformer_encoder.layers.0.self_attn.in_proj_bias f4 [45]
000000 80 ad 9f 3d 9e c2 6a bd 24 0d 81 bd 37 59 3b 3d
       0.077967644 -0.057314508 -0.063013345 0.04573938
000010 79 8b 65 3d fa 16 fa bc 4f b3 f6 bc b0 09 ff bc
       0.056041215 -0.030528534 -0.030114798 -0.031132549
000020 a5 64 1c 3d ac bd c4 bc a4 ba 04 bd fe c2 9e bc
       0.03818192 -0.024016224 -0.032404557 -0.019380089
000030 26 9d aa 3c 7b f0 b9 bc 85 38 b3 bc 00 35 44 ba
       0.020826887 -0.022697678 -0.021877537 -0.0007484704
000040 02 f2 60 bb a5 2a 84 3a 44 7e e8 39 92 08 3a bb
       -0.0034323935 0.001008351 0.00044344564 -0.0028386456
000050 1e be 7b 3b 67 42 b9 3a 45 af 40 bb 94 ce 01 b9
       0.003841288 0.0014134169 -0.0029401344 -0.00012379355
000060 50 3c d1 39 b6 4a 2c ba f7 86 d5 3a 2c 33 89 3a
       0.00039908523 -0.0006572412 0.0016290833 0.0010467521
000070 dd d8 d0 3b ac a5 90 3b 7c 8a a1 bc 57 76 55 bc
       0.0063735084 0.004414281 -0.019719355 -0.013028703
000080 fc 46 15 bd f1 1a 98 3c bc 53 8e bc 95 9c 76 3c
       -0.03644465 0.018567534 -0.017373912 0.0150519805
000090 9e 6a ee 3c 67 3d 83 bc a4 12 94 bc 7c d5 d5 bc
       0.029103573 -0.01602049 -0.018075295 -0.026102774
0000a0 7e 99 0c bc 2a 2e 8d 3c 70 53 c8 bc cd 76 8a bc
       -0.008581517 0.017233927 -0.024453849 -0.016902352
0000b0 ac a9 b9 3a
       0.0014164946

transformer_encoder.layers.0.self_attn.out_proj.weight f4 [15, 15]
000000 51 21 1c bc 94 7f 0a be e8 a2 fe bd 85 26 5d 3e
       -0.009529428 -0.1352523 -0.12433416 0.21596725
000010 c6 47 62 be 24 d5 13 3e 11 2c d4 bc 58 e2 18 bd
       -0.22097692 0.14436775 -0.025899919 -0.037325233
000020 a8 44 5b be 8b a1 62 be 86 ee 77 be 49 b8 82 3e
       -0.21412909 -0.22131936 -0.24212083 0.25531223
000030 34 d7 6e be 6b 84 37 3e 4e 41 8e bc 3d 5c 80 3d
       -0.23324281 0.17921607 -0.017365124 0.06267593
000040 2b e4 f0 bc db 44 3a 3e 5f 87 03 3d 9d 2f e7 3d
       -0.029405674 0.18190329 0.03211152 0.112883784
000050 8a 34 49 3e c6 00 64 3e ec df d2 bd a7 ba 4c be
       0.19648948 0.2226592 -0.10296616 -0.19993077
000060 5b 70 31 be ec 19 41 3e 76 0f f4 3d de 7a 26 be
       -0.17328016 0.18857545 0.119170114 -0.16257808
000070 11 87 0e 3e 3c ef 62 be 72 60 97 3d 20 31 1e be
       0.13918711 -0.22161573 0.07391442 -0.15448427
000080 97 7d db 3d 32 54 2c be d5 54 55 3e 9d 13 ef bd
       0.10717314 -0.16828993 0.20833142 -0.11673663
000090 1a 4f 65 bc f1 5e 96 bd a1 f8 e9 3d c1 25 fa 3d
       -0.01399591 -0.073423274 0.11424375 0.12214232
0000a0 95 39 7b be ec 09 5c be a4 6d ec 3d 7a 1a 12 3e
       -0.24533685 -0.2148816 0.1154435 0.14267913
0000b0 cf b4 0b be b1 60 5d be 64 1b 6a bd 0f c0 02 3e
       -0.13643192 -0.21618916 -0.057155028 0.12768577
0000c0 c7 bf 04 3e 71 29 23 be fd c1 d9 bd 9d e2 e3 3d
       0.12963782 -0.15933777 -0.106327035 0.111272074
0000d0 91 3d 3a be a8 5c 5c 3e 8c f5 5c 3d 59 37 ca bd
       -0.18187548 0.2151972 0.05394511 -0.09873838
0000e0 e8 ae d1 bd b6 40 27 3e 99 b0 90 bc 9b b1 6c b9
       -0.10238439 0.16333279 -0.017662333 -0.00022572877
0000f0 14 79 24 bd 51 40 13 3e 31 3a 56 bd ee 87 27 bd
       -0.04015453 0.14380004 -0.05230159 -0.040901117
000100 b6 30 37 be 4a f4 71 be cd ba 14 3e b2 a2 1e 3e
       -0.17889675 -0.23628345 0.14524384 0.15491751
000110 4b 34 e7 3d 77 81 47 bd f2 db 20 3e 99 02 4c be
       0.11289271 -0.04870745 0.15708902 -0.19922866
000120 30 de 61 3d c1 ab 0f be 83 b0 17 be 53 d2 ea 3d
       0.055143535 -0.14030363 -0.14813428 0.114658974
000130 a2 25 09 be 30 fa e5 bd 89 1e f7 bd 53 c2 df 3d
       -0.13393262 -0.1122936 -0.12066371 0.10925736
000140 4b ec 46 3e 1e fc 97 bd 13 a2 19 bd 19 fc f7 3d
       0.19426076 -0.074211344 -0.03750808 0.12108631
000150 7b a2 6c 3e 0c 12 84 3d 06 05 19 3d da 1e 6b 3e
       0.23108856 0.06448755 0.037358306 0.22960988
000160 5c eb 5f be 5a fe 6c be 06 f0 62 be 52 c8 ba bd
       -0.21867126 -0.23143902 -0.22161874 -0.09120239
000170 f7 c3 5a be 6c 61 83 3e 11 e6 fb 3c b4 5d 44 3e
       -0.21363817 0.25660264 0.030749353 0.1917637
000180 ff 5f 60 3e ea 33 5b bd 47 a2 80 be 71 88 65 bd
       0.2191162 -0.053516306 -0.25123808 -0.056038324
000190 73 69 87 3c 53 c8 85 3e 78 72 35 bd 3a 21 a8 bd
       0.016529774 0.26129398 -0.04429862 -0.082094625
0001a0 0f 4f 30 be 74 ad f3 3c e2 5d 44 be 85 97 84 3c
       -0.17217658 0.029745795 -0.19176438 0.016185531
0001b0 c0 a4 14 3c e2 ac d0 bd fd 29 31 be c2 d9 6b 3d
       0.009072483 -0.10189225 -0.17301174 0.057580717
0001c0 8e 78 9b 3d ff 9e d3 bd 7a 01 10 be 94 56 70 be
       0.07591353 -0.103330605 -0.14063063 -0.23470527
0001d0 a3 ae 20 be 38 b4 5b be 6f c5 a4 3b 58 b9 ba bc
       -0.15691619 -0.21455467 0.0050284187 -0.022793457
0001e0 80 28 b8 bd 33 c2 b4 3d 41 48 39 3e 52 eb 3c be
       -0.089921 0.08826103 0.18093969 -0.18449143
0001f0 79 5b f3 bd ef 80 65 3c 22 42 23 be 4d 71 74 bd
       -0.118826814 0.014007791 -0.15943196 -0.059678365
000200 6c 3d fc 3d ce 28 22 bd 83 e5 f1 bc 96 67 9b bd
       0.12316403 -0.039589696 -0.029528385 -0.07588117
000210 f1 26 cf bd f1 2a 84 3e 07 5c ca bd 3a 5c 7e 3c
       -0.10114849 0.25814012 -0.09880834 0.015524918
000220 4c 02 0e 3a fb 10 45 3e 44 48 55 3e 30 ce 87 bb
       0.00054172124 0.19244759 0.20828348 -0.0041444525
000230 27 26 90 3d 0b d1 f2 3b 54 a1 b6 3c 84 73 07 bb
       0.07038527 0.007410174 0.022293724 -0.0020668218
000240 d3 3e 2f be 59 57 de bd 9d f7 7d 3c 21 de 50 bc
       -0.1711381 -0.10856504 0.01550093 -0.012748272
000250 f2 08 2c be 2c 97 25 3e f6 cd 16 3e a1 d2 bb bd
       -0.16800287 0.16170949 0.14727005 -0.09171034
000260 64 01 13 3e cd 72 34 be 55 e5 3f 3e 49 65 d6 3c
       0.14355999 -0.17621918 0.18739827 0.026171343
000270 ff 41 47 3d 23 20 94 3e 19 87 80 be 3c 09 90 3c
       0.048646923 0.28930768 -0.2510307 0.017582528
000280 03 55 62 be db 63 ad 3d 37 66 7c 3e 19 03 5b 3e
       -0.22102742 0.084663115 0.24648367 0.213879
000290 28 26 8b 3d 59 fa 80 3e 87 d8 e9 bd b4 21 05 3e
       0.06794387 0.25191 -0.114182524 0.13001138
0002a0 e7 1a bd 3c 8e af 2a be 40 f0 4a 3c 97 30 79 3d
       0.023084117 -0.16668531 0.012386382 0.060837355
0002b0 68 6a c4 3d 8a ab 44 be a4 65 60 3e 24 37 24 3e
       0.09590608 -0.19206062 0.21913773 0.1603666
0002c0 c1 71 49 be 8a 95 32 be c5 e1 54 3e a3 59 4a be
       -0.196723 -0.17439857 0.20789249 -0.19760756
0002d0 84 ca 04 be 30 80 9c 3c 95 9c 5c bb 5e e5 38 3e
       -0.12967879 0.019104093 -0.0033662666 0.18056247
0002e0 1d 9b 56 be c4 53 f6 bd d0 e6 57 be e6 b9 16 be
       -0.20957609 -0.12027696 -0.21084142 -0.14719352
0002f0 6d 86 aa bd 0c e8 15 3e 23 f8 53 3c c4 8f 91 bd
       -0.08326421 0.146393 0.012937578 -0.07107499
000300 45 b3 cb bd 93 ff c2 3d ca a0 f9 bd 6a 45 92 3d
       -0.09946302 0.09521403 -0.12188871 0.07142146
000310 0d 58 54 be 42 34 28 bd 11 e6 2a be 8d 95 44 3e
       -0.20736714 -0.041065462 -0.16689326 0.19197674
000320 37 19 0d 3e 9d 57 89 bd 67 0a 42 be 0d 8f 69 3c
       0.1377915 -0.06706164 -0.1894928 0.014255297
000330 4c 77 84 bd 78 67 1e be a9 4a 90 3c 58 24 bc 3d
       -0.064680666 -0.15469158 0.017613726 0.091866195
000340 9d 9b d5 bc de 0f 9a bd 5f 63 70 be 77 03 33 3e
       -0.026075179 -0.07522558 -0.23475407 0.1748179
000350 dd 84 d5 bd cd 1a 7e bc 58 e2 86 be 99 20 65 be
       -0.10425732 -0.0155093195 -0.26344562 -0.22375716
000360 fe a2 1e be d3 b2 de 3d 2c aa 46 3e 39 b9 1f 3e
       -0.15491864 0.10873952 0.19400853 0.15598
000370 8f a1 63 3e f4 f2 ae 3d 52 94 e4 3c ee 30 f4 3d
       0.22229598 0.085424334 0.027902756 0.11923395
000380 44 13 a6 bd
       -0.081091434

transformer_encoder.layers.0.self_attn.out_proj.bias f4 [15]
000000 bc 2b e3 3c 96 a6 da bc 21 06 7a bc 7e c9 3c bc
       0.027730815 -0.026690762 -0.01526025 -0.011522649
000010 7f ec b9 3c 59 53 27 bd 72 2b 1b 3d 33 04 23 3c
       0.022695778 -0.04085097 0.03788323 0.009949732
000020 cf 63 86 bc 59 2f ed bc c8 6e fe bc 43 bc d1 3b
       -0.016405014 -0.028953241 -0.031058684 0.0064006164
000030 ac 80 17 bd 32 fd a9 bb 8f 37 a7 bc
       -0.036987945 -0.005187654 -0.020412235

transformer_encoder.layers.0.linear1.weight f4 [128, 15]
000000 56 e4 8a 3c 66 e0 f6 3d 4d 00 6e 3e cf a3 63 bd
       0.016954582 0.12054519 0.23242302 -0.055576142
000010 0b 7a ee bd d7 e2 84 3d 41 19 21 bc b0 c6 ab 3c
       -0.116443716 0.06488579 -0.009832681 0.020968765
000020 52 f5 3d 3e 12 ef 65 3e 2f 1d 32 3e 3c 20 08 be
       0.18550614 0.2245448 0.17393945 -0.13293546
000030 23 42 15 bd b6 df 3a be 63 c9 2b 3e 76 2f 39 3d
       -0.036440026 -0.18249401 0.16776042 0.045211278
000040 6d 2b 07 be cc 95 1e be c9 99 75 3e ec 36 02 3d
       -0.1320016 -0.1548683 0.23984446 0.03179066
000050 94 1f 46 3e 16 11 23 3e 89 82 6f 3d ef 34 47 3e
       0.19347984 0.15924487 0.058474097 0.19453786
000060 c6 0d 29 be f7 9f 17 3d d5 17 78 3e 28 00 2b 3d
       -0.1650916 0.03701779 0.24227841 0.041748196
000070 30 9c 3c 3d 18 cb 9f 3c 97 3f 0c be b8 a9 6e 3d
       0.04604739 0.019506022 -0.13696133 0.058267325
000080 19 b7 ee 3c 95 49 04 be 89 98 3d be cb 56 92 bd
       0.029140042 -0.12918694 -0.18515219 -0.07145461
000090 55 67 d6 bd 80 0b e4 3d c1 2a 3f be e9 ef c0 bc
       -0.10468928 0.11135006 -0.18668653 -0.023551898
0000a0 fd 0e ff 3d 28 fc 9f be 63 9e 15 be 50 73 41 be
       0.12454031 -0.31247067 -0.14611201 -0.18891644
0000b0 e7 6a 32 be 9f f8 ab 3d c2 c9 a5 3d 64 3a 3a 3e
       -0.17423593 0.0839703 0.08095123 0.18186337
0000c0 be 60 69 be 19 e4 b8 bb 58 d4 35 3e 84 b3 3d be
       -0.2279081 -0.0056424257 0.17756784 -0.18525511
0000d0 80 82 00 3e 18 73 79 bd b5 08 8e 3e 15 c8 46 3e
       0.12549782 -0.060900778 0.27741018 0.19412263
0000e0 b1 9e 75 3e 6e 14 45 bd eb b0 a1 bd 75 6a 5e 3d
       0.23986317 -0.048115186 -0.078950725 0.054300744
0000f0 5f 64 aa bd 73 59 a4 3c 30 b1 67 3e 1a 0a 1f 3e
       -0.083199255 0.020062184 0.22626185 0.15531197
000100 7f 69 11 3e 5c 9b 11 be 42 01 45 3e 18 8c 36 be
       0.142004 -0.14219421 0.19238761 -0.17826879
000110 d5 12 69 bd 4b ae 52 3c 86 c1 41 be 21 e8 2c bd
       -0.056902725 0.0128589375 -0.1892148 -0.042213563
000120 a9 d8 1f be 17 e1 36 3e 11 b8 a0 3e 12 a5 5b be
       -0.15609993 0.17859302 0.31390432 -0.21449688
000130 30 0a 9e 3d 50 68 ad bd 63 0f 7d 3e 73 ec ea bd
       0.07716787 -0.08467162 0.24712901 -0.1147088
000140 26 1f 5d be 4d 96 26 be d6 fd 43 3e e1 93 03 3d
       -0.21593913 -0.16268273 0.191398 0.03212345
000150 3a 43 2d 3e 3e c0 4d 3e 4c 04 99 3d 1f 9f 46 3d
       0.16920176 0.20092866 0.07471523 0.048491593
000160 fb 90 7b 3d c5 02 08 be c0 c0 85 be 63 3a 82 be
       0.06141756 -0.13282306 -0.2612362 -0.2543517
000170 c5 01 f1 bd be ac 4e 3e 40 42 0d be b3 f8 48 3e
       -0.11767916 0.20183083 -0.13794804 0.19626121
000180 f4 05 95 be e0 be b8 bc e7 e8 c4 3c 7a 24 e2 3d
       -0.29106104 -0.022551954 0.024036838 0.110421136
000190 46 51 21 3e e6 3d 0e 3a 72 2a 35 3e 2a 76 56 3e
       0.1575366 0.00054260937 0.17691973 0.20943514
0001a0 d2 fb 6b 3d 57 c6 12 be 43 0c 30 bd 1d 4d 9b 3c
       0.0576132 -0.14333473 -0.042980444 0.018957669
0001b0 4e 7b 33 be 33 6b 69 be 3e 43 4a bd f4 95 05 be
       -0.17527506 -0.227948 -0.049380533 -0.13045484
0001c0 77 cb 9c bd f4 47 4c 3e ed 69 5e 3e 3e e9 fc bb
       -0.07655995 0.19949323 0.21720095 -0.0077182343
0001d0 2c cb 33 bd 5c 93 f6 bc 59 ee 6b be 92 ad e4 bd
       -0.04389493 -0.030099563 -0.23040141 -0.111659184
0001e0 25 84 22 3d 3a 60 91 3d 0d 9c 05 3e 4f 82 5e 3c
       0.039676804 0.07098432 0.1304781 0.013580873
0001f0 6a 48 cb bc 9b 93 69 3d 02 8d a0 bc 71 78 79 be
       -0.024814803 0.057025533 -0.019598488 -0.24362351
000200 bd 1b 8b 3e 66 b5 00 3e 87 cd 21 be 4d ae a9 bc
       0.271696 0.12569198 -0.15801059 -0.020712996
000210 a8 63 23 bc 1c 77 d5 bd 0b ad 58 bd 04 26 4b be
       -0.00997249 -0.10423109 -0.0528994 -0.1983872
000220 6f 65 35 3e 86 33 80 be e4 1e 8b 3d 85 52 82 3e
       0.17714475 -0.2503931 0.06793001 0.25453582
000230 16 e0 47 bd 9a b5 2b be 1f 37 30 be 75 cf 6b be
       -0.04879769 -0.16768494 -0.17208527 -0.23028357
000240 7d 93 47 be 65 2a d4 bd 1d e3 0b 3e 3d 2c 34 be
       -0.19489856 -0.103596486 0.13660856 -0.17595
000250 b4 21 76 3e 62 03 07 3d 6e 1a 3b 3e 2c aa 10 3e
       0.24036294 0.03296221 0.18271801 0.14127415
000260 2c 43 0b 3e 7b 0b 4c 3d fb 1c 81 bd 5c 15 a2 3d
       0.13599843 0.049815636 -0.06304356 0.0791423
000270 27 0e 34 be f9 c2 19 3e 19 75 6a be 02 4c 5c be
       -0.17583524 0.15015782 -0.22896232 -0.2151337
000280 c6 2b b3 bd bd fd 9f 3d 33 7f 38 3e 1f 35 88 be
       -0.087485835 0.078120686 0.18017273 -0.26603028
000290 cf 84 64 3d 4c 3a 3f 3e cf da 0b be 84 4e 80 3e
       0.05579072 0.18674582 -0.13657688 0.25059903
0002a0 8e f7 27 be 0d 92 a9 bd 83 c7 3f 3e cb 5f 1f 3e
       -0.16403028 -0.0827981 0.18728451 0.15563886
0002b0 0c f5 61 be 89 c7 00 be 40 6c d2 bd 71 c8 3a 3e
       -0.22066134 -0.12576117 -0.10274553 0.18240525
0002c0 21 02 d6 3d 12 ce 86 be 96 13 0f 3e ed 2c 76 3d
       0.10449625 -0.26329094 0.13972315 0.06010144
0002d0 32 98 71 3e fe 71 26 be 9a 26 b4 bd 1c 7f 87 3d
       0.23593214 -0.16254422 -0.08796425 0.06616041
0002e0 e5 74 e6 bd 30 72 3e 3e dc 71 ee 3d 13 ca 76 be
       -0.112527646 0.18598247 0.11642811 -0.24100523
0002f0 f3 6b 53 3e 1e 45 73 be 06 30 e0 3d 59 81 02 3e
       0.20646648 -0.23756835 0.1094666 0.12744655
000300 2c 32 55 be 81 6d 15 3e 81 b7 75 3e 7e 06 b8 3d
       -0.2081992 0.14592554 0.23995782 0.08985613
000310 7e 10 c5 bd 95 e8 db bd 82 b3 2e be df f4 25 3e
       -0.09622286 -0.10737721 -0.17060664 0.16206692
000320 a3 19 2d be d3 e2 33 bd 86 da d4 bc 29 c7 21 bd
       -0.16904311 -0.04391749 -0.025983106 -0.039496575
000330 64 cd 42 bd 69 5b 23 3e 7a 15 8a be 16 46 b4 bd
       -0.047559157 0.15952839 -0.2696951 -0.0880243
000340 78 d6 eb 3c c9 10 f0 bd ce 6e 55 3e 0c 79 47 be
       0.02878879 -0.117219515 0.2084305 -0.1947977
000350 9d bc e0 bd da 17 22 3e a5 00 ff 3d 8c 5b d7 bd
       -0.10973475 0.15829411 0.12451295 -0.10515508
000360 ca 9d c2 3d 5d 57 e9 bd 63 fe ab 3c 64 54 17 be
       0.09502752 -0.11393616 0.020995324 -0.14778286
000370 ce d0 e9 bc 74 da 5d bd dc 0f 01 be 48 0a 13 3e
       -0.028541949 -0.05416341 -0.12603706 0.1435939
000380 00 78 65 3c fa 89 17 3e 14 78 2d 3e 72 26 4f be
       0.014005661 0.14798728 0.16940337 -0.2022951
000390 25 e5 05 be 6c 07 a3 3d ad a3 4a 3e 78 76 0d be
       -0.13075693 0.079604 0.19789 -0.13814723
0003a0 9a 23 25 3e df e7 2f 3e ae ae 3f 3e a9 a0 3f 3e
       0.16126862 0.17178296 0.18718979 0.1871363
0003b0 87 2c 5c 3e e0 bb c0 bc fe 1e c3 3c 3a 9f 28 be
       0.21501361 -0.023527086 0.02381849 -0.1646699
0003c0 60 d8 10 3e fd da 2e bd 2f fb 19 3e 87 63 ab 3d
       0.1414504 -0.042689312 0.15037225 0.08368593
0003d0 40 85 96 bd b9 19 15 be 46 c6 63 3d d7 27 5e 3e
       -0.07349634 -0.14560594 0.05560901 0.21694885
0003e0 fe 6c 59 be 15 65 0f ba 0e 32 7c be 84 9b 70 be
       -0.21232983 -0.00054700795 -0.2462847 -0.23496825
0003f0 80 58 e8 3d 31 37 66 3e aa 11 44 3e be a5 11 3d
       0.11345005 0.22481991 0.19147363 0.035558455

transformer_encoder.layers.0.linear1.bias f4 [128]
000000 9b 6a 50 3e 51 99 56 bd ce 8e c6 3b db 8c c5 3d
       0.20353167 -0.052392308 0.006059504 0.09646007
000010 c0 7a 4d 3e 7f 63 37 bd 51 a3 43 3e 3d 87 79 be
       0.20066357 -0.04477262 0.19105269 -0.24367996
000020 e5 95 1d be 8d 03 79 be c1 dc be bd a6 9c 32 3e
       -0.15389211 -0.24317761 -0.09319449 0.17442569
000030 be 04 22 be 55 ed e7 bd 29 f1 d1 3d cf 2b 50 be
       -0.15822122 -0.11324564 0.10251076 -0.20329212
000040 4a 93 50 3c a2 5d da bc b7 ef 10 be 35 ca cd 3c
       0.012730429 -0.026655976 -0.14153944 0.025120834
000050 44 a8 4b 3d 24 f4 4a be 22 f7 69 3e 74 17 a2 3d
       0.049721017 -0.19819695 0.2284818 0.079146296
000060 78 10 8a bb cc 9e 49 bd 24 1a 17 be 8c 9e 0a be
       -0.004213389 -0.049223706 -0.14756066 -0.13537043
000070 b4 02 56 be 4b 17 83 be 13 fb 14 be a8 89 e1 bd
       -0.20899469 -0.2560371 -0.14548902 -0.11012584
000080 c1 bc 69 be 26 83 44 be 46 b7 e1 3d 25 64 cb 3d
       -0.2282591 -0.19190654 0.11021285 0.099312104
000090 54 34 7d be 28 fb 4a 3e 67 d5 6d be 90 24 d0 3c
       -0.24726993 0.19822371 -0.23225938 0.02540806
0000a0 f2 6d 7a be de 67 03 3d 71 2c 0f 3d 9b 68 31 3e
       -0.24456003 0.032081477 0.034954492 0.1732506
0000b0 18 15 05 be 73 6c 2f 3e c7 a1 8e 3d 32 a8 e1 3d
       -0.12996328 0.17131214 0.0696445 0.11018409
0000c0 cf 4e 52 3e b8 a7 24 bc 6a ea c4 3d af 40 07 bd
       0.20537876 -0.010049753 0.096150234 -0.03302067
0000d0 50 81 10 be 6c ff 57 3d 15 0d 88 bd 1b c6 56 3e
       -0.14111829 0.052733824 -0.0664312 0.20974009
0000e0 5a 73 1c 3e 36 a6 5e be e6 49 52 bd 6c 40 82 be
       0.15278378 -0.21743092 -0.051340006 -0.25439775
0000f0 62 d7 3f 3e 3f 52 dc 3d a8 f4 7a 3e 39 fd 2a bc
       0.18734506 0.10757875 0.24507391 -0.01043635
000100 ac da fa 3d ff 7e f0 bd 6c 22 f7 3c dd 79 73 be
       0.122487396 -0.117429726 0.03016778 -0.23776956
000110 62 9f c9 bd bc a8 ba 3d d2 e0 04 be 83 f6 12 3d
       -0.09844853 0.09114215 -0.12976387 0.035879623
000120 14 4e f0 3d a7 b9 6a be 1f d9 51 3e 06 9f 1a 3d
       0.11733642 -0.22922383 0.20492981 0.037749313
000130 87 14 87 be a9 74 55 be 25 63 00 be 10 02 70 3e
       -0.2638285 -0.20845284 -0.1253782 0.23438287
000140 94 84 76 bd a8 1b b8 3d 29 1b b5 bd 92 4b 66 be
       -0.06018503 0.0898965 -0.08843071 -0.22489765
000150 29 c6 a9 3d e2 48 64 3e a4 26 62 3d 87 9e fd bd
       0.08289749 0.22293428 0.05521263 -0.12383752
000160 6e 8a 5e be ba c8 60 3e 5a ea 10 3e c7 b8 65 be
       -0.21732494 0.21951571 0.14151898 -0.22433768
000170 f7 68 90 3d f0 38 74 3e 84 a0 90 3d 2f 3a 2e 3d
       0.070512705 0.23849845 0.07061866 0.042535957
000180 25 06 21 3d 3a 4f af bd e7 ec fc bc c3 e5 39 3c
       0.0393125 -0.08560033 -0.030874683 0.011346283
000190 68 ce 5f bd 76 4b 3c be 49 b1 6f 3e 27 80 ac 3b
       -0.054640204 -0.18388161 0.23407473 0.0052643004
0001a0 22 75 5f be 6e dc ac 3d 89 20 3d bd 99 6c 95 bd
       -0.21822026 0.08440481 -0.046173606 -0.07296104
0001b0 2f 40 b0 bd db f5 94 bc 42 ef 6f be 04 09 3c 3d
       -0.08605992 -0.01818364 -0.23431113 0.045907035
0001c0 0c a0 6f 3c f5 fd 78 be 3b 08 06 3e 24 3a 7e bd
       0.0146255605 -0.24315627 0.13089077 -0.062067166
0001d0 7b e1 45 3e 81 35 37 bd 1d eb b0 bd 4d d1 38 3e
       0.19324295 -0.04472876 -0.08638594 0.18048592
0001e0 13 b2 23 3e 77 91 36 bc 86 6c ae bd 0f 45 c8 3d
       0.15985899 -0.01114308 -0.08516793 0.09778797
0001f0 5d 2b 00 be 70 04 ba bd d6 16 7b 3e cb fa 69 be
       -0.12516542 -0.09082878 0.2452043 -0.22849576

transformer_encoder.layers.0.linear2.weight f4 [15, 128]
000000 13 4b ad bc b0 29 0d 3d 48 b3 48 bd 37 ce b1 3c
       -0.021153962 0.034463584 -0.0489991 0.021704776
000010 a9 44 82 bd 9c 71 c1 3d 46 2d 18 bd e2 b9 24 3d
       -0.06360752 0.094454974 -0.03715255 0.040216334
000020 2c aa a0 bc d8 f1 36 3d 32 cd 99 bd 62 e8 34 3d
       -0.019612394 0.044664234 -0.07509841 0.04416693
000030 4a 35 8a bd 03 f1 1a bd b4 d0 8f bd e7 88 91 3d
       -0.06748445 -0.037827503 -0.07022229 0.0710619
000040 31 aa bb bc 61 4c d6 bd 66 be 78 3d c0 3d 92 3d
       -0.022908302 -0.10463787 0.060728453 0.07140684
000050 d7 73 b6 bd 19 16 c9 3d f9 57 d3 bc 7a ab 49 bc
       -0.089088134 0.09818668 -0.025798785 -0.01230895
000060 08 c7 86 bd 50 8d ac 3b df f4 53 3d 06 4c 4c 3d
       -0.06580931 0.005265869 0.0517472 0.04987719
000070 1e 62 7e bd 59 32 9d bb 34 8f 3d 3d 14 fa 97 bb
       -0.06210529 -0.0047972617 0.046279147 -0.004637966
000080 28 2f 3d 3d 0b ca d7 3d 71 62 4f bc ac 87 e2 bc
       0.04618755 0.105365835 -0.012657748 -0.027652584
000090 c9 a8 86 3d da 3a 35 3d 5c d2 b8 bd 8f 94 89 b9
       0.06575162 0.04424558 -0.09024498 -0.0002624136
0000a0 27 ec 11 bd fd 80 55 3b 14 47 b7 3d f6 3d af 3b
       -0.035625603 0.0032578104 0.08949104 0.0053479625
0000b0 ac e3 b6 3d 8b 73 0e 3d 08 43 bd 3d d4 3c 4c 3a
       0.08930144 0.03477816 0.09241301 0.00077910465
0000c0 17 bf 48 3c 32 19 7a bc 12 99 dc 3c 5d cf 3e bd
       0.012252591 -0.015264796 0.026928458 -0.046584476
0000d0 51 0c cb 3c dd b0 81 3d f7 54 62 3c 62 30 25 3c
       0.024786146 0.06332562 0.0138142025 0.010082336
0000e0 8f fc 2a bd 38 bc b5 3d bb 62 7a 3d d5 68 8e bd
       -0.041744765 0.088737905 0.061129313 -0.06953589
0000f0 6e 8c 34 39 1b d3 73 3d 5c 0b 9e bd d1 ac 8c 3d
       0.00017218452 0.059527498 -0.077170104 0.068688996
000100 66 6c 17 bd 04 c1 e0 3c 82 d5 82 bc 7a 08 f2 bd
       -0.03696861 0.027435787 -0.01597095 -0.11818023
000110 b6 1d 0a bb 3e 4d 11 bd a3 89 d7 3c 82 21 2d 3d
       -0.0021074838 -0.035474055 0.026310747 0.042268284
000120 2d 91 7e 3d 4d 58 7f 3b a6 f8 20 bd f0 5b 15 bd
       0.06215017 0.0038962543 -0.03929963 -0.03646463
000130 4c eb c5 bd 3a 1e 21 bd a1 b9 f0 bd 2b cf 11 bd
       -0.0966402 -0.039335467 -0.11754156 -0.03559796
000140 bc 3a d6 bc 58 8a 06 3d 4c fc 15 bd 77 5c 0b 3d
       -0.026151054 0.03284678 -0.036617562 0.03402373
000150 bf 59 4d 3d 54 5d 0b bc c8 7b b1 3d d0 28 71 bc
       0.050134417 -0.008506138 0.086661875 -0.014719203
000160 af 11 73 ba 03 eb 61 3d 0b 4c 02 3d ea 65 81 bb
       -0.00092723494 0.055155765 0.0318108 -0.0039489167
000170 bb 7c 74 3c 3c a7 35 bd 19 21 e7 bc e9 1c 7c 3d
       0.014922316 -0.04434894 -0.028214024 0.06155101
000180 2f 8a 90 bd 45 19 9b 3d 4a f6 59 3d 8d 0b e0 3b
       -0.070576064 0.07573179 0.053213395 0.0068373145
000190 c2 e1 a3 3d c5 53 5e bd 4d da 85 bd f9 82 33 3d
       0.08002044 -0.054279108 -0.06535778 0.043826077
0001a0 b9 21 c4 3d f2 00 93 bd 63 71 b2 3c 6d ce 19 bd
       0.095767446 -0.07177915 0.021782583 -0.03755038
0001b0 cf 67 db 3c 1e b8 95 3d f2 17 6f 3d 1d e8 9e bd
       0.026782898 0.07310508 0.058372445 -0.07759116
0001c0 29 3d f0 bc 5c 53 be bd 3d 69 84 3d 74 ca 87 3b
       -0.029326038 -0.09293243 0.06465385 0.0041440073
0001d0 0d 1f 9c bd b1 20 95 bd f2 c8 8f 3d 19 46 19 3b
       -0.0762311 -0.07281626 0.07020749 0.0023387729
0001e0 7b 9e 57 bd bc f3 c0 bd 3a 68 b1 3d c2 59 77 bd
       -0.052641373 -0.09421489 0.08662458 -0.060388334
0001f0 2d 55 b2 3d 15 41 60 3d 2a fc 9b bc d2 92 1f 3c
       0.08707652 0.054749567 -0.01904114 0.0097395945
000200 42 66 92 3d 42 19 eb bc f9 48 a1 bd 0a 50 ae 3b
       0.071484104 -0.028698567 -0.078752466 0.0053196
000210 d7 ed 4b bd a0 ed 4d bc e8 c1 f3 3c a7 fe 45 3d
       -0.04978737 -0.012568861 0.029755548 0.04833856
000220 39 b7 d4 bb 45 c9 6d 3d 7f b5 b0 bc e8 8b 0a bd
       -0.0064915684 0.058053274 -0.02157092 -0.03382483
000230 81 26 ed 39 d2 30 aa bd a1 6c be bc b8 b3 4b bd
       0.0004523285 -0.08310093 -0.023245158 -0.04973194
000240 64 e4 72 bd 15 b7 8f 3c 20 07 50 3d f7 26 a3 3d
       -0.05929984 0.017543355 0.050788045 0.07966416
000250 ca 52 34 bd d2 1d 63 3c 95 3e ee 3c 92 b3 c0 bc
       -0.044024266 0.01386209 0.029082576 -0.023523126
000260 3a dc 54 bd a1 ce 2d 3d e1 e5 ce 3d 58 a6 e4 3b
       -0.051967837 0.042433385 0.1010244 0.0069778375
000270 bc b8 42 bd 5c 30 84 3d a2 72 dc bc 19 1f f1 3c
       -0.047539458 0.06454536 -0.02691013 0.029433774
000280 1c 3d ac bd c6 1c db 3c 77 e8 7c bd a4 06 25 3d
       -0.08410093 0.026747119 -0.061745133 0.040289536
000290 15 c9 b3 3d 14 37 6f bd 27 aa 02 3e 66 ca 5d bd
       0.08778588 -0.058402136 0.1276022 -0.0541481
0002a0 89 60 d9 3d 2b b7 a3 ba fd 94 93 bd 3b 6d b4 3b
       0.10614116 -0.0012490501 -0.07206152 0.0055061853
0002b0 63 bf 3a bc 7e 26 8b bd e4 02 d2 3c df f3 b2 3d
       -0.011398169 -0.06794451 0.025636144 0.08737921
0002c0 0e fd 40 bc 6f 61 14 bd d8 2d 5b 3d de 50 89 3d
       -0.011779083 -0.036225732 0.053510517 0.06704877
0002d0 4d ba 08 3c 65 95 6a 3c ad 3b a9 bd 38 56 0f 3d
       0.008345199 0.014317845 -0.082633354 0.034994334
0002e0 5a fa 63 3d 83 f4 c4 bc b7 10 be bb 71 ef 9d bd
       0.055658676 -0.024042374 -0.0058003324 -0.077116854
0002f0 4b 95 86 3d 84 07 c5 3c b2 0f c2 b9 66 b1 eb 3b
       0.06571444 0.024051435 -0.00037014257 0.0071927784
000300 e6 c1 b7 3d 3f e1 13 3d a4 c6 4f 3d 0c 6f 12 bd
       0.0897253 0.036103483 0.050726548 -0.035750434
000310 fa 36 d1 3d 57 5f 66 3c 6e af 21 bd bc 3e 90 bd
       0.10215564 0.014060817 -0.039473943 -0.07043216
000320 1a 61 08 3d c9 c2 ff 3b d2 82 b8 3c 66 57 22 bd
       0.03329573 0.0078052026 0.022523317 -0.03963413
000330 fa 08 ca bc fa 48 a5 bc f4 c7 82 3c d5 e6 55 3c
       -0.024662483 -0.0201764 0.015964486 0.013055523
000340 13 31 75 3d 43 99 58 bd fc 3e 5b 3d ab 8a 53 3d
       0.059861254 -0.052880537 0.053526863 0.051645916
000350 47 cd 30 bd e0 a2 8e bd d6 e3 9e 3d 4d 81 aa 3d
       -0.043164518 -0.0696466 0.077583 0.083254434
000360 ec 27 9d 3d 93 3b 02 3c de 50 58 3d 63 99 3a bd
       0.0767363 0.007948774 0.052811496 -0.045556437
000370 01 2a 97 3d b6 f4 0e bd 91 5a ef b8 b6 5a df 3b
       0.073810585 -0.034901343 -0.000114132774 0.0068162335
000380 ee da 15 3c 38 63 51 bc 8e db b4 3d 33 3b 72 3d
       0.009146435 -0.012780003 0.08830939 0.059138488
000390 57 44 65 3a 80 f6 82 3d 70 60 e2 bc 0b 48 33 3c
       0.000874584 0.063946724 -0.027633876 0.010942469
0003a0 b3 81 2c bb 3f 84 cc bc 32 ce 23 3c d1 de 72 3d
       -0.0026322424 -0.024965404 0.009997891 0.059294526
0003b0 87 18 1c 3d 18 43 45 bd 8d 46 61 bd 0f c0 e2 bc
       0.03810933 -0.04815969 -0.054998923 -0.027679471
0003c0 8b 6d 1a 3d 97 4d ca bc 0c 51 83 bd 52 64 c2 3c
       0.037702125 -0.0246952 -0.06411943 0.023729477
0003d0 ec 97 ab bd 88 21 ab 3c 79 a1 20 3d af 3a c5 3c
       -0.08378586 0.020890012 0.039216492 0.024075834
0003e0 28 34 4f 3c 4e 78 54 bd f1 98 61 3d 2d b6 c4 bd
       0.012646712 -0.051872544 0.055077497 -0.0960506
0003f0 8c 93 c5 3c 7b e1 01 bd 18 e8 7d 3d 13 70 41 3b
       0.024118207 -0.031709176 0.06198892 0.0029516264

transformer_encoder.layers.0.linear2.bias f4 [15]
000000 d6 e8 03 3c 48 84 8d 3d 24 63 40 3d c8 bb 92 3c
       0.008051118 0.06909996 0.046969548 0.017911807
000010 0a 99 09 3d 98 e6 0c bd f4 e6 6b 3d 46 c4 a4 bd
       0.033593215 -0.0343996 0.0575933 -0.08045249
000020 c0 dd e7 bc 90 63 94 bd 79 2c 26 3b bb ae 07 bd
       -0.02830398 -0.072455525 0.0025356098 -0.03312562
000030 d7 e3 ad 3d 42 ea 30 3d a7 6a a6 bd
       0.084907226 0.043192156 -0.08125811

transformer_encoder.layers.0.norm1.weight f4 [15]
000000 be d9 87 3f 6e e0 77 3f e6 fb 71 3f e1 79 7e 3f
       1.0613325 0.9682683 0.9452499 0.9940472
000010 89 b8 7e 3f 32 7e 80 3f 0c 05 83 3f 63 c3 78 3f
       0.9950033 1.0038512 1.0235915 0.97173136
000020 98 77 7c 3f 56 42 80 3f f4 6b 7b 3f df e1 81 3f
       0.98619986 1.0020244 0.982116 1.0147055
000030 96 62 7c 3f d2 48 7d 3f c2 3d 88 3f
       0.9858793 0.9893924 1.0643847

transformer_encoder.layers.0.norm1.bias f4 [15]
000000 3b af a2 39 55 fb 16 3c 18 fa 95 3c cf 04 bf 3c
       0.00031029605 0.009215196 0.01830773 0.023317723
000010 88 7d c8 bb 03 c9 bc 3c 6b 36 31 3b 52 6d 18 bc
       -0.00611848 0.023045069 0.0027040492 -0.009303408
000020 b3 50 ee 3c 21 96 95 3b 1e 09 66 3a 8e 88 4a bc
       0.029091215 0.004565016 0.0008775162 -0.012361659
000030 c5 f8 83 3c 13 ec ad ba c8 ce 26 bb
       0.016109833 -0.0013269208 -0.002545284

transformer_encoder.layers.0.norm2.weight f4 [15]
000000 f0 d2 83 3f 33 09 7a 3f d6 a0 7b 3f 76 76 80 3f
       1.0298748 0.97670287 0.9829229 1.0036151
000010 dd e0 7f 3f 47 c9 82 3f 4f 50 83 3f 7a 6b 82 3f
       0.9995249 1.0217675 1.0258883 1.0189049
000020 30 e0 78 3f 6a e8 82 3f f9 04 7b 3f 5b 41 83 3f
       0.9721708 1.0227177 0.9805446 1.025432
000030 0b 16 7f 3f 5f 8c 81 3f 4e 17 89 3f
       0.9964301 1.0120963 1.0710237

transformer_encoder.layers.0.norm2.bias f4 [15]
000000 54 f7 68 ba 0d 70 ae 3a 51 42 de ba 6d 24 3c 3c
       -0.00088869524 0.001330854 -0.001695702 0.011483294
000010 25 73 bc bb 72 05 4f 3b 41 61 27 3c 2f a4 1a ba
       -0.005751031 0.003158894 0.010216058 -0.0005899099
000020 f4 1f f0 3b c2 ae 12 bb b0 7f e1 bb 52 08 5a b9
       0.007328028 -0.0022381996 -0.0068816766 -0.000207932
000030 f9 1f 55 39 c7 27 d4 3b d0 db 0d 3c
       0.00020325174 0.0064744684 0.008658364

transformer_encoder.layers.1.self_attn.in_proj_weight f4 [45, 15]
000000 0d 6e 0d 3e 86 13 b4 bd 21 f4 cb 3d bc 64 3c 3e
       0.13811512 -0.08792786 0.09958673 0.18397802
000010 30 c1 65 be ba 52 59 be 56 b2 8f 3d 0c f4 4d be
       -0.22436976 -0.21222964 0.07016437 -0.20112628
000020 b1 29 92 be dc 18 d7 bd cb 28 87 be 65 83 f4 3d
       -0.28547433 -0.105027884 -0.2639831 0.11939124
000030 93 46 07 3e 8c 44 c8 3d 0e ac 82 3e 9e 1b 41 3e
       0.13210516 0.09778699 0.25521892 0.18858191
000040 fe 4e 16 be 29 ca a8 3e 82 27 2b 3e e7 48 0c 3d
       -0.1467857 0.32966736 0.1671429 0.034249213
000050 05 a0 29 3e a0 27 85 be 26 a2 71 be 5b fd 9c 3d
       0.16564949 -0.26006794 -0.23597011 0.07665511
000060 5f e7 e9 3c 47 00 ad bd f0 98 9d be 67 82 e4 bc
       0.02855271 -0.084473185 -0.30780745 -0.027894212
000070 07 6f e1 bd 3a c5 7d bd a1 1e 3c 3e 28 f9 14 bd
       -0.11007505 -0.061955668 0.18371059 -0.036370426
000080 53 86 1a bb 8a 88 6b be 92 39 43 3e 4e 31 8c 3e
       -0.0023578599 -0.23001304 0.1906493 0.27381366
000090 bd 4d c3 3d 47 e9 82 be b5 bc 2d be dd 42 5a 3e
       0.09536312 -0.255686 -0.16966517 0.21314569
0000a0 bf 2b ae 3e 3e 4a 88 3e 00 51 7c 3e e1 3d a6 be
       0.3401775 0.26619142 0.24640274 -0.32469085
0000b0 d8 4c a1 be c2 77 ab be cd 5d 2d be 7c 57 f3 3d
       -0.3150394 -0.33489805 -0.16930313 0.11881921
0000c0 66 f6 c0 3e a6 48 a4 3e 34 de 89 be 2f 1a 02 be
       0.37687987 0.32086676 -0.2692734 -0.12705301
0000d0 ac 68 b4 3e b6 34 13 be 25 d1 d3 bd 29 d9 c4 bd
       0.35236108 -0.14375576 -0.103426255 -0.096117325
0000e0 b9 83 4b be 79 73 87 3e d2 58 71 3e eb e6 64 3d
       -0.19874467 0.26455286 0.23569039 0.055884283
0000f0 e5 3e 85 be a0 21 d2 3d 87 a5 8a be ce 16 93 3e
       -0.26024547 0.1026032 -0.27079412 0.28728336
000100 ee 24 9f 3e 31 df 4f 3e 34 11 72 be ac 92 28 be
       0.31082863 0.20299985 -0.23639375 -0.16462201
000110 b5 e4 ee 3c 85 c3 0f 3e 23 96 87 3c 64 05 3d be
       0.02916179 0.14039429 0.016551083 -0.18459088
000120 bc 25 90 3e b7 62 0c 3e dd a7 15 be 0b 3d a5 3d
       0.2815379 0.13709532 -0.14614816 0.08068284
000130 2e f4 6d 3d f1 75 10 3d a6 57 ba 3e 99 ed 4f 3e
       0.058094196 0.035268728 0.36394995 0.2030548
000140 45 c7 08 be 96 38 4f be fd a6 94 bd e2 58 ad 3c
       -0.13357265 -0.2023643 -0.07258413 0.021160547
000150 8d 5d 9f 3e 73 b1 59 3e fc fe 79 3e f6 ba 85 be
       0.3112606 0.21259098 0.24413675 -0.26119202
000160 3e 22 84 3e 1e 67 73 3d 65 b6 84 3e fd 7d 69 3e
       0.25807375 0.059424512 0.25920406 0.22801967
000170 83 d1 0c be ca 42 b3 be c0 79 5c be 1d bd 30 3e
       -0.13751797 -0.35011894 -0.21530819 0.17259641
000180 04 03 db 3d 5d ca 83 be 62 d3 87 3e f7 b1 16 3e
       0.106939346 -0.25740328 0.2652846 0.14716326
000190 2a 6c 66 3d 08 4c 86 3d ae 89 af 3e e4 46 73 bd
       0.056255497 0.065574706 0.3428473 -0.05939378
0001a0 82 45 68 be db 1a f0 bd 4a d0 35 3e 58 56 1a 3e
       -0.22682765 -0.11723872 0.17755237 0.15072
0001b0 6d 47 47 3d e6 1a 66 be 8a da 4b 3e 4f 7c 00 3d
       0.0486521 -0.22471198 0.19907585 0.03136855
0001c0 cd 1c 96 3e 06 8b 8e 3d d0 b6 86 be cb 78 57 3d
       0.29318848 0.0696011 -0.2631135 0.05260543
0001d0 fc de 99 be c5 42 96 3e 0f 5b 0a 3e 9a 0b a3 be
       -0.30052936 0.29347816 0.13511299 -0.3184479
0001e0 5e 07 70 3e 21 70 49 3e e4 7e 81 3e 2c 30 ca bb
       0.2344031 0.1967168 0.25292122 -0.0061702933
0001f0 fb 3c 9b 3d 9b dd ac be f4 b8 3c 3e 1b 15 fa 3c
       0.075799905 -0.33762822 0.18429929 0.030527642
000200 b8 d6 79 be de 1d 7c 3c d5 81 3c 3e 83 6c 32 3e
       -0.24398315 0.01538798 0.18408902 0.17424206
000210 17 c8 ba 3e 10 a8 e7 3d 34 4b aa 3e ea 7f 68 3d
       0.3648078 0.11311352 0.332605 0.056762613
000220 97 62 9b bd ac fe ba 3d 6e 65 ad 3d d7 c0 1f 3d
       -0.07587164 0.09130606 0.08466612 0.039002266
000230 74 4a 0e ba 3a 5a 26 3e 58 93 81 be 42 b4 81 3d
       -0.00054279645 0.16245356 -0.25307727 0.063332096
000240 05 a6 91 be c2 80 d7 bd 50 97 9a 3e de 23 64 3e
       -0.28446975 -0.105226055 0.30193567 0.22279307
000250 f5 0c 80 3e 08 27 7e 3e 24 ad 9c be a4 6b 24 3d
       0.25009885 0.24819577 -0.30600846 0.040141717
000260 a4 2c b8 3d d1 50 8c be 9b ba 4c be 51 f2 95 3c
       0.089928895 -0.27405408 -0.1999306 0.018304022
000270 35 2b 84 be e2 b8 53 be 66 e8 03 3e 91 39 2e be
       -0.25814214 -0.20675996 0.12881622 -0.17014147
000280 68 44 71 3e 54 bc 37 be 76 85 3f bd 4d df 40 be
       0.23561251 -0.17942935 -0.046758138 -0.18835182
000290 56 eb 50 be 17 84 12 3e 30 eb 9c 3e 66 c7 6b 3e
       -0.20402274 0.14308201 0.30648184 0.23025283
0002a0 22 c6 59 be c2 6b 91 bc c7 5f 14 3e 96 8b 77 be
       -0.21266988 -0.017751578 0.14489661 -0.24174342
0002b0 f3 2f 92 be 68 9f aa 3e 8f 77 08 3d d2 02 d7 bd
       -0.28552207 0.33324742 0.033317145 -0.10498585
0002c0 a6 25 0e 3e df 1b 4a 3e 49 8a a2 3e f0 b4 86 be
       0.13881549 0.19737194 0.31746128 -0.2630992
0002d0 48 ce 1c 3d e5 08 3e 3d de e6 0f be a2 8c 80 3e
       0.038282663 0.0463952 -0.14052913 0.25107294
0002e0 be 10 81 be 4d ad 22 be 8d 2a 88 3e b9 bb a7 3d
       -0.25208086 -0.15886422 0.26594964 0.08190102
0002f0 07 e3 54 3e d3 1d 7c 3e bf e4 4b 3e e2 19 30 be
       0.20789729 0.24620752 0.19911478 -0.17197374
000300 08 6a 0c 3e b2 89 bc 3d a7 9e 11 3e d7 4d 8a be
       0.13712323 0.09205951 0.14220677 -0.27012512
000310 8a 3a 09 be 67 0c b6 3d fa 7b cf 3d a1 d6 cf bc
       -0.13401237 0.08889084 0.101310685 -0.025370898
000320 d8 cf 54 be 75 9b 35 be 2d 45 c0 3d 3a 0a 7d 3e
       -0.20782411 -0.17735083 0.09388194 0.24710932
000330 99 f2 02 bc 3c 0c 03 3e 8e 61 8f 3d d4 1f e6 3c
       -0.00799241 0.12797636 0.07001029 0.028091349
000340 d5 95 91 be ff 37 84 3e ab 60 51 3e 0c 6a 0c 3d
       -0.28434625 0.25823972 0.20447032 0.03428082
000350 85 2f e7 bd ff cb a5 3d be 03 10 be 81 f4 42 3e
       -0.112883605 0.0809555 -0.14063928 0.19038583
000360 a7 a5 88 be 77 d9 28 be 0b d5 06 bd e0 bc 12 3e
       -0.26688883 -0.16489206 -0.032918017 0.14329863
000370 c5 a1 c9 3d 41 f5 16 bd 1a 99 53 be 4d 43 a7 be
       0.09845308 -0.036854986 -0.20663872 -0.32668534
000380 e7 76 85 3c db ad 23 3c b9 a7 5d be af 99 22 be
       0.016292049 0.009990181 -0.21646012 -0.15878938
000390 27 40 ba bd a2 62 d0 3d 21 09 a1 be 0b 15 17 3d
       -0.09094267 0.10175063 -0.31452277 0.036885303
0003a0 71 98 dc 3d 12 8e 9d be 5a 68 85 bc 6b 8a 8e 3e
       0.107712634 -0.30772454 -0.01628511 0.2783998
0003b0 5c 28 4e 3e ab 60 71 3d 95 39 a9 3d 5d 01 61 3e
       0.20132583 0.05893008 0.08262936 0.21973176
0003c0 47 5a 9f bd 23 11 72 3e 42 bc 47 3e cc 22 00 3e
       -0.07780891 0.2363935 0.19505408 0.12513274
0003d0 15 eb 8c be 25 e7 e0 bd 42 65 9c bd 93 36 88 3d
       -0.27523103 -0.10981587 -0.07636501 0.06651034
0003e0 c4 e8 2f 3e 0c 20 43 be 2d 07 9b 3d 73 32 9e be
       0.17178637 -0.19055194 0.07569728 -0.30897865
0003f0 a4 e7 93 be f8 f0 b1 be 91 b4 84 bd 5f 2d 80 bd
       -0.28887665 -0.34754157 -0.06479753 -0.06258654

transformer_encoder.layers.1.self_attn.in_proj_bias f4 [45]
000000 a1 f1 c2 3c 73 8f a2 bc a6 1e 05 bd f1 d3 55 bd
       0.023796858 -0.019843793 -0.03249993 -0.052204076
000010 1d f3 0a 3d 76 46 08 bc 14 5c 26 3c 70 85 94 bc
       0.033923257 -0.00831758 0.010153789 -0.018130034
000020 9c 2c 44 3c e0 47 63 3c be 79 5c 3b 2f 04 26 3d
       0.011973526 0.013872117 0.00336419 0.040531334
000030 da 9b 2d 3d 2e 15 f6 bc af fd 1f bd b2 0d bc 3a
       0.04238496 -0.030039396 -0.03906029 0.0014347343
000040 0f 6a 31 3c 68 1c cf 38 f6 32 a3 3b 65 30 47 3b
       0.010828509 9.87582e-05 0.0049804403 0.0030393836
000050 1c f8 ff b9 0e 7f 0e 3b d3 f1 2b 3b 4e 7a a1 3b
       -0.00048822246 0.002174321 0.0026236668 0.00492791
000060 b0 ce 7a 3b 5a 4e d0 39 d2 29 a8 b8 82 75 94 39
       0.0038270168 0.00039731228 -8.018654e-05 0.0002831631
000070 36 e7 09 3b aa 8d ce 3a b2 9a 56 3b b2 9e 20 ba
       0.0021042353 0.0015758772 0.0032746014 -0.0006127163
000080 1b a5 1c bc 86 c5 f4 ba 7c 12 9e 3b b9 ed 24 3b
       -0.009560849 -0.0018674589 0.004823981 0.0025166108
000090 93 78 2b 3c 2a 11 bd 3b c9 9c 39 ba b8 a3 fa 39
       0.010465759 0.0057698684 -0.0007080553 0.00047805696
0000a0 78 28 1d bb 9b 47 a8 bc 95 f2 55 bb 39 ea 28 bb
       -0.002398042 -0.020541957 -0.003264581 -0.0025774373
0000b0 46 46 82 bc
       -0.01590265
