Result/FD001/pgr.pth (torch, 755000 bytes, 9 tensors)

multihead_attn.in_proj_weight f4 [579, 193]
00000000: 6a77 103d db8b b0bc d44e 43bd 9c8e 3dbd
00000010: 203a 583d abc0 afbd db98 063d c6d9 8ebd
00000020: a9c2 ab3c d69e 053d 40fb 33bd 507f 4fbd
00000030: 4375 8ebd 4d3f 9abc 0e5c 16bd 3d5f 703d
00000040: 6036 1e3d 306d 093c 7b37 0c3d b710 dc3d
00000050: 84a4 a1bd 37cf a23d f99b be3c e3a0 ce3d
00000060: 46b1 3b3d fba5 8b3d 4088 e6bd d67c 973d
00000070: 4eb3 dcbd bcef 713d 1d34 00bd 473c 323d
00000080: 7d5d 39bd 3726 443d 11fb e7bc 9c1e ccbd
00000090: caf3 f03d f438 bd3d 788e d43c e6d9 02bd
000000a0: 17cd 19bd 3c30 71bd 5736 f43d 7945 95bd
000000b0: 2336 8b3d 1245 f2bd 8739 afbc 5d77 0f3d
000000c0: 3c9a 5abd bdb9 b1bd f8bf 9dbc 44b2 5ebd
000000d0: 4e21 b53c 8d8d b0bc 1b7b 9f3c 5ebb 71bd
000000e0: 1b9a 7f3d 7474 06bb b2aa 7e3d fa24 88bd
000000f0: bad9 c1bc 2d4c 803d b1f2 31bc 8352 2b3d
00000100: 30f6 6b3d 2d27 6bbd b24a babc 1976 67bc
00000110: 87a9 b13d dde9 8abd 03c9 0e3d 2523 f53d
00000120: 9aab 9e3d 95ea 84bd bb84 cfbc 1b13 48bd
00000130: 65ed 763d 0aa1 e03c 6a87 d4bb eb60 713c
00000140: ec7b bdbc 3db3 1dbc c260 e2bd 8d27 e03c
00000150: 65d6 c33c e3a1 2e3c c46e ea3b 840b 073d
00000160: 0dcc d33c 6d8a 563d e4ab 22bd bb81 6f3d
00000170: 39e1 f9bc e484 913d 5914 a7bd a4f5 97bc
00000180: 6c16 93bd a85a ac3c f942 5d3d b8a7 f5b9
00000190: 4881 ef3c 4f06 883d 91bc e2bb 9eac 0e3d
000001a0: d325 a6bb 2a3b 3ebd 72d4 0c3c f36e 003d
000001b0: dbee 0bbd 15a7 3b3c b8a8 413c eea1 53bd
000001c0: e571 65bd 7817 6e3d f33d 223c 3276 a03d
000001d0: 24d5 88bb 698d 64bd ed2b 593d e08c 633d
000001e0: 6e6f a2bd 2a29 a43d 48a6 7a3d c2a9 c3bd
000001f0: 3ad3 133d 75ec 4cbd 9c2b cb3c 8671 b93d
00000200: 8a24 e43c e2d2 cabc f1f2 ae3d a1fa 91bd
00000210: abf5 883d c030 053c bd47 073d 3a2d 10bd
00000220: f319 463d 304a aebd f6bb 5f3d 2ae2 4b3d
00000230: 618b c7bd 7505 7dbd 98f4 cd3d 6b35 b43c
00000240: 7423 ca3d 7b0b 9e3d 89f7 16bd 7dc7 a6bd
00000250: 1dab bbbd 25ec d23d ecc9 d7bc 6aef 1fbd
00000260: 12a9 8cbb 458e 8bbd 0a3a 27bd b43f 543d
00000270: 4aef 86bd 328d 8bbc e7ea 46bd bd16 43bd
00000280: e2bc 273d 681c a73d 062d e1bc 8c98 babd
00000290: 6dd8 843d b8bf 83bd 4e71 423d 9238 65bd
000002a0: ad14 6ebd 1b4d 6fbb dc69 193d 72e4 91bd
000002b0: 2665 683b e2ca f0bc 132d 543d b523 7ebd
000002c0: 045a 43bd ad3b 54bb fff6 ee3b e362 4e3c
000002d0: 38ff e6bc ae29 823d aeab 6d3d 3a9a 913d
000002e0: c399 c93b 0b8b a53d 8efd 323d c732 a0bb
000002f0: 8a24 60ba 7ee8 2dbc f8ad 7fbd b3a6 d23b
00000300: a7a2 893a 7c1c e0bd 39d0 b0bc 2af8 87bd
00000310: 6b2d df3d 955b 18bd b5f4 66bd 1e8a 82bd
00000320: 036c 8abd 8f6d 19bd 93f8 8bbd 19d7 99bd
00000330: d5a3 853d ef24 3c3d 44a6 4dbd 1007 85bd
00000340: 49b0 77bd 080d cc3c 3af9 9d3d 2bcf 51bc
00000350: cc3e cb3d 7547 5ebb f1f6 97bd fc50 983d
00000360: a16b 6bbd 0386 00bd 8a8c 71bc cb94 8b3c
00000370: 9e8a 7f3d 7b85 993d 7302 90bd 7dc6 7fbc
00000380: 1fc4 b83a 1b99 523c 069d eb3a 4398 a3bd
00000390: 98a2 2a3d 097c af3c 2137 7a3d 206a 6bbd
000003a0: 4699 47bc e30e 62bd caf4 5abd 8ecb a0bc
000003b0: 7863 1e3d ccfb 63bd b8c4 6e3c a700 32bd
000003c0: b9c1 133d be3e 1dbd 89b2 3e3d 7f5d b0bd
000003d0: 16df d8bd f841 0f3d ac78 253d 5514 98bd
000003e0: 60e1 683d 17cd 51bd d9d7 61bd 5ea4 cc3a
000003f0: b01f bd3c c656 983d 655d b83d 1927 573c
0.035270132 -0.021551063 -0.0476826 -0.04627858 0.052789807 -0.085816704 0.032860618 -0.06975131
0.020966845 0.03262218 -0.043940783 -0.050658524 -0.0695596 -0.018829012 -0.036708884 0.058684576
0.038626075 0.008387849 0.034232598 0.107453756 -0.07892707 0.07949679 0.023267733 0.100892805
0.045823358 0.06818768 -0.112564564 0.073968574 -0.10776387 0.05906652 -0.0312997 0.043514516
-0.045255173 0.047888007 -0.02831796 -0.09966776 0.11765249 0.092393786 0.02594684 -0.031946085
-0.037549105 -0.05888389 0.11924427 -0.072886415 0.06797435 -0.1182958 -0.021389736 0.035025943
-0.053369746 -0.08678005 -0.019256577 -0.054369226 0.022110607 -0.021551872 0.019467881 -0.059016578
0.062402826 -0.0020516189 0.062174506 -0.06647678 -0.02366339 0.062645294 -0.010861085 0.041826736
0.05760783 -0.057410408 -0.022740696 -0.014127278 0.08674913 -0.06782887 0.03485967 0.11969594
0.07747574 -0.064900555 -0.025331846 -0.048846345 0.06028499 0.02742054 -0.006485869 0.01473258
-0.02313038 -0.009625253 -0.11053611 0.02736261 0.023905942 0.010658714 0.0071543176 0.032969967
0.025854135 0.052378107 -0.03971471 0.05847333 -0.030502902 0.07105425 -0.08158178 -0.018549748
-0.07182011 0.021039322 0.05401895 -0.00046855002 0.02923645 0.06641828 -0.0069194515 0.03483259
-0.005070427 -0.046443142 0.008595573 0.03135581 -0.034163337 0.01145341 0.011820011 -0.0516681
-0.05601682 0.05812785 0.009902465 0.07835044 -0.004175799 -0.05579892 0.053020407 0.05555427
-0.0793141 0.08015664 0.061193734 -0.09553863 0.036090113 -0.05003019 0.024801068 0.09054856
0.027849454 -0.02475876 0.08542431 -0.07127882 0.066874824 0.008129299 0.0330274 -0.03519938
0.04836459 -0.08510244 0.054622613 0.049776234 -0.09743381 -0.061772782 0.10056418 0.021998128
0.098700434 0.077170335 -0.03685716 -0.08143518 -0.09163497 0.10298947 -0.026341401 -0.039046682
-0.0042926157 -0.06814245 -0.040826835 0.051818565 -0.065886095 -0.0170351 -0.048563864 -0.047629107
0.040951617 0.08159715 -0.02748729 -0.09111127 0.064865924 -0.06433052 0.047471337 -0.055962153
-0.058125187 -0.0036514464 0.03745447 -0.071236506 0.003546068 -0.029393617 0.0518008 -0.06204577
-0.047693267 -0.0032384202 0.007292628 0.012596819 -0.02819787 0.06355606 0.058025055 0.071094945
0.006152363 0.08083161 0.04369884 -0.0048888656 -0.00085503666 -0.0106145125 -0.06242177 0.0064285635
0.0010500745 -0.10942933 -0.021583663 -0.066391304 0.10897335 -0.037196714 -0.056385715 -0.06374
-0.06758883 -0.037458 -0.06834521 -0.0751173 0.06525389 0.04593366 -0.05020739 -0.06495488
-0.060470853 0.024908558 0.07713552 -0.01280574 0.09924087 -0.0033917103 -0.07420147 0.074373215
-0.05747569 -0.031377804 -0.01474298 0.017038723 0.062388055 0.074961625 -0.07031717 -0.015611288
0.0014096535 0.012853886 0.0017975874 -0.07988026 0.041658968 0.02142145 0.06108773 -0.057474256
-0.012182539 -0.05518998 -0.053456105 -0.019628312 0.03866908 -0.055660054 0.014573269 -0.043457653
0.03607342 -0.038389914 0.046556983 -0.08611583 -0.10589425 0.034975022 0.040398285 -0.07425753
0.05685556 -0.05122098 -0.05513749 0.001561295 0.023086399 0.07438426 0.090021886 0.01313188

multihead_attn.in_proj_bias f4 [579]
00000000: 84b7 a0bb 7266 043d ba5c 6f3d 1bf4 b7bc
00000010: fcd7 08bd 39e2 99bc 62b0 9a3c d57f 153d
00000020: d339 233d eefd 97bb 183e 3b3c 10f5 b83c
00000030: 426c 4d3d d26e 0b3d d471 273d fc83 32bc
00000040: df93 a7bb b2d7 e03a 4001 463b 00b2 2e3d
00000050: 7353 1dbd b210 37bd 3108 43bd d0bb 06bd
00000060: a751 2a3d bcb4 79bc fe40 0abd 247f 9c3c
00000070: 4e96 80bc 1727 353d 1a6c acbc 02d2 a4bc
00000080: 91cf e43c b925 b23b a4fb c7bc 85d3 09bd
00000090: 77aa a9bc c85d 043d 064c 653c 7ab3 323d
000000a0: de15 5cbd 42ea 3a3d 510e d93c b05e 45bd
000000b0: 34fe 843b 7344 403d 8f02 ae3c 55b2 ca3b
000000c0: d1a4 33bd 18ff 21bd ce40 b93c 8d50 413c
000000d0: 9230 4b3d 5ce6 1cbd cfef 733c 2fa0 4b3c
000000e0: 6ddd 413d d846 9f3c 0018 913c bbb1 2d3d
000000f0: 1f16 2abd 37ad 3abd d814 adbc 6213 34bd
00000100: 6ecd 1ebd 6865 13bd 4e34 d03b a538 21bd
00000110: a1c2 323d 8e75 46bd 99ce ddbc 75f1 0a3d
00000120: f7f0 2dbd 3c53 39bd c833 0c3b 90b0 f43c
00000130: f80d 243c 88a0 013d 6d0f 2bbc 43a1 3b3d
00000140: a7bc 27bc 7cf7 1d3d bac8 e33c 2672 49bd
00000150: 872b af39 472d 113d 098e 8cbb eed3 25bd
00000160: 8d3c 223c 5c2a 90bc 395f 373d e17a 633c
00000170: 35b3 1fbc d4f1 a13c 7687 053c 2702 163d
00000180: 2a78 03bd 7a81 2fbd 9d25 05bd 0277 f53c
00000190: 632b 4b3d b209 7abc 671e 4e3c 39d5 2abc
000001a0: 8689 33bd 603f 6e3d c515 4fbd 8b38 2f3c
000001b0: 78c9 42bd ab12 40bd 7d3f 07bd ebfd 07bd
000001c0: e2d3 92bc aa4a efbc 2fbc 273d 3ab6 003c
000001d0: e043 403c a761 babc e62a 73bb 25b2 f7bc
000001e0: e15b 0e3c b13f 8d3b 408b 0b3d c9b6 debc
000001f0: b78d 85bc 7db7 f6bb 5ad7 3e3d 7c1d c33b
00000200: 56ba 1ebd d86e 1fbd c727 b6bc 5143 383d
00000210: 389f 67bd 9a40 8bbb 9c92 d5bc 3e09 82bb
00000220: 6beb f43c fcc6 29bd 2919 1b3d d432 0abd
00000230: 1a44 b9bc bc3c b9bc b035 3a3d 38a6 e23c
00000240: 3810 083d 59be 253d f03e ebbc cf4d 13bd
00000250: f7b2 e8bc f6c1 2bbb 763a d1bb 4067 2c3d
00000260: df40 a6bc 97be 09bd d812 8c3c c117 0abd
00000270: cc9e 0fbd 93e8 423d 2dac 3a3d 8c19 153d
00000280: e79e 51bb 2191 51bd fee1 d73c 6cbf 0d3c
00000290: 80a0 433d 4931 dd3b 447a 27bd df11 23bd
000002a0: 85b9 7cb9 638c 45bd 5c54 183d 24a7 613d
000002b0: 096c a33c cc9b 353b bc50 163d 4e26 66ba
000002c0: 604f 503d bb08 123d 6beb cebc 0fa1 17bd
000002d0: b72a 17bd 1aac 09bd 6442 5d3c 7fe0 00bd
000002e0: 11d0 fcbc af7e e4bc f125 6fbc 6c68 15bd
000002f0: 8171 13bd 810c 4cbc 4b4b e3bc bc2e 8bbc
00000300: 3970 23bd 625d 2239 4e12 0f39 de45 13b9
00000310: d462 09b9 a3b3 dc38 b1e5 9f38 04b4 11b9
00000320: f4d8 2c38 2d3a 7538 30e4 7b37 8641 cbb8
00000330: f8f2 a4b8 cc14 56b9 0de3 d6b8 1854 12b9
00000340: 52ce 5139 d7a7 2937 7388 d037 858e a6b8
00000350: 8344 07b9 a8b1 b7b6 c462 0339 89c7 14b8
00000360: 8d45 15b9 f198 c538 e849 24b9 28b3 0f39
00000370: 0a04 1939 25e4 1bb9 a902 9038 01e4 4939
00000380: df5b d038 2f24 f2b8 cf61 0a39 c10f e1b8
00000390: 607e 19b9 101c 4039 b4f5 2139 f9d4 12b9
000003a0: 2ac0 0039 92be cf38 6ceb 27b9 4603 1739
000003b0: e0d4 59b6 9ff3 c8b8 0d0f ffb8 2f83 32b9
000003c0: 1661 23b8 9431 ebb8 92e1 39b8 30a1 1138
000003d0: 40b5 3639 8a39 5bb9 8793 39b8 e2c7 fdb8
000003e0: f91c 0db9 d5c5 5637 d6ac ffb8 bb5d 2bb9
000003f0: 2846 20b9 1d6c 0bb9 f5d7 2fb7 54f5 c0b8
-0.0049046893 0.032324262 0.05843804 -0.022455266 -0.033409104 -0.01878463 0.018882934 0.036498863
0.039850067 -0.004638425 0.0114283785 0.022577792 0.05015207 0.034041233 0.04088004 -0.010895725
-0.005114063 0.0017154126 0.0030213147 0.042650223 -0.03840966 -0.044693656 -0.047615234 -0.032893956
0.041581776 -0.015240844 -0.033753388 0.019103594 -0.01569667 0.044226732 -0.02104764 -0.02011967
0.027931007 0.005436626 -0.024411984 -0.033648986 -0.020711167 0.032316 0.013995176 0.043628193
-0.05373179 0.045633562 0.026496084 -0.048186004 0.0040586237 0.04694028 0.021241454 0.0061858096
-0.043858353 -0.039549917 0.02261391 0.01179899 0.049606867 -0.038305625 0.014888718 0.012428327
0.04733031 0.01944296 0.01771164 0.042405825 -0.041525003 -0.045575347 -0.021128103 -0.043963797
-0.03877013 -0.03598538 0.0063538915 -0.03936066 0.043642644 -0.048451953 -0.027076053 0.033921678
-0.04246613 -0.045245394 0.0021393169 0.029869348 0.010013096 0.031647235 -0.0104406895 0.045808088
-0.010237849 0.038566098 0.027805675 -0.049181126 0.00033411031 0.03544357 -0.004289393 -0.040485315
0.009902132 -0.017598324 0.044768546 0.013884277 -0.009747316 0.019768633 0.008149972 0.036623146
-0.03209702 -0.042848088 -0.032506574 0.029963974 0.049601924 -0.015261101 0.012580491 -0.010426813
-0.043832324 0.058165908 -0.05055787 0.010694633 -0.047555417 -0.046892803 -0.03301953 -0.03320114
-0.0179233 -0.029210407 0.04095095 0.007855946 0.011734933 -0.022751642 -0.0037104427 -0.030236313
0.008688898 0.004310571 0.034068346 -0.027186768 -0.016302926 -0.0075291977 0.046592094 0.0059544425
-0.038751923 -0.03892407 -0.022235764 0.044986073 -0.056548327 -0.0042496445 -0.026070885 -0.003968387
0.029897412 -0.041449532 0.03786579 -0.03373988 -0.022615481 -0.022611968 0.045461357 0.02766715
0.033218592 0.040464733 -0.028716534 -0.035962876 -0.02840565 -0.002620814 -0.006385143 0.042090654
-0.020294605 -0.033629026 0.01709883 -0.03371406 -0.03506355 0.04758508 0.045574356 0.036401317
-0.0031985582 -0.051163796 0.026352879 0.008651596 0.047760487 0.00675026 -0.040888086 -0.039811965
-0.00024101704 -0.048229586 0.037189826 0.05509104 0.019948976 0.002771127 0.036698088 -0.00087795116
0.050856948 0.035652857 -0.02525874 -0.03701883 -0.03690597 -0.033611394 0.013504598 -0.031464096
-0.030860933 -0.027892439 -0.014596448 -0.036476538 -0.035996918 -0.012454153 -0.027745863 -0.016990058
-0.039901946 0.00015484312 0.00013644362 -0.0001404504 -0.00013102154 0.000105238774 7.624494e-05 -0.00013895339
4.121005e-05 5.8466732e-05 1.5013895e-05 -9.691999e-05 -7.865386e-05 -0.00020416378 -0.00010246607 -0.00013954972
0.00020008654 1.0112263e-05 2.4859071e-05 -7.942043e-05 -0.00012900126 -5.474507e-06 0.00012529927 -3.547178e-05
-0.00014235657 9.4221796e-05 -0.00015667791 0.00013704284 0.00014592722 -0.00014866942 6.8669506e-05 0.00019253792
9.935325e-05 -0.00011546199 0.00013197142 -0.000107317705 -0.00014638295 0.00018321001 0.00015445688 -0.00014002984
0.00012278618 9.906026e-05 -0.00016014063 0.00014401702 -3.245943e-06 -9.582121e-05 -0.00012162151 -0.00017024273
-3.8952647e-05 -0.00011214908 -4.4317516e-05 3.472081e-05 0.00017424393 -0.00020906903 -4.4244833e-05 -0.00012101211
-0.00013457601 1.2801455e-05 -0.00012191541 -0.00016342748 -0.00015284924 -0.00013296348 -1.0481094e-05 -9.200969e-05

multihead_attn.out_proj.weight f4 [193, 193]
00000000: e6f6 7fbc b21d eebb 342a 73bc b191 f3bc
00000010: e890 fd3b 76a8 f43c cc0a 943d 0fa9 1cba
00000020: 7f39 6c3d 05b8 29bd 7bcb 9abd 1f7c 27bc
00000030: ed59 9abd fc1a d83c fbdd 593c 3724 e1bc
00000040: 1ad0 0dbd 1569 a2bc f474 69bd b1fe 36bd
00000050: 7680 6dbc 5eb2 453d f6f9 5fbd e232 213d
00000060: f813 36bd 7d87 a6bb 8af9 f43c 36f9 0b3d
00000070: 802b e83c 7add 683d ee29 87bc 2661 5f3d
00000080: c634 4e3d f1ad 89bc cdc6 803d 4dcc 4a3d
00000090: 38ae 203d 3811 173d 784b 08bc 2518 83bb
000000a0: 0fce 28bb b944 06bd ad9e ea3c 92a0 3abd
000000b0: 2b27 6f3c b53f c0bb d830 d1ba 2305 e93c
000000c0: bcb6 973d 7557 30bd 0aa2 25bd 7cdc 75bd
000000d0: 5eb8 9f3d ba8d 953c fa34 e5bc 8d4d 5b3d
000000e0: f01b 393c 782f 713d 318c 073d fe56 56bd
000000f0: 2df4 d53c 067c 643c 905b 58bd af93 44bb
00000100: 6af8 433c 5e14 05bd aefe 42bd e7b0 24bd
00000110: 7b76 47bd c80a 82bd 3ab4 efbc df30 25bd
00000120: 6e7b 443d 7ac9 5e3d 931b 8bbd de4f 823d
00000130: bdf9 32bd 20b6 f8bb cf58 b53b fd30 e63c
00000140: 1069 d73c 5118 4b3d 6e06 1f3d 8f3d c8bc
00000150: 4ee4 c73c c08a 2f3d 7eea 0f3d 1d8f 273b
00000160: 1ab3 08bc e453 963d 8783 6ebd ab4b b6bc
00000170: 44b7 ea3c fc12 26bd d672 363d fc47 bdbc
00000180: 0a2a 583d 8c4c 7d3d 997e 41bd 322e bf3c
00000190: 02ba a53d 2f67 323d 68b0 8abc 0771 52bd
000001a0: be36 053d 099e cb3b 8e76 52bd 873e e1bc
000001b0: 0434 86bd 0a16 81bd 57af dabc d38a 3b3d
000001c0: 8930 743c e7b3 02bd 070b 743d 126e 013c
000001d0: d8b1 393d a89f 613c 0c2b 92bd 443c d2bb
000001e0: c998 843b 4a98 923b 4842 193c f236 803d
000001f0: f635 83bb 9162 033d 8260 85bd 530a 973b
00000200: abac a03d 2290 463c 4379 1c39 7a41 c0ba
00000210: 93d0 8dbd 4b2f 1dbd 1e43 a23d b808 893d
00000220: d725 07bd 459e b43c 084a 93bd 555f 17bc
00000230: 942d 95bd f261 bb3b 74bf 133d 0159 653d
00000240: 9522 ee3c 67f5 5e3d 799c a63c 3224 6abb
00000250: 127b 72bc d837 883d dbf9 8cbd cfd3 83bc
00000260: cb0c 393d 3ea7 063d c05b d1bc 71f6 41bd
00000270: 5f6a 0b3d df86 1f3d af3c e53c 312b 54bd
00000280: 39a2 6bbd ce35 81bd 2f5d 3f3d 3425 e5bc
00000290: c038 6d3d 0e58 85bc 9ad1 1d3d 60c1 5f3d
000002a0: 2e2d babc 272b 6ebd 2571 893b c18e 1a3d
000002b0: bd34 14bc 4557 9e3b 43fd 2bbb 57c5 00bc
000002c0: 1189 093c 9178 3fbc 6ad9 64bc 215f a5bc
000002d0: 19d0 e8bc a729 8c3c 7cde f03c d845 e33b
000002e0: dc18 01bd a3b2 673b 4767 17bd 710f 943d
000002f0: add9 893d 49ab 5c3d f57f 6abc 55ea aebd
00000300: 868d d93c cf1d 953b 72a3 f7bc 331c 913c
00000310: 9718 6c3d 4397 5dbd 7dc2 c3bc a086 923d
00000320: b99c 1e3c 96a4 db3c c9d8 06bd 2fd8 cebc
00000330: ab7f 86bd b2c7 513d 2e0d 2b3d d2ed 0cbd
00000340: bc94 18bc d251 1a3b b1c5 babc 3500 a3bc
00000350: 8583 f0bc dfb7 66bc a0d3 973d 4f67 cc3b
00000360: 201e 4e3d d92f 05bc 909b f4bc 22d2 24bd
00000370: bca4 59bd a9c7 9abd 10f7 abbc a27a edbb
00000380: a695 6d3d bea9 c33c 40af b4bc 5737 93bc
00000390: 2e06 e63c 0802 443d ee76 483d 687c d33c
000003a0: 7576 033c c549 fb3c 654b 803d b321 9f3c
000003b0: e0bf 7c3d d24c bf3c 0c97 c1ba 6cd9 de3c
000003c0: 1d5d 01bd db47 c3bc 0420 25bc 6501 7d3c
000003d0: a34e 313d e5c0 a33c b5f1 e4bc ce52 39bd
000003e0: b557 633c f903 23bd b4ac 3c3c 5df8 683d
000003f0: 4367 d2bc df70 83bd 4f31 ae3d 3508 583c
-0.01562283 -0.0072667236 -0.014841605 -0.029732557 0.0077382214 0.029865485 0.07228622 -0.00059761194
0.05767202 -0.04143526 -0.07558342 -0.010222464 -0.07536683 0.026380055 0.013297553 -0.027483089
-0.03462229 -0.019825498 -0.0569963 -0.044676486 -0.0144959595 0.048265807 -0.05468174 0.039355166
-0.044452637 -0.0050820694 0.029904146 0.034173213 0.028341055 0.05685184 -0.016499486 0.054536007
0.050343297 -0.016806575 0.06287918 0.049511243 0.039228648 0.036881655 -0.008318774 -0.004000681
-0.0025757586 -0.032780383 0.028640116 -0.045563288 0.014596741 -0.0058669695 -0.0015959991 0.028444832
0.07407901 -0.043052156 -0.040437736 -0.060024723 0.07798837 0.018256057 -0.027979363 0.053540755
0.011298165 0.05888316 0.03309268 -0.052329056 0.026117409 0.013945585 -0.052821696 -0.0029995253
0.011961082 -0.032490127 -0.047606163 -0.04020777 -0.048696976 -0.063497126 -0.029260743 -0.04032981
0.047969274 0.05439136 -0.06792369 0.0636289 -0.0436952 -0.0075900704 0.0055342684 0.028099531
0.026295215 0.049583737 0.03882449 -0.024443416 0.024400856 0.04285693 0.03513574 0.002556748
-0.008343482 0.073402196 -0.058230903 -0.022252878 0.028651841 -0.04054545 0.04454311 -0.023105614
0.052774467 0.06184058 -0.047239874 0.023337457 0.08092119 0.043555435 -0.01692982 -0.051377323
0.03252291 0.0062139076 -0.051382594 -0.027495636 -0.0655289 -0.06303032 -0.026694937 0.04578669
0.01490415 -0.03190985 0.05958083 0.007899778 0.04533562 0.013770975 -0.07137117 -0.0064158756
0.0040465337 0.0044737207 0.009354182 0.0626048 -0.0040042354 0.032076422 -0.06512548 0.004609385
0.07845434 0.012119325 0.00014922493 -0.0014667951 -0.06924548 -0.03837518 0.07922958 0.06691116
-0.03299507 0.022048125 -0.07191855 -0.0092390375 -0.07284084 0.005718463 0.036071256 0.055993084
0.029069224 0.054433253 0.020338284 -0.003572714 -0.01479985 0.06651276 -0.06883594 -0.01609221
0.045178216 0.03287434 -0.025556445 -0.047354165 0.03403699 0.038946982 0.027983038 -0.051799003
-0.057527754 -0.063090906 0.046719726 -0.027971841 0.05791545 -0.01627734 0.03852997 0.054627776
-0.022726621 -0.058146622 0.004194396 0.037733797 -0.009045777 0.0048321807 -0.0026243485 -0.0078595495
0.008394496 -0.01168646 -0.013967851 -0.020186963 -0.028419541 0.017109705 0.029402964 0.0069358163
-0.03151785 0.0035354279 -0.036963727 0.07229508 0.067309715 0.053874288 -0.014312734 -0.08540789
0.026556741 0.0045506726 -0.030229304 0.017713642 0.05764064 -0.054099333 -0.02389645 0.07154584
0.00968092 0.02681188 -0.032921586 -0.025249569 -0.065673195 0.051215835 0.041760616 -0.03440649
-0.009312805 0.0023547304 -0.022799345 -0.01989756 -0.029359588 -0.014081924 0.07413411 0.0062379013
0.0503217 -0.008129084 -0.029859334 -0.04023946 -0.05313562 -0.075576134 -0.020991832 -0.007247285
0.058004044 0.02388465 -0.022056222 -0.017970724 0.028079119 0.0478535 0.048941545 0.025816157
0.008023848 0.030674824 0.0626438 0.019425249 0.061706424 0.02335206 -0.0014769747 0.027203284
-0.03158294 -0.023837974 -0.010078434 0.015442227 0.043287884 0.01998944 -0.027947286 -0.045244984
0.013875891 -0.03979871 0.011515785 0.056877483 -0.025684005 -0.06418013 0.085054986 0.01318555

multihead_attn.out_proj.bias f4 [193]
00000000: a643 633c 6f6f 84bc c2df 4fbb 71a2 2b3d
00000010: 4956 a1bc 7c65 0a3d c7f1 e13a 6ce5 ed3c
00000020: df74 883d d891 ba3c 0d1b db3c c32f 633d
00000030: e972 a7b9 b598 a63b db2d ca3c c884 45bd
00000040: b36d 003d ece1 673c ac72 8f3c 3839 c83c
00000050: 0400 273c 695e a23c 2a0c 35bd 403a c03c
00000060: 2c76 1f3d d7cc 423d 181a f4b9 24ed 5c3d
00000070: 142c 27bd 2753 c53c 7f8c 79bc af43 5dbb
00000080: f955 733d 7018 793b 3e88 4a3d 18eb 3f3b
00000090: e022 8ebb 2a81 ba3b 2415 11bd 95c8 3d3d
000000a0: 403a 163d 11ac cfbc 1480 bd3b d2ad b2bc
000000b0: ec21 8f3c dbb8 d53c cb96 ee3c a9b0 32bb
000000c0: aea2 113d d688 933c 60fb 07ba d4ef 35ba
000000d0: 9776 6b3d aa7a f83c eb72 133d e841 6d3c
000000e0: d850 053b f620 8b3c 4e2b c23b 52ab 563d
000000f0: 2607 fe3c 310a 363d 5680 0ebd 8b3b d53c
00000100: 002a a33d c604 9c3c 4026 28bd 9124 fd3b
00000110: ebb6 1c3c aab5 183b 0eba 86bc e0b5 093d
00000120: e9f4 25bc 727b f0ba 17ac 65bc 9513 9f3d
00000130: 4107 753c 32dd 54bc 646b e43c d278 613b
00000140: 12a0 083d ef60 f43b 9c18 19bc 219d b23c
00000150: 3e78 013c 5e22 0e3c 4d2e 1fbd 2f57 bc3b
00000160: 4360 68bc 6464 b0bc dafd bb3a 564c 00bc
00000170: f5b4 a4bc b735 b4bb f231 c73c 03c8 31bb
00000180: 3e82 19bd 36e7 17bd 4190 45bc 8875 833c
00000190: 4ceb a33c eb2e cbbc 2dcc f6bc 7f00 243c
000001a0: 9d59 2f3c 47a8 953c 11b5 1f3c 4eca 35bd
000001b0: 78dd 0abd 7e2a f7bc 164e f2bc 488e 0dbd
000001c0: 2b41 e63b 42e3 c9bc 39f8 843c 4324 d5bb
000001d0: 0023 4dbc 9902 753d 11fa 423c 4a18 a03c
000001e0: 2bd4 02bd 3e71 23bb fc34 66ba 7f6e 7bbd
000001f0: ffa3 673c 2a4d e0bc 40d1 533b 6387 763c
00000200: 9e8b 39bd f0c4 10bc ae80 a23c b37a 683d
00000210: 1172 5d3d 6bf9 123c c0f3 9d3d a734 34bc
00000220: b373 b33d 95a1 cd3c ab87 d93d 8714 a3bc
00000230: 2b9d b6bc 9c23 9ebd f2b5 513d 074b 22bd
00000240: 5449 d13b 9d9a 47bc 1067 cebc 32af cdbc
00000250: dce1 193b 8a71 793d 34cb b13c 554a 863c
00000260: 66a6 13bd 9db0 c83c 0530 373c 61a3 893b
00000270: 3c15 ad3c 9d54 3d3d b665 1bbd bf12 ca3d
00000280: f6d7 22bd 42fb 4b3b 5bf9 76ba 299f babc
00000290: 37c8 0a3c 2c5f 63bc 24ec 28bd 20f3 98bc
000002a0: 9e13 9fbc b705 313c 32e6 70bc 2320 27bd
000002b0: 2258 123d 2c0b 483d 4005 863d 8c0e 18bd
000002c0: 9b50 5cbc cb59 20bb ab12 97bc a845 403c
000002d0: 729c 2abc 325d 0dbd cd9a 8d3d 4c1d 893d
000002e0: 0822 8a3c 6565 983d 9282 8c3b 81a3 c63c
000002f0: c61e 253d 641a 5cbd f10f 6fbd b554 5b3d
00000300: 0db1 5ebd
0.013871109 -0.016166417 -0.0031719063 0.041902963 -0.019694464 0.03378819 0.0017238193 0.029040061
0.066629164 0.022774622 0.026746297 0.05546547 -0.00031938337 0.005084122 0.024680069 -0.048222333
0.031354617 0.014152985 0.017510734 0.024441347 0.010192875 0.019820409 -0.044201054 0.023465276
0.038931057 0.04755863 -0.00046558748 0.053937092 -0.04081352 0.024087502 -0.015231251 -0.0033762266
0.05940816 0.003800895 0.049446337 0.0029284414 -0.0043376535 0.005691667 -0.035420552 0.046333868
0.036676645 -0.025350602 0.0057830904 -0.0218114 0.01747223 0.026089123 0.029124638 -0.0027265942
0.035555534 0.018009584 -0.0005187299 -0.0006940339 0.057486143 0.030331928 0.035998266 0.014481045
0.0020342376 0.01698349 0.0059255725 0.052409478 0.031009268 0.044443313 -0.03479036 0.026029369
0.07966995 0.019045245 -0.041052103 0.0077253063 0.009565095 0.002330164 -0.01644614 0.033620715
-0.010129192 -0.0018347336 -0.01401808 0.07767407 0.014955343 -0.01299219 0.02788324 0.003440429
0.03335578 0.0074578444 -0.009344246 0.02180344 0.007902203 0.008675186 -0.038862515 0.005747698
-0.014183107 -0.021532245 0.0014342621 -0.0078307 -0.020105818 -0.0054995674 0.024315808 -0.0027127273
-0.037477724 -0.037085734 -0.012058319 0.016047254 0.02000966 -0.024802646 -0.030126655 0.010009884
0.010702518 0.018268717 0.009747759 -0.044382386 -0.033902615 -0.030171629 -0.02957825 -0.034559518
0.0070268116 -0.024644498 0.016231643 -0.006504567 -0.012520552 0.05981693 0.011900441 0.019542832
-0.03194062 -0.0024939324 -0.0008781699 -0.061384674 0.014138221 -0.027380545 0.0032320768 0.015046927
-0.045299165 -0.008836016 0.01983675 0.05675764 0.05406386 0.008970599 0.07712507 -0.010998881
0.08762302 0.025101462 0.1062158 -0.01990725 -0.02229174 -0.07721636 0.051198907 -0.039622333
0.006386915 -0.012182859 -0.025195628 -0.025107954 0.002348057 0.060899295 0.02170334 0.016392866
-0.03604736 0.024498278 0.011180882 0.0042003845 0.02112829 0.04622327 -0.037938796 0.09866857
-0.039756738 0.0031125103 -0.0009421312 -0.022780972 0.0084705865 -0.013877671 -0.041240826 -0.018670619
-0.019418534 0.010804585 -0.01470332 -0.040802132 0.03572858 0.04883878 0.0654397 -0.037123248
-0.013446952 -0.0024467583 -0.018441519 0.011735357 -0.010413276 -0.034512706 0.069142915 0.06695041
0.01686193 0.074412145 0.004288026 0.024247887 0.04031255 -0.053736106 -0.058364812 0.05354758
-0.054368068

Dense1.weight f4 [193, 193]
00000000: e9ce 0fbd d85f 823d af37 183d 3441 12bc
00000010: 6887 0a3e bfc1 5cbc c4f8 1cbd 98a5 383d
00000020: d154 1f3c 3213 ea3c 2e8a 26bd b2b8 ffbc
00000030: 6b2e 1bbd 2c64 993b c1b8 3bbd ff21 8cbc
00000040: cc16 05bd a42b 70bc 0f2c 363d 4d02 93ba
00000050: 8fcc b03d bb69 9c3d 2034 aa3c 1843 9a3d
00000060: 0c4d 2bbd ae63 35bb 7913 d03d e12f 503d
00000070: 5977 2c3d 2a2d 763c 991f eb3c 7c5a 223b
00000080: c0f4 48bd c883 30bd 79f1 e03c f1cc 39bd
00000090: e28b bc3d 8b1b 8fbb 3877 cdbc be4a 873b
000000a0: 5413 9d3d 5dbc d43d 05c8 aa3d aa6b 173d
000000b0: 41cc 8eba 5a8f 0fbd e447 4a3d a5ab 1fbd
000000c0: 5a82 933d 82ac 76bd 47a5 1bbd f552 1d3d
000000d0: 2b62 2eba 20b7 37bd a291 b13b 88b6 583d
000000e0: a45c 703d 819c 5abd 9667 21bd c0f2 193d
000000f0: b1f9 273d 7c8c 84bc e14b 58bd 71d0 2c3c
00000100: 2413 273b d567 1b3d 2ff5 2e3b d535 62bd
00000110: 7565 8fbc 40fe a2bc b6e0 67bd fd00 07bd
00000120: e42d b0bd 8867 72bb bbed 36bd 0671 90bc
00000130: d411 903c b88d 2c3d 569c be3d d362 5bbd
00000140: cebf c93c 048a 8e3c 5e6e a43d a29f 323d
00000150: 2730 fb3c b63c a03d c75a cfbc 736a 79bd
00000160: a351 793d b67d 41bd f209 063c d4d7 edbd
00000170: b4a2 46bd 5764 8bbd 9e2c f13c 496c 05bd
00000180: 1563 26bd 3ba3 9dbc c879 1cbd e421 033e
00000190: 2183 153d 2229 7cbc bb01 b93d 7171 f13a
000001a0: f052 013e 207a a3bc 625e af3c 4cd3 d7bc
000001b0: f408 bfbc 4b8e 1ebb 3559 c33d 273f 833d
000001c0: 3408 423d c29e 2abd 6863 343d 3fa8 edbc
000001d0: 979c eabd fb88 b83d 0da0 9ebc 9165 84bd
000001e0: 6753 293d 97d2 42bd 1e0f a1bd 4e2d 9b3c
000001f0: 3779 d23d 2b35 00bd 4a3d 2b3d 4780 d4bd
00000200: 07a6 cfbc 2423 a8bc 6da9 35bb 6bb1 51bd
00000210: 356f 08bd 40ab 93bb 13a2 853d 9dca 1dbd
00000220: 4305 0a3d 439f f7bc 2a1b 173d 544c d93c
00000230: 9e43 343d 8f5f 8ebc 41f5 ba3a 0251 7bbc
00000240: 775d a7bc 8786 c7bc 8b49 993d 9f3d c9bc
00000250: f263 b53d 83cf 15bc 0a02 edbb 3670 133d
00000260: b68c e53c 2210 4dbc a6a8 063d 6268 22bd
00000270: 1f4c d43d 230f e73d d302 e03c 531c 20bd
00000280: c8af a2bd 2e63 043d 04a0 923d ca2f c33d
00000290: 46ff 10bd b378 253d e1a6 ab3c bcf9 f5bb
000002a0: 68e1 093d 7f10 533c c934 30bc 57f4 2d3d
000002b0: 5d2d c23d 7e2b 5abd 6b89 9c3d e08c e3bc
000002c0: 7d5e 05bc 1308 893d d88f 1c3d a0d3 02bc
000002d0: 39c9 353d 3953 4ebd f51c 0ebd b795 33bd
000002e0: ad91 473d 83f0 4fbd 158c 48bc b191 773c
000002f0: ba61 df3c 80d6 b93d 193b 773d 922d 18bd
00000300: 5afd 833c aee4 113d 1b2b 7b3d f26c 373c
00000310: 5123 7cbc f1d6 83bd 0f07 80bd 7852 45bd
00000320: 6c35 e3bc 99fb 433d c5a0 7ebd f6b3 8abd
00000330: 2b1b a0bc 54e7 92bd 2e6d 1abd 0299 023d
00000340: 089f 88bd caa2 82bc 7e21 98bb 93b8 3cbd
00000350: 5325 2f3d ed6a 933d 5406 7e3d 9206 943b
00000360: 4c74 853d a9d8 263d 8d0a 893d 3f91 02bd
00000370: c48b 6bbb 208f 7c3d 6782 3b3c 6a3b 073d
00000380: 3803 66bd b494 0d3d 2e4a 103b 097d 7c3d
00000390: 76aa 88bd d567 ae3b d0f4 03bd d363 1bbd
000003a0: 4ddc 5dbc 55d3 74bd 1fa3 6dbc 12e5 20bd
000003b0: 7bb4 fabc 2ee2 88bc 0b65 863d 900e 77bd
000003c0: 3335 ffbc dcbc 863d fdd0 b4bb 4eae 39bd
000003d0: 091d a5bc 65b2 843d d088 90bd 4f06 a83c
000003e0: ea74 723d 3e6b cbbc faaa 673d f5f1 053d
000003f0: ef2b 89bc fec0 58bd 3fab 013d cb26 863c
-0.035109434 0.06365937 0.03716248 -0.008926678 0.13528216 -0.013473927 -0.03832318 0.045079798
0.009724812 0.028573606 -0.040659122 -0.031216 -0.037886064 0.004681131 -0.045830492 -0.017106054
-0.032492444 -0.014658842 0.04447561 -0.0011215896 0.086327665 0.07637354 0.020776808 0.07532328
-0.041821525 -0.0027677822 0.10159964 0.05082691 0.042106006 0.015025416 0.02870159 0.0024773171
-0.049061537 -0.043094426 0.027458893 -0.045361463 0.09206368 -0.004367297 -0.025081262 0.004128783
0.07669702 0.1038749 0.08338932 0.03696791 -0.0010894613 -0.03504882 0.049384966 -0.038982052
0.07202597 -0.06022311 -0.037999418 0.038409192 -0.00066522014 -0.044852376 0.005418972 0.05290845
0.0586821 -0.05337191 -0.039405428 0.03758502 0.04100961 -0.01618027 -0.05280674 0.010547743
0.0025493586 0.03794082 0.0026696434 -0.05522712 -0.017504433 -0.019896626 -0.056610785 -0.032959927
-0.08602503 -0.003698798 -0.04466031 -0.017632019 0.017586626 0.04212734 0.093071625 -0.053561043
0.024627592 0.017399795 0.08028863 0.04360927 0.03066261 0.0782408 -0.02531184 -0.060892534
0.06086887 -0.047239028 0.008181082 -0.116134316 -0.04849501 -0.06806248 0.02944022 -0.032573972
-0.040621836 -0.019242873 -0.038202077 0.12805897 0.036502007 -0.015390666 0.09033533 0.0018420649
0.12629294 -0.019955695 0.02140731 -0.026345871 -0.023319699 -0.00241937 0.09538499 0.0640853
0.047371104 -0.04165531 0.044040114 -0.02901089 -0.114556484 0.09010502 -0.019363428 -0.06464685
0.041339304 -0.047564115 -0.078642115 0.018942501 0.10277026 -0.031300705 0.041806497 -0.103760295
-0.025347723 -0.020524569 -0.0027719394 -0.05119459 -0.03330918 -0.0045064986 0.06525054 -0.038523305
0.033696424 -0.03022731 0.03689114 0.026525654 0.044009797 -0.01737955 0.0014263765 -0.015339138
-0.02043031 -0.02435614 0.0748473 -0.024565516 0.08856954 -0.009143713 -0.007232909 0.035995685
0.028021198 -0.012516053 0.03287568 -0.03965033 0.103660814 0.11282184 0.027345097 -0.039089512
-0.07943684 0.032321148 0.07159427 0.095305994 -0.035399698 0.04039831 0.020953598 -0.0075065773
0.03366223 0.012882351 -0.010754772 0.04246935 0.094813086 -0.053264134 0.07643398 -0.027777135
-0.008140204 0.06690993 0.038223118 -0.007985026 0.044381354 -0.050372336 -0.034695584 -0.04384395
0.04872291 -0.05076648 -0.012240429 0.015110419 0.02726828 0.09074116 0.060359094 -0.037152834
0.016112018 0.035618477 0.061320405 0.011195408 -0.015389279 -0.06437481 -0.06251346 -0.04817435
-0.027735434 0.047847364 -0.06216504 -0.06772606 -0.019544205 -0.071730286 -0.037701778 0.0318842
-0.06670958 -0.015946764 -0.0046426645 -0.04607446 0.042760205 0.07198129 0.062017754 0.004517385
0.065163225 0.040733967 0.066914655 -0.0318768 -0.003594146 0.061659932 0.011444665 0.033015646
-0.056155413 0.034565642 0.002201687 0.06164268 -0.06673138 0.0053224363 -0.032215893 -0.037936997
-0.013541293 -0.059771854 -0.014504223 -0.03928096 -0.030603638 -0.016709413 0.06562241 -0.060316622
-0.031153297 0.06578991 -0.0055180774 -0.045332246 -0.020155447 0.064793386 -0.07057345 0.02051082
0.05919353 -0.02483141 0.05655954 0.03270145 -0.016744582 -0.052918427 0.031657454 0.01637592

Dense1.bias f4 [193]
00000000: 35b5 0c3d 7f2d b73c ba59 783d 24ae 0bbc
00000010: 17c0 7e3d 44cd cf3c b62f 81bd 5d71 25bc
00000020: f6b4 8cbc eab0 743d 5886 ddbc b527 adbd
00000030: 7ef2 7abc 0bc9 76bd d7d8 abbd e596 1cbc
00000040: a7cd 14bc edad 94bd 21fd 9dbd 2b18 8e3c
00000050: 0b0a 053d b47a 5b3d 25ad b8bb 5420 e2bc
00000060: 8231 85bd 2c16 29bd aa39 3bbd 0bd9 1fbd
00000070: 59ce da3a 33a0 18bd 9f39 88bd 3296 7dbd
00000080: 11bf 78bd e279 abbd 3c7e 033d 72e2 30bd
00000090: 5e7a 0d3d 01f7 2cbd 28f2 1b3d 829f afbb
000000a0: 3687 77ba fd57 533c 9dd6 373b 2cb3 2e3d
000000b0: ce68 57bd 60b9 14bd 6e20 3c3b 1cba a9bd
000000c0: 51f8 96bd 818d 613d d85e cdbc 7c7d a2bd
000000d0: 53a2 1fbd 6af4 8abd 2b25 89bd edb1 71bc
000000e0: 6b3c d13c 0689 2ebd e266 2ebd d480 74bd
000000f0: c9d6 283d 1cc9 f5b9 9fc0 95bd 0e5a 82bd
00000100: cda4 f1bb 4033 b8bd 3a42 36bd 4c04 6e3c
00000110: f2d7 743d f965 5ebd b724 b7bc 491d 91bc
00000120: 9d32 75bd 5d02 843d f229 6cbd 168d 8abc
00000130: 1bd6 eabc 508b 8fbd 1835 5139 21b5 7bbb
00000140: ffab d3bc 3fc4 a5bc 3802 a6bd ca40 693c
00000150: 2d16 fabc 9fc8 a8bc a77f f33c c92d 05bd
00000160: 6fd9 fb3a 0cbf 4a3c 2351 31bd a39b 58bd
00000170: dba3 c13c 2fc2 85bc 0d4c 13bd 63ed c1bc
00000180: fc4f 6a3d 4e3a 783d a570 583d be27 30bd
00000190: b82c 4b3d 0028 a0bb d811 ebbc c223 b63c
000001a0: 4275 1fbd ba15 8cbd 2794 dcbc 07cc 97bc
000001b0: e993 1bbd f4ae 603d 34a1 78bd 3448 4fbd
000001c0: cca2 413d 8f4e 493b bae3 34bd 3e0c 133d
000001d0: e161 3e3d eb3b 7ebd 038e 97bc f27f 6abd
000001e0: 5959 c1bc abf2 80bd 30c1 5ebd 6847 91bd
000001f0: 0c41 353d 5966 f93c 81fb 16bd 5b43 9cbd
00000200: 4ee8 85bd 5e52 15bd 677a a43c 2ad1 9cbd
00000210: 1f76 f13c 4332 61bd cee2 95bd 16ff c93c
00000220: 0712 92bc f918 85bd b746 b6bd 2f7d 19bb
00000230: aa53 2cbc cb6c 4d3d 67c5 47bd 3db8 05bd
00000240: b502 293b b4e5 c23b 26d0 c73b 28da 99bd
00000250: ec5c 733d f414 dcbc 3d88 5b3c 86a5 5fbb
00000260: 55f5 3a3d 004a 0b3d b0ad 85bd 4b43 52bd
00000270: ed24 1fbd 6c0c 9dbd 487d 7e3d 467f 1dbd
00000280: 3039 baba 634b b4bc 97c4 9b3c 08c9 d3bc
00000290: f04c 03bd 9a9f ecba 0f81 653d f801 52bd
000002a0: 84de c9bc 6571 0d3d be8a 94bd 75af 4bbc
000002b0: 2163 52bd 6d44 2cbd 59df 3dbd a43b 7fbd
000002c0: 8586 a2bd bfe6 6fbc dc79 83bd 6b8a a93d
000002d0: e675 3ebd 98e5 373d 56a3 98bd 4f04 323b
000002e0: 8f9e af3c 4fc3 893c 0d1b 123d 6176 543d
000002f0: 5c31 773d 07d6 e13a a38b d2bc e3f2 73bd
00000300: 6d11 8dbd
0.0343525 0.022360561 0.060632445 -0.008525405 0.06219491 0.025366433 -0.06307928 -0.010097829
-0.017176133 0.05973903 -0.0270416 -0.08454839 -0.015316604 -0.060250323 -0.08390968 -0.00955746
-0.009082234 -0.07259736 -0.07714296 0.017345509 0.03248028 0.053583816 -0.005635875 -0.027603306
-0.065035835 -0.04128091 -0.04570929 -0.039025348 0.0016693576 -0.037262153 -0.06651615 -0.061910816
-0.06072909 -0.08372857 0.03210281 -0.043184705 0.034540527 -0.04222775 0.038072735 -0.005359591
-0.000944245 0.012899396 0.0028051503 0.04265134 -0.052590184 -0.0363096 0.0028705853 -0.08287451
-0.07371581 0.05506659 -0.02506964 -0.079340905 -0.038973164 -0.067848995 -0.06696542 -0.0147518935
0.025541505 -0.042611144 -0.042578585 -0.059693173 0.04122046 -0.0004687988 -0.0731213 -0.06364833
-0.007374382 -0.0899415 -0.044496752 0.014527392 0.059776254 -0.054296467 -0.022356374 -0.01771416
-0.05986272 0.06445763 -0.05765719 -0.016912978 -0.028666547 -0.070089936 0.00019951572 -0.0038407522
-0.02583885 -0.020235179 -0.08105892 0.014236638 -0.030528152 -0.020603476 0.029723955 -0.032514367
0.001921458 0.012374651 -0.04329027 -0.0528828 0.023637703 -0.016327946 -0.0359612 -0.023672765
0.057205185 0.06060248 0.0528418 -0.04300665 0.049603194 -0.004887581 -0.028695032 0.022233848
-0.038930185 -0.068400815 -0.026926113 -0.018529905 -0.037982855 0.05485435 -0.06070061 -0.050605968
0.047274396 0.003071699 -0.04416249 0.035900347 0.046480063 -0.06206886 -0.018500334 -0.057250924
-0.023602175 -0.06296285 -0.054383457 -0.07093698 0.044251487 0.030444311 -0.036860947 -0.076300345
-0.06538449 -0.036455505 0.020077897 -0.076570824 0.02947527 -0.054979574 -0.0731865 0.024657767
-0.017830862 -0.06498904 -0.089002065 -0.0023420563 -0.010517994 0.05015258 -0.048772242 -0.032646406
0.0025788967 0.005947793 0.0060978113 -0.07512313 0.05941479 -0.02686546 0.013399181 -0.003412576
0.045644123 0.03400612 -0.06527269 -0.051333707 -0.038853575 -0.07668385 0.062131196 -0.038451456
-0.0014207717 -0.022008603 0.01901464 -0.025852695 -0.032055795 -0.0018052936 0.056031283 -0.05127141
-0.024642237 0.03453197 -0.072530255 -0.012431969 -0.051364068 -0.042057443 -0.04635558 -0.062312737
-0.07935814 -0.0146424165 -0.06419727 0.08278354 -0.046499155 0.044896692 -0.07453029 0.0027163213
0.021437911 0.016816763 0.03567033 0.051870707 0.060349807 0.0017229923 -0.02570135 -0.059557807
-0.06888089

Dense2.weight f4 [1, 193]
00000000: 8755 7bb9 7906 75bd 2720 a73d 4895 143b
00000010: 4e65 6dbd b83d efb7 c745 9d3d 9690 9eb8
00000020: 4170 f33b 4541 c4bc 3c73 b33c b1e2 1f39
00000030: ad49 653d 3a04 27bc d5c3 c9b8 9766 8a3c
00000040: 6462 a2b9 b008 573a b1bc acbc 6421 22bd
00000050: 2cba 7cbd e280 8fbc c811 b53d c5a4 a93d
00000060: f5db 78bb 96c2 0b3a 1eef 30bd fe17 4f39
00000070: e439 ad3d f15d 6e3d 59d9 2cbd 2e03 92bc
00000080: 0ec5 7cb8 3061 bb36 8c75 02bd 0cd9 80bd
00000090: b9ad 72bd 2ee8 febb 1db6 863d 3026 e639
000000a0: ada1 93bc 3df6 58bd 562c bdbc 4148 cf3d
000000b0: c480 76ba c0a8 58bc 0e91 353d 6f8a 733c
000000c0: ecae 3a38 6508 c3bc f108 a83c bfc0 09ba
000000d0: 5592 343c 2810 6cbc 4ee5 373a 9192 8ebc
000000e0: 5d1b 86bd d840 8bbd d948 b1bc ec16 a03c
000000f0: 4032 573c 781f ef38 7c5e 0fbd c8c4 b7bc
00000100: b930 cb3c 4007 5eb6 6815 713d 8bcf ff3c
00000110: aaaf f4bc 47ef 863c 4802 723d 06bb 4a3a
00000120: bd69 a3bc eef8 babc 8f63 3ebc 8b37 e7bc
00000130: 1eee 8c3d 688b 4bbd 7fc2 a8bb 3046 36bd
00000140: b1f8 04bc 54f6 7d3d 56a1 123e addf 48bd
00000150: 1f59 b33a 515f e6bb cf3c f73d 0aa2 1f3d
00000160: 4b38 273d 3fce 3bbc 30c2 81bc aed5 67b9
00000170: 6a0b 6abb 89f1 97bc a607 803d 4343 82bb
00000180: ad0c 0dbd 8756 913d c087 363d fb26 2cbd
00000190: 43ec b5bb 6c1e db3c a4db 15bd cc74 2bbc
000001a0: 03c4 55bc b089 0dbd 894a 3fbd f99a b53d
000001b0: 6629 91bd afb1 fb3d 89d1 9fbc 9145 aa3d
000001c0: a237 f1bb 1799 2cbd 0ce1 e5bc e102 c9bc
000001d0: c7bf 7bbd 0356 ea38 7c31 1a3c 3e4d 4d3d
000001e0: cf1b b4bc 92e6 16bd 5d1e 053d 68bf 02bd
000001f0: fd31 1fbd e146 dabc ffc5 4cbd a810 e03c
00000200: e4eb 61bd a880 6abd b60d e6ba f84a 29ba
00000210: a9bb 7b3c 074f 6e3a 38ef e737 7201 5f3c
00000220: 2f62 4ab9 b321 993c fdd8 8eb8 7c4f 8eb8
00000230: 2e53 e63b b5d6 733d 00c9 7e38 e6d4 5f3d
00000240: a48c 7b3b 0453 303d dfac 15bd c622 01bd
00000250: 8b4d 483b 6666 6cbd 4cb5 d53c f86e 3bbd
00000260: 4831 d93d 8c8e babc 1530 4e3c ec49 223d
00000270: b2a2 cdbc c4ae 87b9 4e09 0cbd 2539 88bc
00000280: 46f2 083d 1ba5 d5bc 0c0e 05bd c61d 91bd
00000290: eccb e13a 4feb 5c3d c178 2d3d 7cc9 433d
000002a0: 7660 d6bc b900 803c 53bf 3fbc 949c 0fbd
000002b0: d1a8 edba fb21 5a3b 4a4e 8db9 7547 f0bc
000002c0: 7015 2e3d 82b3 4abc 6d22 953b 4012 62bd
000002d0: d890 1db8 50d2 42bd a89b 573d 0d0c 7a39
000002e0: 9a77 41bc 78db fa3a 55db dc3c 30ee 913d
000002f0: 25da c2bb d75a 213d 7df3 7c3d 1e5e b4bc
00000300: cfad 85bb
-0.00023969087 -0.059820626 0.081604294 0.0022671986 -0.05795794 -2.851976e-05 0.076793246 -7.560958e-05
0.007429153 -0.023956904 0.021905534 0.00015247871 0.055978466 -0.010193879 -9.6209034e-05 0.016894622
-0.00030972355 0.00082028937 -0.021086069 -0.039582625 -0.061700985 -0.01751751 0.08841282 0.082833804
-0.0037972901 0.0005331425 -0.04319679 0.00019749996 0.084583074 0.05819506 -0.042199466 -0.017823782
-6.0265003e-05 5.5843484e-06 -0.031850383 -0.062913984 -0.059247706 -0.007779143 0.06577704 0.0004389747
-0.018021429 -0.052969206 -0.02309243 0.10121203 -0.0009403343 -0.013223827 0.044327788 0.014864548
4.4508764e-05 -0.023807714 0.020512076 -0.00052548567 0.011021216 -0.014408149 0.0007015065 -0.017403873
-0.06548188 -0.06799477 -0.021641182 0.01954218 0.013134539 0.000114022696 -0.035002217 -0.0224327
0.024803506 -3.3084798e-06 0.058858305 0.031226894 -0.02986892 0.016471518 0.059084207 0.0007733557
-0.01994788 -0.022823777 -0.011620416 -0.028224727 0.06881355 -0.049693495 -0.005150139 -0.04450053
-0.008115933 0.062002495 0.14319357 -0.04904144 0.0013683176 -0.0070304056 0.12072145 0.038972892
0.04082517 -0.011462747 -0.015839666 -0.00022109479 -0.003571237 -0.01854779 0.06251459 -0.0039753034
-0.034435917 0.07096582 0.044563055 -0.042029362 -0.005551846 0.026747905 -0.03658642 -0.010464858
-0.013047221 -0.034555137 -0.04670194 0.08867449 -0.07087974 0.1228975 -0.019509094 0.0831405
-0.0073613683 -0.042138185 -0.028061412 -0.024537506 -0.06146219 0.000111740104 0.009411212 0.050122492
-0.021985916 -0.036840983 0.03249966 -0.03192082 -0.038866032 -0.026645126 -0.04999351 0.027351692
-0.055156603 -0.057251602 -0.0017551694 -0.00064580096 0.015364566 0.00090907555 2.764874e-05 0.013611184
-0.00019300797 0.018692827 -6.811505e-05 -6.785893e-05 0.0070289588 0.059530932 6.0745515e-05 0.054646395
0.003838339 0.04304792 -0.036541816 -0.031527303 0.0030563797 -0.057714842 0.026087426 -0.045760125
0.10605103 -0.02277305 0.012584706 0.03962128 -0.025101993 -0.00025879417 -0.03418856 -0.016628811
0.033434175 -0.026079705 -0.0324841 -0.07085757 0.0017226911 0.053935345 0.042351488 0.047799572
-0.026169043 0.015625345 -0.01170333 -0.035061434 -0.0018131976 0.0033284414 -0.00026951946 -0.029330948
0.042500913 -0.0123719 0.004551223 -0.055193186 -3.7566613e-05 -0.04756385 0.05263868 0.00023846347
-0.0118083 0.0019138893 0.026960054 0.07125509 -0.005946415 0.039393272 0.061755646 -0.022017535
-0.0040795575

LN.weight f4 [193]
00000000: 6db6 703f 9cb7 743f 12e8 6d3f 96e8 703f
00000010: 21d1 773f f695 673f 75ee 713f 1f7b 613f
00000020: 2aa1 773f 4d49 6e3f e784 703f 737a 763f
00000030: b8a2 783f 0877 6c3f 06cc 6e3f 298a 7a3f
00000040: 1652 6e3f 7841 6e3f f497 623f 721c 6e3f
00000050: e1ca 623f 9552 673f d841 6f3f 1933 623f
00000060: 4340 713f 5a63 623f b50e 723f 3e9d 773f
00000070: e128 6a3f 3ead 743f 5c63 753f dcdb 733f
00000080: d8f2 6e3f a997 6f3f ff1e 6d3f 525f 6a3f
00000090: 5570 623f 4511 6a3f 5d98 7c3f 447f 753f
000000a0: f00d 6b3f e20b 643f 7777 673f c867 793f
000000b0: c974 723f 471a 673f 2eb9 743f 05cc 6f3f
000000c0: 107b 603f b829 693f 526f 683f d6d4 723f
000000d0: 5f96 6b3f a21c 683f 6d26 683f 8a17 6d3f
000000e0: 2ac1 723f 81aa 613f f3d0 733f a299 6b3f
000000f0: 2226 733f 5259 7c3f b379 7a3f 9a6c 6d3f
00000100: 4128 553f 1c17 853f c80d 873f 8bae 743f
00000110: e6c5 7d3f 48e8 823f aae8 803f 1d0e 843f
00000120: 8c94 803f 20a9 7d3f f3b6 713f 9233 833f
00000130: 835d 813f b0a3 713f 562a 873f 05be 823f
00000140: 97d6 8b3f 45e3 863f 5733 8f3f 98eb 7b3f
00000150: 9ce8 773f 295c 833f f50a 8e3f cc54 7e3f
00000160: 35a9 823f d337 833f ec1b 793f 7f01 833f
00000170: caa7 853f a27f 853f b140 7d3f 2747 7a3f
00000180: 3f55 863f 4c97 7c3f ea89 7f3f 25bd 813f
00000190: b3e3 813f 4e82 803f 23a0 803f c30e 843f
000001a0: 5785 853f 2112 7c3f 1f8a 833f 6252 893f
000001b0: de1a 743f 2667 8b3f 3bfe 7f3f 32af 833f
000001c0: 3a93 873f ad0d 833f 5a52 8d3f 3fbd 843f
000001d0: e2e3 843f f9c9 753f 3364 843f 3a13 803f
000001e0: 2fa4 753f 2950 793f 5f8d 813f 7bfb 8b3f
000001f0: d8d0 883f ab01 8e3f 9cfb 813f 0911 883f
00000200: 69b7 843f a192 7e3f d34b 7d3f 1ef9 663f
00000210: 0671 6e3f b7f7 773f f645 613f ace4 6e3f
00000220: 81cc 743f 661f 713f 6a5c 6a3f 450e 693f
00000230: 9212 6d3f 4080 713f ab22 6e3f ed89 833f
00000240: c4cd 7a3f ba92 833f 18f8 6d3f 493e 7b3f
00000250: 551b 793f bcc8 693f eb7a 773f c179 5c3f
00000260: 1573 783f a815 743f 4ebc 6a3f 8ff8 773f
00000270: 2737 7b3f bd6e 793f d5de 6b3f 4e35 683f
00000280: bed5 773f 3e38 763f 83af 793f 16e1 793f
00000290: 8706 773f c169 743f 1d17 793f 0fe2 7d3f
000002a0: 9abf 7d3f cd06 753f 6d33 743f 47ac 6d3f
000002b0: c0e1 773f 5797 733f 552d 6d3f 722b 683f
000002c0: 0e3d 773f 2d15 7c3f 6c8d 813f 22d4 763f
000002d0: 0903 743f 41fe 763f 8166 6d3f d6dc 6d3f
000002e0: 985a 793f 9591 753f 5832 773f 5c07 703f
000002f0: 80d4 683f fad7 7a3f 5eb9 723f c248 603f
00000300: 14a9 723f
0.9402836 0.95592666 0.92932236 0.941049 0.9680348 0.904632 0.9450448 0.8807849
0.9673029 0.930806 0.9395279 0.9628059 0.9712329 0.9236913 0.93280065 0.97867066
0.93094003 0.9306865 0.8851311 0.93012154 0.8859082 0.90360385 0.93459845 0.8835922
0.9423868 0.8843285 0.9455369 0.9672431 0.91468626 0.95576847 0.95854735 0.95257354
0.933393 0.9359079 0.9262542 0.915517 0.88452655 0.914326 0.9866999 0.95897317
0.9181814 0.8908063 0.90416664 0.9742398 0.9470945 0.9027447 0.9559506 0.93670684
0.8768778 0.9107928 0.9079486 0.9485601 0.92026323 0.9066869 0.90683633 0.9261404
0.94825995 0.88150793 0.95240706 0.920313 0.9498006 0.9857379 0.9784195 0.9274384
0.8326455 1.0397677 1.0551081 0.9557883 0.99130094 1.0227137 1.0071003 1.0316807
1.0045333 0.9908619 0.94419783 1.0250113 1.0106663 0.9439039 1.0559795 1.0214239
1.0924863 1.0538107 1.1187543 0.9840636 0.9683931 1.02625 1.1097094 0.9934814
1.0207888 1.0251411 0.9730823 1.0234832 1.044183 1.0429575 0.98926836 0.9776482
1.0494765 0.9866836 0.99819815 1.0135847 1.0147613 1.0039766 1.004887 1.0317005
1.0431317 0.9846516 1.0276526 1.0728266 0.95353496 1.0890853 0.999973 1.028784
1.0591805 1.0238549 1.1040757 1.0370253 1.0382044 0.9601131 1.0343078 1.0005867
0.9595365 0.9738794 1.0121268 1.0936121 1.0688734 1.1094259 1.015491 1.0630199
1.0368472 0.9944249 0.98943824 0.9022387 0.9314121 0.9686236 0.87997377 0.93317676
0.9562455 0.94188535 0.9154726 0.910374 0.9260646 0.9433632 0.9302165 1.0276467
0.97970223 1.0279152 0.92956686 0.98141915 0.9730733 0.9132192 0.9667193 0.8612328
0.970506 0.95345545 0.9169358 0.96863645 0.9813103 0.974346 0.9213689 0.90706336
0.9681052 0.9617957 0.97533435 0.9760908 0.96494335 0.9547387 0.97300893 0.99173063
0.99120486 0.957135 0.9539097 0.92841 0.9682884 0.951528 0.92647296 0.9069129
0.9657754 0.9846981 1.0121284 0.9641744 0.9531713 0.9648171 0.92734534 0.92915094
0.9740386 0.95925266 0.96561193 0.9376123 0.9094925 0.97985804 0.948141 0.8761102
0.9478924

LN.bias f4 [193]
00000000: 77d7 713c 67f6 483c 17e2 093c fdd1 fc3c
00000010: c0f7 d83b fbfe d63b acc5 68bb a9fe 6a3c
00000020: de2d f63c 1228 ea3c f931 c83c bd51 d23c
00000030: 4297 0a39 4c81 2e3b 08f4 1b3d 3195 d6bb
00000040: d653 fe3c 90cf 2b3d 769a f93c dd83 e53c
00000050: 054c bd3c ec61 e93c 6f33 a6bc 6d3e 2b3d
00000060: ca7b e23c 23a1 013d f5bf 233c 8b6f af3c
00000070: d7bb b6bc 1859 603c f9ca 443c c41a 293c
00000080: 37ca 0b3d 878e 593c fa49 3b3d 3b66 293d
00000090: 1572 ea3c cadb 023d 7fb5 2dbc 7750 dc3c
000000a0: c17d 333d c383 623c a2a5 e43c 1cbc 8ebb
000000b0: f51b ae3c e0db 5c3c c8f4 e93c 9903 c63b
000000c0: 97e4 7d3d 1ebe 563c 68c8 813c a727 003d
000000d0: eca8 623d e4a4 0d3d 385b d83c c07b 4c3c
000000e0: a397 a13c 920a 96ba b7c5 a1bb 573d 0b3d
000000f0: 1eaf 033d 3d97 463c 64f3 463c b878 943c
00000100: abf0 31be 5fbf 84ba 2014 c1bc 8b83 7ebc
00000110: c502 323c 9ef9 d2bb c4da 80bc 5517 443c
00000120: de40 1b3b 396e 7cba 500e c8bc 28c9 793d
00000130: d299 7d3b ccd9 fd3b 454e 953c 5d94 4fbc
00000140: b497 c13c 74fe d1bb 8e52 d6bb eff6 883c
00000150: bcf8 d43c 3914 0ebb 4df2 a1bc e485 02bc
00000160: 2e2b 9d3b d3c0 eebb d5b7 b9bb 1018 8fba
00000170: 70a6 d0bb 549d 3d38 b786 853c a783 0bbd
00000180: 1e8d a7bc fc02 5cbc d8a6 8bbc bb96 cb3b
00000190: 14ef 123c bdd5 9c3b b214 72bb 9857 fdba
000001a0: ba70 c8ba 848b 103c e259 ff38 e0bd c8bc
000001b0: 08eb 84bc fdc9 aabc 84b2 1abb 3077 5cbc
000001c0: 464c f5bb d238 a7bc 4690 d1ba 5a65 c63a
000001d0: c07a 8b3b d4d4 913d 68c6 d53b 7937 433c
000001e0: 4f65 9fbc ebdb a33b 94c7 8fbc 71b1 eabc
000001f0: fa2e 923b d60e 0ebc f5f0 843c 7660 963b
00000200: a7df 1fbc 8026 6e3b e034 1b3c ccd7 5d3d
00000210: 35a0 043d 7879 4c3c 55ec df3c 993e 803b
00000220: 4bdb 183d 1a23 073d 1254 883d 1db3 fcbb
00000230: 3f09 c0bc 73ca 26bd 3a84 3b3d bd21 acbc
00000240: a9e9 503c aea1 4b3a 9c8d 0fbc 956f 34bc
00000250: 327a e13c 7d50 303d 4204 063c e999 ed3c
00000260: 8229 00bc eb51 2d3d 4281 813c 32c3 9c3b
00000270: 78a0 1f3b f02b 8d3c 3ba0 e8bc 4333 6c3d
00000280: bbbc b1bb 83c9 823c 8952 b83b 8071 b637
00000290: 6be5 d43c 922b 9abc 88e2 b5bc 0230 abbb
000002a0: a0d6 3a39 fd09 803c c480 10bb 6ddf fcbc
000002b0: cf7c bd3b 9639 cd3c 40e4 943d 766b 89bc
000002c0: 391c e1bb 80dc 3b3c 4c67 a5ba 8efb b63c
000002d0: 7fd8 493b 4172 00bc c011 803d 4575 603d
000002e0: 5788 fa39 527f 693d ad62 2cbb e366 bc3c
000002f0: 9e2f 513d 14c0 d4bb ec54 32bd 0315 163d
00000300: e63a 03bd
0.0147608435 0.012265778 0.00841572 0.030861849 0.006621331 0.0065611578 -0.0035518212 0.014342942
0.030051168 0.02858356 0.024437891 0.025673741 0.00013217053 0.002662736 0.038074523 -0.0065485467
0.031045835 0.041945994 0.03046916 0.028016979 0.023107538 0.028489076 -0.020288197 0.04180758
0.027646918 0.031647813 0.009994497 0.021415493 -0.022306366 0.013693117 0.012011283 0.010321323
0.034128394 0.01327861 0.045724846 0.04135726 0.028618852 0.03194789 -0.010602354 0.026893837
0.0438211 0.01382536 0.027911011 -0.0043559205 0.021253565 0.013480157 0.028559104 0.0060429093
0.06198558 0.013106851 0.015842631 0.031287815 0.055336878 0.03458108 0.026410684 0.012480676
0.019725626 -0.0011447242 -0.0049368995 0.033994045 0.032149427 0.012121019 0.01214299 0.01812397
-0.17376964 -0.0010127834 -0.023569167 -0.015534292 0.010864918 -0.006438448 -0.015729316 0.011968453
0.0023689787 -0.00096294616 -0.024420887 0.060982853 0.003869642 0.0077469107 0.018225798 -0.01266965
0.023631908 -0.006408507 -0.006540603 0.01671931 0.025997512 -0.0021679534 -0.019768858 -0.007966492
0.004796407 -0.00728617 -0.0056676664 -0.0010917205 -0.006367497 4.5207635e-05 0.016299589 -0.0340611
-0.020453032 -0.013428446 -0.01704733 0.006213037 0.0089681335 0.004786222 -0.0036938605 -0.0019328473
-0.0015292384 0.008822326 0.000121760895 -0.024504602 -0.016225353 -0.020848269 -0.0023604939 -0.013456151
-0.007485899 -0.020412836 -0.0015988431 0.0015136406 0.0042565763 0.07120672 0.006523896 0.011915081
-0.019457487 0.0050005815 -0.017551221 -0.028649064 0.0044611664 -0.008670529 0.016228179 0.0045891358
-0.009757913 0.0036338866 0.009473056 0.054160878 0.032379348 0.012480132 0.027334372 0.003913712
0.03731851 0.03299246 0.0665666 -0.0077117817 -0.023441909 -0.040720414 0.045780398 -0.021012181
0.012751021 0.00077679276 -0.00876179 -0.011012931 0.027524088 0.04304551 0.008179726 0.029004054
-0.007822396 0.04231445 0.015808705 0.0047840113 0.0024357121 0.017232865 -0.028396716 0.057666074
-0.0054241098 0.015965229 0.0056250733 2.1748943e-05 0.025988301 -0.018819604 -0.022202745 -0.005224229
0.00017818296 0.015629763 -0.0022049407 -0.030868256 0.0057827006 0.025051873 0.07270098 -0.016774874
-0.0068698195 0.0114661455 -0.0012619286 0.022336747 0.0030799208 -0.00783974 0.062533855 0.054799337
0.00047785297 0.057006188 -0.0026303933 0.022998279 0.051070802 -0.006492624 -0.04353802 0.036641132
-0.03203859
