Result/FD001/predictor.pth (torch, 6856 bytes, 8 tensors)

params f4 [8]
000000 2b f3 c7 42 eb ec c7 42 d7 f8 c7 42 a3 ee c7 42
       99.97494 99.96273 99.986015 99.96609
000010 5f f4 c7 42 8d ee c7 42 d7 fa c7 42 6d ee c7 42
       99.97729 99.96592 99.98992 99.965675

dnn.0.weight f4 [10, 65]
000000 94 b3 9c bd 9a 28 b7 3c 0b 79 86 bd d5 05 9b 3c
       -0.07651439 0.022358228 -0.06566056 0.01892368
000010 5c 69 10 bc c6 6c cd bd 4d 9d ad 3d d4 54 9c 3d
       -0.008814182 -0.100305125 0.08477268 0.07633367
000020 d3 52 1c bd 60 ca 9c 3d 23 90 91 3d 48 7c e1 3c
       -0.038164925 0.076557875 0.0710757 0.027525082
000030 72 a7 da bb ea 8f bf bc f7 80 f6 3c 51 ab 42 3a
       -0.006672793 -0.023384053 0.030090792 0.0007426041
000040 4b 56 28 bd b4 eb 23 be de 04 47 3d 7d fb 80 3d
       -0.04109792 -0.16007882 0.048588626 0.062979676
000050 72 3a 36 bd 89 91 83 bc 87 d3 22 bd 37 01 05 3e
       -0.04448933 -0.016060608 -0.03975251 0.12988745
000060 53 ae cb 3d 59 e5 3f bb 5b 5a d9 3d bd bf 48 bd
       0.09945359 -0.002928099 0.10612937 -0.04901098
000070 a1 a8 e9 3d 4b 06 5b bc f2 e7 72 bd 1b f8 b9 bc
       0.114091165 -0.0133682 -0.05930323 -0.022701314
000080 0f 33 16 3c ae 65 d8 b9 71 04 89 3d 7e 08 ef bd
       0.009167447 -0.00041274488 0.066903 -0.11671542
000090 8b 91 35 ba 67 30 a7 bc 5f bd 47 bd a9 96 46 bd
       -0.00069262896 -0.020408822 -0.048764583 -0.048483524
0000a0 f7 2a 86 3d 60 bf e7 bd 67 16 52 bc 25 f3 7f 3c
       0.06551164 -0.11315799 -0.012822724 0.015621935
0000b0 87 14 27 bd 04 da 84 bd 57 c3 81 b9 cb dd 03 bd
       -0.04079106 -0.06486896 -0.00024750337 -0.03219394
0000c0 6d d2 21 bd 77 36 7b bd a4 00 80 3d 40 f9 d4 3d
       -0.03950732 -0.06133124 0.06250122 0.10399103
0000d0 e9 1c f0 3d 7c e5 21 3d 99 ab c9 3d 18 c1 a0 bd
       0.11724264 0.039525494 0.09847183 -0.0784933
0000e0 89 a2 18 3e dd 71 d6 bd 66 87 d6 bd 84 11 3a bd
       0.14905752 -0.104709364 -0.10475044 -0.04542686
0000f0 a6 32 ce bc 96 9f 80 3d 25 5e e2 3d 7d e9 9b bd
       -0.025170635 0.062804386 0.11053113 -0.07612894
000100 ba 1d 69 bd 45 5d 79 bd ab 76 e7 bc d1 d0 44 bb
       -0.056913115 -0.060879964 -0.028254827 -0.003003169
000110 d5 a6 d4 bd 07 09 61 bd ed 84 8f 3d 40 39 58 bd
       -0.10383383 -0.05494025 0.070077755 -0.052788973
000120 f6 ae ae ba c4 e4 da bd 92 1d d1 bc f5 02 a9 3d
       -0.0013327289 -0.10688165 -0.025526796 0.08252517
000130 a7 10 23 3d e4 aa 07 be b1 a8 dc bd 46 63 9e 3d
       0.039810803 -0.13248783 -0.10774363 0.07733779
000140 e9 b0 b9 3c 9e 04 02 be ad e8 8a 3d f8 4d 93 3c
       0.022667365 -0.12697074 0.06782661 0.017981514
000150 ad 7d d5 3d a1 2f 52 3d 79 ab f6 bd d9 2d 8e bd
       0.104243614 0.051314954 -0.120444246 -0.069423385
000160 26 96 d0 3c 49 08 9b 3d d4 34 fb 3c 45 03 97 bc
       0.025462221 0.0756994 0.030664839 -0.018434176
000170 b5 92 43 3e 4e f9 92 bd 77 94 12 3c 30 7f 93 3b
       0.19098933 -0.07176457 0.00894653 0.004501246
000180 42 65 e4 bd ca 1b e2 bd 66 c5 b9 3d 5d 00 c2 3d
       -0.11152126 -0.110404566 0.09070854 0.094727255
000190 32 f1 9a bd 72 0a 9b bd 08 d9 c2 bd ba 93 86 3d
       -0.075655356 -0.07570352 -0.09514052 0.06571145
0001a0 c2 3f 12 bc a9 5c 03 3d 58 39 4e bd 6f 82 0c 3c
       -0.008926334 0.03207079 -0.050347656 0.00857602
0001b0 fc 8e 0a 3d 09 1d f2 3c 45 e3 8d bd 88 42 32 3d
       0.033827767 0.02955486 -0.06928114 0.04352048
0001c0 bd b5 f7 3d 4e 90 7e 3d 69 49 37 bd 86 f5 be bd
       0.12095211 0.06214934 -0.044747744 -0.09324174
0001d0 97 01 07 bd 43 67 b1 3d 7c 5e a1 bc 72 b4 0d 3e
       -0.0329605 0.08662274 -0.019698374 0.13838366
0001e0 9d 08 7f bd db a8 46 3d 9a 6e b1 3d 28 51 bb bc
       -0.062264074 0.048500877 0.08663674 -0.022865847
0001f0 88 8e 3e bd e4 00 f4 3d 18 af 83 bd fd 7f 02 3d
       -0.046522647 0.119142324 -0.06429881 0.03186034
000200 1a c1 22 bc aa 83 bd 3d 14 0d cc bd 18 b0 ad 3d
       -0.009933734 0.092536286 -0.09963432 0.08480853
000210 cf 94 cc bd ec 0e 63 bd 78 29 99 bd ad a3 09 be
       -0.099893205 -0.055434152 -0.07478613 -0.13441344
000220 de be b0 bd 4e 30 ea 3c 7c 5d 86 bc c0 06 fb 3d
       -0.08630155 0.028587487 -0.016401999 0.12257147
000230 7a 16 69 bd 32 c8 cd 3c 98 73 f5 bc 2c a3 b6 bd
       -0.0569062 0.025119875 -0.029962346 -0.08917841
000240 c7 e8 42 bc 31 b9 33 3c 6c 0e cd bd 5f 15 c4 3d
       -0.011896319 0.010969446 -0.100125164 0.09574389
000250 cb 0b b0 bd fe 99 0e 3d 83 d2 a5 bd 2f 59 ab 3d
       -0.08595999 0.034814827 -0.080967925 0.0836662
000260 58 b7 a3 bc 30 68 a6 bd 14 c2 dd 3d 51 48 8a 3d
       -0.019984886 -0.08125341 0.10828033 0.067520745
000270 9e 43 b4 bd d5 fb e8 3d c8 74 a3 3d 3e bf 61 3d
       -0.088019595 0.11376158 0.07981259 0.055114023
000280 f3 6e f8 bd 83 90 e2 bc cd dc 9f 3d 37 84 2a bd
       -0.12130537 -0.0276568 0.07805786 -0.041629996
000290 27 b4 b1 bd d9 1e 01 be 68 43 3c bd e3 2b f1 3d
       -0.086769395 -0.12609424 -0.04596272 0.11775949
0002a0 ad d9 a2 bd c7 d5 a8 bd d3 62 2b bd ab 5a 92 3d
       -0.079516746 -0.082439 -0.041842293 0.071462
0002b0 be 98 00 3e c0 5e b8 bc f0 a7 88 bd dd a3 77 3c
       0.12558267 -0.022506118 -0.066726565 0.015114752
0002c0 1a 34 9e ba a9 71 06 be 7d 9a 50 bd 8b 45 8c bd
       -0.0012069971 -0.13129295 -0.05092858 -0.06849202
0002d0 db be 52 bd 57 47 1a bd 9a 12 ec 3d 63 53 24 3d
       -0.051451545 -0.03766569 0.115269855 0.040118586
0002e0 3b 5b ec bb 89 35 b8 ba 73 1a 76 3d 5a 35 0a 3d
       -0.007213024 -0.0014054041 0.060083818 0.033742286
0002f0 d3 68 a9 3b d8 2c af 3d f1 59 e5 bd 79 c3 1a bd
       0.0051699667 0.08553475 -0.111987956 -0.037784074
000300 fa 39 94 bd 10 dd 72 3d eb b0 c4 bc 84 83 38 3d
       -0.07237621 0.059292853 -0.024010142 0.045047298
000310 b6 a6 a0 3d 27 dc 0a 3e d8 b7 86 be 3f 58 96 bd
       0.078442976 0.13560544 -0.26312137 -0.0734105
000320 9b 81 a2 3b c2 0b 0e 3e 50 e2 1c 3e 12 cc 1f be
       0.004959298 0.13871673 0.15320706 -0.1560519
000330 88 6d df bd 11 a5 05 3e a2 cf dd bd 0e 81 f8 bd
       -0.10909563 0.13051249 -0.108306184 -0.1213399
000340 27 63 cd bd 4f 73 fe bd 9e 1c 1c 3d 39 8e 99 bd
       -0.100286774 -0.12424337 0.03811323 -0.0749783
000350 4f 20 24 3d df 1a ad 3a 4b f1 23 be d3 86 2a bd
       0.040069874 0.0013206861 -0.16010015 -0.041632485
000360 9b a0 0e bd 1f 34 76 3d 25 7e b9 bd 86 de 33 bd
       -0.034821134 0.0601083 -0.09057263 -0.043913387
000370 c5 1b 84 bd 59 f0 ac 3d 19 d9 96 3b e2 b2 31 3e
       -0.06450609 0.0844428 0.004603517 0.17353395
000380 03 c5 98 3c 9b 94 7b 3d 49 21 35 bc 25 8e 0b be
       0.01864863 0.061421018 -0.011055299 -0.13628443
000390 47 02 fc bc 22 f4 eb bc 5b bc 1e 3e 7a f8 84 bd
       -0.030762805 -0.028802935 0.1550154 -0.06492706
0003a0 bd 1f a3 bd df 8d 01 be fd e9 22 bc 57 7b f4 bd
       -0.07965038 -0.12651776 -0.0099434825 -0.11937588
0003b0 19 3a 01 3c ae ba ec bc 75 b2 2d 3d 0c d2 d3 3d
       0.007887387 -0.02889761 0.042406518 0.10342798
0003c0 3d 87 f4 3c 37 20 2c 3d 3e 3c e6 3d 42 bc 8f bd
       0.029849643 0.04202291 0.11241959 -0.07018329
0003d0 67 04 dc 3b 6b 2d a4 3d 19 4a 8d bc b5 6e d6 bd
       0.006714392 0.08016475 -0.017247247 -0.104703344
0003e0 c0 c3 96 3d fb 56 76 3d c2 19 0c 3d 38 f6 83 bd
       0.07361555 0.060141545 0.034204252 -0.06443447
0003f0 25 a8 11 3d 02 8d 29 bd 61 f2 04 be 5a c6 18 3e
       0.035560746 -0.04139424 -0.12983085 0.14919415

dnn.0.bias f4 [10]
000000 99 2f ce bb 93 c6 04 bd b2 9a dd bd c9 bb b5 bc
       -0.006292295 -0.032415938 -0.108205214 -0.02218427
000010 74 5d 38 bd 7a 7e 19 bb f7 78 8f bd 5c 2a 65 3d
       -0.045011 -0.0023421333 -0.07005494 0.0559486
000020 16 31 13 bd 2b 12 b0 bc
       -0.035935484 -0.021493038

dnn.2.weight f4 [10, 10]
000000 10 25 e2 bd 01 91 db 3d 69 73 9b 3d 89 68 24 3e
       -0.11042225 0.10721017 0.07590372 0.16055502
000010 34 a6 d5 3d af da 95 be e5 51 66 3e c8 e5 28 bd
       0.10432091 -0.29268405 0.22492178 -0.04123476
000020 48 bb c3 3d 2d b3 07 bd 4f 2b 71 be 67 3a 14 3d
       0.095572054 -0.03312986 -0.23551677 0.03618851
000030 d3 5f 88 3e 11 29 8c be 1d 81 34 3c 36 4b 0b be
       0.26635608 -0.2737508 0.011017111 -0.1360291
000040 26 ad a3 3d ba 2f a4 be 1e 3c 85 3e 9d 43 0b be
       0.0799201 -0.32067662 0.26022428 -0.13600011
000050 85 59 19 3e 1e 95 46 be 96 c9 56 be 1a 93 82 bd
       0.14975555 -0.19392821 -0.20975336 -0.06375714
000060 52 9f 3b 3d 08 88 6c 3e 25 24 47 3c 25 c7 fc bc
       0.045806237 0.23098767 0.012154614 -0.030856678
000070 d4 0b 3e be 3a 1f 40 be 41 4e dc 3d d6 b3 09 3e
       -0.185592 -0.18761912 0.10757113 0.13447508
000080 be e1 66 be 84 ed 04 3e ec 12 47 bd 0f 73 30 3d
       -0.22547051 0.1298123 -0.04860203 0.04307848
000090 15 8a f3 3d 86 62 4e be b5 62 58 3d 1f 62 8e be
       0.118915714 -0.20154771 0.05282851 -0.27809235
0000a0 ff d1 54 be a0 2f e4 bd ee 6a 2f be cb 77 2c be
       -0.20783232 -0.11141896 -0.17130634 -0.16842572
0000b0 50 54 75 bd 54 ef c5 3d e7 ec 92 3e 37 b6 e4 3d
       -0.05989486 0.09664789 0.28696367 0.11167567
0000c0 88 82 88 be b2 2b 1e bd 30 1f 04 be cd 70 89 3e
       -0.26662087 -0.03861589 -0.12902522 0.26843873
0000d0 d3 0b 90 be 3c 8a e1 3d cb c9 29 be 33 78 f3 3b
       -0.2813402 0.11012694 -0.16580884 0.0074301003
0000e0 62 2a 67 be 85 a0 cc 3d 10 d3 26 3c e7 12 8b bc
       -0.22574762 0.09991554 0.010182157 -0.016976787
0000f0 70 45 87 be 45 f1 48 3e fc ab 55 3e 30 a4 8a bd
       -0.26420164 0.19623287 0.20866388 -0.067695975
000100 d3 02 9e be a7 78 84 bd 55 be e9 bd 2e 4b 39 be
       -0.3086153 -0.06468325 -0.11413256 -0.18095085
000110 9d 85 9b 3e af 38 db 3d 0e e4 9f bb ad 5e 8d bd
       0.30375376 0.10704171 -0.004879481 -0.069028236
000120 dd 06 00 3e 2c 01 87 be d2 b0 62 3e 04 7b aa bc
       0.12502618 -0.26368082 0.22137764 -0.020810612
000130 6f 89 8a 3d df 10 2b 3c 67 94 41 be 9c 40 81 3e
       0.06764495 0.010441034 -0.18904267 0.25244606
000140 d1 17 1f 3d 6d 7a 6b be a0 25 28 be a4 16 9f bc
       0.038841072 -0.2299592 -0.16420603 -0.019419976
000150 10 26 56 3e 16 b0 51 be c9 09 97 3e 7d e7 5c be
       0.20912957 -0.20477328 0.29499653 -0.21572681
000160 a0 14 8d be 9b 5e d7 3d 8e 0f 88 be ca 0c 9a bc
       -0.27554798 0.105160914 -0.26574367 -0.018804926
000170 58 b9 70 3e 86 32 4c 3e 88 c9 32 be 8f 76 76 3d
       0.23508203 0.19941148 -0.1745969 0.06017166
000180 15 f1 95 be 04 86 9d be ef 29 7c 3e 5e 7f bb 3d
       -0.29285493 -0.30766308 0.24625371 0.09155153

dnn.2.bias f4 [10]
000000 c6 b6 2c be eb c3 08 3e 07 fa 4d be a3 02 85 3e
       -0.16866598 0.13355987 -0.20114909 0.25978574
000010 b1 d9 04 3e 78 72 a3 be 86 87 7c 3e 47 bc ec 3c
       0.12973668 -0.3192327 0.24661073 0.028898371
000020 de 79 1f be 36 7b 8e be
       -0.15573832 -0.27828377

dnn.4.weight f4 [10, 10]
000000 1f e3 97 be c9 f9 90 be 10 89 37 3e fe b0 90 be
       -0.29665467 -0.2831557 0.17923379 -0.28260034
000010 b9 cc 50 be b9 24 2a be 01 4c 74 bd 7d 90 d7 3d
       -0.20390595 -0.16615571 -0.059642795 0.10525606
000020 e9 cd b4 bd 80 f8 64 be 46 30 a0 be a8 80 ba bd
       -0.08828337 -0.2236042 -0.3128683 -0.091065705
000030 fd 31 4d 3d 5e f1 34 3e 33 f5 24 bd 28 13 eb b8
       0.0500965 0.176702 -0.040272903 -0.00011209241
000040 5c fa 7d be da 78 34 3e 99 54 43 3d b3 e8 93 be
       -0.24802536 0.17624226 0.0476881 -0.28888473
000050 8e 50 f8 3c f2 16 f1 3c 0f 7a d5 bd 34 a3 05 3e
       0.030311849 0.029429886 -0.104236715 0.13050538
000060 b4 6c 89 be f2 90 b4 3e b2 0e 5c 3e bf b8 34 be
       -0.26840746 0.35266834 0.21489981 -0.176486
000070 30 d3 9b be f8 7c 8f 3d ad db 9d ba cb 59 98 3e
       -0.3043456 0.07006258 -0.0012043618 0.29756007
000080 0d 99 07 3e f6 f4 64 3e c8 f5 af be 88 53 80 be
       0.13241978 0.2235907 -0.34367204 -0.2506373
000090 17 bb 75 be b4 d6 4d 3e 8a 97 52 be 69 3b 66 be
       -0.2399715 0.20101434 -0.2056562 -0.224836
0000a0 e2 b8 04 bd 0c 11 06 3e 3b f2 2a 3e 36 0f 6f 3e
       -0.03240288 0.1309244 0.16693966 0.23345646
0000b0 0d ad 52 3e 48 57 ed 3d 00 67 9f 3e e5 98 9a 3e
       0.20573826 0.11588913 0.3113327 0.30194774
0000c0 f9 f4 1a 3e bb aa 08 be 3d 5e 11 be 9d 9d 86 be
       0.15132512 -0.13346379 -0.14196105 -0.26292124
0000d0 d1 24 3a be 5b 94 43 be 29 93 e3 3d 6f 5a ac be
       -0.18178107 -0.19099562 0.11112053 -0.33662745
0000e0 1b 71 d7 bd 57 49 30 3e 46 e0 09 bd 63 79 6f be
       -0.1051962 0.17215477 -0.03366115 -0.23386149
0000f0 33 73 18 be 41 d1 d5 bd f2 06 84 be f7 d9 25 be
       -0.14887695 -0.10440303 -0.2578655 -0.16196428
000100 a5 f3 1e bd ec 04 ef bd 20 d2 c4 bc 5c 45 17 3d
       -0.038806576 -0.11670861 -0.024025977 0.03693138
000110 04 2c e0 3d c6 83 65 be e0 4f 8c be 92 d4 9a 3d
       0.10945895 -0.22413549 -0.2740469 0.07560076
000120 09 25 83 3d d8 76 03 3e 5a 4b a4 bd e5 f7 ab bd
       0.06403548 0.12838304 -0.08022185 -0.083968915
000130 3f 1e 90 3e 30 0c 19 be 11 ff 29 3d c4 33 84 3e
       0.28148076 -0.14946055 0.041503016 0.25820744
000140 f0 8b 5e be 5f b7 3d be 2c c1 b8 be 64 54 84 bd
       -0.2173307 -0.18526982 -0.36084878 -0.06461409
000150 88 e6 36 be f2 76 f8 3d e2 4b 82 3e 80 3f 13 3e
       -0.17861378 0.12132062 0.2544852 0.14379692
000160 8f 4e fc bd ba 8c 02 be cc 99 0c be 1a c6 dc bd
       -0.12319671 -0.12748995 -0.13730544 -0.107799724
000170 33 ca 7c be 6f cd 02 3e 3f 15 f9 bd 67 ef d6 3d
       -0.24686508 0.12773679 -0.121622555 0.10494881
000180 de d5 51 3e de 0c 5d be 33 ce 81 3d 59 50 b8 3d
       0.2049174 -0.2158694 0.063381575 0.089997

dnn.4.bias f4 [10]
000000 84 a6 d7 bd 29 d4 25 bd 33 42 8d 3d f4 a2 aa bd
       -0.10529807 -0.040485535 0.06897392 -0.08331862
000010 ed 30 f6 bc 96 9e 37 3e 5e 85 52 3c 63 05 2c be
       -0.030052627 0.1793159 0.01284918 -0.1679893
000020 49 84 30 3e f4 fe 9a be
       0.17237963 -0.3027264

dnn.6.weight f4 [1, 10]
000000 30 18 95 be 8b 24 ab bd 6a 0c fc bd e3 cb 46 3b
       -0.29120016 -0.083565794 -0.12307055 0.0030333928
000010 29 ea 98 3d 74 d6 3f 3e 75 86 2f be f6 f6 09 3d
       0.074665375 0.18734151 -0.17141135 0.033682786
000020 48 a1 70 ba 17 dc 83 3e
       -0.0009179306 0.25753853
