Result/FD003/hsm.pth (torch, 54146 bytes, 28 tensors)

feature_embedding.weight f4 [15, 14]
00000000: 9cf0 36be 038d 87bd e276 25be 4370 8ebe
00000010: 1e4a 51bd 67d3 9abe e694 b83d 7958 813d
00000020: 0bfa dc3c e9a6 1a3e 1c9f 843c 0512 503e
00000030: dacc 17be bea7 6dbc 6496 8cbe 8ee6 363d
00000040: 2fe4 50be 151f 383e 60db 363b aa64 bf3d
00000050: 5ae6 2a3d b688 8abe a63e 3f3d 9210 b5be
00000060: d348 17be 0803 47be 8bd4 0abe 01d3 e03c
00000070: d348 9bbd 2620 0fbd 4496 d1bd f76f 443e
00000080: 91e6 83be e3f6 94be 7d9c 80be 96bf 4ebe
00000090: 8947 19be 065b 60be f8c1 e5bd 9aef 043e
000000a0: a342 773d b8c6 1fbc ba61 8dbc fdb5 80bd
000000b0: 5a3d 863d 8b6c 843e bd70 00be 59e8 29bd
000000c0: 0baf adbc 48f6 013f b64d f73c e44e d7bc
000000d0: 621b a5bd 1e25 263e 0a41 113e 5381 c03d
000000e0: 5cdb ebbd 06c0 7d3e 96ab 033d 8982 d4bd
000000f0: 2d5e 133e 3063 f7bd cf48 94be c2fe 59be
00000100: 7d13 75be edaa 99be 6aac 64bd 3175 a6bd
00000110: fbb9 163e 5cd5 213e 6b54 913c b0be 7a3d
00000120: 31aa c1bd f379 863e 91f1 243e c84d 8e3e
00000130: c17e 3ebd 3e46 d93e aea1 0fbd a690 e03e
00000140: eb7e 5abe 184f 55bd 7967 dcbd 1c45 58bc
00000150: e15d 053e f52b 0fbe 4dfe d53b cbb8 52be
00000160: 90ed afbe 2c80 f2bd 4084 d7bd 96c1 873c
00000170: 702f d1be 701b 5b3e 47b6 c63d f813 563d
00000180: 8cb0 dbbd 2a64 1b3e bba6 4b3c 69d2 14be
00000190: eea6 b3bc 8846 e63d 1d91 1abe 510e 59be
000001a0: 5da1 90bc 02d1 7bbe 1eb0 92be ac3a babd
000001b0: c89d be3d c9f6 0fbe 399b 2d3d 2460 073e
000001c0: 22f0 30be 4184 cebd c3ce 82be 4101 96be
000001d0: 14cb b13d 3ed3 b83d 33ec f8bd bd10 a23d
000001e0: 353c b7bd ee8c b3be 8d20 d1bd 4fea 24be
000001f0: 7763 6fbe 3210 f1bd 661f 313d 7d7a 833d
00000200: bd90 7ebd 064f cbbd b927 863e 02a8 2fbe
00000210: 1436 ed3d fee3 51be 8bb0 debd 2959 03be
00000220: 4719 4a3e 456b 1e3e 799a 1cbe 708f 71bd
00000230: a17d 03be f2f8 2b3b 5b4b f93c 9b79 d43e
00000240: a8b2 d3bd 376e 2e3d 4cdf aa3c 7091 31bc
00000250: 580e bdbb db94 bd3e 6e94 2abe b20a d43d
00000260: f6b0 0f3d 7bf1 7c3e 83b9 383e 429a 12be
00000270: f7db 063e 280b 14bc 13f2 96bc f38c 54be
00000280: 0287 a2be 7c91 8bbd 3998 1b3c 7e7e 383d
00000290: e246 6ebe 5b8c 53be 6748 e43d d66a a0bd
000002a0: 4cfb 8c3d 6c5a f93c bf2b 1f3c 0293 76bd
000002b0: f515 bbbe 86cc b43d 374a 3b3d 8177 89bc
000002c0: 0299 8abe a2a2 243e 4491 463e 6465 7c3c
000002d0: 0d09 403e ecce 41bc 3fb4 173e 87c8 0b3e
000002e0: a5b5 2b3d 1cc5 6f3e 584d 9c3b f5b1 b7bb
000002f0: c4df ffbd ea7a c33d 33c9 e73d f7a1 a1be
00000300: b96c fbbd 971e 973c 8480 023b f3c5 f83d
00000310: 6c4f a4bc f662 203d f81a d2bd c5e4 0c3f
00000320: 1c96 25be 05eb 133e 92b6 413d df1d ef3e
00000330: 0210 2b3d 05cc ebbc 8f53 a43d 6420 d2bd
00000340: 474f 243e 589d 07be
-0.17865223 -0.06618693 -0.16158631 -0.27820024 -0.051096074 -0.30239412 0.09012775 0.06315703
0.026974699 0.15102734 0.01618915 0.20319374 -0.14824238 -0.014505325 -0.2745849 0.044653468
-0.20399545 0.17980607 0.0027901754 0.09345372 0.041723587 -0.27057427 0.046690606 -0.35364205
-0.14773874 -0.1943475 -0.13557641 0.027444365 -0.075822495 -0.03494277 -0.10233739 0.19183336
-0.25761846 -0.2909461 -0.2511939 -0.20190272 -0.14968695 -0.21909723 -0.11218637 0.12982026
0.060366284 -0.009751968 -0.017258514 -0.062847115 0.06554671 0.25864062 -0.12543006 -0.04148135
-0.021201631 0.5076642 0.030188423 -0.026282735 -0.080618635 0.16225097 0.14184967 0.09399667
-0.11516449 0.24780282 0.03214606 -0.1037646 0.14391394 -0.120794654 -0.289618 -0.21288589
-0.23933215 -0.3001322 -0.05582849 -0.08127821 0.14719383 0.15804046 0.017740449 0.06121701
-0.094562896 0.26264915 0.16107775 0.27793717 -0.0465076 0.42436403 -0.0350663 0.43860358
-0.21337478 -0.052077383 -0.10761923 -0.013200071 0.13024093 -0.13981612 0.006530559 -0.20578305
-0.34360933 -0.11840853 -0.105232716 0.016571801 -0.40856504 0.21397185 0.097027354 0.052265137
-0.10727033 0.15174928 0.012429888 -0.1453339 -0.021930184 0.112439215 -0.15094419 -0.21196868
-0.017655069 -0.24591449 -0.28649992 -0.09093222 0.09307438 -0.14058985 0.04238436 0.13220268
-0.17279103 -0.10083819 -0.25548372 -0.29297832 0.08681312 0.09024666 -0.121544264 0.07913349
-0.089470305 -0.35068458 -0.10211287 -0.16105007 -0.23377787 -0.11770667 0.043242835 0.06419847
-0.062149752 -0.09927182 0.2620218 -0.17153934 0.1158258 -0.20497128 -0.10873517 -0.1282698
0.19736205 0.15470608 -0.15293302 -0.058974683 -0.12840892 0.0026240912 0.03043144 0.41499028
-0.1033681 0.042585578 0.02085843 -0.010837898 -0.005769532 0.3702763 -0.16658184 0.103536025
0.035080872 0.24701492 0.18039517 -0.14316657 0.13169847 -0.009035863 -0.018425977 -0.20756893
-0.31743628 -0.06814858 0.009496742 0.045042507 -0.23269227 -0.2065901 0.11146622 -0.07832877
0.068838686 0.030438624 0.00971502 -0.06019879 -0.3654019 0.08828072 0.045725074 -0.016780617
-0.2706986 0.16077664 0.19391352 0.015405033 0.18753453 -0.011829119 0.14814852 0.13650714
0.041921277 0.23415035 0.0047699623 -0.005605931 -0.12493852 0.09544928 0.113176726 -0.31568882
-0.122765966 0.018447204 0.0019913027 0.12147131 -0.020057403 0.039156877 -0.1025905 0.55036575
-0.16170543 0.14445122 0.047293253 0.46702477 0.041763313 -0.028783808 0.0802375 -0.10260084
0.16045867 -0.13243616

feature_embedding.bias f4 [15]
00000000: 15be bebd 594a debd 2310 9b3e 145f cb3d
00000010: 59b6 e3bd c83e 43be 3df0 a83d ba4b e63b
00000020: 2d74 023e 2c4a 8b3e c5ef ffbd 9e5f 2bbe
00000030: 5d71 b63d bdc4 493e ecfb 2b3e
-0.09313599 -0.108540244 0.3028575 0.09930244 -0.111187644 -0.19066918 0.08248947 0.0070280703
0.1273963 0.27205026 -0.12496904 -0.16735694 0.08908341 0.19703956 0.1679532

transformer_encoder.layers.0.self_attn.in_proj_weight f4 [45, 15]
00000000: 4f5a ebbd 5f75 9e3c e1ce e53d a2ef a93d
00000010: 4edf f1bd a838 9abe 994f 043e 6c3d 8b3d
00000020: 1c50 70be 2a69 0e3d 0297 88be 0c55 32be
00000030: 6779 1e3e 2a93 2b3e 7f77 923e f364 72be
00000040: 9fdf aabd 5fb2 ae3c 0d1f 593e 1fd3 193e
00000050: 3a58 873b a7e0 473e 3c4d 5bbc 8a0f 85be
00000060: ec63 213e 94b3 76be b888 d63a 9004 2c3e
00000070: 69f3 89be 5d60 333e ba3d a0be 15e7 2dbd
00000080: 8349 233e 8a15 923e 8ab9 053e 92e2 a73d
00000090: c5ed 363e bc64 bfbd e7b3 813d 0f5c d0bd
000000a0: 27f1 4ebe 520f 963e ffdf 92be f123 32be
000000b0: 54d2 863d 3953 523d c1a3 0d3e 38c2 e0bd
000000c0: 8401 08be 3691 30be 86db 62be c17a 833e
000000d0: 4b48 42bd 4ae3 b73e 08b8 9c3e 9e4d 52be
000000e0: 9e5a 4abe 3558 15be 68cd 20be 1028 ad3e
000000f0: 5430 37bd 92f0 563e 2d69 56bc c917 c73d
00000100: 0ab7 82be dd12 9fbe c08a 8c3e 5e09 92be
00000110: db98 913e 5696 90be d464 6d3e 5d93 8dbd
00000120: 2f84 aeba cbbb d1bd ea90 7f3e c498 8e3c
00000130: 928c 3b3e 08c8 aabc 61ef 8c3e 41c8 efbb
00000140: ec3f 7d3e 5062 563d 3ba0 bc3d 4af3 9abe
00000150: 9b56 e73c 14f8 83be 24e4 16be 871e 2dbe
00000160: 9ff3 9b3e ca13 70be 718c f93d 5883 60be
00000170: 2882 5fbc 12c2 823e 804d 83be bb61 99bd
00000180: d9f8 c13d 8ca5 943d 0e8a ed3d f482 1ebe
00000190: 3333 93bd 53e4 a13e aa20 e43c aa9d 9fbd
000001a0: fa1c 05be 924c 91be cafd 87be 500a d6bb
000001b0: 1e1c 8a3d 3a9b 5f3e 2f32 70be 8161 3e3d
000001c0: b77c 953c 3bf0 85bd 64c5 34be 4066 21bd
000001d0: 5de4 a23e e889 7abe f5be ef3d bd60 a8bd
000001e0: 5474 573d ec36 843d 2b1f f3bd fa17 f7bd
000001f0: 626b 083d 4b51 833d 068d acbe 3cb8 573e
00000200: 3285 d0bc 19c5 ca3d b073 94be 241d c13d
00000210: a598 d13d 68ea c4bd b709 743e 0946 883c
00000220: 6a14 333e 2040 09bb 5282 443d 2a7d 2d3d
00000230: 5d46 843e b4d5 e83d 9283 4dbe 37b1 b83c
00000240: ddc6 0d3e ac3e 9abe 3fb7 1abe 8ad9 c53d
00000250: c947 b5bd f834 e0bd bcc7 2bbe b3bc 223e
00000260: 1e93 663e 5efb 9c3e 6f7a 95be ca49 863e
00000270: e253 4ebe 9c71 8a3e 5984 763d 0227 553d
00000280: 5708 e3bb 820e 64be cca8 523e 2922 10be
00000290: b912 913e 4c1a 753d 0148 543e 3290 173e
000002a0: 036b bf3d eee4 853b 43d2 4cbe 098e 42be
000002b0: 923b 52be 4ec0 a33e f30f 573e 0500 953e
000002c0: 24ba 593a 93f1 983d cfed 283e 7cb4 2abe
000002d0: add0 973e dc21 41be 8da9 47be a75e e83d
000002e0: 7011 ff3d 52e5 193d 6d8d 0e3e 1d87 1a3e
000002f0: bd16 283d 5751 23be 857b 173e 6edc 94be
00000300: 5a0b 973e f5d6 94be ca6c 79bd ce18 29be
00000310: b3e2 0ebc 0950 ff3c 8882 2dbe bff5 7a3e
00000320: 838f 05be c3e9 953c dc13 66be e159 0cba
00000330: 563a a2bc 031b a73d 6b8a 5bbe 48ff 8dbe
00000340: 514e 79be 6418 71be 28fd aebd e30e 0b3e
00000350: fb76 473e 35ab 28be ac4e 983d f5e4 b5be
00000360: ee91 4d3e 06d1 48bd e69d bbbd a60f 9c3d
00000370: 7107 543e e1b5 9dbe 2bf3 2b3e 3e15 923e
00000380: f454 403e d123 523e 1698 8f3e d144 cbba
00000390: 046b 1fbe 1b43 473e 6aec a03e 4e9c 50be
000003a0: 4d0d 41be ee20 06bc 39b0 0abe b60d 133e
000003b0: e6e6 85be 726f 923e 2c9f 87be d6f4 8ebd
000003c0: 8016 89be 5212 803e fe80 0e3e b78c 21be
000003d0: 03ee d63c 306c 8b3e 9426 96be 3512 853e
000003e0: d6e2 543d 2867 023e 0f2b 60be aaf9 d4bc
000003f0: cc70 5bbe 4b7a 093e 959a 77bd 2495 833e
-0.11491834 0.019343076 0.112211 0.082976595 -0.1181017 -0.3012135 0.12920989 0.06798825
-0.2346806 0.03476826 -0.2667771 -0.17415255 0.15475999 0.16755357 0.28606793 -0.23671322
-0.083434336 0.021325288 0.21203251 0.15021943 0.0041303905 0.19519292 -0.013385113 -0.25988418
0.15760773 -0.24091941 0.001636765 0.16798615 -0.2694352 0.17517228 -0.31297094 -0.042456705
0.15946011 0.28532058 0.13059059 0.08197512 0.1786414 -0.093453854 0.06333142 -0.10173809
-0.2020918 0.29308563 -0.2868652 -0.17396523 0.06583086 0.0513489 0.13831998 -0.10974544
-0.13281828 -0.17242894 -0.22154054 0.2567959 -0.047432225 0.35915595 0.30609155 -0.20537421
-0.1976113 -0.1458443 -0.15703356 0.33819628 -0.044723824 0.20990208 -0.013086599 0.097213335
-0.25530273 -0.3106908 0.27449608 -0.28522772 0.28436932 -0.28239697 0.23182994 -0.06912873
-0.001331454 -0.10240897 0.24957624 0.017406829 0.18315342 -0.020847335 0.27526382 -0.0073175733
0.24731416 0.05233985 0.09210249 -0.3026374 0.028239539 -0.25775206 -0.14735466 -0.16906177
0.30459306 -0.23445049 0.1218499 -0.21925104 -0.0136418715 0.2553869 -0.25645065 -0.07489344
0.09471292 0.07258138 0.115985975 -0.15479642 -0.071875 0.3161951 0.027847607 -0.07793744
-0.12999335 -0.2837873 -0.26560813 -0.006531991 0.06743644 0.21836558 -0.23456644 0.046479706
0.018247945 -0.06539961 -0.17653424 -0.039404154 0.31814852 -0.2446667 0.11706344 -0.08221576
0.052601174 0.06455788 -0.11871179 -0.1206512 0.033305533 0.0641199 -0.33701342 0.21066374
-0.025454137 0.09900875 -0.28994513 0.09429386 0.10234193 -0.09615022 0.23831831 0.016634958
0.17488256 -0.0020942762 0.047975846 0.042355694 0.25834933 0.11368886 -0.20069721 0.02254544
0.13845392 -0.3012594 -0.15108965 0.09660633 -0.088515826 -0.10947603 -0.16775411 0.15892296
0.22517058 0.30660528 -0.29194972 0.26228172 -0.20149186 0.27039802 0.06018481 0.052039154
-0.0069284844 -0.2227116 0.20572203 -0.14075531 0.28334597 0.05983953 0.20730592 0.148011
0.09346583 0.0040861284 -0.20002083 -0.18999495 -0.20530537 0.31982654 0.21002178 0.29101577
0.000830563 0.074679516 0.16496967 -0.16670412 0.29651394 -0.18860573 -0.19498272 0.113461785
0.12454498 0.037572213 0.13921137 0.15090604 0.04103731 -0.15948997 0.14793213 -0.29074425
0.29500848 -0.2907025 -0.060894765 -0.16513368 -0.0087210415 0.031166093 -0.16944325 0.24507807
-0.13043027 0.018299943 -0.22468513 -0.0005353969 -0.019803207 0.08159449 -0.21439521 -0.27733827
-0.24346282 -0.2354446 -0.085443795 0.13579898 0.19478981 -0.1647156 0.074368805 -0.35526243
0.20075199 -0.049027465 -0.09160976 0.07620172 0.20705964 -0.30802825 0.1679198 0.28531832
0.18782407 0.20521475 0.2804572 -0.001550818 -0.15568167 0.19459192 0.3143037 -0.20372126
-0.1885273 -0.008186562 -0.13543786 0.14360699 -0.26152724 0.2860065 -0.26488626 -0.069802925
-0.2677498 0.25013977 0.13916394 -0.15776335 0.02623654 0.27230978 -0.29326308 0.25990453
0.05197414 0.12734663 -0.21891426 -0.025997955 -0.21429747 0.13425557 -0.060450155 0.25699723

transformer_encoder.layers.0.self_attn.in_proj_bias f4 [45]
00000000: a01a 993c 12e9 153b 2aef b4bb e66e 6fbc
00000010: ccf6 fe3a 6fb4 22bc 3627 f4ba 4d95 68bd
00000020: a5b3 fd3b 55a7 71bc 1112 bf3d 7991 b03d
00000030: 5636 693d 4a42 94bd dd87 8dbd 574a f23b
00000040: 07b4 6b3b 2cef 3a3b f45b 1fbb 6060 53bb
00000050: 919b 443a 5414 f8bb d824 5c3b 7478 80bb
00000060: d7b4 43bc e2a4 5dba f2bd 3cbb 1c00 25ba
00000070: c441 943b fe53 4dba 94b0 073b 7c3c 803c
00000080: c1d0 3a3d 4f78 ec3a a146 1bbc eb0b 02bc
00000090: 98c7 d13a b894 5b3c f2dd 963a ecb4 073d
000000a0: 335c f7bc 1aa9 f938 728e 683a c47d 923c
000000b0: fa20 a53c
0.018689454 0.0022874516 -0.0055216746 -0.014613843 0.0019452213 -0.009930714 -0.0018627408 -0.05678301
0.0077423626 -0.014749368 0.09329618 0.08621497 0.056936584 -0.07239206 -0.069106795 0.007394116
0.003596546 0.0028523905 -0.0024316283 -0.003225349 0.0007499988 -0.0075707827 0.0033591297 -0.003920609
-0.011944971 -0.00084550504 -0.002879974 -0.0006294267 0.0045244414 -0.0007832645 0.0020704614 0.015653841
0.04560924 0.0018041226 -0.009477288 -0.007937412 0.0016004918 0.0134021565 0.0011510237 0.033131525
-0.030195331 0.00011904743 0.00088713237 0.017882235 0.020157326

transformer_encoder.layers.0.self_attn.out_proj.weight f4 [15, 15]
00000000: 667e 19bd b49c e3bc cd5d 7c3d 682c 4f3e
00000010: d923 89be e0bb 6fbd c295 303e f7a1 3c3e
00000020: 9a6b 423e 9f2d e13d c588 5c3e f6c1 2abe
00000030: c446 0bbd 0fa1 cb3c 3716 173e 379d e13c
00000040: 0dc3 0a3e e3a5 49be 51e4 54bc ec89 fa3d
00000050: b530 f43d bf55 d13d a04d 193e 3ab3 1bbe
00000060: 95e2 cf3b 27f2 633e f274 3d3e bab6 0c3e
00000070: 982f 52be 1b35 f3bc 9cbc 29be ea98 5e3e
00000080: e228 4b3e 3de5 fc3d 9a8d 66be dbb4 23be
00000090: f13c 0fbd 4e91 923d b0c7 1c3e 2c2e 2fbd
000000a0: e7b4 6cbe a8f0 96ba 98fb df3a 6a23 013d
000000b0: e0fb c83d 3fc7 023d 5275 c7bd 25d7 34be
000000c0: 8ce6 d23c 108c 89bd 286b 6ebe 0337 bebd
000000d0: 6f67 96be e5c7 03bd 1820 6ebd 3c94 0fbe
000000e0: c664 383d dce3 e13b 9434 15be e1e1 a03d
000000f0: 408e 65be 1672 323a 9b90 253e b541 353e
00000100: 950d 653d f986 02bd 0745 1f3d c1fb 3cbe
00000110: 2ac1 87bb a13a 4f3e 4cb8 b9bd bc49 28be
00000120: 29f4 213e 396d ce3d e935 1f3e 1166 0bbe
00000130: 841c ccbd ac0b 58bd e789 bcbc d8e9 763d
00000140: 121b adbd f17a 72bd c369 37be 7004 f9bd
00000150: aa5c 1dbe da5c e3bc fc42 e43d ca32 a63d
00000160: 3e90 a83c dfd9 20be f097 43bb d430 943c
00000170: ce07 0e3e 72da 133d 40ea 483d 3844 7e3e
00000180: 9ae4 2a3b 2d16 56be 90f8 3fbe a5a2 293e
00000190: c4c3 06be facd 913c 5943 3d3d ece4 51bd
000001a0: 8261 55be 3ca7 46bc f834 fd3c f5ba e6bd
000001b0: dcc4 b63b e78e 293c 0a9f e93d adab acbb
000001c0: e5dc 353e aed4 473e ccb0 053e c45f eabd
000001d0: 4e1e 13be 4573 e93d e90c b6bd c253 6cbd
000001e0: fb5a 2cbe 5429 203d 39fb 9fbd b805 d2bd
000001f0: 440c 64bc f82f d53d c65e 86be efb1 2cbe
00000200: f95a f73b 7659 c23d be7d 14bd 31c9 82bd
00000210: e411 23bd 2453 7fbe ec35 39be fb60 33be
00000220: 2857 d7bb 0c0d 14be 1979 8b3d 2603 9e3d
00000230: d746 11be b925 d43d 64f8 f83b 98c7 25bc
00000240: 3563 663e 5593 36be 4d72 033e 505e 14bc
00000250: 3aad 5e3d f919 06be 27cf 2c3e 38a7 1ebe
00000260: 0416 0fbe e663 a23e 95fd 20bd fe8f b9bd
00000270: c61c 70be bced 89be 08f9 3dbe 1768 d5bd
00000280: 3918 35be 8f92 843d e65f 92bd b61a 1bbe
00000290: 0459 26be 8a5b 8c3e d16b a7bb bcbf 853d
000002a0: d2f8 1739 e6b0 6a3e 955e 97bc 96bf debd
000002b0: fdbf 48bd 9d21 1bbe 0005 64bd 002e e83d
000002c0: 6857 c73d 9e3b b23d ec4e 1f3d 6b31 3d3e
000002d0: 3de8 0abb 0fb5 fabd 7461 04be 9739 37be
000002e0: d446 5fbd 60b2 ed3d 8dd3 683e e339 38bd
000002f0: 2dd3 2e3e b15b d0bd 2877 0a3e 03e5 083e
00000300: dbce b1bd 85b3 e43c a8de 0cbe b890 c0ba
00000310: 45da 563e 9462 e1bd 5f2d 233e 61da 93bc
00000320: fafd 48be a112 9e3c c6e6 4fbd 2772 16be
00000330: 64a1 3b3e 23eb 1fbe 70d5 503e 8934 96bd
00000340: 63b8 69bd 7c8e 133e 5918 9cbd 43e9 1bbe
00000350: ad8b c7bd acdf bf3d 0a46 3bbe 9625 bebd
00000360: 22f4 703d 646b 533d 6f41 263d 35a3 473e
00000370: ea20 abbd ab88 3a3c 9412 ba3c 00ee 78be
00000380: 7ae4 0dbe
-0.03747406 -0.027784683 0.061612893 0.20231783 -0.26785162 -0.05852878 0.17244628 0.1842116
0.18986359 0.1099503 0.21536548 -0.16675553 -0.034003034 0.024857072 0.14754568 0.027540786
0.13550968 -0.19692187 -0.012993888 0.12233338 0.11923353 0.10221433 0.14971018 -0.15205088
0.0063441494 0.22260343 0.18501642 0.1374158 -0.20525968 -0.029688409 -0.16575855 0.2173802
0.19839814 0.12348411 -0.22514954 -0.1598696 -0.034970228 0.07156621 0.1531055 -0.042768642
-0.23115884 -0.0011515813 0.0017088531 0.031527914 0.09813666 0.031928297 -0.09739174 -0.17660196
0.025744699 -0.06716168 -0.23283064 -0.092878364 -0.2937579 -0.032173056 -0.058136076 -0.1402139
0.04501798 0.006893618 -0.14570838 0.07855583 -0.22417545 0.0006807161 0.16168444 0.17700846
0.055921156 -0.031867 0.03888419 -0.18455411 -0.0041429 0.20237209 -0.09068355 -0.16434377
0.15815796 0.10079426 0.15547909 -0.13613154 -0.099663764 -0.052745506 -0.023014976 0.060281605
-0.08452429 -0.059199277 -0.17911439 -0.121590495 -0.1536738 -0.027754236 0.11145589 0.08115156
0.020576593 -0.15708111 -0.00298452 0.01808969 0.13870165 0.036096998 0.049051523 0.24830711
0.0026076199 -0.20906897 -0.18747163 0.1656595 -0.13160616 0.017798413 0.046206806 -0.051243708
-0.20837978 -0.012124833 0.030909047 -0.11266128 0.0055776667 0.010349012 0.114072874 -0.005269489
0.17760046 0.19514725 0.13055724 -0.11444047 -0.14367029 0.11398939 -0.08889181 -0.057697065
-0.16831581 0.039101914 -0.07811589 -0.10254997 -0.01391894 0.1040954 -0.2624418 -0.16864751
0.0075486866 0.094897196 -0.03625273 -0.063860305 -0.039811984 -0.2493406 -0.18086976 -0.17517464
-0.006571669 -0.14458102 0.06810207 0.07715444 -0.1418718 0.103587575 0.00759797 -0.010118388
0.22498782 -0.1782964 0.12836571 -0.009055689 0.05436442 -0.13095845 0.16875897 -0.15493476
-0.13973242 0.3171684 -0.039304335 -0.090606675 -0.23448476 -0.2693919 -0.18552029 -0.10420244
-0.17685021 0.06473266 -0.071471974 -0.15146908 -0.16244894 0.2741359 -0.0051092883 0.06530711
0.00014493175 0.22919044 -0.018477717 -0.10876386 -0.04901122 -0.15149541 -0.05566883 0.11336899
0.09733468 0.08702777 0.038893625 0.18475883 -0.0021195554 -0.122415654 -0.129278 -0.17893063
-0.054510906 0.11606288 0.2273695 -0.04497708 0.17072745 -0.10173739 0.13522017 0.13368611
-0.08682033 0.027917633 -0.13756812 -0.0014691567 0.209817 -0.110051304 0.15935276 -0.018048467
-0.19628134 0.019295992 -0.050757192 -0.14691983 0.18323284 -0.15617041 0.2039392 -0.07334239
-0.05706061 0.14409822 -0.076218314 -0.15225701 -0.09743438 0.09368834 -0.18288437 -0.09284513
0.058826573 0.051616088 0.040589746 0.19495852 -0.08355887 0.011385123 0.022713937 -0.2430954
-0.13856688

transformer_encoder.layers.0.self_attn.out_proj.bias f4 [15]
00000000: ea8b 0fbc 4a38 01bd 6d38 a33c 7942 eebc
00000010: e3c1 3f3c f964 1dbd 2167 723d 2283 e43c
00000020: 8581 bebb 5958 123b a858 23bd 4cfb c53c
00000030: 3156 ac3b 9333 143d 9ee8 ea3b
-0.008761385 -0.031547822 0.019924367 -0.029084431 0.011703941 -0.038426373 0.059180383 0.02789456
-0.00581378 0.0022330491 -0.03987947 0.02416768 0.0052592983 0.036181998 0.0071688434

transformer_encoder.layers.0.linear1.weight f4 [128, 15]
00000000: 1d91 babd 1717 f5bc 394a 6dbc f90a 85bc
00000010: fc01 df3c 092f 4ebb 0387 623e 8352 2dbe
00000020: 47c5 81be 3fb2 0f3d d689 b53c a8d9 2e3e
00000030: b20e b63d 3eb5 b3bd 1f3b 9bbc 8a4c f03d
00000040: 43a1 283d 9f93 a8bd b8b0 573e e7da 4f3e
00000050: 99c3 993d 2446 1bbd e897 8fbe f09a 123e
00000060: 4daa 5d3b 4e55 50be d870 fdbd e078 043e
00000070: f38b 2f3e 1807 2abd 11a7 723e 7e07 26be
00000080: 9f04 b53d 08f8 86be b574 723e 9c9d 963d
00000090: dc80 263e 88eb 67be c134 4c3e 0f16 0ebe
000000a0: 9278 703e df30 d6bc cf19 343e 7c47 6bbd
000000b0: eb21 613d ba42 f33d 12b1 273e 66bf 093e
000000c0: ed6e d5bd a851 1fbe 3d6d 3ebd 2ff6 0e3d
000000d0: f799 6e3e 400f 713e e854 823d 3733 bd3c
000000e0: adff d9bd ab56 543d 7c51 f3bc 18eb 643e
000000f0: a061 a7bd 61a1 0bbe bc4f 0b3e 0ee5 32bd
00000100: 5f21 92bd e9c7 953d 06e3 9bbd 3dce 2b3e
00000110: 2c73 5dbe 8030 573e 2a24 383d 8c43 ce3d
00000120: 725e 27be 9383 8f3d dd8b 2e3d a373 f73c
00000130: 5acb 3d3e fcae 0abe bd8f 2dbe 0a72 8bbd
00000140: 0c07 3fbe f3b3 3abd 3a0c 4dbd e35b 75bd
00000150: 84e0 dc3d 0a5c 063e 9bb3 22be fea1 60bc
00000160: 49e0 69b9 daa3 44be 60ba 603d 098e 153e
00000170: 8263 15be c73c 2e3d ce0e 583c 2698 5f3e
00000180: 938a 86be bcef 8fbd cfcb 40be 696d 4c3d
00000190: 3ae3 433e ea90 3fbd 776c 163e 810d d2bd
000001a0: 8888 6ebe 6ad4 88be bda5 373e 310e 313e
000001b0: 2aaf 963e daf0 a63d d995 033e bde9 7d3c
000001c0: 9c57 67be e472 813d c772 81be 89d7 39be
000001d0: f4c4 e1bd a172 6b3d 53cb b0bd 95cc 85bc
000001e0: 8a2f 9bbe e0e5 3ebe d256 d23c 58a0 e2bd
000001f0: 4eb1 483e b3a1 23be faea dbbd 1cf6 4fbe
00000200: 8ab3 b1bc b727 e53d db8a d3bc 288c 87bd
00000210: 3951 11be 2e4d 1f3c 99e4 943c 91ec 143e
00000220: 6991 7a3e 75a7 703c 6be7 20be 3317 d8bc
00000230: e5ae 193e d932 653d 298b 90be 2a41 ec3d
00000240: 058c 003e cd5f 2ebd 87e7 0bbe 0158 703d
00000250: 86e0 0dbe 934b 9b3e 84ed 9b3c 41ef 12be
00000260: 22e1 1d3e 4817 9e3d ce1d 693e fd8d 47bd
00000270: 0d11 6abe 8081 ccbc 1d92 873e cfb3 7abe
00000280: 0799 ec3a d6ab 243d c1f0 8abd f090 4dbd
00000290: 75ab 58bd d3dc 9d3d 6f49 c13c e8d0 953b
000002a0: 1d66 cfbd f1f8 8ebd c9d9 f13d 0d0c b43d
000002b0: 2924 62bd 5610 233e 169a 39be 7f08 76bd
000002c0: 4676 50bd a448 4bbe 970c 18be 306e 593e
000002d0: c174 f3bb 9c5d 653d 9600 b8bd c32f 51bd
000002e0: 6bc0 15be 0e15 1e3e 7ec3 97be b047 273c
000002f0: a927 aebd af4b 0cbe 7cff 1fbd b1b7 51be
00000300: e26c 263e dc52 cabd 62b1 00be cc9a 8e3e
00000310: c8a4 3f3e 17ef 603d c520 4abd 7bba 99be
00000320: bbd6 553e 87db 3e3d 13f8 833d b34a 9c3e
00000330: 863b 0f3c 41a1 cbbd 9369 0fbe 3caa 513e
00000340: 645d 4c3e 3b22 623e c62b d5bd ef4a 24bb
00000350: 3b7d 7c3d 5665 ae3d 7d5f 16be c8ed 373e
00000360: e724 c63c 9faa 8c3e 8e5d 643c d0de 553e
00000370: 655e 7c3d 7769 1e3e bca2 96bb 2b28 933d
00000380: 7a4d b73d 33e2 673e 7f0f e73d 4969 d7bd
00000390: 8a42 ccbb 4fe4 d4bd 4924 303e b6ba 343e
000003a0: b066 5e3b 2067 5cbe 7f8f 313e d64b 35be
000003b0: 6021 983c 20a5 98bd 4aa2 5f3d 641c 04be
000003c0: d8b6 a2be f8d4 103d 892d 343c 94d1 e03d
000003d0: 9513 113e c16d 5d3e f335 903d a4d9 793e
000003e0: d9cf 1e3e b1a7 a93d 68f2 b3bd fa74 7cbd
000003f0: 7d3d 0d3e 68c8 6bbe f366 e83d 1716 51be
-0.091097094 -0.029918237 -0.014483028 -0.016240584 0.027222626 -0.003146114 0.22121815 -0.16926007
-0.25345823 0.035082098 0.022160452 0.17075217 0.08889522 -0.087748036 -0.01894909 0.11733349
0.041169416 -0.082312815 0.21063507 0.20298348 0.075080104 -0.03790869 -0.28045583 0.14316916
0.003382343 -0.20345041 -0.12375039 0.12936735 0.1714323 -0.04151067 0.23696543 -0.16213796
0.08838772 -0.26361108 0.23677333 0.0735428 0.16260093 -0.22648442 0.19941999 -0.13875602
0.23483494 -0.02614635 0.1758797 -0.05744122 0.054963987 0.118779615 0.1637614 0.13451919
-0.10421548 -0.15558493 -0.046490896 0.034902748 0.2330092 0.23540974 0.06363851 0.02309571
-0.106444694 0.051840466 -0.02970194 0.22355306 -0.08172917 -0.1363578 0.13604635 -0.043675475
-0.07135271 0.073135205 -0.07611661 0.16777892 -0.21625966 0.21014595 0.044956364 0.10071477
-0.16344622 0.07007518 0.042613853 0.030206507 0.18534604 -0.13543314 -0.16949363 -0.068088606
-0.18655032 -0.04558177 -0.05006049 -0.059902083 0.107850105 0.13121048 -0.15888827 -0.013710497
-0.00022304164 -0.1920313 0.05486524 0.14604963 -0.1458874 0.04253843 0.013187123 0.21835384
-0.262776 -0.070281476 -0.18827747 0.04990903 0.19129649 -0.04676906 0.14689814 -0.10256482
-0.2329427 -0.2672456 0.17934318 0.1729057 0.29430515 0.081514075 0.12850131 0.015497622
-0.22592014 0.06320742 -0.2528288 -0.18148626 -0.11023894 0.057482366 -0.08632531 -0.016332904
-0.30309707 -0.18642378 0.025676165 -0.110657394 0.19598886 -0.15979652 -0.107381776 -0.20308727
-0.021692056 0.11189216 -0.025823047 -0.066185296 -0.1419114 0.009722991 0.01817541 0.14543368
0.24469532 0.014688362 -0.15713279 -0.02637825 0.15008123 0.055956695 -0.2823117 0.115358666
0.12553413 -0.04257183 -0.1366254 0.058677677 -0.1385518 0.30331096 0.019034155 -0.1434908
0.15417913 0.07719284 0.22765276 -0.048719395 -0.22858067 -0.024964094 0.26478663 -0.24482654
0.0018050977 0.040202938 -0.067842014 -0.05018705 -0.05289789 0.077081345 0.023594586 0.0045720227
-0.101268984 -0.069810756 0.11809117 0.08791361 -0.055210266 0.159242 -0.18125185 -0.060066696
-0.050894044 -0.19851929 -0.14848553 0.2123344 -0.0074296896 0.055997476 -0.08984487 -0.05107094
-0.14624183 0.15437719 -0.29641336 0.010209963 -0.08503658 -0.13700746 -0.03906201 -0.20480229
0.16252473 -0.098790854 -0.12567666 0.27852476 0.18715203 0.054915514 -0.049347658 -0.30025086
0.20882694 0.046596076 0.06443801 0.3052574 0.008742219 -0.09942866 -0.14005117 0.20475096
0.199575 0.2208337 -0.1040874 -0.0025069078 0.061642867 0.08515422 -0.14684863 0.179618
0.024187518 0.27473924 0.013938321 0.20885777 0.06161346 0.15469919 -0.004597036 0.07185396
0.08950324 0.22644882 0.112822525 -0.105181284 -0.006233518 -0.10395109 0.17201342 0.1764935
0.0033935718 -0.21523714 0.17339896 -0.1770471 0.018570602 -0.0745337 0.05459813 -0.12901455
-0.31780124 0.035359353 0.010997185 0.10977474 0.14167626 0.21623899 0.0704154 0.2439943
0.15508975 0.08283938 -0.0878647 -0.061634995 0.13792987 -0.23025668 0.11347761 -0.20418583

transformer_encoder.layers.0.linear1.bias f4 [128]
00000000: 1be3 84be 2f2c a5be e830 29be d421 7fbd
00000010: 1a15 67bd d298 223e 0f6b 82be 046c 75bc
00000020: 6c40 2d3e efff 553e bf2f 88be c86b 2d3e
00000030: a9aa 69be 6976 193e 8960 163e 0381 98be
00000040: 44e4 bcbc c1c6 71be 753d 4b3e bc64 a9bd
00000050: 2885 9dbc 2fa7 523e 96b8 e23c d757 56be
00000060: 4fe0 5fbe c986 b4bc fd39 48be 5d58 a73c
00000070: e8fe 4d3d 22c7 813e fde3 113e 2efd a33b
00000080: 9e54 60be 38c6 313e 37b0 bfbd 12c1 43bc
00000090: 6801 7abe de5a 403d ae47 4fbd 1982 383e
000000a0: f8ba e13d d84a 51be 7792 a7bc 7adc 83be
000000b0: 3acf 19bc 9594 133e 1f96 27be d2c1 ae3d
000000c0: 2ab6 cabd 1d0c 313d 3e32 573e 9910 533e
000000d0: b9f7 653e 1782 b53d 2aa9 0cbd fe4c 71be
000000e0: f783 a03d 62e8 40ba cf6d 08be 2a6f 1fbe
000000f0: 5b6b 6ebe 5195 bf3d 2638 00be 9d73 c73d
00000100: f864 e0bd 1a73 72bd 638a 53bd 9350 84be
00000110: c9fd 1bbe 2a4d 67be a080 2cbe 644a 71be
00000120: 300b b9bb 6f9e 2bbd 9b3b 2b3e 65b7 74be
00000130: 9ce7 e3bd af5f 6ebe 97b4 493e 225a 76be
00000140: b1d0 06bc 3908 b83d aec9 83bc 72c8 7ebe
00000150: 72f5 98bd 3ab4 823d 442c 8abe 8292 71bd
00000160: cc20 27be 229b 373d 3657 8bbe a6c1 513d
00000170: 9887 113e 06a3 db3b d657 1a3e d77a 253e
00000180: e351 5ebe 553a 24be fd69 7cbd f071 9bbc
00000190: bee4 6a3e 388d d2bd 18ec bbbd 164e 74be
000001a0: 9c40 bdbd 27a3 73be 6a40 3cbe 1bee 43be
000001b0: 7fba 2f3e cf71 e03d dce9 68bd 169d ebbd
000001c0: ed94 3fbe 883a 033e b179 913d 0ad3 b1bc
000001d0: c318 8f3d 8402 11be 3099 273e 2416 7cbe
000001e0: b0ab 323d 9502 57be acb8 1dbd 31d1 66bd
000001f0: dae0 02bc 5c69 003d a144 97be 51a5 dfbd
-0.25954518 -0.32260272 -0.16522563 -0.06228812 -0.05641661 0.15878609 -0.25472304 -0.014979366
0.16919106 0.20898412 -0.26598927 0.16935647 -0.22819008 0.14986576 0.14685263 -0.29785928
-0.023058064 -0.23610975 0.19847663 -0.08271167 -0.019228533 0.20571588 0.027675908 -0.20931946
-0.2186291 -0.022036927 -0.19553371 0.020427877 0.050291926 0.2534724 0.14247127 0.0050045466
-0.21907279 0.1736077 -0.09359782 -0.011947887 -0.24414599 0.046961658 -0.05060547 0.18018378
0.110219896 -0.20438707 -0.020455582 -0.25754148 -0.009387786 0.14412148 -0.1636586 0.08533062
-0.09898026 0.043224443 0.2101526 0.206118 0.2245778 0.08862703 -0.034341015 -0.23564526
0.0783767 -0.00073588465 -0.13323139 -0.1556975 -0.2328314 0.09354652 -0.12521419 0.09738848
-0.10956758 -0.0591918 -0.051645648 -0.25842723 -0.1523353 -0.2258803 -0.16845942 -0.23563534
-0.0056470856 -0.04189914 0.16721956 -0.23898084 -0.1112816 -0.23278688 0.19697796 -0.2405782
-0.008228467 0.08985943 -0.01608738 -0.24881151 -0.0746869 0.06382032 -0.26986897 -0.05897761
-0.16321105 0.04482568 -0.27214974 0.05121007 0.14211881 0.0067027835 0.15072569 0.16160141
-0.21710925 -0.16037877 -0.061624516 -0.018975228 0.2293882 -0.102808416 -0.09175891 -0.23857912
-0.09240839 -0.23792706 -0.18383947 -0.19133799 0.17160986 0.10959207 -0.05686365 -0.11504571
-0.18709154 0.12815297 0.07103289 -0.021707077 0.06987145 -0.14161116 0.1636703 -0.24617821
0.043620765 -0.20997079 -0.038506195 -0.056351844 -0.007988179 0.03135048 -0.29544547 -0.109202035

transformer_encoder.layers.0.linear2.weight f4 [15, 128]
00000000: ca0a 3a3d 8605 003b 3315 063e 943c ca3c
00000010: 95e5 903c 8a4a 91bd e02c f5bc a393 3fbb
00000020: 35d9 243d 42ad 93bd da26 60bc 2558 063c
00000030: 80aa 59bd e9da 243e 1424 78bd 8324 10bc
00000040: 7bb7 0bbd 3560 3e3c 5e1a 5f3d cc86 2b3d
00000050: 9107 d9bb 5fd5 823d a687 7dbd b2cf 4b3d
00000060: 3265 d0bd 1c08 54bd 3ff8 b73d 24a5 153c
00000070: 2778 1d3d 2ac6 0bbd 9361 abbd e5cf a93d
00000080: d66e 3c3d 3382 9abd 45e8 003e b80e e3bd
00000090: 8bf1 a4bd 31d0 333c 775e d4bb 1e21 44bd
000000a0: 71a0 9cbd fa60 153e 01a9 cabd 2743 41bd
000000b0: c25e 733c 6c39 1d3c 952e 90bd e6fd e6bd
000000c0: 677d 813c 95c5 2b3d 6367 9fbd 3201 06be
000000d0: 802a 1bbd 5c95 30bd 5fb3 323d 40d8 76bd
000000e0: b046 40bd 6dc6 96bd a80d 2a3b 6f58 6c3a
000000f0: 066a 7abc f99d 0e3d 9d59 f83c e235 b6bd
00000100: d8d4 18bc e81b 69bd 378b bcbd 367d f6bb
00000110: f65d 84bd b54b 4bbb acfe ff3d 6bd2 c6bd
00000120: 3723 7f3c 5219 f9bc 8188 77bb 29cd bf3c
00000130: 054a 56bd 9355 80bb 5a90 9dbb 8dd5 ed3c
00000140: 1181 27bd 5851 e5bc ecb7 893d 4aeb 62bd
00000150: be1a d53c 7416 08bd 8996 123e 9b8b 81bd
00000160: 1919 023c a5ef aebd 0513 a3bd cfb5 30bd
00000170: 03ca c1bd 9495 fabd 6137 fbbc 170e cb3b
00000180: 61fe 98bd 4367 94bd c7d9 983c 1cd2 84bd
00000190: 155d aabc b389 f53b b437 63bd 6fc7 df3c
000001a0: 2acf 5bbd adbf cbbc 0ba8 d1bd 3a0a 493c
000001b0: 5565 ac3d b808 6fbd 208b 393d f66a 363d
000001c0: 4111 9b3c ebb4 203c c612 0b3e 857c b6bc
000001d0: de99 4cbd b622 663d 13ad 773d f34a 0b3d
000001e0: c6a2 7dbd 78df 713d d913 92bd 7b29 f9bd
000001f0: 20b7 4d3d 61fd 57bc 018a 31bc 7eff 22be
00000200: 3ae1 bdbd e548 18bd 4ba3 62bd 53f8 f93c
00000210: c806 6b3d a183 4cbc 114c 1e3e a14d c93c
00000220: 414a 6abd a3de 95bd e9b6 11bc 9644 59bd
00000230: f6be e03d 24c3 28bc 232d bcbd 25ec 27bd
00000240: 5300 e9bc 0358 d2bc 461d 233c 595b 6b3d
00000250: 57fd 4e3d 7fbb 3dbd ab3e 703d 1197 013b
00000260: aded 103d 33e4 933d 2cce 833a 69d5 15bd
00000270: ef74 82bb 307b 693b 7824 bf3d c201 80bc
00000280: 408b e9bd 6912 e63c 60ed 403e ce48 c73d
00000290: 185b 9fb9 6896 4abd 8dc0 c5bd 2680 ee3c
000002a0: 3e2d 8f3d f65a 7f3d 9c8e 363d 460c 873d
000002b0: 5621 9d3d 5b3f a13d 30f8 10bd 5233 1c3b
000002c0: a171 3d3d cba0 cdba eff8 db3b c788 c03c
000002d0: 33d9 febc 575e 353d cbb4 e4bc 47e7 923d
000002e0: 5320 d2bd a588 53bc 806b a7bc 963a 873d
000002f0: 3ca5 ae3d 62fb fa3b 5202 6a3c a009 acbd
00000300: c40c b83d 9b30 c63d d73a a43d 76e9 67bd
00000310: 5220 eebb 886e 8e3c 2f2f abbc df3b 13bd
00000320: 4cbb 883d 8564 4f3d ec7b 3abd c2d8 653d
00000330: eb65 363d daf4 18bd 1bdb 38bd 858b af3c
00000340: fb10 5ebd 6423 df3c e054 57bd fb30 bbbd
00000350: 46d3 033d 7030 10bc 2e66 293c ed12 46bd
00000360: f0be 82bc 919a 4e3d 2624 04bd fee6 833d
00000370: a159 8abc 992e febc eaac debc 5ae2 eebc
00000380: be38 9b3c 5b8c edbb b8cd bdb7 cc60 483b
00000390: ac62 18bd 7d94 ef3d b213 7dbb 9eb0 98bd
000003a0: 6469 06be d144 023d 0cf7 b53d 3291 62bd
000003b0: a8e2 803d 2824 c63d a72b 5abc 7ea3 963d
000003c0: bf74 35bd 7e6c 8bbc 09c5 b83d 89dc bbbc
000003d0: 55d2 a03c 4a25 9ebc 9f40 31bd 5067 713c
000003e0: 1cb3 41bd 8454 6bbd 61df a13c 52f3 1abd
000003f0: 344b 1d3d 8417 a13b 8776 383d 0993 a73d
0.045420446 0.0019534542 0.13094024 0.024687089 0.017687598 -0.07094295 -0.029928625 -0.0029232285
0.040246207 -0.07210781 -0.013681138 0.008199726 -0.053141117 0.16099133 -0.06058128 -0.008797768
-0.034110527 0.011619617 0.054468505 0.0418766 -0.0066232164 0.063883536 -0.061896943 0.04975862
-0.101755515 -0.051765546 0.08982896 0.009133611 0.038444664 -0.03412453 -0.0836822 0.08291606
0.04600414 -0.07544365 0.12588604 -0.11086792 -0.08053883 0.01097493 -0.0064809876 -0.047883146
-0.07647789 0.14587775 -0.09895516 -0.047183182 0.014854135 0.00959621 -0.07040135 -0.11278896
0.015806867 0.041936476 -0.07783391 -0.13086393 -0.037882328 -0.04311119 0.043628093 -0.060264826
-0.046942413 -0.073620655 0.0025948081 0.0009015863 -0.015284067 0.034818623 0.030316168 -0.08896996
-0.00932809 -0.05691138 -0.092062406 -0.0075222505 -0.06463234 -0.0031020467 0.12499747 -0.09708103
0.015572361 -0.030407581 -0.0037770572 0.023413258 -0.052316684 -0.0039164512 -0.004808468 0.029032493
-0.04089457 -0.02799289 0.067245334 -0.05540017 0.026013728 -0.033224538 0.14315237 -0.06325456
0.007940554 -0.08541802 -0.07962612 -0.043142136 -0.09462359 -0.12235561 -0.030666055 0.006196748
-0.07470394 -0.07246258 0.018658532 -0.06485388 -0.020796338 0.0074932217 -0.055473045 0.027316777
-0.053664364 -0.024871672 -0.1023713 0.012270505 0.08417765 -0.058357924 0.045298696 0.0445356
0.018929126 0.009808759 0.1358138 -0.022276172 -0.049951427 0.056185447 0.06046779 0.034007024
-0.06192281 0.059051007 -0.07132692 -0.12166115 0.05022347 -0.013182969 -0.010836125 -0.15917775
-0.09271474 -0.037178893 -0.05533151 0.030513918 0.057379514 -0.012482555 0.15458705 0.02457315
-0.05719972 -0.07317855 -0.008893707 -0.053043924 0.10973923 -0.010300431 -0.09188297 -0.04099669
-0.028442537 -0.025676733 0.00995571 0.057460163 0.050534572 -0.04632139 0.058653515 0.001977388
0.035382915 0.0722126 0.0010055951 -0.036580477 -0.0039812247 0.0035626404 0.09333128 -0.015625838
-0.11403513 0.02808495 0.18840551 0.09730683 -0.00030394713 -0.049459845 -0.09655867 0.02911384
0.06991051 0.062342606 0.044569597 0.06594138 0.07672374 0.07873412 -0.03539294 0.00238343
0.046250943 -0.0015688179 0.006713025 0.02350272 -0.031109428 0.044279423 -0.02791824 0.07173019
-0.102600716 -0.012910997 -0.020437002 0.06602971 0.0852761 0.0076593617 0.01428278 -0.08400273
0.0898681 0.096772395 0.08019035 -0.05661913 -0.0072670365 0.01738669 -0.020896522 -0.03594577
0.06676349 0.050632972 -0.045528337 0.05611492 0.04453079 -0.037342884 -0.04513083 0.021428833
-0.054215413 0.027238555 -0.052571177 -0.09140202 0.032183908 -0.008800611 0.010339303 -0.048357893
-0.015960187 0.050440375 -0.032261036 0.06440543 -0.016888442 -0.031028079 -0.027182061 -0.029160667
0.018947955 -0.0072493977 -2.2626351e-05 0.0030575274 -0.037203476 0.11698244 -0.0038616476 -0.07455562
-0.13126141 0.03180391 0.08885011 -0.05531425 0.06293231 0.09674865 -0.013316072 0.073554024
-0.04430079 -0.017019507 0.090219565 -0.022932308 0.019631544 -0.01930489 -0.043274518 0.014734104
-0.047289953 -0.057453647 0.019759836 -0.037829705 0.038401797 0.0049161334 0.04503491 0.081823416

transformer_encoder.layers.0.linear2.bias f4 [15]
00000000: 81e0 a63d 8d06 0d3b bcfb 4fbd 909d 6e3d
00000010: 2494 cabc 34f4 b23d 7ffc c0bc 75e6 d1bd
00000020: 590f 563d 8cff 31bd 5acb 733d 0f74 bbbd
00000030: 4415 a03c 2dc6 b43c a335 a4bd
0.081482895 0.0021518797 -0.050777182 0.058255732 -0.024728842 0.08737984 -0.0235579 -0.10249034
0.05226073 -0.0434566 0.059520103 -0.09152996 0.01954139 0.022067154 -0.08018043

transformer_encoder.layers.0.norm1.weight f4 [15]
00000000: 8925 853f 6705 833f 14e3 6d3f 97ea 763f
00000010: 0190 6f3f 507f 7b3f dd1b 723f cfae 7e3f
00000020: dca4 803f 22ff 733f 3d75 7f3f 1982 803f
00000030: 2722 693f db0a 793f 9819 863f
1.040208 1.0236024 0.9292462 0.96451706 0.9357911 0.9824114 0.94573766 0.99485487
1.0050311 0.95311177 0.99788266 1.0039703 0.9106774 0.9728219 1.047656

transformer_encoder.layers.0.norm1.bias f4 [15]
00000000: e128 22bc 22c8 1a3b 6063 99bd 56e4 043d
00000010: 418c 60bd 8394 a33c ea19 04bd 8efc 85bd
00000020: 3f94 9b3c 42c6 03bd 2927 6c3c 0989 63bc
00000030: 740f 293d 3b0a c9bc 0804 2f3c
-0.009897442 0.0023617824 -0.074896574 0.03244432 -0.054821257 0.019968277 -0.032251276 -0.065423116
0.018991588 -0.032171495 0.014413633 -0.013887652 0.041274503 -0.024541011 0.0106821135

transformer_encoder.layers.0.norm2.weight f4 [15]
00000000: 553f 843f 98d9 853f 4870 763f c2de 7b3f
00000010: 93f9 803f 8bdc 7b3f 78dd 6b3f 86d9 843f
00000020: 80d2 813f 2f3b 803f 6695 703f b260 823f
00000030: af1a 813f 9ac7 7f3f 9dc6 893f
1.0331827 1.0457029 0.9626508 0.98386776 1.0076164 0.98383397 0.9213481 1.0378883
1.0142365 1.0018061 0.93977964 1.0185759 1.0086268 0.9991394 1.0763737

transformer_encoder.layers.0.norm2.bias f4 [15]
00000000: e6f6 52bd c753 7abb 5df5 86bd c171 4b3c
00000010: 8e26 2abd 0330 113c e861 bbbc c52c 6bbd
00000020: 6d69 65bb 436d 25bc 3912 233d ee57 5cbc
00000030: f97d 2a3c 50a5 26bc 2bc5 f53b
-0.051504992 -0.0038196908 -0.06589768 0.012417258 -0.041540675 0.008861545 -0.022873834 -0.057415742
-0.0035005466 -0.010096851 0.0398123 -0.013448698 0.010406011 -0.0101712495 0.007500311

transformer_encoder.layers.1.self_attn.in_proj_weight f4 [45, 15]
00000000: e880 82bd b403 5f3e 1061 223e 70d4 223e
00000010: 4bb4 26be cc11 ccbd cab4 2b3d 7390 cb3d
00000020: dcd5 dfbe 865a 22bd cf42 3abe 1e4c adbe
00000030: e3ff 943e 9278 a1bc 4397 123e 04bf 3cbe
00000040: 18b0 47bd d41c a8bd 43e3 563e cce4 2c3e
00000050: 8f03 ed3d ba66 4b3e 844d 9abd 7aea 72be
00000060: 2a59 2c3e e118 56be 25a5 1abd 77e8 4e3e
00000070: 343b babe 7663 513e 72d7 7bbe 4ca1 9d3d
00000080: eb75 743e 9245 a73e 221d 0f3e 8018 df3d
00000090: 3835 293e 9599 0abd 50c2 d1bd 3bea 1bbe
000000a0: 736a 64be 6959 463e 07e4 88be 75fb 70be
000000b0: bf9b cabd 90fe e6bc 4fe1 bfbc c5b2 c4bd
000000c0: 8453 83be 3dc3 59be b3f8 d1be d30d 653e
000000d0: 114e b2bd 276b 8a3e 8e49 8e3e 6dce b4be
000000e0: 10a4 75be fb41 98be 2959 3ebe b75a 513e
000000f0: b4e6 8cbd 0aca 933e c2e1 36be 87d8 043e
00000100: cd79 a3be d47a 15be d9b8 6d3e 6417 babe
00000110: 147d cf3e 7592 9bbe 2f68 c03e 06e4 9dbd
00000120: df2c 223e 6f4d 11be 1b8d b73e 44b0 cd3d
00000130: 4d21 d13d 29ba e2bc 944a 403e 24b1 333d
00000140: 6605 423e 6839 8e3d 41af ee3d ca2d a2be
00000150: 016a 773d abd8 98be 12d7 9fbd bfac 82be
00000160: 6866 b03e c333 a2be 2c64 febc 42f5 37be
00000170: d87c 8bbc 4f71 9f3e 66cb b3be cdde a0bd
00000180: ea2d 613d 94f4 a53d 0188 063e 8ba7 89be
00000190: b62e c0bd 6de9 5d3e fc80 283d af9a d3bd
000001a0: 85df d5bd 7bf8 c7be 9b81 6abe 54b5 98bc
000001b0: 6ce3 053e 6ae4 0f3e 40c5 72be d46d d53b
000001c0: 38f2 113c 8ef6 8bbd 32b3 7ebe dfc9 cabc
000001d0: 06fe 7b3e 6e90 4abe 862b ec3d b9a4 e2bc
000001e0: 0e14 823e 725f a4bb d939 cabd 9d63 26be
000001f0: 1a2b 7c3e 64e1 853d 7b14 54be 8c0c 083e
00000200: 0518 a7bc 9e20 8c3e 7fa1 8fbe 29d5 1c3e
00000210: b2b0 663d 5b38 73bd 27ec bb3e bd21 d23d
00000220: 38cd 803d 26fb b03c 83dc 813d bb9b 653e
00000230: cc7f 2c3e a1a0 4a3e fb98 84be bf1b b8bb
00000240: 24a7 473e db60 a4be a93d 01be af8d fdbc
00000250: a819 2ebd a861 a23b 9c13 42be 149e 753e
00000260: e012 923e 96c5 cf3e cbbc 98be 6785 2b3e
00000270: 2477 b5be 8f7c ab3e fc1f 55bd 24c1 bdbd
00000280: ab1f 073d aa96 8bbe 2830 323e 739d 01be
00000290: c6fe 683e 3d65 ae3d 7b5d 033e 0e36 283e
000002a0: ec0c 3e3d baaf d53d c0dd 8ebe ffb8 26be
000002b0: b167 72be beab 9d3e ed04 683e d2dd 6d3e
000002c0: 846e 1abd ef45 c1bd a901 283e 3cd2 45be
000002d0: 6ab6 b73e 32d3 95be 490b 89be d269 c23c
000002e0: 4521 2e3e bd0e 163d 24d8 953e f374 c73d
000002f0: 8224 203d 1128 dfbd 2f3a 263d f8c7 8fbe
00000300: 1049 9a3e af7c b7be 854b 8ebd 9ccb 0ebe
00000310: fdca efbc 1236 e3bb 10b8 66be 0160 7b3e
00000320: 6736 45bd c476 fe3d fa0e 52be b2e0 f63c
00000330: ba9e 983d d47d 843d 760c 15be 1ecf 4dbe
00000340: 6730 7cbe 1723 6cbe 135b 47bd 9f91 7e3e
00000350: c807 bc3e 02f0 b3bc a896 ec3d a090 d9be
00000360: f8cf 113e 20df 173d 4a64 e2bd 455e 963b
00000370: 34b9 7c3e c736 b0be b2ab 0b3e fa3f c23e
00000380: 9898 553e 8286 203e c124 403e 237f 07be
00000390: d537 a9be c93a ca3d dd94 a23e dff3 24be
000003a0: 270d 9dbe 1ca8 85bd 53b8 ca3d 5f0c 083e
000003b0: f811 96be 48d2 b13e 4350 bebe 9979 2fbe
000003c0: 5c38 2bbe a28e cc3e c2b2 6e3e b4bc 1fbd
000003d0: bcda 9a3d 4ad9 893e 781b e8be fc30 783d
000003e0: b0aa a03c 3b3a c5bc 0c0b 67be dd87 15be
000003f0: 8ce0 87be fa09 9b3d 3881 b2bd 1ccb 893e
-0.06372243 0.21778756 0.15857339 0.15901351 -0.16279714 -0.09964332 0.04192046 0.09939661
-0.4371785 -0.03963711 -0.18189548 -0.33847135 0.29101476 -0.019710813 0.14315514 -0.18432242
-0.04875192 -0.082086235 0.20985131 0.16884154 0.115729444 0.19863406 -0.07534316 -0.23722258
0.16830888 -0.20907928 -0.03775515 0.20205866 -0.36373293 0.20448098 -0.24593905 0.076967806
0.23873107 0.32670265 0.13975957 0.10893345 0.16524208 -0.033837873 -0.1024214 -0.1522607
-0.22306232 0.19370045 -0.2673647 -0.23533423 -0.098929875 -0.028197557 -0.023422865 -0.0960441
-0.25649655 -0.21265884 -0.41010055 0.22368555 -0.08706296 0.27034876 0.27790493 -0.3531374
-0.23988366 -0.2973784 -0.185887 0.20444761 -0.06879941 0.2886508 -0.17859557 0.12973224
-0.31928864 -0.14597636 0.23215045 -0.3634597 0.40525115 -0.30385175 0.37579486 -0.07709508
0.1583743 -0.14189695 0.35849842 0.100433856 0.1021143 -0.027676659 0.1877845 0.043870106
0.18947372 0.06944543 0.11654521 -0.3167556 0.060403828 -0.29852805 -0.07804693 -0.2552242
0.3445313 -0.31680116 -0.031053625 -0.17964652 -0.017027304 0.31141135 -0.35116118 -0.07854996
0.054975428 0.0810329 0.13137819 -0.26885638 -0.093839094 0.21671076 0.041138634 -0.10332238
-0.104430236 -0.39056763 -0.22901003 -0.018641151 0.13075036 0.14051977 -0.23708057 0.0065133367
0.008907847 -0.06834136 -0.24873045 -0.024754463 0.24608621 -0.19781658 0.11531739 -0.027666437
0.25405926 -0.005016261 -0.09874315 -0.16248937 0.24625817 0.065371305 -0.20710938 0.13286036
-0.020397196 0.27368635 -0.280529 0.15315689 0.056320854 -0.059379917 0.36703607 0.10260341
0.06289142 0.021604132 0.063408874 0.22422688 0.16845626 0.19787838 -0.25897965 -0.005618542
0.19497353 -0.32105145 -0.12621178 -0.030951349 -0.042504936 0.004955489 -0.18952793 0.23986083
0.28530025 0.40580434 -0.29831538 0.16750108 -0.3544246 0.33493468 -0.052032456 -0.09265354
0.032989185 -0.27263385 0.17401183 -0.12657718 0.22753438 0.085154034 0.12828629 0.1642687
0.046399042 0.10433908 -0.27903557 -0.16281508 -0.23672368 0.3079509 0.22658129 0.23229149
-0.037703052 -0.09437167 0.16406883 -0.1931848 0.35881358 -0.29262692 -0.26766422 0.0237321
0.17004879 0.03663515 0.29266465 0.09739103 0.039097317 -0.10896314 0.040582832 -0.28082252
0.30133867 -0.35837314 -0.06947998 -0.13944858 -0.029271597 -0.006933936 -0.22531152 0.24548341
-0.048147585 0.124249965 -0.20513526 0.03013644 0.0745215 0.06469312 -0.14555535 -0.2009854
-0.24627839 -0.2306026 -0.04867084 0.24860238 0.36724687 -0.02196503 0.11552173 -0.42493153
0.1423949 0.037078023 -0.11054285 0.0045888745 0.24680024 -0.34416792 0.13639715 0.37939435
0.20858991 0.1567631 0.1876402 -0.13232093 -0.3305041 0.09874494 0.317542 -0.16108654
-0.30674097 -0.06526205 0.09898438 0.13285969 -0.29310584 0.34730744 -0.3717061 -0.1713623
-0.16720718 0.3995257 0.23310378 -0.03899832 0.075612515 0.2692359 -0.45333457 0.06059359
0.01961264 -0.024075618 -0.22562808 -0.14602609 -0.26538503 0.07570262 -0.08716053 0.26912773

transformer_encoder.layers.1.self_attn.in_proj_bias f4 [45]
00000000: 40ea 33bd f78b e9bc f6e3 c93b 58ca 803d
00000010: 9cc9 b7bd 926d 793c 56a8 be3c 31fc 15bc
00000020: 6b80 703d 2dd3 a73d a869 a1bc d813 d7bc
00000030: 67cb 583c aacb b7bb 3718 bd3c 5752 be3b
00000040: e0bc 4cbb 88d3 ba3b a543 b5bb e4ce ba3a
00000050: a1fe 303c 90d5 233c 716b 523b 8e81 45bc
00000060: 9ce1 cd3a fa72 b639 3a76 be3b 1d0d 173b
00000070: 5841 aab9 a2cb d4bb 64c7 f83a 6780 21bd
00000080: 0a5a afbb 1e27 0ebb cd10 51bc 9a72 a5bd
00000090: 7e84 e0bc d32f 77bb 0594 603b 12c8 e53a
000000a0: 8695 e1bc c65e 0f3d d7ad f2bb 1aae 26bd
000000b0: b365 5abd
-0.04392457 -0.028509123 0.0061612083 0.06288594 -0.08974001 0.0152238775 0.023273628 -0.009154365
0.05871622 0.081945755 -0.019703701 -0.02625458 0.013232089 -0.0056089954 0.023082836 0.0058081555
-0.0031240508 0.005701486 -0.0055317455 0.0014252332 0.010802896 0.009999648 0.0032107497 -0.012054814
0.0015707496 0.0003479941 0.0058124335 0.0023048588 -0.00032473612 -0.0064940015 0.0018980321 -0.039429095
-0.0053513097 -0.0021690796 -0.012760353 -0.08078499 -0.027406927 -0.0037717714 0.0034267914 0.0017530939
-0.027537119 0.035002492 -0.007405977 -0.04069338 -0.053319644

transformer_encoder.layers.1.self_attn.out_proj.weight f4 [15, 15]
00000000: 3e70 0bbd 0c3f 42bd 8230 b33d bb67 5c3e
00000010: 71a3 5abe 798d ecba 30f5 5c3e 90ab 5d3e
00000020: 724a 933e 7399 b13d 1925 1f3e 11ef 87be
00000030: 544f 81bc c4f9 23bc b90d 663e 18c9 bc3c
00000040: f8a9 053e db1a 66be 8c87 8dbd 6956 7f3d
00000050: d212 2e3e 25d1 0f3d 653a ea3d 873c b4bd
00000060: 396f 84bc c702 643e e2cc 373e 6866 323e
00000070: 517e 65be 4ba8 05bd 36c4 68be 39e4 913e
00000080: 2f22 313e 51b0 0d3e ce0e 8abe 6c6b febd
00000090: 01d6 22be d19a 993d 6383 6c3e 75e3 0fbd
000000a0: 8e35 8cbe 0dbf cfbc 771d 9abc 6e18 563a
000000b0: 0522 8a3d f166 243d 0d1e bebd 87be 46be
000000c0: ed1e 4fbd 44cb 43be 06c5 50be 7d52 27be
000000d0: 3802 8fbe c842 493c 7814 78bd 2510 24be
000000e0: ba2a 803d 57b0 29bc 2729 2dbe 04f6 353d
000000f0: 8e10 80be c709 a6bc c1e0 2d3e 6131 6a3e
00000100: b27c b13d 94a7 3e3b f70a a43d 190f 4abe
00000110: 1add 883c 7976 643e 3639 2dbe dd62 78be
00000120: 1ba2 533e e5a8 b33d ae44 3c3e 0cbf 34bd
00000130: a2a6 c5bd 15cc d2bd 74b4 4abe c0ae 1a3b
00000140: c6e6 afbd 7310 283b 4b27 86be 0094 54be
00000150: 129f 5ebe 0505 fa3d 6965 ea3d f831 5a3e
00000160: dcc5 a23d 764f a5be bd91 8f3b a03b c63b
00000170: d35d 423e 57c4 0a3e c8bd 583e d173 873e
00000180: 6388 3c3d 7e49 62be 60f6 32be cc65 373e
00000190: 25a8 05be 7371 2ebd 0c1f 943d 385b b4bb
000001a0: ed4a 60be 9051 61bd 741e a13d c3fa c8bd
000001b0: 226b a83d 78d4 353d e4ac ed3d 65fc a3bd
000001c0: fbda 853e ebaf 833e bddf 2d3e 811f 4ebe
000001d0: 184b 32be 8397 aa3c a12d 30be 258b 0c3e
000001e0: 7e06 10be c00e dabd f05d 893d 9ab7 52be
000001f0: 5580 f83d f65b 65bd af62 e4bd 5a12 8bbd
00000200: cc2c 0ebe c07e 4f3e ecb5 693d 66d7 6fbd
00000210: 2a7c a7bd 8f81 4bbe 32b5 24be c861 5cbe
00000220: c9cb f5bd 8467 7abd f38b 313e b4a0 9f3e
00000230: 4034 15be 0f30 d53d 6331 c3bc 6b8d 8f3c
00000240: bc2a 863e f763 5dbe 424a 9d3d 5c0d 0f3e
00000250: 7356 3b3d e88b 08bd 8ca6 403e 9a4a 58be
00000260: b210 b4bd 24a2 603e 61f8 90bd 7bc6 ebbd
00000270: c60d 6abe b470 8fbe 783b 6bbe e046 89bd
00000280: f36c 1bbe 9d13 fc3d bc5f 2ebd 90ed 01be
00000290: 66a8 52be 7230 833e dd4a dd3b 2a1f 983d
000002a0: c311 be3d f50b 9f3e 2add 25bd 301d a4bd
000002b0: 17e4 14bd 10fa 26be efd1 5abd 6ddd 2f3d
000002c0: 03e7 843d 1598 933d 34c1 91bb a6b2 863e
000002d0: 866a 4a3d ae49 dabd 93b1 1dbe 0988 90be
000002e0: dab7 62be efbb ef3d d7f8 773e 19d8 bcbd
000002f0: 1b47 163e 387d d9bd e498 043e b28e 753e
00000300: 70b9 87bd 0223 02bd 5e42 53be 6fb6 46bd
00000310: c77f 8b3e 61eb 0abe 1628 7b3e b7cf 963c
00000320: eb76 62be 779b c93c 5268 dd3b a425 1ebe
00000330: 67c0 513e 4434 32be 4099 3e3e 0b39 61be
00000340: 3220 18bd 638f 413e 316b c9bd bdab 32be
00000350: 58dd aabd fc5a 063e d1ff 00be eadb 7cbe
00000360: 783c 1c3e e0b6 d63d e7b5 7dbd d29a 663e
00000370: ee3b 9dbd be91 023d db58 5bbd d6e5 65be
00000380: 7abc 34be
-0.03404259 -0.047423407 0.087494865 0.21523945 -0.2135141 -0.0018047533 0.21577907 0.21647477
0.28767735 0.08671846 0.15541495 -0.2654958 -0.015784897 -0.010008279 0.22466172 0.023045108
0.13053119 -0.22471182 -0.06910619 0.062338267 0.16999367 0.035111565 0.11436919 -0.08800607
-0.016166316 0.22266684 0.1794925 0.17421877 -0.22411467 -0.0326312 -0.22731099 0.28494433
0.17298196 0.1383679 -0.2696442 -0.12422833 -0.15901949 0.07500232 0.23096995 -0.03512903
-0.2738461 -0.025359655 -0.018812878 0.00081670925 0.0674477 0.040137235 -0.092830755 -0.19408618
-0.050566602 -0.19120508 -0.20387658 -0.1634006 -0.2793138 0.012283988 -0.060566396 -0.16021784
0.062581494 -0.010356984 -0.1691023 0.044424072 -0.2501263 -0.020268334 0.16980268 0.22870399
0.08666362 0.0029091584 0.08009904 -0.19732322 0.016706992 0.22310819 -0.16916355 -0.24256463
0.20667307 0.087724485 0.18385574 -0.04412751 -0.09650923 -0.10292832 -0.197954 0.0023602694
-0.085889384 0.002564457 -0.26201853 -0.20759583 -0.21740368 0.12207989 0.11445124 0.21308124
0.07947895 -0.32287186 0.004381387 0.0060495883 0.18981104 0.1355146 0.21166146 0.26455548
0.046028506 -0.22098348 -0.17476797 0.17909926 -0.13052423 -0.042588662 0.07232484 -0.005504038
-0.21903582 -0.055009425 0.078671366 -0.09813454 0.08223559 0.04439208 0.11605242 -0.08007125
0.2614363 0.25720152 0.1697988 -0.20129205 -0.17411458 0.0208242 -0.17204906 0.13724954
-0.14064977 -0.106473446 0.0670737 -0.20577851 0.121338524 -0.055995904 -0.11151635 -0.0679061
-0.13884276 0.20263195 0.05705826 -0.05855503 -0.08177979 -0.19873641 -0.16084746 -0.21521676
-0.120017596 -0.061133876 0.17338543 0.31177294 -0.14570713 0.10409557 -0.02382726 0.017523488
0.2620448 -0.21620165 0.07680179 0.1396994 0.04573674 -0.03333655 0.18813533 -0.21122208
-0.08792247 0.21936852 -0.070786245 -0.115124665 -0.22856817 -0.28015673 -0.22971904 -0.067029715
-0.1517828 0.123084284 -0.04257177 -0.12688279 -0.20572051 0.25622898 0.006753309 0.07427819
0.092807315 0.3106381 -0.04049412 -0.080133796 -0.036350336 -0.16306329 -0.053422865 0.042935777
0.064893745 0.07206742 -0.0044480804 0.26308173 0.049417995 -0.106585845 -0.1539977 -0.28228787
-0.22140446 0.11705767 0.24216019 -0.09220905 0.14675562 -0.10619587 0.12948948 0.23980215
-0.06627166 -0.031771667 -0.20630786 -0.048513826 0.27245924 -0.13566352 0.2452701 0.018409593
-0.22115676 0.024610264 0.0067568207 -0.15444046 0.20483552 -0.1740275 0.18613148 -0.21994416
-0.03714008 0.18902354 -0.09834898 -0.17448325 -0.08342999 0.13120645 -0.12597586 -0.24693266
0.15257442 0.104840994 -0.061941054 0.22519997 -0.07677446 0.03187727 -0.053551536 -0.22450957
-0.17650023

transformer_encoder.layers.1.self_attn.out_proj.bias f4 [15]
00000000: c20f debc e0fb 8e3b a5cc 19bc f146 703c
00000010: 7c4a 47bd 7ec9 a33a 770e 7f3a 2194 b6bc
00000020: 30b2 93ba 2fe4 f8bc 7627 153c 80a1 3cbc
00000030: 7817 6b3c 08e4 42bb 9735 6a3c
-0.027107123 0.004363522 -0.00938717 0.014665351 -0.04865502 0.0012495962 0.00097296335 -0.02228743
-0.0011268314 -0.030382244 0.0091036465 -0.011513114 0.014348857 -0.0029737968 0.014295003
