Result/FD003/pgr.pth (torch, 755000 bytes, 9 tensors)

multihead_attn.in_proj_weight f4 [579, 193]
000000 d8 95 0d bd c3 14 a8 bd ab a1 a9 3d 08 94 75 3d
       -0.03456673 -0.08207085 0.08282789 0.059955627
000010 df c4 5f 3d 46 b5 ae 3c 46 bc b6 3d 3d 65 72 3d
       0.05463111 0.021326672 0.08922629 0.05917858
000020 b4 96 69 bd 14 38 7b 3d e3 76 be 3d bf f0 38 bd
       -0.057028487 0.061332777 0.093000196 -0.04515147
000030 da 3e 60 3d 88 a0 2c bd 5a c5 bc 3d 73 a9 2d 3d
       0.05474744 -0.042145282 0.09217329 0.042397927
000040 65 a7 00 3d 0b 1a 03 3c 04 c4 b4 bc 0f 56 c2 3d
       0.03140964 0.008001815 -0.022066124 0.094890706
000050 9c 1e 3b 3d c8 84 27 3d 6c a2 61 3d 2c ed a0 bd
       0.04568349 0.040898114 0.05508654 -0.07857737
000060 d3 71 91 bc 36 e5 29 3d 98 f3 cb 3d 59 f9 9a 3d
       -0.01775447 0.04147836 0.09958571 0.075670905
000070 56 e0 f5 3c 47 58 e9 bb 87 57 8a bd e0 51 af 3c
       0.030014198 -0.007121119 -0.06754976 0.021401346
000080 cc ef 85 bb 38 16 cb 3c 17 1c bf 3d 02 d9 93 3d
       -0.004087424 0.024790868 0.093315296 0.07219125
000090 da 75 10 bd d5 f6 be 3d eb 20 7b 3d 1b a5 7f 3b
       -0.035268642 0.09324423 0.06131069 0.0039008323
0000a0 5d 77 fa 3a 76 86 5a bd c4 26 ad bc 60 b8 17 bd
       0.0019109059 -0.05335089 -0.021136649 -0.037041068
0000b0 58 19 af 3c 64 46 01 b9 2a 6c 1b bd 81 5d b8 bd
       0.02137439 -0.00012328621 -0.03794495 -0.090022095
0000c0 d8 48 2d bd 4e 0f 91 bd 17 3b 98 bc 62 4d b7 3d
       -0.042305797 -0.07082997 -0.018582864 0.089503065
0000d0 15 0a ba bc fa d9 1c bc ec 93 e0 3d 78 a0 6f 3c
       -0.022709886 -0.009573454 0.10965714 0.014625661
0000e0 27 e9 3a 3c 1c be be bd 81 13 42 bd 40 25 1b 3d
       0.011408127 -0.09313604 -0.04738188 0.03787732
0000f0 cb 3a 57 3d 4c d8 01 3d 85 21 d4 bd 44 06 d2 3c
       0.052546304 0.031700417 -0.10357956 0.025637753
000100 85 76 f9 3d dc a3 97 bc 3a 0e fa bc 2b 99 92 bd
       0.12180809 -0.018510751 -0.030524362 -0.07158121
000110 97 ce 16 3d 75 33 eb bc f8 72 1e 3c f5 42 2f bd
       0.036818113 -0.02871106 0.009670965 -0.042788465
000120 6e 5a 9b bd a9 73 88 3c 3c 56 aa 3d b8 35 aa bd
       -0.075856075 0.016656714 0.08317229 -0.08311027
000130 fb 22 7e bd fc a4 32 3d 5b d4 a4 bd 02 d7 88 bd
       -0.06204508 0.043614373 -0.08048316 -0.066816345
000140 64 19 88 3c 72 a9 f8 bd 39 c7 fc 3d af dc 9d 3d
       0.01661367 -0.12141694 0.12342686 0.07708108
000150 58 b2 65 3b 17 9c df bd ab 3d 7e 3d 7e 4b a5 3c
       0.0035048928 -0.10918444 0.06207053 0.020177599
000160 9f f5 8a bd de 32 4e 3c 75 14 be bd be 7b 4a 3d
       -0.0678513 0.01258537 -0.092812456 0.049434416
000170 7a 07 85 3d 61 04 04 3e 94 91 66 3c d6 ac ee bd
       0.06495567 0.12892295 0.0140727945 -0.116540596
000180 5c ae 47 bd 07 8f ae bc 7c 19 76 bd 34 70 e0 3b
       -0.048750266 -0.021308435 -0.060082898 0.006849313
000190 e8 51 95 bd 4c a0 27 bd 36 2f 81 3c 5d 90 57 bc
       -0.07291013 -0.040924355 0.015769582 -0.0131569775
0001a0 75 43 a2 3d f7 5d 8f bd 0a d0 97 bb 49 40 ba bc
       0.07923023 -0.07000344 -0.0046329545 -0.022735732
0001b0 31 6c 46 bd e5 6b ee 3c 85 69 bc 3d 99 18 c3 3c
       -0.048443023 0.029104182 0.09199814 0.02381544
0001c0 95 37 44 3d c3 4a 30 3d 6b db c3 3d 77 5e 9a bb
       0.04790457 0.04304005 0.09563335 -0.004710968
0001d0 0e f8 e4 bd c0 70 48 bd 9b 8f d3 bd 6c d0 ba bd
       -0.11180125 -0.04893565 -0.10330125 -0.091217846
0001e0 c9 ab b6 3b 0e 55 b6 3d b9 72 c8 bc 66 19 96 3d
       0.0055746776 0.08902942 -0.024468767 0.07329063
0001f0 36 09 b8 bd da 17 88 3d 8f a0 c0 3d 5a 93 0b 3d
       -0.08986132 0.06645174 0.09405624 0.034076072
000200 ac 4b 08 bd bc aa c0 3d 1b e7 15 3c 36 78 8c 3d
       -0.03327529 0.09407565 0.009149338 0.06858866
000210 79 2a f3 bd f3 54 91 3d e8 0f 5c 3c a5 ff d8 bd
       -0.118733354 0.07096281 0.013431527 -0.10595635
000220 b2 fd 64 3d 73 0b 51 3d 84 e5 47 3d 94 ca d1 bb
       0.055906005 0.05103631 0.048802868 -0.006402323
000230 b0 78 94 bc 75 32 6b 3d 11 e6 12 3d bc 97 87 3d
       -0.018123955 0.057421166 0.03586394 0.06620738
000240 44 9a a4 3c 4c 20 85 bd 58 03 f9 bc b1 b7 b3 bb
       0.02009309 -0.06500301 -0.030397102 -0.005484544
000250 60 4f 90 3d 2a ea 4c 3d 58 ef 29 bd fe 69 0e bd
       0.070463896 0.050028004 -0.04148802 -0.03476905
000260 34 76 25 3c 7a 46 b2 3a e0 24 e2 3c c2 e5 be bc
       0.010098983 0.0013601326 0.027605474 -0.023302916
000270 2a 57 c0 3d 7a 2d 3a bd aa a6 e7 bc 09 53 2a 3d
       0.09391625 -0.045453526 -0.028277714 0.041583095
000280 78 44 21 3d c1 04 9c 3d e6 50 a0 3d 6f af dc bc
       0.039371938 0.07618094 0.0782793 -0.026939122
000290 52 11 03 bc 7c ce 3e bd 23 a8 31 bd 98 5c 40 3d
       -0.007999735 -0.046583638 -0.04337324 0.046963304
0002a0 6f 53 09 3c 87 16 33 bd 0d 6a 81 3d d6 de 58 bd
       0.0083817085 -0.043722656 0.06319056 -0.052946888
0002b0 c2 7c 85 3c df 06 f2 bc 80 b0 63 3c 8c 38 a8 3d
       0.01629484 -0.029544292 0.013897061 0.082139105
0002c0 0a a4 79 3d 8e f8 ce bd 25 ec f6 bb 58 8a 7e 3d
       0.060947455 -0.10106002 -0.007535475 0.062143654
0002d0 25 af 6f 3d da a7 c3 bd 6e 5e 7d 3d de 99 ba bc
       0.05851664 -0.095534995 0.061857633 -0.022778448
0002e0 d1 95 34 bd 8e 86 c0 bd b4 61 1d bd 11 4d 69 bd
       -0.04408819 -0.09400664 -0.038423255 -0.056958262
0002f0 61 e3 26 3b 46 ad af ba 45 71 82 3d 4f f5 9e 3d
       0.0025465118 -0.001340308 0.06369261 0.07761633
000300 ae 2a 87 bd 31 3f bd 3d ad 48 cc 3d 3b 54 d5 bd
       -0.065999374 0.092405684 0.09974799 -0.10416456
000310 30 3d 75 3d 33 d3 92 3d cf 52 77 bd 96 cb 72 bd
       0.059872806 0.07169189 -0.060381707 -0.059276186
000320 00 f5 b9 3c 6d c6 d8 bd 5e 05 81 3d fc 0f e0 bb
       0.022699833 -0.10584722 0.06299852 -0.006837843
000330 e7 a6 51 bc 45 4b 08 3d a7 7e df bc 58 00 15 3d
       -0.01279614 0.033274908 -0.027282072 0.03637728
000340 6b f4 a1 bc 43 1c d1 bd 75 ce 87 3d 89 0c 81 bd
       -0.019769868 -0.102104686 0.066311754 -0.06301219
000350 be 82 cf bd 2c f3 f2 bd 63 fe 11 bc 25 51 52 3d
       -0.10132359 -0.118627876 -0.008910748 0.051346917
000360 40 4f fc 3c 8a 25 bc 3d 1c 15 3b bd d9 f3 65 bd
       0.030799508 0.091868475 -0.04567443 -0.056140754
000370 cc 90 99 bb 93 e4 e9 3d ed 30 5b 3d 57 83 35 bd
       -0.0046864506 0.1142055 0.053513456 -0.04431471
000380 89 31 e9 bc 3c 65 bf 3d da 83 4b 3d 24 fa 31 bd
       -0.028466003 0.09345481 0.04968629 -0.043451443
000390 15 be 00 bd d2 b3 6e 3d a4 b4 7d bd 4e 51 81 bb
       -0.031431276 0.05827696 -0.06193985 -0.00394646
0003a0 fd 3e 0c 3d b6 db 1c 3d 37 64 14 3d 2b e0 b4 bd
       0.034239758 0.03829547 0.036228385 -0.08831819
0003b0 75 24 69 bd 0c 04 e6 3d 14 2c b1 3d 87 3e 84 3c
       -0.056919534 0.11231241 0.08650985 0.016143097
0003c0 34 b5 50 3d c5 8b c2 bd 82 c7 5c bc 32 f9 eb 3c
       0.05095406 -0.09499315 -0.013475301 0.028805349
0003d0 80 74 80 bb bb 50 cb 3c d5 27 15 3d 53 cc b7 bd
       -0.003920138 0.024818769 0.03641494 -0.089745186
0003e0 19 39 83 bc 2a f4 22 bd 5d 2b 00 3e 6a bb 7a 3d
       -0.016018437 -0.039783634 0.12516542 0.06121389
0003f0 55 b9 84 bb 28 ba 59 3d 0e bf c9 3d d5 b9 32 3d
       -0.0040504136 0.053156048 0.09850894 0.043634254

multihead_attn.in_proj_bias f4 [579]
000000 89 05 39 3d dc 27 c0 bc 3f 9d ef 3c 10 e5 f8 bc
       0.045171294 -0.023456506 0.029249785 -0.030382663
000010 b6 7f 61 bd 2f 33 73 3d 55 e2 10 3d 50 36 f3 bc
       -0.055053435 0.059374984 0.035372097 -0.029688984
000020 f7 30 b0 bc 50 51 f0 3c a7 e5 5d 3c bb 77 bc bc
       -0.021507723 0.029335648 0.013543523 -0.02300631
000030 94 d1 6c bd b4 15 a6 bc 77 58 6b bd f7 f0 42 bc
       -0.057817057 -0.02027402 -0.057457414 -0.011898271
000040 af 61 44 3d ce 22 6d 3d 47 48 3d bd b2 6a 0c 3d
       0.04794472 0.05789452 -0.046211507 0.03428144
000050 db c5 a5 bc a8 fc 91 3d 62 36 e7 bc c6 e1 5a bd
       -0.020235946 0.071282685 -0.028224174 -0.05343797
000060 8c 80 4d 3d 75 25 08 3c ce d2 1b 3c 51 bd 2b 3d
       0.05017142 0.008309712 0.009510709 0.041928593
000070 c6 cb 34 3d f5 77 18 3d 45 39 57 bd b0 0d 39 bd
       0.044139646 0.037223775 -0.05254485 -0.04517907
000080 e3 b7 94 bc 64 5f 55 3d 03 01 ba 3c 36 65 f3 bc
       -0.01815409 0.052092925 0.02270556 -0.029711347
000090 51 aa bd bc bd fc 35 3c 67 98 f7 bb ff 7c 11 bc
       -0.023152502 0.011107621 -0.0075560096 -0.008879899
0000a0 01 b9 ea 3c 14 1a 2b bd f4 37 18 bd ec 14 15 bd
       0.02865267 -0.041772917 -0.037162736 -0.036396906
0000b0 c4 c2 28 bc 40 80 f0 bb 0b 3a 31 3d 3f 59 da 3c
       -0.010300342 -0.0073395073 0.043268245 0.026653884
0000c0 63 84 8d 3c 03 a0 10 3d d4 66 5b bd dc b4 a5 bc
       0.017275041 0.03530885 -0.05356486 -0.020227842
0000d0 1f 04 6e 3b a5 52 d6 3c fe 94 1b 3d 33 5c 14 3d
       0.0036318374 0.026162455 0.037983887 0.03622074
0000e0 4f e9 55 bd fd c3 c3 3c 58 2c 93 3c d5 35 97 3d
       -0.052224454 0.023897165 0.01796548 0.073833145
0000f0 70 c4 1c bd cb 37 0e 3d 46 59 7a bc 2f 9f d6 bc
       -0.038273275 0.034721177 -0.0152800735 -0.026198952
000100 23 11 40 bd d4 e4 8c bd a4 a4 30 3b 9c 8a 1f bc
       -0.046891343 -0.06879583 0.0026953602 -0.009737637
000110 3b 68 9b bd 53 86 79 3d 19 de 39 bd ac a0 35 3d
       -0.0758824 0.060919117 -0.045377824 0.04434268
000120 80 96 0d bd 6e d8 1c bd eb ec 16 bd 8c b5 87 bd
       -0.034567356 -0.03829234 -0.036847036 -0.06626424
000130 4c a8 dd bc 41 4e 38 3c 84 da 2f bd e0 09 90 bc
       -0.02705779 0.011249126 -0.042933002 -0.017582834
000140 6e 04 15 bd 54 01 1d bd b6 22 0b bd e3 d3 1c 3c
       -0.036381178 -0.038331345 -0.03396865 0.009572002
000150 4b ff ca bb 00 05 ba 3c ed 49 6f 3d ef be 3a 3d
       -0.006194984 0.022707462 0.05842011 0.045592245
000160 37 6f 4b 3b 51 46 46 3d cd d4 43 bd cc 40 2f bc
       0.003104163 0.048406903 -0.047810365 -0.010696601
000170 49 c5 b0 bc c9 0a d9 3c fd c2 41 3d 97 65 0f bd
       -0.021578448 0.0264944 0.047305096 -0.035008993
000180 ee c0 04 bc 07 31 ee 3c a5 eb e4 bc 87 a4 c7 bc
       -0.008102639 0.029076112 -0.027944395 -0.024370445
000190 45 1a ce 3c 83 c2 20 3d 32 6d 0c bd 71 57 e7 bc
       0.02515901 0.039248 -0.034283824 -0.028239937
0001a0 bb c4 58 3d 98 a6 7b bd 3c 27 24 3d 2a 02 47 bd
       0.05292199 -0.061438173 0.04007648 -0.04858605
0001b0 29 bd 2e 3d 0c fb 0f 3d 3f 68 60 3d 62 08 25 bc
       0.042660866 0.035151526 0.054786917 -0.010072799
0001c0 ec e7 12 3d 49 fc 06 bc 61 b0 e8 bc 0a 0e 3a bd
       0.03586571 -0.00823886 -0.028404417 -0.045423545
0001d0 99 20 fc 3c 5f 0c bb 3c eb 16 86 bd dd e3 a0 bc
       0.030777263 0.022833047 -0.0654734 -0.019639904
0001e0 21 db 7b bc d1 24 43 3d 8c 0b 7f bc 85 88 5a 3d
       -0.015372069 0.047642533 -0.015566718 0.05335285
0001f0 71 fe 4f 3c c2 cc f6 bc d2 36 4b 3d b4 69 e2 b9
       0.012694941 -0.030126933 0.049612828 -0.00043184834
000200 36 6a 9b 3c e4 71 dc bc 7f 7d 0a 3d e7 f5 17 3d
       0.018971544 -0.026909776 0.03381109 0.037099745
000210 de d9 d4 bc e8 2b 2d bd 1d 93 42 3c 13 f4 91 3c
       -0.025982793 -0.0422782 0.011875895 0.017816579
000220 60 e2 b9 3c 41 41 33 bd df be cf 3c 53 13 43 bd
       0.022690952 -0.043763403 0.02535957 -0.04762585
000230 d9 67 61 3c 6c 7e 36 bd b6 e5 26 bd 49 d3 e6 bc
       0.013757669 -0.04455416 -0.040746413 -0.02817692
000240 d1 30 9e 3d 23 73 5c bd f2 dc f0 bc da 61 34 bd
       0.07724155 -0.05382074 -0.02940223 -0.04403863
000250 53 65 79 3d 10 e1 4a bd 7f 1e 2f 3d 1d 9a a9 3c
       0.060887646 -0.049531043 0.042753693 0.02070337
000260 15 68 1f 3d 83 a6 82 bd f9 2b 3e bd 1f 76 fb 3c
       0.03891762 -0.06379416 -0.046428654 0.030695973
000270 44 78 68 bc 01 a5 1c 3a 03 5a ef 3c 54 4e 68 3d
       -0.01418883 0.0005975515 0.029217726 0.056715325
000280 c9 69 b2 3c 34 b8 8b 3c bc 4f f7 bb e2 0a a8 bc
       0.021778958 0.017055608 -0.007547347 -0.020513002
000290 f2 9d cd b9 4e 0e a2 bc 82 75 7f bd 30 97 26 3d
       -0.00039218325 -0.019782212 -0.062367924 0.040671527
0002a0 12 0e ef bc a9 49 0b 3d 4e 8a 7a bd 74 2e ad bb
       -0.029181514 0.034005795 -0.061167054 -0.0052850787
0002b0 5d e6 57 3d 05 b3 82 3b 59 30 3c 3d 73 dc d7 3a
       0.052709926 0.003988626 0.045944545 0.0016468897
0002c0 1a 9a 3b bd 79 4e 74 bd be c1 92 3d 58 1d cd 3c
       -0.04580126 -0.05964515 0.0716586 0.025038406
0002d0 51 d4 89 bd ec dd 3e bd a5 29 66 3c 75 0e 83 bd
       -0.06729949 -0.04659836 0.014048015 -0.06399242
0002e0 be 41 bb 3b 23 56 7d 3d de 5d 30 3d 64 ba 9a 3c
       0.005714624 0.061849725 0.04305827 0.018887706
0002f0 f2 60 41 3d 4a b6 ec 3c f7 69 75 bd d9 41 13 bd
       0.047211595 0.028895516 -0.05991551 -0.03595147
000300 09 78 08 bb de e9 9f 38 16 2f e4 b7 d6 90 e0 b7
       -0.00208235 7.625272e-05 -2.7201644e-05 -2.6770325e-05
000310 3c 9f ab b8 7e 53 6a b8 52 94 83 38 43 17 d2 37
       -8.183575e-05 -5.5867706e-05 6.2741936e-05 2.5044783e-05
000320 5c 06 b3 37 72 5b 3f b7 9b 0a 11 b8 33 39 13 38
       2.1341424e-05 -1.1405778e-05 -3.458057e-05 3.5100802e-05
000330 5e da ba b7 94 f2 8c b8 26 77 1f 36 b8 60 96 b7
       -2.2274613e-05 -6.720904e-05 2.37622e-06 -1.7926432e-05
000340 2a fb 17 b8 a2 75 0f b8 99 dd 2f 38 04 d5 1f b8
       -3.623512e-05 -3.420341e-05 4.192963e-05 -3.810694e-05
000350 3d cb e7 37 22 47 62 b8 80 a7 b0 36 f9 ab 22 38
       2.7631986e-05 -5.3948846e-05 5.2647083e-06 3.8783972e-05
000360 a9 42 90 b7 c0 5f 8a b7 86 db a2 37 ca ff 56 b8
       -1.7197179e-05 -1.6495469e-05 1.9414128e-05 -5.1259798e-05
000370 86 58 3d b8 40 56 64 37 55 0e b0 38 ee d0 af b8
       -4.5143555e-05 1.3609941e-05 8.3950035e-05 -8.3835665e-05
000380 eb f1 67 38 17 cc 87 b8 bc 03 05 37 db d1 0e 37
       5.5299995e-05 -6.475316e-05 7.928287e-06 8.51272e-06
000390 3f 7f b9 37 a7 23 58 37 d3 42 24 b8 12 58 b6 37
       2.2112972e-05 1.2882904e-05 -3.9162882e-05 2.1737102e-05
0003a0 fe c8 9a b7 8b 2f 51 b8 a4 bb 5d b8 c2 fa 08 38
       -1.8451825e-05 -4.987376e-05 -5.286526e-05 3.2658463e-05
0003b0 8c cc 00 b7 5b b3 15 37 93 a5 3f 37 76 3f 95 37
       -7.677019e-06 8.9228515e-06 1.1423038e-05 1.7791735e-05
0003c0 de 9c 31 b8 53 0f 7c 36 1b cb a0 38 50 ee 71 b8
       -4.2346182e-05 3.7559846e-06 7.667226e-05 -5.7680823e-05
0003d0 bf f7 91 37 a8 04 ce 37 39 9d 02 b8 97 b2 4a 38
       1.7400713e-05 2.4559282e-05 -3.114084e-05 4.8326878e-05
0003e0 c8 92 e4 b7 a3 12 a9 b8 dc bf 24 38 68 72 8a 37
       -2.7248068e-05 -8.062019e-05 3.927933e-05 1.6504157e-05
0003f0 2b 0f 7b b8 b7 cd b6 37 0c cf 4a b7 5c 0b 11 b8
       -5.985719e-05 2.1791884e-05 -1.2088345e-05 -3.4581273e-05

multihead_attn.out_proj.weight f4 [193, 193]
000000 b1 46 88 3b f8 45 85 bc bb 64 5f 3d 0a 2c 02 bd
       0.0041588177 -0.016268715 0.054539423 -0.03178028
000010 47 ab 39 3d 38 53 05 3d 34 02 7f 3c f5 bc 49 bb
       0.04532936 0.032550067 0.01556449 -0.0030782793
000020 18 fd c2 bc bc 9c 56 3c e9 4a 6a 3c 2c ec 39 3c
       -0.023802325 0.013098892 0.014300087 0.011347812
000030 f1 cc 3a bb 8b c9 75 bd 7d 30 fa bc 32 78 08 bd
       -0.0028503502 -0.06000666 -0.0305407 -0.033317752
000040 eb 13 3a bd 6c d3 f3 3c 8e ce 5e 3d 52 f6 92 3c
       -0.04542915 0.0297639 0.054396205 0.01793972
000050 f7 25 70 bc cf 13 ad 3b 37 9e 8d bd e7 43 f9 3c
       -0.014657489 0.0052819024 -0.06914943 0.030427886
000060 0f 32 2a 3d c7 50 e4 3c 9f 3f c4 3b a4 8f 67 bd
       0.041551646 0.027870549 0.0059890295 -0.05653347
000070 b8 8b 35 3d 16 35 c9 3c 09 c2 9c 3b 4a 08 0f 3d
       0.0443227 0.024561446 0.004783873 0.034920014
000080 11 7d 6e bc 78 e3 7b 3d 81 5f 39 bc 57 eb 3b 3d
       -0.014556185 0.061496228 -0.011314274 0.045878734
000090 2e ed 05 3d ee e4 d6 bc 3d 3b 87 3c 10 f5 05 3b
       0.032696895 -0.026232209 0.01650774 0.0020440258
0000a0 3f e5 36 3d e9 fa 04 3d 42 87 62 3d 79 fb 73 3d
       0.04465222 0.03246585 0.055304773 0.059565995
0000b0 f4 31 5f 3d e6 02 18 3d b8 50 0a 3c 1b 6f aa 3c
       0.054491 0.03711214 0.008442096 0.020804932
0000c0 d3 46 e4 bc 36 8c 1f 3c 1c ae 09 bc bd 68 5a bb
       -0.027865803 0.009738019 -0.008403327 -0.003332659
0000d0 46 bb 97 3a 7d e1 ba 3c 84 18 2e bd 96 04 10 bd
       0.0011576198 0.0228126 -0.04250385 -0.035160623
0000e0 55 0b 1f bd 8f b0 f9 bc a8 55 bf 3c 2e 9b 1d 3c
       -0.038829166 -0.030479698 0.023356274 0.009619517
0000f0 4a 76 96 3a 0f a3 b2 bb 5c 22 3f bc 24 ee ab 3c
       0.0011479345 -0.005451567 -0.011665907 0.020987578
000100 bf 3e ab 3d 18 d6 80 3d a8 05 73 bd ca 1b c0 3c
       0.08361577 0.06290835 -0.059331566 0.02345075
000110 80 de a9 3b d3 d5 71 3d f8 bf 44 3d b5 d4 c9 3b
       0.005183995 0.05904181 0.04803464 0.00615939
000120 b7 23 7d 3d 44 4d 3f bb 88 34 5f bd e0 b9 4e bc
       0.06180164 -0.002919034 -0.054493457 -0.012617558
000130 0e bd 7b bd fd 69 02 3d e4 1c d6 3b 7b 22 92 ba
       -0.061459593 0.03183936 0.0065342057 -0.0011149192
000140 51 e2 43 3d 1c 61 29 bc f4 eb 78 bb 62 03 49 bd
       0.047823254 -0.010338094 -0.0037982436 -0.04907549
000150 c3 f9 bd 3c 39 a0 5a bc 3a dd fb 3c a3 1d e7 3c
       0.023190385 -0.013343864 0.030745137 0.028212374
000160 f0 e8 4e bd b0 fb 18 3d a7 af 8b bb 8e 3e a9 bc
       -0.050515115 0.037349403 -0.0042628828 -0.020659711
000170 8b c0 50 bc fb a1 ae 3c fd 10 b7 3c c1 5d 42 bc
       -0.012741218 0.021317473 0.022346968 -0.011863173
000180 ff 4d 36 3d 8b ee 14 bd 4d d9 1e bc 6d 7c 15 bd
       0.044507977 -0.036360305 -0.009695363 -0.036495615
000190 49 0a 0e 3d be a8 da 3c 78 5b 9f 3b 03 17 1b 3d
       0.034677777 0.02669179 0.004863199 0.037863743
0001a0 84 86 c8 b8 c1 e2 22 3b c7 b7 29 bd ce 84 3a 3d
       -9.561799e-05 0.0024854394 -0.04143503 0.04553681
0001b0 4e 5a 3e 3b 5e 99 a9 bd 1f 6b b6 3b a2 95 a6 bd
       0.0029045525 -0.082812056 0.005566969 -0.08134009
0001c0 5c 30 d7 bc 8f 92 a4 bc 23 8e 07 bd 4c e5 cf 3c
       -0.026268177 -0.020089416 -0.033094537 0.025377892
0001d0 0e d7 28 bc 88 94 7a bd a4 dd 7a 3d df 62 4d 3d
       -0.010305179 -0.061176807 0.06124653 0.05014312
0001e0 5b 46 0c bb 86 f8 a6 bc 4a 14 80 bb b3 51 3f bd
       -0.002140424 -0.020382177 -0.0039086686 -0.046708774
0001f0 dd d4 1d bd dc 43 af bc a0 bc 5f bd 94 12 8f 3d
       -0.03853308 -0.021394663 -0.054623246 0.06985965
000200 55 d1 5e 3d 65 96 7d bc 25 df 14 3d 80 81 92 3d
       0.054398853 -0.015477751 0.03634562 0.071536064
000210 b1 1c a2 3c bf 43 a2 3c 6d 03 fa 3b 7b e5 79 3c
       0.019789072 0.019807694 0.007629803 0.015252466
000220 2c b4 78 bd e4 03 ec bc ca ed 21 3d fa 2d 3d 3d
       -0.0607187 -0.028810449 0.039533414 0.046186425
000230 2e 8c 8d 3c 54 03 0c bd ad 6f 09 3d c3 6d 99 3c
       0.017278757 -0.03418286 0.033553768 0.018729096
000240 ff 63 d6 3b 16 48 60 bb 0b f2 44 bd 12 bb b4 3c
       0.006542682 -0.0034222654 -0.048082393 0.022061858
000250 52 b8 62 bb e2 da 11 3c a8 be 32 bd 90 39 ec bb
       -0.0034594727 0.008902283 -0.043638855 -0.0072090104
000260 ad 06 d4 bc c5 2d 78 3c 72 9c c9 39 f0 b0 07 bc
       -0.02588209 0.015147631 0.00038454268 -0.008281931
000270 ac ab 74 bd 90 68 2e bd 4e 36 0c 3d 17 e2 70 bc
       -0.05973403 -0.042580187 0.034231476 -0.0147023415
000280 6c 27 1d 3d c9 e0 52 bc 8b 6b f4 3c 62 85 90 3c
       0.038367674 -0.012870976 0.029836437 0.017641727
000290 19 78 82 3d 9e 71 57 3c 44 2e 8d bc 18 0b a5 3c
       0.06370563 0.013149647 -0.017233975 0.020146891
0002a0 85 2b 99 3c ad d0 b7 3c 2a 36 ae bc 1e 1f 58 3d
       0.01869751 0.022438372 -0.021266062 0.05276405
0002b0 ec 45 98 bd 40 1e 71 39 7c a0 39 3d 95 a0 12 3d
       -0.074352115 0.0002299482 0.045319065 0.035797674
0002c0 a9 3e f1 bc ee ef 7c bd 60 82 8e 3d 3c 15 0b 3d
       -0.029448824 -0.061752252 0.06958461 0.033955798
0002d0 fc d1 7e 3d 10 cd 3d 3d d2 b3 f1 3c a2 e1 78 3b
       0.062211975 0.04633814 0.02950469 0.0037976285
0002e0 a0 af 58 3d 4a 3a 06 3d 69 6c b8 bc 1d 42 a3 3c
       0.052901864 0.032770433 -0.022512631 0.019928986
0002f0 9e 45 54 3d 40 51 e8 bc 4f 0c a0 3c 18 41 0f 3c
       0.051824205 -0.028359056 0.01953712 0.008743547
000300 26 a9 36 bd 7b 13 b3 bc 78 97 2b bd 5d 9e 3d bc
       -0.044594906 -0.021859875 -0.0418925 -0.011573401
000310 3c 46 6e bc e6 1b f8 bc a2 58 3f bb b6 4e 92 bc
       -0.014543112 -0.03028674 -0.0029197116 -0.017859798
000320 ac 11 64 3d b2 6c 5f bc 69 68 80 3d 0a 59 8d bd
       0.055680916 -0.013636755 0.06269915 -0.069017485
000330 da 78 66 3c 96 39 c1 bc b3 95 27 3d 7f 4d 99 3d
       0.014066899 -0.02358703 0.04091425 0.07485484
000340 80 9e 9f 3d 8e 05 05 3d 07 7b e3 bc ab d0 58 3d
       0.07793903 0.032476 -0.027768625 0.052933376
000350 d1 e7 94 3d a4 c5 86 bc 71 6a 6e bd f8 1a aa bb
       0.07270778 -0.016451664 -0.05820698 -0.005191203
000360 4d 8c 05 bd e4 26 03 3d 8d 7c 28 bd a3 33 fa 3c
       -0.032604504 0.03201951 -0.041134406 0.0305422
000370 9b fe 58 39 52 1b 99 3d 80 56 b7 bc 5e 12 84 bd
       0.00020694213 0.07475914 -0.022380114 -0.06448816
000380 f3 ca 53 bd c2 66 d9 3c 4d eb 3d bb da 64 96 3d
       -0.05170722 0.026538257 -0.0028979362 0.07343455
000390 ec f6 a6 3c 43 0a 27 3d 72 f7 f0 3c 7a a9 a3 3d
       0.020381413 0.04078127 0.029414866 0.079913095
0003a0 5f 22 51 bd 92 a9 90 3c 2a e5 00 3d 45 21 b9 bc
       -0.05105817 0.017658982 0.031468548 -0.022598872
0003b0 f1 58 3c ba 20 d1 58 3d f1 b9 f4 bb 2d f0 1b bd
       -0.0007184884 0.052933812 -0.007468455 -0.038070846
0003c0 69 57 25 bc 42 57 14 3d eb d0 7b 3c 5c f8 08 3b
       -0.010091641 0.036216028 0.015369634 0.0020899987
0003d0 56 02 84 3c 45 42 01 bd 18 3a 03 bd c8 fc 62 3d
       0.016114395 -0.03155734 -0.032037824 0.055416852
0003e0 37 68 11 3d 4c 3b f7 bb 5f d3 4e bd 1d fc 16 bd
       0.035499778 -0.0075449105 -0.050494548 -0.036861528
0003f0 89 de c1 3b 6e 61 67 3c 3d a3 e7 bb 48 9a 4e 3c
       0.005916421 0.01412235 -0.00706902 0.012610026

multihead_attn.out_proj.bias f4 [193]
000000 0c 23 49 3c 05 0f a9 3b 85 8f bb 3d c4 3e c0 3c
       0.012276422 0.005159261 0.091582336 0.023467429
000010 16 34 a7 bd 73 11 f6 3c 83 fe 1c 3d c2 1e 0a 3e
       -0.081642315 0.030037617 0.03832866 0.13488296
000020 3b c4 81 3d 52 25 a9 3b b0 f4 cd 3d 20 16 a4 3d
       0.06336256 0.0051619196 0.10056436 0.080120325
000030 e4 48 0f 3e 39 ba 0c 3e f0 c1 3f 3d 14 a7 57 bb
       0.1399265 0.13742913 0.046815813 -0.0032905983
000040 97 20 2a 3d 1c ab c4 bc cd 5f 1b bd 54 f1 8c bc
       0.041534986 -0.024007373 -0.03793316 -0.017204918
000050 01 1c 14 3e cb 56 13 bd 6e ff d1 bd b2 0b e9 bc
       0.14463808 -0.035971444 -0.102537975 -0.02844796
000060 24 70 67 bd ad 20 b4 3c ba 1d 16 3d a0 4e b5 3d
       -0.05650343 0.021988237 0.036649443 0.08852887
000070 3c 02 6d bd 17 6d 11 bd 92 98 d3 3d 99 1f d7 3c
       -0.05786346 -0.035504427 0.10331835 0.026260184
000080 e5 26 52 bc cc b5 a8 3c 67 40 14 3e a0 ab e9 3d
       -0.012826656 0.0205945 0.14477693 0.11409688
000090 e1 e4 fc bb 75 0e 85 3d 82 0b dc bc 70 0a 67 3d
       -0.007717714 0.06496898 -0.026860956 0.05640644
0000a0 f8 c0 ab bb e4 d2 97 3d 16 fa be 3d 2f 53 ea 3a
       -0.0052415095 0.07413271 0.09325044 0.0017877574
0000b0 b8 ce c1 bd a8 87 b0 3c 5b f0 2c 3d 46 bf cb bd
       -0.094632566 0.021549061 0.04222141 -0.09948592
0000c0 36 b2 7b 3d a7 37 97 bd 61 6f ac bc 4e c5 24 3e
       0.061449252 -0.07383662 -0.021049203 0.16090891
0000d0 af a7 1b 3e 11 e7 b0 bd 73 0f e1 3c d3 5a e6 3a
       0.15200685 -0.086378224 0.027473187 0.0017574675
0000e0 01 64 95 3c d4 4e 60 3b 5d ef 27 3d 63 15 f6 3d
       0.018236162 0.0034226673 0.04099976 0.12015798
0000f0 5e 9c bd bd 44 37 2c 3d 7d 3e 0b 3c 35 5f 00 3e
       -0.0925834 0.042044893 0.008498785 0.12536319
000100 de 82 87 3e b4 67 1b 3e 12 15 65 3d 48 ca b2 3b
       0.2646703 0.15176278 0.055928297 0.0054562427
000110 bf c6 bf bd f2 51 54 bc 13 3a 1c 3d 62 7c 08 be
       -0.0936408 -0.01295899 0.03814132 -0.13328698
000120 72 b9 d1 bc 24 98 d6 3c 21 ce 14 3e 13 41 1f bd
       -0.025601123 0.026195593 0.14531757 -0.03888042
000130 38 2f aa bc db 82 81 bd 07 aa 02 3d e6 66 b0 39
       -0.020774469 -0.06323787 0.031900432 0.00033646
000140 26 2f 95 bd b5 d3 18 3e 87 ad a1 3d 28 b2 25 3d
       -0.072843835 0.1492451 0.07894426 0.040453106
000150 79 c6 98 bd 99 33 21 3d a9 6e ae bd 7b 32 80 bd
       -0.07459731 0.039355848 -0.085172005 -0.062596284
000160 f9 c2 43 3e 8a a1 0d 3d 4e 96 d8 bc f2 82 77 3d
       0.19117345 0.034577884 -0.026438858 0.060427614
000170 bd e5 1c bd 2c 03 0d bd d0 a6 42 bc 89 2a f1 3d
       -0.038305033 -0.034426853 -0.0118805915 0.11775691
000180 ef 14 e2 3d b8 00 72 3d bf c3 fc bc 0c da 31 bd
       0.11039149 0.059082717 -0.030855058 -0.043420836
000190 e7 e8 03 3d b5 81 1b bd 63 7f ab bd ae d6 18 3d
       0.032204535 -0.037965495 -0.083739065 0.03731411
0001a0 88 68 f7 bb c1 be 3f bd 1c 32 85 bc 91 18 16 bd
       -0.007550303 -0.046812776 -0.016259246 -0.036644522
0001b0 5d 7b 98 bd 62 99 40 bd 23 55 39 bd 3b 87 25 bd
       -0.07445405 -0.047021277 -0.04524721 -0.04041217
0001c0 30 f6 ae bc 69 1c 55 bd 2c 30 16 bc c9 87 b5 3c
       -0.021357626 -0.052029047 -0.0091667585 0.022159474
0001d0 55 8c a7 3d 15 d5 40 bc 82 80 1e 3d 72 9e aa 3d
       0.08181063 -0.011769553 0.038696773 0.08331002
0001e0 3e 58 5b 3d 5d 32 63 3d de 18 97 3d cb 8d e5 bb
       0.05355095 0.055467952 0.0737779 -0.0070054284
0001f0 1e a7 79 b9 65 98 c1 3d f7 f2 7f bd f0 db 19 3d
       -0.00023808746 0.09452895 -0.06248757 0.037563264
000200 4a 33 75 3d a0 7c 86 3d c9 e5 a8 3d 2e 80 dd 3b
       0.059863366 0.06566739 0.08246953 0.006759665
000210 dd 1f 62 bd 8c 71 9b ba 20 87 30 3c ca 8e 19 3c
       -0.05520617 -0.0011859401 0.010774404 0.0093724225
000220 56 5a 28 bc 7e 41 cc 3d fb bd e0 3d 55 16 8b bd
       -0.010275444 0.09973429 0.10973736 -0.06791369
000230 5c bb 56 3d 9e ae 91 bd 90 64 dc bc 8c 4d 5c 3c
       0.052424774 -0.07113384 -0.02690342 0.013446223
000240 e2 ec 51 bd 0c b7 14 bd 71 aa fc 3c 84 df 42 bd
       -0.0512513 -0.03630738 0.030842992 -0.047576442
000250 3a 2f 5a 3d 12 b3 ad 3d 82 ac 75 bd de a1 df bc
       0.053267695 0.084814206 -0.05997897 -0.027298864
000260 5b 25 e3 3c e0 fd cb 3d 52 c8 6c bd 3c b0 10 bd
       0.027727773 0.09960532 -0.057808228 -0.03532432
000270 44 22 67 bc 4e 31 a7 3d fa 84 25 3c 1d a8 65 3c
       -0.014107291 0.08163701 0.010102505 0.014017132
000280 75 ec be bc 38 5e 0f bc 3d 09 21 3d 0a a3 0e bd
       -0.02330611 -0.008750491 0.03931545 -0.034823455
000290 40 84 1f bd 0e 67 77 3d f4 34 e9 3c bc 85 b3 3d
       -0.038944483 0.060401015 0.028467633 0.08765742
0002a0 a1 da b5 3d be e2 df bc b9 6a 3a bc 00 31 92 bd
       0.08879591 -0.027329799 -0.011377984 -0.07138252
0002b0 39 b4 88 3c c0 21 d5 bd 84 f3 31 bc c3 e0 92 bd
       0.0166875 -0.10406828 -0.010861281 -0.07171776
0002c0 6c b2 bc bd 92 54 94 bc 96 60 13 bb e6 6c 8c bc
       -0.09213719 -0.018106733 -0.002248799 -0.01714177
0002d0 42 da 87 bc da 38 7c 3b 88 f2 04 3e 3c 3a 65 3d
       -0.016583566 0.0038486035 0.12983143 0.05596374
0002e0 41 9a 90 3d b7 98 98 3d 46 79 64 3c fd 51 d1 3c
       0.070606716 0.07451003 0.013944929 0.02555179
0002f0 9f 09 e6 bc 09 8c e1 bd ec 6b c8 bc fc b7 6d 3d
       -0.02808076 -0.11013038 -0.024465524 0.05803679
000300 e9 cc 35 3e
       0.17753948

Dense1.weight f4 [193, 193]
000000 a6 07 c0 bd 1c 86 72 3d 08 9b 3e 3d e7 a1 f7 3a
       -0.09376459 0.059209928 0.046534568 0.0018892855
000010 f0 ab 34 3d cc 5c c1 bc ea 14 b4 3d d2 47 16 bd
       0.044109285 -0.02360382 0.087930515 -0.036689587
000020 ff 11 25 3d 6a 2f 08 3d 21 5a 58 bd 54 c6 14 bd
       0.040300366 0.033248343 -0.05282033 -0.036321953
000030 ac 06 84 ba 47 4d 70 3d f6 23 ce 3c b0 a3 ff bc
       -0.0010072789 0.058667447 0.025163632 -0.031205982
000040 b8 17 15 bd 64 2b 88 ba 0b e6 f2 3c 1f 71 c1 bd
       -0.036399573 -0.0010388908 0.029650709 -0.09445404
000050 af 2e 78 3b cf a2 9c 3d 63 1b 29 3d d6 04 b5 39
       0.0037869622 0.07648241 0.041285884 0.00034526613
000060 51 d1 b3 bc d4 e5 de bb 00 eb 15 3d eb 7a 96 3c
       -0.021950396 -0.0068023 0.036601067 0.018369159
000070 23 30 2c bd cd 56 aa 3c 6a de 8d bd 4b 0a a5 3d
       -0.042038094 0.020793343 -0.06927188 0.08058604
000080 4c 62 90 3d 59 47 79 3d f9 7a d9 3c 19 19 09 38
       0.07049999 0.060859058 0.026547896 3.268672e-05
000090 c2 31 85 3d 7c d7 00 3c 6d 2d 2f bc 07 cd 43 3b
       0.06503631 0.0078638755 -0.010691983 0.0029876844
0000a0 50 94 3f bd b5 2c ab bd 0d a8 44 bc a0 21 3e bc
       -0.0467723 -0.083581366 -0.012002957 -0.0116046965
0000b0 89 25 79 bc 71 32 42 bb e4 90 ed 3c 1a 75 04 bb
       -0.015206703 -0.0029632116 0.028999753 -0.00202114
0000c0 07 1b 2b bd 2d 46 ba 3d a4 cd 9a 3d 56 3a 9f bd
       -0.041773822 0.09095416 0.07558754 -0.077747986
0000d0 de 18 c1 ba f4 96 20 bb 64 96 95 3c 4b 5b f8 3b
       -0.0014732142 -0.0024504038 0.018260188 0.0075792423
0000e0 ba c0 09 bd 1d c8 77 3d fc 1c 2a 3c 82 51 3f 3d
       -0.033631064 0.060493577 0.010382887 0.04670859
0000f0 37 02 b3 bc 5d 00 6f bd 71 83 93 bd cd 02 06 bd
       -0.021851642 -0.058349956 -0.07202805 -0.032717515
000100 ae 32 04 3d a9 30 10 bd 8b 2a 0f be 5d f3 1c bd
       0.032274894 -0.035202656 -0.13981073 -0.038318027
000110 b2 2c 38 3d 12 34 0a bd 68 1b 29 be f8 cb 88 3d
       0.0449645 -0.033741064 -0.16514361 0.06679529
000120 40 96 2e 3d 0f b2 9f bd d2 8b c2 bd 68 f6 06 3e
       0.04262376 -0.07797634 -0.09499325 0.13179934
000130 fb fe 3b 3e d2 ca ac 3d d7 a9 6f 3c 18 22 58 3d
       0.18358986 0.084371224 0.014627895 0.05276689
000140 2d 76 60 3e 76 49 4d bd c5 20 e5 bb 50 b9 7a 3c
       0.2192008 -0.050118886 -0.006992432 0.015302971
000150 ae 1d 88 bb 9d 89 3c bd fa 0e 89 3c f0 ba 5c bc
       -0.0041539287 -0.046029676 0.016730774 -0.013472304
000160 9a 05 38 bd 12 e0 09 be 04 51 46 3d 52 41 5d bc
       -0.044927217 -0.13464382 0.048417106 -0.013504343
000170 4d 2e 2a 3e fe 6a 24 bd 9f 1a b1 bd 5e c7 92 bd
       0.16619225 -0.0401411 -0.08647656 -0.071669325
000180 8d 8f b5 bd a4 6e 5d be 45 9f a9 bc 1e 2b e3 bc
       -0.08865271 -0.21624237 -0.020705828 -0.02773052
000190 ce 51 2e bb 67 cc dc bc 37 27 bc 3c be 6c 1e 3e
       -0.0026599052 -0.026952935 0.022967918 0.1547117
0001a0 66 0e b3 3c f7 30 e6 bb 82 1a 98 3b e5 7a 11 3d
       0.021857452 -0.00702488 0.004641832 0.035517592
0001b0 e0 ee 54 bd 5e 00 2a 3e 5e 5a 1a bd 04 6c 0c bc
       -0.05198562 0.16601703 -0.037683837 -0.008570675
0001c0 be bf d6 bd fe 4b f2 bc 49 ee ae 3d c1 7b 2e 3e
       -0.10485791 -0.029577252 0.08541543 0.17039396
0001d0 b4 34 05 bc 86 f9 9a 3c 40 f2 81 bd 7a cb b8 bc
       -0.008130241 0.01891781 -0.06345034 -0.022557963
0001e0 51 03 6b bb d8 c4 74 3c fc 6a bd bc c1 6a c3 bd
       -0.003586013 0.014939509 -0.023122303 -0.09541846
0001f0 cc 1d 95 bc 29 5f d6 bc da 94 b0 3d f6 78 23 be
       -0.018202685 -0.026168423 0.08622141 -0.15964112
000200 02 ad 50 bc 93 4c 08 bd 28 94 47 3d bb 96 4e bc
       -0.012736561 -0.033276152 0.048725277 -0.012609179
000210 5b 76 a2 bd 9f 54 27 bc 1b bc b4 bc b2 04 de 3c
       -0.07932731 -0.010213046 -0.022062352 0.027101848
000220 3b 5c 17 3d 64 46 3a bc aa 62 8e bd 7e 1d a0 3c
       0.036953192 -0.0113693215 -0.069524124 0.019545313
000230 23 d6 fb 3b 44 38 6c bc e5 08 b3 3b 56 56 88 bd
       0.007685439 -0.014417712 0.005463707 -0.06657092
000240 04 9b 9b bc 88 04 a8 bd bd d7 92 bd e1 4d a4 ba
       -0.018994816 -0.08203989 -0.07170055 -0.0012535417
000250 21 f0 28 bd 98 f6 36 bd 25 f8 45 3b e0 44 53 3d
       -0.04124463 -0.044668764 0.003020772 0.051579356
000260 b5 c8 ee bc c8 98 2b 3d f5 90 98 3d 81 64 4a 3d
       -0.029148439 0.04189375 0.07449523 0.049412254
000270 5d f9 53 bd 5a d6 aa bd 1c 5c db bc 17 85 fa bc
       -0.051751483 -0.083416656 -0.02677732 -0.03058104
000280 ba 1b e9 bc 49 29 8e bd 4d c1 9a 3c e4 4f 33 3d
       -0.028455604 -0.06941468 0.018891001 0.04377736
000290 1e 51 88 3c bb 44 5e bc c2 14 68 3d 1e 95 47 bd
       0.016640242 -0.013566191 0.05666042 -0.048726194
0002a0 f7 f7 0a 3c 00 fa 91 3d 8e 87 87 bd 5f 1c e2 3c
       0.008481971 0.07127762 -0.06617652 0.027601419
0002b0 7e 96 35 3d 2e 48 4f 3d a2 26 d1 3d 7e 0f a8 bc
       0.044332974 0.050605945 0.10212447 -0.0205152
0002c0 df aa 35 3d 6b cb 59 3b 42 5e 50 bd f8 55 ed bc
       0.04435241 0.0033232819 -0.05087114 -0.028971657
0002d0 1d 7c 8f 3d 7b 8a 4e 3d 7a ed 8d bd 42 8f 36 39
       0.070060946 0.050425034 -0.06930061 0.0001741024
0002e0 fe 6b 4e bd 79 6e ad bd 55 ae 57 3d d4 4a b8 bb
       -0.050395958 -0.084683366 0.05265649 -0.0056241546
0002f0 a6 1e e6 3c da 75 32 3d 9a fd c4 3d 91 52 4f bd
       0.028090786 0.043569423 0.09618683 -0.05061585
000300 dd 0f bd 3a b8 b0 1c bd 74 e5 0a be 43 82 c9 3c
       0.0014424283 -0.03825447 -0.13564092 0.024598246
000310 57 03 4b bd 48 c9 f1 3b 36 95 42 bd d1 82 bd 3c
       -0.049563732 0.007378731 -0.04750558 0.023133667
000320 0e 74 a1 3c 66 d7 8a 3c fb a7 bb bc 9b 2a 17 3c
       0.01970866 0.016948413 -0.022907248 0.0092264665
000330 0c 90 d4 bc 85 3d b7 3d c0 6f 66 3d 94 ba f7 bc
       -0.025947593 0.08947281 0.056258917 -0.030240335
000340 e4 13 c5 3d 47 0c 29 3d e6 de 6a 3b 4b 29 85 bd
       0.096229345 0.041271474 0.0035838424 -0.06502017
000350 89 24 a5 3c f2 0b 48 bc ef fb 2e 3d ff 86 a5 3d
       0.020159023 -0.012209879 0.04272073 0.08082389
000360 6b c7 0d bd e4 42 73 bd 0c b8 25 3d 27 57 40 bc
       -0.034614008 -0.059389964 0.040458724 -0.011739529
000370 1d 0c 24 3d 1a 3c 57 bd 5d ea 9d 3d 34 d3 42 bd
       0.040050615 -0.05254755 0.07710717 -0.0475647
000380 cc 0f 36 bc bd 43 2b bc b9 a5 5c 3d 91 a8 1c bc
       -0.011112165 -0.010453162 0.053868983 -0.009561674
000390 3a 14 8b bb 16 20 68 bd 7f a6 e8 3c 90 bb 82 3d
       -0.0042443546 -0.056671225 0.028399704 0.06383431
0003a0 28 f4 f6 3c 9d 84 6f 3c 9f f3 0f bd 6a ab 7e 3d
       0.03014572 0.01461902 -0.035144445 0.062175192
0003b0 93 ac c2 bc bd d5 48 3d 71 2d 33 3d ca ad df bc
       -0.02376393 0.04903196 0.04374451 -0.027304549
0003c0 54 e0 9c bc b6 ee 83 3d 42 9e 82 3c 79 c4 53 bd
       -0.019149937 0.06442015 0.015944604 -0.051701043
0003d0 cf 15 84 bd 0e d8 09 bd a0 c2 8d 3d 9a 58 a3 bc
       -0.06449472 -0.03365331 0.069218874 -0.01993971
0003e0 26 58 30 bd db 9e cc bc d8 e4 96 3c 12 4f c0 bc
       -0.043052815 -0.024978092 0.018419668 -0.023475204
0003f0 7f 39 9e 3d 48 9c fc 3c ae 6d d9 bc 68 11 7f 3d
       0.0772581 0.03083624 -0.026541557 0.06227246

Dense1.bias f4 [193]
000000 50 ea d3 3c e9 d0 4b 3d 09 a3 9a 3b a1 06 65 3d
       0.025868565 0.04975978 0.0047191423 0.055914525
000010 a0 41 ea bc 62 c5 81 bd 4c eb c2 3b ad 0f c7 bd
       -0.028595746 -0.06336476 0.0059484597 -0.09719787
000020 e4 58 f7 bc 71 ce 78 bc ee d2 4f bd 2a 0e 47 bd
       -0.030193754 -0.015185938 -0.050738268 -0.048597492
000030 38 36 c2 bd c0 bc c6 3c eb 76 93 bd df a1 5b bd
       -0.09482998 0.024259925 -0.07200416 -0.05362117
000040 2f 83 b4 bd 57 c8 5b 3c dc bd 09 3d 2b db 4b 3d
       -0.08814084 0.013414464 0.03362833 0.04976956
000050 73 bc 57 bd 70 32 59 bd 18 84 02 bd 5a 0a 2c bd
       -0.052669954 -0.053026617 -0.031864256 -0.04200206
000060 0a 7f 74 bd 97 8a 07 3d c4 2c 09 3d 0a 9b f8 bd
       -0.059691466 0.033091154 0.033489957 -0.12138946
000070 2d b8 b1 bd c0 50 71 3d 7b c5 0e bd 96 99 a6 bc
       -0.08677707 0.0589149 -0.0348563 -0.020336907
000080 bb ab ba bd 46 63 31 bd f8 01 d7 bb 39 ea d7 bc
       -0.09114786 -0.043307565 -0.006561514 -0.026356803
000090 a8 f7 d5 bc 72 60 2d 3d dd 54 ee 3c 5c cf f6 bd
       -0.026119068 0.042328306 0.0290932 -0.120512694
0000a0 fd b0 7b bd 5a 03 c2 3c e8 24 af bd bd d9 15 3d
       -0.061448086 0.023683239 -0.08551961 0.036584605
0000b0 e1 63 15 bc 1d 6f 2c bd 57 82 3c bd f0 cb 08 bd
       -0.009118051 -0.042098153 -0.04602274 -0.033397615
0000c0 89 3d 37 bd 28 2d c9 bd 2f d0 2b bd bf 4a 7a bc
       -0.04473642 -0.09823066 -0.041946586 -0.01527661
0000d0 40 ca f9 bd ff 54 61 3d d1 8a 83 bd 64 80 b9 bd
       -0.12196779 0.0550127 -0.064229615 -0.09057692
0000e0 bd 8f a1 bd 8f 8b 24 bd ec d2 d5 bc f4 95 9d bd
       -0.07888744 -0.040172156 -0.026101552 -0.07694617
0000f0 62 6b 08 bd e9 5d 7e bd c8 ff 63 3d 9d 5e df bc
       -0.033305533 -0.06210128 0.055663854 -0.027266795
000100 b6 14 f0 bd f6 b2 47 3c 1d e2 b7 3c 4e 62 89 bb
       -0.117227 0.012188664 0.022446686 -0.004192627
000110 d5 90 17 3d da 43 0f 3d 5b 6b 76 bd d5 13 84 bd
       0.037003357 0.034976818 -0.060160976 -0.06449095
000120 cb 1f 7e ba f8 e8 c2 bd e2 d3 b6 bb 9d 4f 75 bd
       -0.00096940686 -0.095170915 -0.0055794576 -0.05989038
000130 98 97 cd bc 96 d9 91 3d bc 7b f8 bd 1b 07 33 bd
       -0.0250967 0.07121579 -0.121329755 -0.04370795
000140 a3 b8 65 bd 53 6f e3 bd 0e e8 5f 3c 65 1c f5 bc
       -0.056084286 -0.11105218 0.013666166 -0.029920766
000150 fe b7 b9 bd 5c 72 61 3d 0f 72 26 bd c4 9b 90 3a
       -0.09068297 0.055040702 -0.04063612 0.001103275
000160 0c bb 18 bd 84 c9 8d bd db 04 0b 3d 50 42 9e bd
       -0.037287757 -0.06923202 0.033940177 -0.07727492
000170 85 0b 7c 3d 4f 1b 9f bd d0 6d 50 3d 36 66 e9 bd
       0.061534423 -0.077688806 0.050885975 -0.11396448
000180 db 13 e2 3c 47 82 80 bd 30 e1 3d 3d 4b 9b 70 bd
       0.027597358 -0.062748484 0.046357334 -0.05874185
000190 f7 8f ee 3c 7b b5 c9 bd 25 c3 1f 3c d6 8b 75 3c
       0.029121382 -0.09849068 0.009751116 0.014986953
0001a0 c4 e9 37 3c 75 4b c4 bd de 74 a3 3d bc 94 8f 3d
       0.011225168 -0.09584705 0.07981275 0.07010791
0001b0 cf d7 d1 3c d9 08 1e bd 2d 69 82 bd 25 56 13 bc
       0.0256156 -0.038582657 -0.06367717 -0.008992706
0001c0 7b ac 28 bd 5d 41 45 3c 54 e2 bb bd 4d e4 b1 bd
       -0.041180115 0.01203951 -0.09174028 -0.08686123
0001d0 78 22 a9 ba fb 8e 00 bd 03 a0 3d 3d 95 19 05 bd
       -0.0012903949 -0.031386357 0.046295177 -0.0324951
0001e0 34 76 a0 3c 65 0e b2 bc bf e6 10 bd 8f 5b 87 bd
       0.019587614 -0.02173538 -0.035376307 -0.0660926
0001f0 2e eb 14 3d 4b 32 d6 bc ef b4 8c 3d 71 de b4 bd
       0.036357097 -0.026147028 0.06870448 -0.0883149
000200 8b 07 0e bd f1 bd 0a bd e2 b6 7b 3c e2 98 a8 bd
       -0.034675162 -0.03387255 0.015363427 -0.08232285
000210 b0 39 86 bd 04 ef 7d 3c f1 7e 41 bd cb 09 da bc
       -0.06553972 0.01549888 -0.0472402 -0.026615998
000220 a8 e9 dc 3c 69 aa 13 bc d9 9c 3b bd 4e 70 d1 3b
       0.026966885 -0.009012797 -0.04580388 0.0063915616
000230 86 7b 31 bd 06 c6 45 3d 47 79 02 3d 5e 28 95 bd
       -0.04333069 0.048284553 0.03185394 -0.0728309
000240 16 40 e5 bd ce c2 44 b9 a7 5d 97 3d 08 5e 95 bd
       -0.11193864 -0.00018764587 0.0739091 -0.07293326
000250 7e 72 ce bd f2 16 f0 bd 8a 5d 1d 3d 45 33 83 bd
       -0.100804314 -0.117231265 0.038419284 -0.06406263
000260 cf a9 5d bd 3a 56 27 bd 03 21 b5 bd d2 a5 21 3d
       -0.05411702 -0.040853716 -0.08844187 0.03946478
000270 89 87 69 3d f2 3e a3 bd 6b 71 8b bd af 4f 7d 3d
       0.057014022 -0.0797099 -0.06808742 0.06184357
000280 df 83 0d bb 2d b1 46 bd 84 38 1b bd 17 10 59 bc
       -0.0021593494 -0.04850881 -0.037895694 -0.013248465
000290 fc a0 c4 bd e5 b0 f0 bc aa a6 a6 bd cb 06 2d bd
       -0.09601018 -0.029381225 -0.081372574 -0.042242806
0002a0 28 ae a3 bd 2a 2f 17 bd 28 0b 72 3d 4e cb 94 3c
       -0.07992202 -0.036910214 0.05909267 0.01816335
0002b0 59 93 84 bd b6 7d 5d 3d 94 ff 00 bd d8 fe a5 3c
       -0.06473417 0.054074965 -0.03149374 0.02026312
0002c0 44 5c 00 bd 15 22 00 be cd c5 3a 3c 21 0e e8 bc
       -0.03133799 -0.12513001 0.011399698 -0.02832705
0002d0 ad 2b 86 3b 78 9c c6 3b e7 18 55 bb 8c 84 4e bd
       0.004094562 0.006061133 -0.0032516064 -0.050419375
0002e0 03 cd bc bc 7d 02 03 bd 8c 69 09 3d 57 dd bd bc
       -0.023046976 -0.031984795 0.033547923 -0.023176832
0002f0 b0 b7 96 bd df f7 94 3d 47 9d d9 bd a7 aa 3c b9
       -0.07359254 0.0727384 -0.106257014 -0.0001799265
000300 4f 30 e8 bc
       -0.028343348

Dense2.weight f4 [1, 193]
000000 af 88 0a bd 6b 93 a9 3d cd 86 9b 3d a2 83 19 bd
       -0.033821758 0.08280071 0.075940706 -0.03747905
000010 5c 9e 34 bd 1a d0 bf ba a7 98 2a 3c 6b da 6f 38
       -0.044096336 -0.0014634163 0.010412372 5.7185458e-05
000020 1d fe 8b bb c1 ec db 3c f4 c4 c6 3c 6b fc 91 38
       -0.004272236 0.026846291 0.024263836 6.961155e-05
000030 c5 17 ee bb e4 00 5a 3c 66 91 9b 3c 15 b0 28 bd
       -0.007266017 0.013305876 0.01899023 -0.04118355
000040 9a d7 ca 3c cc 2a 23 bd 90 08 3e 3c 8e 74 86 bd
       0.02476101 -0.039835736 0.011598721 -0.065652
000050 d4 59 fe b9 0e 01 a7 ba 04 ac fd bb a5 90 10 bb
       -0.00048513582 -0.0012741403 -0.007741453 -0.002205887
000060 12 69 52 bc 75 ea 43 3d e1 92 0f bd 95 57 38 38
       -0.0128424335 0.047831018 -0.035052184 4.3950586e-05
000070 c1 a5 82 3c 1d 33 fb bc f5 3d 56 b9 7a 01 00 3a
       0.015948178 -0.030664021 -0.00020431711 0.00048830325
000080 96 c7 b8 bc 7a 76 28 3c d7 f3 b6 39 e9 2f 3b 3d
       -0.022556107 0.010282153 0.0003489542 0.045699988
000090 3d c4 3c 3c ce 7e 56 bb 78 17 79 3b 0e 5d 73 3a
       0.011521396 -0.003272939 0.0038008373 0.00092835806
0000a0 17 74 b7 ba f7 9c 66 3d 36 a2 b1 39 01 9a 09 bd
       -0.001399639 0.056302037 0.00033880927 -0.033594135
0000b0 ad bf 33 39 1a 65 46 3d 4f 61 d1 3b 9b 84 76 3c
       0.00017142175 0.04843626 0.006389774 0.015046264
0000c0 df f6 86 bc 54 73 5f 3b 03 6b 30 3a 85 55 60 3a
       -0.01647514 0.003409584 0.0006729813 0.0008557665
0000d0 90 cd 8e 3a 2a 8f 31 bd 7b 58 00 3b b0 0b e0 39
       0.0010895003 -0.043349423 0.0019583988 0.00042733317
0000e0 56 94 94 3c 97 a1 ac bb a9 19 8a 3c 68 95 db 39
       0.018137138 -0.0052682864 0.016857939 0.0004188225
0000f0 d4 41 71 bc c8 7b 40 3d d3 d4 5a bd ce 80 90 39
       -0.014725167 0.046993047 -0.05342562 0.00027561787
000100 d6 0b d8 3c 5f b2 98 3d f6 5b 50 3d 3a 15 04 be
       0.026372831 0.074558966 0.05086895 -0.12898722
000110 66 26 8a bd be a7 e9 3c 4f ed f6 39 8e db e0 ba
       -0.06745605 0.028522369 0.00047097585 -0.0017155276
000120 69 25 a6 3d b0 18 f6 bd 79 4b 29 bd a4 70 3a 3b
       0.08112604 -0.120164275 -0.041331742 0.0028448487
000130 4a dd 83 3d 51 2a c5 bd 25 7b 92 bb ce 73 03 3d
       0.06438692 -0.09627212 -0.0044702464 0.03209286
000140 6b 3c a4 3c 16 32 7a 3c ea 88 14 bd c9 b2 c2 3c
       0.02004834 0.0152707305 -0.036263384 0.023766892
000150 3b da 64 3c ac 9c 25 bd 35 d2 bf 3b 69 83 a2 bc
       0.013968046 -0.040432617 0.005853916 -0.019838052
000160 36 ab e1 b9 44 6f af b9 6a 4a 02 bd 77 40 b0 bb
       -0.00043042906 -0.000334615 -0.031809248 -0.0053787786
000170 a5 9e 07 be ce 6e 15 bd 4a dc 2f 3d f0 82 78 ba
       -0.13244112 -0.036482625 0.042934693 -0.00094799604
000180 5b 15 10 bd a8 24 05 bb 36 94 95 3d e5 97 d0 bc
       -0.035176616 -0.0020316038 0.073036596 -0.025463054
000190 92 b6 16 3b 1c e5 91 39 15 b7 46 bc fd 4a d7 3b
       0.0022997004 0.00027827255 -0.012128611 0.0065702186
0001a0 83 9e 98 3d 19 44 12 bc 5e ff 83 bd 0b 53 c0 bd
       0.07452109 -0.008927369 -0.06445192 -0.09390839
0001b0 90 dc 19 bd 09 2f a3 3d 07 8b 82 ba fa cc b9 3a
       -0.03756386 0.079679556 -0.0009959646 0.0014175468
0001c0 7c 5b 0f 3d f3 fd 91 3d 0c 8b 56 bc f9 0c 36 bc
       0.034999356 0.07128515 -0.013094675 -0.011111491
0001d0 d0 53 04 b9 ec 44 17 bc 27 cb fc 3d 36 06 44 3d
       -0.00012619724 -0.009232741 0.12343436 0.047857486
0001e0 22 f0 c8 bc 92 bd 99 39 88 87 7e bb db d9 ca bb
       -0.024528567 0.00029323675 -0.0038838107 -0.006190521
0001f0 37 01 6a bd 5b 45 07 bc 62 01 a0 bd b7 86 51 bc
       -0.057130065 -0.008256282 -0.07812764 -0.012788466
000200 40 be 93 bd b0 db c0 b9 b2 b4 25 3d 17 1c 9e 3c
       -0.07214022 -0.00036784774 0.040455528 0.019300504
000210 43 1e 42 bd ea 65 19 bd 48 c9 1c b9 2f 96 da bc
       -0.04739214 -0.03745071 -0.00014952302 -0.026682941
000220 3e 4f 05 3c 0c 48 8e 3a bb 5b 39 bd 61 12 81 3d
       0.008136569 0.0010855212 -0.045253497 0.063023336
000230 49 97 3c b9 37 a9 73 bd db 12 0e 3b 15 cc fb bc
       -0.00017985435 -0.059487548 0.002167872 -0.030736962
000240 1d a9 89 bc fc 91 a3 3c 42 19 9e 3d be f6 f5 3a
       -0.016804272 0.019967072 0.07719661 0.0018765552
000250 82 58 56 3a b2 4f 2a 39 c5 27 21 bc 99 32 68 3d
       0.0008176641 0.00016242152 -0.009836142 0.05668888
000260 e1 02 8d b8 fe 9b 7f bc 0b a6 33 3d f6 4b 19 3d
       -6.72394e-05 -0.015601156 0.043859523 0.037425958
000270 e3 dd 74 3d 5d 57 ce b8 d5 e5 2f bd dc cb fa bc
       0.05978192 -9.839118e-05 -0.042943794 -0.030614786
000280 67 3a c9 bc 03 ec 8b 3c dd 38 9a 3c 88 4b 06 bb
       -0.024563981 0.017080313 0.018825943 -0.0020491797
000290 44 77 8f 3c 43 03 f7 bc a7 a9 39 bd d6 75 2c 39
       0.017512925 -0.030152922 -0.04532781 0.00016447096
0002a0 36 98 cd 38 09 90 d0 3c ff b9 ed bc d8 0e a9 3d
       9.803513e-05 0.025459306 -0.029019354 0.08254784
0002b0 35 63 5a 3d 54 55 6a 3d b6 21 4e 3a ed 16 32 3d
       0.053317267 0.05721028 0.00078632997 0.043478895
0002c0 89 93 ea 3a c8 88 d0 3b c0 df 06 b7 f4 d5 a3 3d
       0.0017896752 0.006363962 -8.039118e-06 0.07999793
0002d0 62 1a 75 3a 8c d5 1f 3c 2c f5 97 bc cb 61 7c b9
       0.00093499396 0.009755503 -0.018549524 -0.00024069023
0002e0 73 f6 16 3b 0d a8 1a 3d 4a a9 8c b9 65 4d 4a 3d
       0.0023035079 0.037757922 -0.0002682901 0.049390215
0002f0 dc bd 1d 3a 0c 75 ac bd c5 02 2f 3d 7e 85 04 bd
       0.0006017366 -0.084207624 0.04272725 -0.03235387
000300 40 93 7f 3a
       0.000974942

LN.weight f4 [193]
000000 5b b9 52 3f 18 46 59 3f 73 3a 52 3f 39 af 37 3f
       0.8231408 0.8487258 0.82120436 0.71751744
000010 ef 7b 66 3f 7d da 4d 3f 86 b5 63 3f 2b 36 62 3f
       0.9003286 0.8041151 0.8894886 0.88363904
000020 26 42 5e 3f 75 8c 5c 3f c2 f1 4e 3f ba cd 6e 3f
       0.86819685 0.8615182 0.80837643 0.93282664
000030 fa bd 76 3f 5f 99 59 3f 7c 87 5a 3f 04 1f 59 3f
       0.9638363 0.8499965 0.8536298 0.8481295
000040 87 bc 49 3f 0e 70 58 3f 8a 70 3a 3f ac a5 4b 3f
       0.78803295 0.8454598 0.7282797 0.7954967
000050 8e ed 80 3f 19 5c 5d 3f 61 a8 72 3f 78 b6 61 3f
       1.0072496 0.86468655 0.94788176 0.8816905
000060 57 d5 5d 3f 13 cb 66 3f 26 2e 4c 3f de 26 5b 3f
       0.86653656 0.90153617 0.79757917 0.8560618
000070 b8 98 6b 3f 69 56 54 3f db 0b 69 3f 77 de 4a 3f
       0.92029905 0.8294435 0.91033715 0.79245704
000080 1f 98 63 3f a7 3b 5a 3f b5 e8 55 3f d8 34 5a 3f
       0.88903993 0.8524727 0.8355821 0.85236883
000090 81 33 49 3f 22 aa 4b 3f c4 d4 6e 3f da 59 6a 3f
       0.78594214 0.7955648 0.93293405 0.9154335
0000a0 a6 23 5c 3f 6d 54 75 3f ed 1d 5b 3f 2e db 4e 3f
       0.85991895 0.9583195 0.8559254 0.8080319
0000b0 43 d5 66 3f 37 ee 39 3f ae 38 64 3f 7b ff 71 3f
       0.9016916 0.7262911 0.89148986 0.9453046
0000c0 21 a2 4a 3f 78 23 42 3f 3a f0 5e 3f f6 78 53 3f
       0.7915364 0.7583537 0.87085307 0.82606447
0000d0 a5 9f 77 3f 60 25 69 3f 6e c5 4b 3f fa d8 54 3f
       0.96727973 0.91072655 0.7959813 0.8314358
0000e0 01 dc 4c 3f d1 a3 5a 3f 89 33 50 3f 4b 5b 3b 3f
       0.800232 0.85406214 0.81328636 0.73186177
0000f0 f1 af 6e 3f ef bb 46 3f 00 a5 62 3f 54 b7 62 3f
       0.93237215 0.77630514 0.8853302 0.88560987
000100 ff 68 49 3e 17 71 89 3f b8 72 85 3f 91 98 66 3f
       0.19668959 1.0737637 1.0425634 0.9007655
000110 cf 14 80 3f a4 fd 6b 3f 29 b5 89 3f 20 9c 88 3f
       1.000635 0.921839 1.0758411 1.0672646
000120 9b 7e 6a 3f ce 9f 74 3f b0 87 7a 3f f0 4f 86 3f
       0.91599435 0.9555634 0.9786329 1.0493145
000130 67 f2 8a 3f cc 42 7f 3f 62 36 74 3f e9 94 76 3f
       1.0855225 0.997113 0.9539548 0.9632097
000140 78 35 97 3f 08 60 56 3f 59 54 7a 3f a2 87 74 3f
       1.1813192 0.8374028 0.97784954 0.9551946
000150 f4 50 71 3f ec fe 76 3f b7 96 7e 3f 5b eb 6f 3f
       0.9426415 0.9648273 0.9944872 0.937185
000160 14 63 79 3f af c8 88 3f 13 0b 73 3f 89 f0 65 3f
       0.97416806 1.0686244 0.9493877 0.8982015
000170 a5 5c 98 3f ed ef 58 3f df 30 7c 3f 2b 43 78 3f
       1.1903273 0.847411 0.9851207 0.9697749
000180 f6 18 59 3f 4d 40 8a 3f 68 49 71 3f 6c 83 57 3f
       0.8480371 1.0800873 0.94252634 0.8418491
000190 07 98 4a 3f d8 fa 74 3f 27 94 81 3f 31 89 7b 3f
       0.79138225 0.9569526 1.0123338 0.9825621
0001a0 f9 c9 7e 3f 2b 99 6a 3f e8 74 7f 3f 1e 2b 81 3f
       0.99526936 0.91639966 0.9978776 1.0091283
0001b0 18 4a 79 3f b4 58 8f 3f c3 9b 4e 3f de 4f 76 3f
       0.97378683 1.1198945 0.80706424 0.9621562
0001c0 79 bc 85 3f b0 0f 88 3f 88 9d 77 3f a1 e5 85 3f
       1.0448142 1.0629787 0.9672475 1.0460702
0001d0 d9 b3 5d 3f d7 36 69 3f dd 5a 84 3f 43 7e 79 3f
       0.8660255 0.91099304 1.0340229 0.97458285
0001e0 48 5d 83 3f 53 2c 73 3f 09 20 76 3f 89 9d 70 3f
       1.0262842 0.9498951 0.9614263 0.9399038
0001f0 84 2c 56 3f 89 36 80 3f a6 f1 82 3f 4e 65 9d 3f
       0.83661675 1.0016643 1.0229995 1.2296541
000200 eb e0 5c 3f 76 3d 73 3f 8e f5 67 3f 61 c8 81 3f
       0.862807 0.95015657 0.9060906 1.0139276
000210 62 b0 72 3f 86 9d 63 3f 93 34 55 3f 0a 41 64 3f
       0.9480039 0.88912237 0.83283347 0.8916174
000220 12 7e 38 3f 79 35 77 3f 1f 72 58 3f 2b 4d 7e 3f
       0.7206737 0.9656597 0.84549135 0.993365
000230 06 c8 40 3f d1 ec 62 3f eb 24 81 3f c5 9c 68 3f
       0.7530521 0.88642603 1.0089391 0.9086421
000240 49 82 70 3f a9 90 78 3f 83 3b 8a 3f b3 8e 4e 3f
       0.939488 0.97095734 1.0799412 0.8068649
000250 94 6e 63 3f 43 c6 39 3f de f5 62 3f 27 0d 84 3f
       0.88840604 0.7256815 0.88656414 1.0316514
000260 4d 68 6d 3f 89 64 81 3f 14 b8 7e 3f 22 2e 78 3f
       0.92737275 1.0108806 0.9949963 0.96945393
000270 46 67 81 3f bf ec 76 3f 57 7e 2e 3f 72 47 41 3f
       1.0109642 0.96454996 0.6816153 0.7549964
000280 52 a3 71 3f 7d 3c 7a 3f 4f 48 5e 3f 03 18 7d 3f
       0.9438983 0.9774855 0.86829084 0.98864764
000290 f6 1a 77 3f d6 16 5a 3f 94 78 67 3f 73 82 6a 3f
       0.96525514 0.85191095 0.9041836 0.916053
0002a0 45 cd 68 3f ce 02 70 3f cc 0e 47 3f ae 02 5e 3f
       0.90938216 0.9375428 0.77756953 0.8672284
0002b0 65 7a 71 3f ea 56 75 3f da 10 82 3f c0 18 56 3f
       0.94327384 0.95835745 1.0161393 0.83631516
0002c0 da cd 63 3f 19 f5 6d 3f d4 96 50 3f 42 cf 7f 3f
       0.8898598 0.92952114 0.81480145 0.99925625
0002d0 ae 30 53 3f 8b ce 7c 3f 9c e6 7b 3f 20 fc 7b 3f
       0.82496154 0.9875266 0.98398757 0.9843159
0002e0 f6 a7 6a 3f e4 ac 6c 3f a3 61 80 3f 4e 8d 71 3f
       0.9166254 0.9245131 1.0029796 0.9435624
0002f0 43 49 40 3f 06 28 75 3f 3c f1 67 3f 13 38 45 3f
       0.7511179 0.95764196 0.9060247 0.7703869
000300 fe 09 50 3f
       0.81265247
