Result/FD003/predictor.pth (torch, 6856 bytes, 8 tensors)

params f4 [8]
00000000: bec9 c742 a8cc c742 86d0 c742 18d0 c742
00000010: b6c8 c742 5ac8 c742 bad7 c742 6ecd c742
99.89403 99.89972 99.90727 99.90643 99.89201 99.89131 99.92134 99.90123

dnn.0.weight f4 [10, 65]
00000000: 0f95 923d 7d7d 433c 94ef a43d 3fa7 83bd
00000010: b5ed 953d 1e21 4ebd a44f 86bd 8c44 30bd
00000020: 651b 0dbe c0d0 5e3d 5a16 cc3d f95d 6fbd
00000030: 393f 263d de08 fdbd dd93 d63b 8406 903d
00000040: 20cf 923d 1ad6 753d 8671 e33b 31f8 09bd
00000050: 6128 4e3d 0b4b b7bd 7f0e ccbd b6e2 f03d
00000060: d548 7cbd e27b 16be 310f 07be 9a1a 333e
00000070: ad21 e9bd 78d0 4fbd a7d1 f93c 2395 973d
00000080: fd9b 96bd ff89 60bc 9ebc 0f3e 2fdb 01be
00000090: e246 013d c684 e8bc f6bf 9e3d 40fe fabc
000000a0: 14b2 5fbe f481 553d c5c0 2d3d 8e13 08bd
000000b0: 2440 4d3d 3054 e7bd 2933 6d3d 2bcb 83bd
000000c0: b01d febd 169d a9ba dbd2 733e c171 903b
000000d0: 988c b9bd c5db 7abd 7430 753d 5d17 33bd
000000e0: 23cb f1bd fb88 f1bd 9135 a3bd e4af f7bc
000000f0: dcfd 3d3d ee94 afbc 933b f0bd b5cd 8b3c
00000100: 6065 9bbd 9271 5f3d 4d48 80bd 8ac7 293e
00000110: f911 12bd 1657 49be 300d 89bd 87c5 353e
00000120: bf07 053e 2f94 e93d a458 943d 844a 5a3c
00000130: fb62 d03b 03e2 8abd f8f0 81bd 7fa3 993d
00000140: 2bea 10be 5462 9ebc 61f4 5b3d cbce 30be
00000150: 17c0 0d3d d8c0 cabb 6e50 7c3d cf44 c1bd
00000160: c578 debc e2da f7bd dc46 68bb 815e d6bd
00000170: 692b 263e 4cc2 0abd 48f0 2bbe ed29 873d
00000180: 4d65 703d b023 d3bd 01fe a43c e4e3 f23c
00000190: 8872 b93d 5e99 d3bb da13 393c 7cd6 4e3d
000001a0: a1dd ae3c 7dbe 7f3d 0b75 60bd 80e5 7c3d
000001b0: 54f5 44bc f5fc 8a3d 3034 22be a8be 61bd
000001c0: 192d 24be a34c 953e 2398 f7bc 9529 1dbe
000001d0: dc0c 9a3c 944c 34bd 5212 923d efb0 453e
000001e0: 096b 183d 6734 d4bd e1fb 4f3d 6721 56bc
000001f0: 10ff abbc 6a4f 3cbe 7032 403c 36d3 2dbe
00000200: fec3 1b3e 53be 2bbd 167e 4c3e 380e e63d
00000210: ca19 30bc 1805 a63e c61e 023e 8f1f 153e
00000220: fd72 71be 5571 c0bd c52e 03bc 779b f33d
00000230: 3204 273e 204a 59be 1cda 783e 9ef4 8c3d
00000240: 50e4 e7bd 71d1 aebd df17 c73d 49be 1ebe
00000250: b50d db3b 6075 91bd 4365 5b3d d3f4 af3d
00000260: 5deb 2ebe cc0b cc39 2de7 a2ba ea3b 61be
00000270: 4b4d 81bd 809d b6bd 2d08 29be 2eb7 9e3d
00000280: 2e19 f73d 903d 1b3e f6c9 d8bb 062f 693e
00000290: a0b5 633e 5ce6 8e3d 1af3 41bc fe28 c63c
000002a0: 6dfc 61be 4e4b ce3d 569a 94be d024 e1bd
000002b0: e050 813d 0372 a73e 32d2 0abe 1e0d 3dbe
000002c0: 6bae b13d fa43 f63d 68eb fcbd 75f3 af3c
000002d0: ad8b e03d 3a08 8d3e effe d63d 1bbb 893e
000002e0: 1bc8 22be faaa 853d 3300 4bbd 02f4 4aba
000002f0: 4982 fa3d d67d 133e f6dd c93d fa12 f5bd
00000300: ae9a 863d 17b6 863e ba6e a0be 71c2 13be
00000310: 5242 923c f426 57bd 1352 e0bd 676a bd3d
00000320: 6872 d4bd 7ac5 b33d c871 64bd 0c33 493d
00000330: 0c20 de3d 8142 e6bc 6591 8a3e 179b 95bd
00000340: f7a2 45bd cd9e 403e 40c3 0d3e d6f1 f8bd
00000350: b794 e23d 5dd3 fd3c 9dbe fc3d 17ad bfbd
00000360: 3d8a 1abe db8b 013e 8c16 8d3c 4e80 91bd
00000370: 8108 3d3e 1142 163d e57b 933d 50d9 0f3e
00000380: 2f76 2a3d a44b 90bd c0c0 62bd 441d 5dbd
00000390: 3a12 f7bd c78f 18be 767a e23c 5064 90bd
000003a0: 5400 15be cb49 783e 5768 21be f45d c33c
000003b0: bbcd ca3d 0d9a b13b 6fef e1bd 6cdb 463d
000003c0: d2b3 61bb f4d0 b93c 2d4a 24be f4df 8bbd
000003d0: 25e6 083e 06d6 cf3d aa8e 56bd 067e 97bd
000003e0: 3ff2 b5bd e156 40bd a499 5abd e20f 803e
000003f0: a621 873c 8ea4 a7bd 9fe0 eb3b e6d4 9dbd
0.07157337 0.011931774 0.080535084 -0.06428384 0.0732073 -0.05032455 -0.06558159 -0.04303412
-0.13779981 0.0543983 0.09965201 -0.05843923 0.040587638 -0.12355207 0.0065483884 0.07032493
0.07168412 0.060018636 0.0069410233 -0.03368396 0.050331477 -0.0894986 -0.099637024 0.11761992
-0.061592896 -0.14695695 -0.13189389 0.17490616 -0.11383376 -0.05073592 0.030495478 0.074014924
-0.07353971 -0.013704776 0.14036795 -0.12681268 0.03156174 -0.028383624 0.077514574 -0.030638814
-0.21845275 0.052125886 0.042420167 -0.033221774 0.050109997 -0.11295354 0.05791012 -0.064352356
-0.12408006 -0.0012940492 0.23810904 0.004408092 -0.09060019 -0.061244745 0.05986066 -0.043723453
-0.118063234 -0.11793705 -0.07969201 -0.030235238 0.046384677 -0.02143332 -0.11730113 0.017065862
-0.07587695 0.05455167 -0.0626379 0.16580024 -0.03566167 -0.19662127 -0.066919684 0.17751132
0.12991236 0.11405217 0.07243469 0.01332343 0.0063594556 -0.067813896 -0.06344789 0.075018875
-0.14151828 -0.019333996 0.053699855 -0.17266385 0.03460702 -0.0061875395 0.06160014 -0.09436952
-0.027157197 -0.121022955 -0.0035442626 -0.10467244 0.16227497 -0.033876702 -0.16790879 0.065997936
0.058690358 -0.10309541 0.02014065 0.029649682 0.09055048 -0.006457492 0.011296237 0.050497517
0.021345915 0.062437523 -0.05479912 0.061742306 -0.012021381 0.06786529 -0.1584022 -0.055113465
-0.16032828 0.29160032 -0.030223912 -0.15347894 0.01880496 -0.044018343 0.071324006 0.19305776
0.03721145 -0.103615575 0.05077732 -0.013069487 -0.020995647 -0.18389669 0.011730775 -0.16975102
0.15211484 -0.041929554 0.19969973 0.11233181 -0.010748336 0.3242576 0.12707052 0.1456282
-0.23579021 -0.09396616 -0.008006756 0.11894887 0.16310194 -0.21219683 0.24301952 0.068825945
-0.11322844 -0.085360415 0.0972135 -0.15502276 0.0066849836 -0.07102466 0.053563368 0.085916184
-0.17081971 0.00038918701 -0.0012428515 -0.21995512 -0.063135706 -0.089167595 -0.16507025 0.077497825
0.120653495 0.15160203 -0.0066158725 0.22771844 0.22237253 0.06977531 -0.011837745 0.024189468
-0.22068949 0.10072957 -0.29024 -0.109933496 0.06314254 0.32704172 -0.13556746 -0.18462035
0.08675846 0.12024684 -0.12349588 0.021478394 0.10964141 0.2754534 0.104978435 0.26900563
-0.15896647 0.06526752 -0.049560737 -0.00077420485 0.12231881 0.14403471 0.09856789 -0.1196651
0.065724716 0.263108 -0.31334478 -0.14429642 0.01785389 -0.052527383 -0.109531544 0.0924881
-0.10373384 0.087779 -0.055772573 0.049120948 0.10845956 -0.028107883 0.27064052 -0.07304972
-0.04825112 0.18810578 0.13844013 -0.121555015 0.11063521 0.030984575 0.12341044 -0.09359186
-0.15091796 0.12651007 0.017222665 -0.0710455 0.18460275 0.0366841 0.072013654 0.14047742
0.041616615 -0.07045677 -0.055359602 -0.053982988 -0.12064023 -0.14898597 0.027646285 -0.07050383
-0.14550906 0.242469 -0.15762459 0.023848511 0.09902521 0.0054199756 -0.110319965 0.0485491
-0.0034439457 0.022682644 -0.16043921 -0.06829825 0.13369043 0.101482436 -0.05238215 -0.07397084
-0.088840954 -0.046957854 -0.05336918 0.25012118 0.016495537 -0.08185683 0.007198408 -0.07706623

dnn.0.bias f4 [10]
00000000: d51e 02bc b65c 11bd 5ab2 67be e6ab d83d
00000010: 8f95 c9be bb62 f0bd f181 463d ad5d cfbd
00000020: f337 59bd 6957 213d
-0.007941921 -0.035488807 -0.2262663 0.10579662 -0.39371917 -0.11737581 0.048463766 -0.10125289
-0.053031873 0.03939

dnn.2.weight f4 [10, 10]
00000000: ed75 633d 89fb cabd ca07 29be fd7f 3abe
00000010: 26b7 373e e64b 353e 440f 423e 3fcd c43a
00000020: 39e7 5cbe 1b40 b1bd 9ef3 103e 2774 883e
00000030: 8b00 18be b41d 82be 953a 143e d2de 403c
00000040: 69a7 99be 8144 d7bd 1da1 9f3a b544 5ebe
00000050: 589c 9ebe c63e 87be 5fab 393e 574c 863e
00000060: 205a 81be 207a 90be d9dc 933e 4215 17be
00000070: fe3e 433e 859d ce3d d6b5 2b3d 3de8 15be
00000080: 3a70 32bd d81e 333e c486 29be 5fa2 9fbe
00000090: 6deb e0bb 3902 84be d9d4 7e3d 2c12 903e
000000a0: c4ed c2bd a070 7f3e 1c94 753d 755f 5cbd
000000b0: e116 36bd 1300 de3d 18ca 193d 5c22 653e
000000c0: 5c89 093e 56c8 9f3e cfe2 4ebe 761d f43d
000000d0: 8b99 5a3e c92e 2a3e 6da1 84be fbc2 303e
000000e0: 47ce 5ebe 1941 90be a38a 9bbd 722e 873e
000000f0: fbdf d23d e6fe 93bc f913 ef3d 7997 0dbc
00000100: 0279 583e 97b9 b73d 95f0 5bbd ca37 85be
00000110: 4133 0cbe 8650 7d3e 695c 96be aeb7 c63d
00000120: 79eb a0be 7b3a 5f3d c9bb 90be c634 a6bd
00000130: 9c50 96bd 5a6e d5bd 9173 85be f3fb eebd
00000140: 5411 063d efe7 4c3e 5dfd 913e 40bb b3bd
00000150: f877 5ebe fa40 24be 9434 293e 0830 fa3d
00000160: 1648 973e 7f1b 493b de98 273e 28d0 75be
00000170: 7182 513e 44b1 453e 5121 4a3e a1b8 a83b
00000180: 5c64 813e 11ab a43e c2f0 a3be 4b7d 84be
0.055532385 -0.09911258 -0.16506878 -0.18212886 0.1794096 0.17704734 0.18951136 0.0015014781
-0.2157258 -0.08654805 0.14155433 0.26651117 -0.14843957 -0.25413287 0.14475472 0.0117718745
-0.30010536 -0.10511113 0.0012178753 -0.21705897 -0.30978656 -0.2641508 0.18131779 0.26230118
-0.25264072 -0.28218174 0.2887943 -0.14754203 0.19066998 0.10088638 0.04192146 -0.14639373
-0.04356406 0.17492235 -0.16555315 -0.31178567 -0.0068640024 -0.25782946 0.062214706 0.28138864
-0.095180064 0.24945307 0.0599557 -0.053801972 -0.044455413 0.10839858 0.037546247 0.22376388
0.13431305 0.31207532 -0.20203708 0.11919682 0.21347634 0.1661941 -0.25904408 0.17261879
-0.21758376 -0.28174666 -0.07594802 0.26402622 0.10296627 -0.018065881 0.11673731 -0.008642071
0.21139911 0.08970945 -0.053696234 -0.26019126 -0.13691427 0.24737749 -0.29367378 0.09703003
-0.3142965 0.05449913 -0.2826827 -0.081155345 -0.07339594 -0.104214385 -0.26064733 -0.11669149
0.03273137 0.2001035 0.28513613 -0.087759495 -0.21725452 -0.16040412 0.16523963 0.122161925
0.29547185 0.0030686555 0.16366908 -0.24005187 0.20459916 0.19305903 0.19739272 0.0051489626
0.2527188 0.32161763 -0.3201962 -0.2587684

dnn.2.bias f4 [10]
00000000: 9ba4 953d 1fa6 2bbe 7b52 93be 94c5 db3d
00000010: 43fe 823e fd3b c3bd 936a 6d3d fd1c 9d3e
00000020: 1f48 8abe 8246 83bd
0.073067866 -0.16762589 -0.28773865 0.107310444 0.2558461 -0.09532926 0.057962965 0.3068618
-0.2700815 -0.06409933

dnn.4.weight f4 [10, 10]
00000000: df6c 913e 66ad 37be 8792 64bd 1b1a 4b3e
00000010: 259f 6e3e 8cfe 453e 8cb8 003d d91a 993e
00000020: b81c 8abe 5f76 78be 852e 5f3e eed5 993d
00000030: 7db3 9c3e da01 5abe 12e7 8cbe 38bb 173c
00000040: eddc 573d 25b5 8e3e 4495 d73d 57a6 6c3e
00000050: 9d8e 143e 4a1a ae3d d6cb 6b3e 5d9a 1ebe
00000060: 8bcd 023d 715e 86be 5f87 22bd af7c 8cbe
00000070: 54d6 6ebe 9e17 3abd d572 3f3e e666 50be
00000080: 2969 f23d 6262 263e 6d43 06bd e38a 8bbe
00000090: 62fa dcbd 237b 0abe 17e2 42be 1192 13be
000000a0: 0219 c93d fa23 7abd dd0c fb3c 0017 4fbe
000000b0: 83a0 d9bd 2101 c7bd c0fa 71be 6db8 20bd
000000c0: 1f64 47be 09dc 07bc 5859 cc3c f8ee 773e
000000d0: 1708 183e 4aaf af3e c08a 833d db7d 39bd
000000e0: 2b24 77be 1f45 223d 3126 943c 2ea1 2a3e
000000f0: 2cad 7cbe 6add 2ebe 5497 783e 17d2 7dbe
00000100: b690 8b3e 882f 8e3e e1bf f4bd 91be 643d
00000110: 728d 63be 38e1 83be b929 fd3b b3c1 09bc
00000120: 428c 8b3d 6baa 4f3e 9cc2 4e3e 70e1 11be
00000130: bc1e 38be 64c7 903e d3a6 823e 9580 c1bd
00000140: 8b58 08be 7797 ea3d 0aca 96be bc00 5f3d
00000150: 190b 6ebe 0cdf 86bd 4768 92be 9247 21be
00000160: 304c 7f3e 53de edbc b80f b0bc 70d4 7cbe
00000170: ee4a 64be ef2c 583d 79ec 113e 5a20 c83d
00000180: 44df 883e 44d3 56be f73f b33d e541 113d
0.28403375 -0.1793724 -0.055803802 0.19834177 0.23302896 0.19335383 0.031425998 0.29903296
-0.26975036 -0.24263905 0.2179509 0.07511507 0.3060569 -0.21289769 -0.27520043 0.009260945
0.052700926 0.27872577 0.10526517 0.23110329 0.14507528 0.08501108 0.23026976 -0.15488572
0.031934302 -0.26243928 -0.03967988 -0.27438876 -0.23323947 -0.04543268 0.18696149 -0.20351753
0.11836464 0.16248468 -0.032779146 -0.272544 -0.10789944 -0.13523535 -0.19031559 -0.14411189
0.09819223 -0.061069466 0.030645782 -0.20223618 -0.10626318 -0.09717012 -0.2363081 -0.039238382
-0.19471787 -0.008292207 0.024944946 0.24212253 0.14846836 0.34313422 0.06422949 -0.04528604
-0.2413489 0.0396167 0.018084617 0.16663048 -0.24675435 -0.1707665 0.24276477 -0.24787174
0.27258843 0.27770638 -0.119506605 0.0558458 -0.22221926 -0.25757766 0.007725921 -0.008407998
0.068138614 0.20279853 0.20191425 -0.14246154 -0.17980474 0.28277123 0.25517902 -0.09448353
-0.13315026 0.11454671 -0.2945102 0.05444406 -0.23246421 -0.065855116 -0.28595182 -0.15749958
0.24931407 -0.029036677 -0.02149187 -0.24690413 -0.22294208 0.052777227 0.14250363 0.097717956
0.26732838 -0.20979029 0.08752435 0.035463233

dnn.4.bias f4 [10]
00000000: 31d9 5e3e e95a eabd 8ebe 68be 7d9c 393e
00000010: a915 eabd f8fb 5ebe 04a7 6a3e ac1d 9d3e
00000020: 1dc5 78bb f12f 11be
0.2176254 -0.11443121 -0.22728941 0.18126102 -0.114299126 -0.21775806 0.22915274 0.306867
-0.0037959286 -0.14178444

dnn.6.weight f4 [1, 10]
00000000: 0aec 8f3e 84b3 36be 1f66 3d3e 4b92 48be
00000010: 6833 673e c78b aa3d becf 543e 7a64 d83d
00000020: 4a26 c9bc 5153 f0bd
0.2810977 -0.17841917 0.18495987 -0.19587056 0.22578204 0.08327442 0.20782372 0.105660394
-0.02455439 -0.11734641
