Result/DeepHPM.pth (torch, 755000 bytes, 9 tensors)

multihead_attn.in_proj_weight f4 [579, 193]
000000 ea bc 8b bd 07 ae aa bd 1b 50 96 3d 52 9f 74 3d
       -0.06823142 -0.08333974 0.07339498 0.059722252
000010 d1 9b 98 3d 56 ea 80 3c 6f 2c a6 3d 09 a6 37 3d
       0.074515946 0.01573674 0.08113944 0.044836078
000020 26 67 89 bd 5a ef 32 3d e0 a7 9a 3d 71 4e 6f bd
       -0.06709127 0.043685295 0.07551551 -0.058424417
000030 0e 3c 1e 3d 58 8b 5e bd 0d 0b a9 3d ab b4 71 3d
       0.03863149 -0.054332107 0.08254061 0.05901019
000040 8d 44 8e 3c f3 99 e5 3c 7a 5f 9c bb 46 a1 97 3d
       0.017366672 0.02802751 -0.004772124 0.07403807
000050 4f 24 0c 3d 89 ac 54 3d 5b 62 86 3d 90 87 a9 bd
       0.034214314 0.051922355 0.065617286 -0.082778096
000060 2b 36 fb bb b0 ab 02 3d 5f b0 06 3e b2 30 8b 3d
       -0.0076663694 0.031902015 0.13153218 0.06796397
000070 7d 59 2b 3d 94 dc 23 3c be 80 bf bd 66 46 19 bb
       0.04183339 0.01000132 -0.093507275 -0.0023387908
000080 4d 9e 35 3b 23 d3 07 3d ba 30 97 3d 09 a8 5b 3d
       0.0027712763 0.03316034 0.07382341 0.053627048
000090 ec d0 cf bc 95 6a aa 3d 6b 02 80 3d 78 06 4a bc
       -0.025368176 0.0832111 0.06250461 -0.012330644
0000a0 15 fe 69 bc 4b bd 76 bd ed f8 d5 bc 0d f0 13 bd
       -0.014281769 -0.060239118 -0.026119674 -0.036117602
0000b0 0a fa f6 3c 70 cf 83 3c 4c 0c 60 bd 15 8e 9d bd
       0.030148525 0.016090125 -0.054699227 -0.076931156
0000c0 39 ce 86 bd 28 c2 5b bd 14 19 98 bc 83 32 99 3d
       -0.065823026 -0.05365196 -0.018566646 0.074803375
0000d0 e9 f0 09 bd 9b b5 58 bc 2b 9d c1 3d e0 18 0e bc
       -0.033677015 -0.013226892 0.094538055 -0.008672923
0000e0 11 2d ec 3c 84 35 db bd a1 4e 50 bd 6c 84 d7 3c
       0.028830083 -0.10703567 -0.050856236 0.02630826
0000f0 21 2a 5e 3d bf cb 5c 3d 2f de c0 bd fd 0c ed 3b
       0.054239396 0.053905245 -0.09417378 0.0072342143
000100 a7 b3 d7 3d c6 18 92 3b 1b 60 c1 bc 0d 1f 8e bd
       0.10532313 0.0044585196 -0.023605397 -0.06939516
000110 c3 18 e9 3c fc 62 06 bd 61 43 11 3d 33 ad 7f bd
       0.02845419 -0.032809243 0.03546465 -0.062421035
000120 ac 01 84 bd 30 32 60 bb 84 46 d5 3d f9 bc 8f bd
       -0.064456314 -0.0034209602 0.104138404 -0.070184655
000130 b6 1a 46 bd e2 0a 6b 3d 88 3e 96 bd c1 43 5c bd
       -0.048365317 0.057383426 -0.07336146 -0.053775553
000140 4f ce 11 3d 4b 9d f6 bd c0 cf c3 3d ab ab 91 3d
       0.03559714 -0.1204172 0.095611095 0.07112821
000150 e5 03 7a 3b 28 f7 d1 bd 95 c5 41 3d dc b3 19 3c
       0.0038149294 -0.102522194 0.04730757 0.009381261
000160 11 d2 96 bd 13 c2 1e bc bc e2 d6 bd f8 c6 79 3d
       -0.07364286 -0.009689826 -0.10492465 0.060980767
000170 c1 48 60 3d 0c 69 da 3d d4 db f4 bb 2c dd d3 bd
       0.054756884 0.10664567 -0.0074724946 -0.103449196
000180 ae 07 4e bd ad 66 ed bc ba 72 4f bd fb ff dc 3c
       -0.050300293 -0.028979624 -0.05064652 0.02697753
000190 72 85 9c bd 20 61 36 bd 30 4f 5e 3d a7 96 28 bd
       -0.0764264 -0.04452622 0.054274738 -0.0411593
0001a0 01 d9 c0 3d fa f5 a0 bd 80 9e 12 3a 36 30 cf bb
       0.0941639 -0.07859416 0.00055930763 -0.006322886
0001b0 01 05 3e bd c1 b1 90 3c 22 0b bd 3d f3 c7 0f 3d
       -0.04639149 0.017662885 0.09230639 0.035102796
0001c0 3e 75 77 3d d7 85 df 3c 42 62 a0 3d 9a 6d 4b 3c
       0.060414545 0.0272855 0.07831241 0.012416268
0001d0 25 e6 ca bd 40 ff e4 bc 98 f1 c1 bd f9 ad b7 bd
       -0.09907178 -0.027953744 -0.094699085 -0.089687295
0001e0 00 36 d3 3c 35 cb 85 3d 54 8e 1f bd 2e 15 52 3d
       0.025782585 0.06532899 -0.038954094 0.05128973
0001f0 1d 2f 99 bd d8 53 ac 3d a1 75 b1 3d 22 7b aa 3d
       -0.07479689 0.084144294 0.08665014 0.08324267
000200 db 08 c6 bc 6f 20 cc 3d 4d 14 01 3b ae 48 54 3d
       -0.024174144 0.09967124 0.0019695938 0.051827125
000210 1b 1d d8 bd 65 b2 8d 3d 7a 20 aa bb 7e 52 ca bd
       -0.105524264 0.06918792 -0.00519186 -0.098790154
000220 a8 53 09 3d f9 8e 42 3d ad 4e 15 3d 1a 2e 95 bc
       0.033527046 0.04749963 0.036451984 -0.01821046
000230 eb 50 ee bc 01 7b 23 3d a0 7c 1e 3d f2 12 69 3d
       -0.02909132 0.039912228 0.03869307 0.056902833
000240 59 0d aa 3c b8 57 95 bd 89 33 a4 bb 1e ca b9 3c
       0.020758318 -0.07292122 -0.0050110263 0.022679385
000250 f3 b0 88 3d e7 76 c0 3c 77 b6 0d bd bc 81 39 bc
       0.066743754 0.023494197 -0.03459784 -0.011322435
000260 65 cf 6f 3c 75 86 ba 3c 0c 54 f1 3c 2b 84 50 3c
       0.014636849 0.022769192 0.029459022 0.012726824
000270 e5 2e b5 3d 38 30 58 bc 75 03 93 bb 08 00 3d 3d
       0.08846835 -0.01319509 -0.004486496 0.046142608
000280 05 c2 d2 3c ba 00 d4 3d 6d cf 98 3d 40 ce 63 bd
       0.025727281 0.10351701 0.07461438 -0.055616617
000290 12 bb 61 bc 51 63 c9 bc f5 4e 83 bd bd 6e 0a 3d
       -0.013777511 -0.02458349 -0.06411544 0.033797015
0002a0 18 95 df bb 8f da 0f bd 92 e6 79 3d b0 8a 89 bd
       -0.0068231933 -0.035120543 0.061010905 -0.06715906
0002b0 6a a3 3d 3d 26 26 10 bd de 5f 08 3d 74 e2 70 3d
       0.046298422 -0.03519263 0.03329455 0.058809713
0002c0 fd dd 9d 3d ca 11 c2 bd 18 db 9d 3b 4b b1 31 3d
       0.077083565 -0.09476049 0.004817378 0.04338197
0002d0 35 f7 37 3d 8b 94 d6 bd be a0 5e 3d 9c 25 44 bd
       0.04491349 -0.10477551 0.054352514 -0.04788743
0002e0 52 9c 69 bd 96 c0 81 bd c2 33 63 bc fb cb 68 bd
       -0.057033844 -0.06335561 -0.0138673205 -0.056835156
0002f0 78 5b 82 bc 75 f8 f3 bb 07 36 6f 3d c4 84 a5 3d
       -0.015912756 -0.00744539 0.058401134 0.08081964
000300 01 bd ca bd e1 2d 05 3e 81 27 e9 3d 67 b7 dc bd
       -0.09899331 0.13005783 0.11384488 -0.10777169
000310 81 59 82 3d aa 06 95 3d 34 f6 70 bd 15 6a 74 bd
       0.06364728 0.07276662 -0.058828548 -0.05967148
000320 88 de 87 3c b2 e3 a2 bd 1d 68 a9 3d 5b e2 8a 3c
       0.016585603 -0.07953586 0.08271811 0.016953638
000330 f4 9d dc bc d7 9b 42 3d ab e3 e8 bc cb 83 ca 3c
       -0.026930787 0.0475119 -0.028428873 0.024721047
000340 5a a2 a6 bc 37 84 c2 bd 52 9e 63 3d 6e bd 93 bd
       -0.020341087 -0.09497874 0.055570908 -0.07213865
000350 ba da b5 bd 4c fa e7 bd ce dc 1d bc 38 ad 5d 3d
       -0.088796094 -0.11327037 -0.0096351635 0.054120272
000360 c6 52 57 3d 73 b0 f3 3d bb cf 7f bd 87 eb d1 bd
       0.052569173 0.118988894 -0.062453967 -0.102500014
000370 7c 7a 89 bc 0b 28 cc 3d 23 bc 63 3d cb 85 ae bc
       -0.016782038 0.09968575 0.055599343 -0.021304032
000380 bb 99 63 bb 92 3c d5 3d f3 7c 99 3d 21 06 9c bc
       -0.0034729082 0.104119435 0.07494535 -0.019045891
000390 69 f6 1b bd 02 66 77 3d 93 95 88 bd 24 ba d8 3c
       -0.038076792 0.060400017 -0.06669154 0.026455946
0003a0 dd 32 85 3d e0 7e b1 3c ab 0a e7 3c f4 29 b8 bd
       0.06503842 0.021666944 0.02820333 -0.08992377
0003b0 7e 88 62 bd 05 5e da 3d 6f 95 8c 3d 01 5c 5a 3d
       -0.05530595 0.10662464 0.0686444 0.053310398
0003c0 82 c4 4e 3d 78 da cb bd 5a cf f7 bb 06 49 9e 3d
       0.050480373 -0.09953779 -0.00756256 0.07728772
0003d0 e3 38 84 3b d9 db 57 3c 74 3c 68 3d bc c7 ce bd
       0.0040351017 0.013174974 0.056698278 -0.1009669
0003e0 f7 40 f8 3a 1a 9d 18 bd 90 ff 17 3e 01 0b 9a 3d
       0.001894026 -0.0372592 0.14843583 0.0752163
0003f0 87 37 71 bb 8d 06 86 3d 97 7b 91 3d d8 ee 61 3d
       -0.0036806779 0.06544218 0.07103651 0.05515942

multihead_attn.in_proj_bias f4 [579]
000000 70 09 2c 3d dd 23 33 bd b3 48 0f 3d 1f ec 96 bc
       0.042001188 -0.043735374 0.03498144 -0.018423138
000010 b0 d5 44 bd 00 78 e9 3c 8a 4e 2b 3d eb ae 2b bd
       -0.04805535 0.028499603 0.041822948 -0.04191486
000020 04 8e 28 bc 0b 2d 55 3d 76 f6 60 3d ca 85 34 bd
       -0.010287765 0.05204491 0.054922543 -0.044072904
000030 e4 61 18 bd 5b f7 3d bc eb d8 28 bd b5 a9 52 3c
       -0.03720273 -0.011594619 -0.041222494 0.012857844
000040 aa 2f ba 3c 29 b4 70 3d e9 25 04 bd 73 fc 15 3d
       0.022727806 0.058765564 -0.032262716 0.036617707
000050 33 06 a4 ba 17 99 97 3d ca 60 47 bd 3f 49 34 bd
       -0.0012514055 0.074022464 -0.04867629 -0.044015165
000060 de 39 54 3d 19 15 a8 3c 6d f3 70 3c 59 23 50 3d
       0.051813 0.020517873 0.014706475 0.05081496
000070 c4 21 17 3d 38 4d 08 3d 0e 5a 47 bd ed 0c 0b bc
       0.036897436 0.033276767 -0.048669867 -0.008486968
000080 14 1a b3 bc cb c9 83 3c e6 8f 88 3c 9f ec bb bc
       -0.021863021 0.016087433 0.016670179 -0.022939978
000090 f5 23 8e bb a9 90 56 3c 59 9d 52 bc d1 4e bc bc
       -0.0043377825 0.013096013 -0.012854897 -0.022986801
0000a0 b3 63 ee 3b 40 65 6b bd e7 2d ba b9 08 94 43 bd
       0.0072750687 -0.057469606 -0.00035510884 -0.047748595
0000b0 6a c7 c3 bc af 88 f5 3b 1f 00 fd 3c 7c 56 cf 3c
       -0.023898799 0.0074931006 0.030883847 0.025309794
0000c0 20 4f f2 3c 61 6a c6 3c 8a 80 37 bd b0 f6 74 bc
       0.029578745 0.024220647 -0.04480032 -0.014951393
0000d0 48 75 2e b9 eb 8d 4a 3d 3b d4 46 3d e5 ce 8a 3c
       -0.00016637624 0.04945175 0.048542242 0.016944358
0000e0 8e db 34 bd b7 fa 09 3d 35 38 42 3d b1 8a 6c 3d
       -0.044154696 0.033686366 0.047416884 0.057749454
0000f0 f7 e9 0d bd 1d 38 51 3d e6 3b cc bc b1 13 ae bc
       -0.034646954 0.051078904 -0.024930906 -0.021249624
000100 01 b0 87 bd ad 0e 5f bd 87 7f c1 3c 3b c7 87 bc
       -0.06625367 -0.054457355 0.02362038 -0.016574493
000110 e8 2a 7e bd fa 16 60 3d 6d df a2 bc 1c 79 38 3d
       -0.062052637 0.054709412 -0.019881928 0.045037374
000120 c5 f9 05 bd b0 b7 22 3c cf 25 1a bd 10 0d 89 bd
       -0.032708902 0.00993149 -0.037633713 -0.066919446
000130 47 d3 3e bd b6 44 75 3c 5c ed 12 bd 81 99 a2 bb
       -0.04658821 0.014969995 -0.035870895 -0.0049621467
000140 15 14 53 bd 63 f0 94 bc 6d bf 38 bd ba f5 49 3d
       -0.051532824 -0.018181032 -0.045104433 0.04930661
000150 80 93 29 b6 4c b0 3a 3d 69 28 7e 3d 48 ff 61 3d
       -2.5268819e-06 0.045578286 0.062050257 0.055175096
000160 41 f1 80 bc ff e2 c2 3c 80 79 9a bd fc 05 73 bc
       -0.015740039 0.02378988 -0.075427055 -0.01483297
000170 74 64 59 bd c7 af 47 3d e3 23 05 3d 80 fa 4b bd
       -0.053074315 0.04875162 0.032504927 -0.049799442
000180 a4 d0 cc bc 0e 07 67 3d cb b5 82 bc e2 d9 00 bd
       -0.025001831 0.056403212 -0.015955826 -0.03145779
000190 97 4e 42 3d 56 48 04 3d 1b a4 85 bd ce e0 4a bd
       0.04743823 0.032295547 -0.06525441 -0.049530797
0001a0 33 80 40 3d af e4 ac bd ce 7d dd 3c 5f c2 88 bd
       0.04699726 -0.084420554 0.027037527 -0.06677698
0001b0 3d a5 81 3d ae 93 33 3d 05 9a 1f 3d b8 a9 16 bd
       0.06330345 0.04384201 0.038965244 -0.03678295
0001c0 52 da b9 3c 88 e9 dc 39 48 76 0f bd cb aa 51 bd
       0.022687111 0.00042135664 -0.03502491 -0.05118827
0001d0 f5 8d c5 3c b5 c9 ea 3c a5 cc 8c bd 1d 6b 59 bd
       0.024115542 0.028660635 -0.0687497 -0.053080667
0001e0 20 3a 06 bd 6e 89 d6 3c 40 14 e7 bc e1 d5 8a 3c
       -0.032770276 0.026188578 -0.028207898 0.016947689
0001f0 34 f7 d4 3c e1 3f 8e bc 95 07 9d 3d 3b 9b e5 bc
       0.025996782 -0.017364444 0.07667462 -0.028028121
000200 c9 21 d1 3c 34 54 1f bc 9a 1f 82 3d 87 74 64 3d
       0.025528805 -0.009724665 0.06353684 0.05577519
000210 dc 37 49 bd 5b 8c fa bc 30 69 18 3d a5 f3 e7 3c
       -0.049125537 -0.030584505 0.03720969 0.028314421
000220 24 fc 77 3c 85 7e a4 bd b5 ed 66 3d 63 80 80 bd
       0.015135799 -0.08031944 0.05637904 -0.06274488
000230 c8 15 bd 3c 0a 56 1e bd 44 df 2d bd 98 e6 c7 bc
       0.023081675 -0.038656272 -0.04244925 -0.024401948
000240 e9 dd a1 3d f5 ba 90 bd df 86 02 bd 07 bb fb bc
       0.07903654 -0.07066909 -0.031866904 -0.03072883
000250 07 9b 4e 3d e3 a8 92 bd 7e 08 94 3d a0 47 de 3c
       0.050440814 -0.07161119 0.07228182 0.027133763
000260 df f8 2e 3d 4b a0 78 bd b9 89 23 bd 32 f7 97 3c
       0.04271781 -0.060699742 -0.039926264 0.01855049
000270 ca e3 7c bc ce e1 dc 3c d2 93 53 3c 95 f0 f7 3c
       -0.0154351685 0.02696314 0.012913661 0.030266086
000280 be e4 09 3c 1f 2d 26 3c 51 3d 25 3c 27 b8 7d bc
       0.008416353 0.010142594 0.01008542 -0.0154858
000290 bc 48 47 3b 4e de 99 3c 71 5d 65 bd 12 84 ed 3c
       0.0030408343 0.018782761 -0.055997316 0.02899364
0002a0 3b 92 15 bd 10 16 54 3d c3 56 6c bd 88 ee 28 bc
       -0.03651641 0.051778853 -0.05769993 -0.0103107765
0002b0 54 93 86 3d 9e 5d 3b 3c 64 24 a2 3d 4e 96 a8 bb
       0.06571069 0.011435894 0.07917097 -0.005144871
0002c0 5d 1d 1b bd 67 33 85 bd ee c1 a0 3d b2 e4 1d 3d
       -0.0378698 -0.06503945 0.07849489 0.03854818
0002d0 be 15 8c bd 16 0e 2c bd 24 51 b1 3a 68 5c 1e bd
       -0.068400845 -0.04200562 0.001352821 -0.038662344
0002e0 23 70 12 3d fa df 90 3d b1 1d 22 3d 66 ad 51 3d
       0.035751473 0.0707397 0.039579097 0.051190756
0002f0 bb fa b1 3c ae ca 1a 3d 36 b8 09 bd b6 aa 15 bd
       0.021726003 0.037790947 -0.033622943 -0.036539756
000300 cc f2 dc 3c 3e 3d a4 39 71 77 7b b8 92 3d 83 b9
       0.026971243 0.00031326147 -5.9954302e-05 -0.0002503214
000310 9c 43 6f b9 32 28 53 b9 2a 1e 5c 39 81 c6 99 38
       -0.00022818003 -0.00020137502 0.00020992072 7.332583e-05
000320 60 30 0c 39 3c cd ad 38 7f 5b 22 b9 48 54 d9 38
       0.00013369462 8.287511e-05 -0.00015483609 0.00010363065
000330 33 df ad b7 c9 09 84 b9 60 d7 9b 38 0c 83 76 b8
       -2.0727142e-05 -0.00025184292 7.431093e-05 -5.8773017e-05
000340 3f 9c 19 b9 72 31 78 b9 c3 0c ab 38 35 6b e4 b8
       -0.00014649423 -0.00023669543 8.1562925e-05 -0.00010891856
000350 a8 ab 07 39 b5 11 99 b9 d5 6e 05 b7 fe 3f 59 39
       0.0001293855 -0.00029195627 -7.953223e-06 0.00020718572
000360 0c fb 45 b6 4c bd a8 b8 4d 23 bc 38 48 59 1d b9
       -2.9501416e-06 -8.0461235e-05 8.971114e-05 -0.00015005947
000370 42 ee 27 b9 5a 61 89 38 11 68 83 39 b6 55 4c b9
       -0.00016015119 6.550802e-05 0.00025063803 -0.00019486886
000380 f4 70 65 39 fc a4 73 b9 d1 53 3a b8 82 b4 b2 38
       0.0002188122 -0.00023235747 -4.4423916e-05 8.5213236e-05
000390 08 d8 bd 38 30 d0 b8 38 63 cf 55 b9 97 0c e5 38
       9.052461e-05 8.812582e-05 -0.0002039052 0.00010921916
0003a0 37 c0 4f b9 ba 44 85 b9 f7 38 15 b9 c4 ed 54 39
       -0.00019812664 -0.00025418942 -0.00014230968 0.0002030647
0003b0 89 31 3f b8 36 04 84 b8 50 47 b7 b8 b6 9b d2 38
       -4.558408e-05 -6.295035e-05 -8.739403e-05 0.00010042584
0003c0 c3 43 9e b8 31 d0 01 b9 d0 a1 77 39 74 67 6c b9
       -7.546649e-05 -0.00012379956 0.00023616035 -0.00022545253
0003d0 8c 2a 8c 39 23 ec b5 38 ff df 46 b9 2a a7 0e 39
       0.0002673458 8.6747365e-05 -0.00018966197 0.00013604449
0003e0 91 8b 56 b9 a1 50 22 b9 30 6f f9 38 93 bf 95 38
       -0.00020460623 -0.0001547956 0.000118939555 7.140557e-05
0003f0 b6 a5 57 b9 e0 42 88 b8 0a 76 67 b8 74 57 e2 b8
       -0.0002056573 -6.497442e-05 -5.5184624e-05 -0.00010792809

multihead_attn.out_proj.weight f4 [193, 193]
000000 42 fd 20 3d a6 cc 06 bc 8b f0 11 3d 71 eb 09 bd
       0.039304025 -0.008227503 0.03562979 -0.0336718
000010 24 1f 36 3d 09 13 18 3d 8b 84 e6 bc 0a 5c ae 3c
       0.04446329 0.03712753 -0.028139373 0.021284122
000020 84 f4 13 bd ed ab 44 3c 76 a7 52 3b 7c f8 59 3d
       -0.03612186 0.012003881 0.0032143272 0.05321549
000030 0b 49 6d bd e9 0e bb bc 6a e0 1a bd cc 54 a5 3a
       -0.057930987 -0.022834258 -0.037811674 0.0012613772
000040 65 f7 58 bd 5e 15 be bb 28 73 60 3d d6 6d 68 3d
       -0.05297031 -0.005800887 0.05479732 0.056745373
000050 33 c5 62 bc d0 c9 6c bc 84 23 19 bd 16 6d fa 3c
       -0.013840961 -0.014452413 -0.037387386 0.030569594
000060 60 3d 22 3d c1 94 bc 3c 7e e9 b5 3c 7f 47 45 bd
       0.039609313 0.02302015 0.022206064 -0.048163887
000070 7b dd be 3c 4c f8 20 3c e2 85 ad 3c 04 5a 53 3c
       0.02329897 0.009824824 0.021182004 0.012899879
000080 71 c0 80 3d 17 11 a5 3c 44 a6 d4 3a ea b8 83 3d
       0.06286705 0.02014975 0.0016223867 0.06431754
000090 f5 d9 58 3d ee ba 94 bc bf 20 ef 3c 15 8c dc ba
       0.052942235 -0.018155541 0.02919042 -0.0016826416
0000a0 38 f3 87 3d 9a fa 21 3d f4 0f 1e 3d 4d d3 17 3d
       0.06638187 0.039545633 0.038589433 0.037066747
0000b0 88 f3 f2 3c c6 e6 8a 3c 20 9c 0e 3d c6 c7 a9 3c
       0.02965714 0.016955744 0.03481686 0.020725142
0000c0 33 26 23 bd 19 30 81 3d 02 a0 60 bc 0e 47 9c 3c
       -0.03983135 0.06308002 -0.013710024 0.01907685
0000d0 85 0f c0 ba 02 50 7b 3b dd 28 1f bd a1 a2 1e bd
       -0.0014653063 0.003834725 -0.03885733 -0.038729314
0000e0 ef c4 56 bd a3 35 71 bc 35 44 ec 3c 0b c7 26 3d
       -0.052433904 -0.014722261 0.028841117 0.040717166
0000f0 66 a4 51 bc 16 f6 bd bb a1 42 99 bc 7b 5b a7 3c
       -0.012795543 -0.005797158 -0.018708529 0.020429363
000100 52 a4 b2 3d cf 3f 73 3d d3 f7 9b bd 3c 01 bc 3c
       0.08722748 0.059387024 -0.07615628 0.022949807
000110 7c 89 27 bc a0 b2 a2 3d 05 e9 4c 3d e2 28 3b bc
       -0.01022565 0.07944226 0.050026912 -0.011423321
000120 a0 c6 03 3d ac 60 3e 3c 9a 6e d4 b9 11 88 ab bc
       0.032171845 0.011619728 -0.00040518196 -0.020938905
000130 e9 b0 74 bd c5 59 c6 3c 19 a8 c6 bb 98 f1 e7 3c
       -0.059739027 0.024212727 -0.0060625193 0.028313443
000140 36 88 1a 3d 10 58 02 3d ca cf 55 bc 7c 4e 05 bd
       0.037727557 0.031822264 -0.013050029 -0.03254555
000150 02 10 86 3c d2 36 a2 3b e6 e1 f4 3c 8a 89 dc 3c
       0.016365055 0.0049503827 0.029892873 0.026921052
000160 32 e0 5a bd 82 9e d8 3c 88 8c 64 bc 52 2a 77 bd
       -0.053436466 0.02644277 -0.013949521 -0.060343094
000170 8b 55 72 bd f1 a1 4a 3c 3b 4a 8e 3c 21 68 18 bd
       -0.05916361 0.012367711 0.01736938 -0.03720868
000180 e4 bc d7 3c f6 29 92 3b 96 5c 28 bd f9 b9 94 3c
       0.026335187 0.0044605685 -0.04110392 0.018155085
000190 f1 70 90 3c c1 66 a7 3c f5 5e 14 3d 90 12 05 3d
       0.01763198 0.020434739 0.03622337 0.032488406
0001a0 dc 5f 4c bd 52 54 22 bd cf 51 96 bd 76 37 32 3d
       -0.049896106 -0.039631195 -0.073398225 0.043509923
0001b0 88 ca af bc 12 fb 89 bd 5a 59 ec 3c a5 f4 96 bd
       -0.02145888 -0.06737341 0.0288512 -0.07370881
0001c0 3f 68 5e bc 4e 2b eb bc 94 56 6d bc 53 6b 86 3c
       -0.013574659 -0.028707173 -0.014485974 0.016408598
0001d0 b8 77 98 3b 88 ac 9a bd 7c 5b 50 3c e2 b5 d1 3c
       0.0046529435 -0.07552439 0.012717124 0.025599424
0001e0 47 98 98 3c 5f b7 e7 bc 71 51 06 3c 85 48 cf bc
       0.018627299 -0.02828568 0.008198128 -0.025303135
0001f0 13 3d b6 bc 6b d0 36 bd 46 5b 29 bd 5e 17 46 3d
       -0.02224592 -0.044632357 -0.04134681 0.04836213
000200 b1 f3 33 3d 41 d0 75 bc 4a ec c0 3c 55 fe bf 3d
       0.043933574 -0.015003265 0.023550171 0.09374682
000210 72 11 eb 3c df 08 04 3d ce 8d 2e 3c ff 0a c9 bb
       0.028694842 0.032235023 0.010653926 -0.006135344
000220 e9 64 f7 bc b5 f4 93 bc 4e c0 68 3d 8c 2d 38 3d
       -0.030199485 -0.018061021 0.05682402 0.044965312
000230 45 2c e8 bc 98 d9 53 bd 61 ed 30 3c 92 06 62 3b
       -0.028341422 -0.051721185 0.010798783 0.003448878
000240 1d e0 da 3c 6a cf 9c 3c 2e b6 c5 bc 3e 63 c4 3c
       0.026718194 0.019141871 -0.024134722 0.023973104
000250 2a e5 b8 bc 1d 4b 4a bc d4 38 d8 3c f8 cf 43 bc
       -0.022570211 -0.01234701 0.026394285 -0.011951439
000260 c5 0c f3 bb b0 4f b7 3b 3c c1 03 bd a2 fb 6f bc
       -0.0074172937 0.0055942163 -0.032166705 -0.014647396
000270 54 8f 80 bd 05 be 83 bd 20 ca 87 3c 63 9a 90 bc
       -0.06277338 -0.06432728 0.016575873 -0.017651742
000280 b7 72 56 3c 9c 29 95 3b a6 22 16 3d dc e2 fe 3b
       0.013088874 0.0045520794 0.036654137 0.0077785086
000290 ee 4a a1 3d bd fc dc 3c 2e 1a 1f bd 1e 92 2f 3c
       0.0787562 0.026975984 -0.038843326 0.010715989
0002a0 df df 90 3c b2 09 6d bb 13 40 01 bc 6b 89 07 3d
       0.017684875 -0.003616911 -0.007888812 0.033090036
0002b0 27 a3 37 bd 40 b3 cf 3c fc 93 7e 3d 6e 43 f6 3b
       -0.04483333 0.025354028 0.062152848 0.0075153625
0002c0 8c 1c 11 bd 69 3e 1e bd 55 9f fb 3c 1a 23 3f 3d
       -0.035427615 -0.038633738 0.030715624 0.046664335
0002d0 e1 ba 8e 3d 2b 42 76 3d 02 4f 7e 3d aa 47 25 3b
       0.06969238 0.060121696 0.062087066 0.0025219717
0002e0 b7 08 1d 3d fe bb 58 bc 76 b2 65 bd ca 87 d4 3b
       0.03833839 -0.013228415 -0.056078397 0.006485914
0002f0 5c 38 91 3d 79 87 89 bc 09 e9 34 bc 58 4e 0e 3c
       0.07090828 -0.016788231 -0.011041888 0.008685671
000300 1f a0 60 bd 52 d0 33 bd be 2c 3e bd 20 4d b7 bc
       -0.054840203 -0.04389984 -0.04642939 -0.022375643
000310 c1 ff 2a bd 64 bb 4a bd d9 46 db bc 92 49 82 3c
       -0.041747812 -0.049495116 -0.026767181 0.015904222
000320 4d 8e 99 bb 2d b5 ec bc 9e a2 03 3d 67 f7 59 bd
       -0.004686153 -0.028894985 0.032137506 -0.053214457
000330 13 94 d3 3c 6d ba 6d 3a 1f d8 9e 3c ce 7e 17 3d
       0.025827443 0.0009068612 0.019390164 0.036986165
000340 b1 ff 9e 3d 08 07 4d bb 6d e1 b6 bc 30 52 ce 3c
       0.07763613 -0.0031284709 -0.022324288 0.025185674
000350 de c3 2c 3d 06 53 06 bc 78 34 b5 bc f3 a9 5b 3c
       0.04217898 -0.008198505 -0.022119746 0.013407218
000360 1a 44 ae bb f8 7e 93 3d 29 c0 f0 bc c9 a7 81 3d
       -0.005318177 0.07201952 -0.029388504 0.063308306
000370 8a 6b cc 3b ea bc 72 3d 0e a5 d6 bc e8 c3 03 bd
       0.0062384056 0.059262194 -0.026201751 -0.032169253
000380 e5 2e 8a bd 6b e8 3f 3c 0e 97 18 bd 91 e1 71 3d
       -0.06747226 0.011713128 -0.037253432 0.059053008
000390 1d f8 a8 3c 36 30 70 3c 03 34 f3 3c 68 76 9e 3d
       0.020626122 0.014659932 0.029687887 0.07737428
0003a0 1d 65 d4 bc 12 75 c3 3c 88 9a a8 3b 18 81 41 bd
       -0.02592712 0.023859534 0.0051453747 -0.047242254
0003b0 ce 95 d9 bc 33 7c fc 3b e8 10 ab bb f7 dc 07 bd
       -0.02656069 0.0077052354 -0.0052205212 -0.033169713
0003c0 53 6e 16 bd 97 b1 db 3c bf 70 7a 3d 66 f3 28 bc
       -0.036726307 0.02681808 0.06114268 -0.010311937
0003d0 28 a3 0f 3d a4 3e 4c bc 7e 74 1e 3b 8a 6f 3f 3d
       0.035067707 -0.012466107 0.0024178321 0.04673723
0003e0 85 25 82 3c 3e b7 89 bc b9 bb 64 bd c6 64 c4 bc
       0.015887031 -0.01681101 -0.05584309 -0.023973834
0003f0 ea ef 4e 3c b9 01 1c bc 16 a6 3c bb 72 ef d2 3c
       0.012630442 -0.009521895 -0.0028785518 0.025748942

multihead_attn.out_proj.bias f4 [193]
000000 3d ce 25 bd a4 b0 e7 bc fd 0a 65 3d 68 08 43 3d
       -0.040479887 -0.028282471 0.055918682 0.04761544
000010 a6 8a cc bd 16 c7 25 bc 13 6d 32 3d bb ec c8 3d
       -0.099873826 -0.010118267 0.043561053 0.09810778
000020 b1 ad 7c 3d ed 66 b7 bd bb 78 b1 bd a4 5b a6 3d
       0.061689083 -0.089551784 -0.08665606 0.08122948
000030 37 0f 02 3e 1d 59 c0 3d 07 e2 b4 bd 79 fc 25 bd
       0.12701117 0.09391997 -0.08832174 -0.04052398
000040 7d ec 9e bd 2d 38 17 3d 72 88 8e bd 84 5e 82 bc
       -0.0775995 0.036918808 -0.06959619 -0.01591421
000050 de 89 59 3e d0 bd 88 bd cf 06 0b be b5 fb 99 bd
       0.21243998 -0.06676829 -0.13576816 -0.075187124
000060 d8 05 63 bd b8 aa c8 bc 06 b1 13 3d 0e 8b dd 3d
       -0.055425495 -0.024495468 0.036057495 0.10817538
000070 eb 4a de 3c 61 19 17 3d a8 6a 6c bd fd d5 0e be
       0.027135333 0.036889438 -0.057718903 -0.13948818
000080 fe a0 00 be 7d 10 c0 3c be 75 95 3c 06 76 c7 3d
       -0.12561414 0.023445362 0.01824462 0.09739308
000090 4e 59 9a bc b2 6d 27 bd a1 fe c0 bd c4 5b 48 bd
       -0.018841412 -0.040876098 -0.094235666 -0.04891564
0000a0 35 a0 3e bd c3 e9 ec 3c 72 98 8b 3d a7 f2 1b bd
       -0.046539504 0.02892006 0.06816186 -0.03807321
0000b0 19 b6 fb bd 13 a5 94 3d 33 71 b4 3d 2b 9b 2b be
       -0.12290592 0.07258048 0.088106535 -0.1675841
0000c0 d0 45 5a ba 5a fb 00 be f7 5d b0 bd a7 5f ec 3d
       -0.0008326443 -0.12595883 -0.08611672 0.11541682
0000d0 56 e5 ea 3d ec cf bb bd 39 9c 75 3c a5 4c b6 bd
       0.114695236 -0.09170517 0.01499086 -0.089013375
0000e0 43 18 55 3c 00 0f 95 bd 81 24 96 3d b5 e6 ff bc
       0.013006273 -0.07278252 0.07331181 -0.03123794
0000f0 ab 9a b7 bc 52 ef 0a 3e ab e9 40 bd 00 38 fc 3d
       -0.022412619 0.13567856 -0.047097843 0.12315369
000100 49 b5 c8 3e 9e 3c 54 3e 16 da 2f bc 31 ee b3 bd
       0.3920081 0.20726249 -0.010733148 -0.08785666
000110 a1 6f ce bd 3f 43 11 3d da fc 5c 3d 63 ea 38 be
       -0.10079885 0.03546452 0.053952076 -0.18058161
000120 75 be a8 3c 92 99 85 3d ca cc 33 3e cc 53 88 bd
       0.02059863 0.06523432 0.1755859 -0.06656608
000130 63 41 30 bd e5 41 3c be d5 d2 82 3c 65 b9 a6 bc
       -0.043031108 -0.18384512 0.015969673 -0.020352075
000140 b6 ab ec bd 8a ac f3 3d 2d 7a 33 3e 41 91 33 bb
       -0.11556189 0.118981436 0.17527075 -0.002739981
000150 64 7a cd 3b c0 55 9d 3d 6a 09 c0 bd 8b 84 9d bd
       0.0062706936 0.07682371 -0.093767956 -0.07691296
000160 b9 ff 33 3e 66 8a 45 3d 40 10 77 bd 25 85 04 3e
       0.17578019 0.04822769 -0.06031823 0.12941416
000170 3b d0 88 bd 78 5c 8f bd 82 49 0d 3c d4 b2 30 3e
       -0.06680342 -0.07000059 0.008623483 0.17255718
000180 9f 1b 6c 3d 8f e1 df 3d e0 ae 0e 3c 81 27 75 bd
       0.05764353 0.10931694 0.008708686 -0.059852127
000190 47 8b 83 bd 75 81 c3 bc cc 81 5b be cb 82 3a 3d
       -0.064230494 -0.02386544 -0.21436232 0.04553489
0001a0 ee 71 63 3d 01 89 c3 bc 18 3d 71 3d f7 ed 8e bd
       0.055528574 -0.02386904 0.058896154 -0.06978982
0001b0 77 c2 e1 bd 48 df be bd 3a fd d0 bc 11 3a f8 3c
       -0.11023419 -0.09319931 -0.025511373 0.030301126
0001c0 88 5e f8 3c 85 14 54 bd b2 aa 65 bc 36 ff ff 3d
       0.030318514 -0.05177738 -0.014017748 0.124998495
0001d0 3c d5 94 3d 95 dd c8 3c e6 37 31 3d 27 8c ec 3d
       0.07267234 0.024519721 0.0432662 0.115501694
0001e0 b2 3f 94 3d 16 ec e7 3d ae fc b3 3d 01 1c b6 bd
       0.072387114 0.11324327 0.08788429 -0.0889206
0001f0 a9 ba 7d 3d 66 aa 20 3e be 8f 9f bd ed fc 85 3d
       0.06194559 0.15690002 -0.077910885 0.065423824
000200 67 86 ac 3d f1 f4 86 3d 32 ee 73 bd 28 ea 14 bc
       0.08424073 0.065896876 -0.059553333 -0.00908903
000210 24 10 70 bd 81 ae 8a ba 5a 72 9f 3c 45 cf 4a 3c
       -0.058609143 -0.0010580571 0.019463707 0.0123785185
000220 53 06 06 bc a3 f4 a3 3d c3 ac 56 3e 0e 86 04 be
       -0.008180219 0.08005645 0.20964341 -0.12941763
000230 d5 7a 47 bd f8 a8 11 be 97 99 3b bd 64 85 a8 bd
       -0.048701126 -0.14224613 -0.04580077 -0.08228567
000240 fb 5e a0 bd c5 be dd bd 14 75 67 3d 58 fb 04 be
       -0.07830616 -0.10827402 0.05650814 -0.12986505
000250 97 08 9c 3d 96 df e6 3c 00 39 c8 bc e5 cf 2f bd
       0.07618826 0.028182786 -0.024441242 -0.042922873
000260 9c 93 ed 3c 40 ea e0 3d ff a3 a7 bd d3 ce ae bb
       0.02900105 0.1098218 -0.08185577 -0.005334714
000270 7c 7a 8d bd 8c 42 6b 3d 96 68 45 3d 9b b6 ce 3c
       -0.06908128 0.05743651 0.048195444 0.025233557
000280 2e b3 89 bd 5c 8f 9a 3c 91 2d 74 3d f8 21 9b bd
       -0.06723629 0.018867187 0.059613768 -0.075748384
000290 d5 e1 9b bd 13 80 2d 3e 8a 23 2d 3d 16 1f fe 3c
       -0.076114334 0.16943388 0.04227022 0.031020682
0002a0 cb 5d 40 3e 83 db 5e bc 59 a8 83 bd f7 12 0b be
       0.18785779 -0.01360214 -0.06428594 -0.13581453
0002b0 8a 38 58 3d 38 30 fc bd 16 7a 3e bb 4d d3 f9 bc
       0.052788295 -0.123138845 -0.0029064468 -0.030496264
0002c0 88 91 13 be 5d b8 88 3d 8c c4 55 3c 03 96 50 bd
       -0.14410985 0.066757895 0.013047349 -0.050924312
0002d0 a2 aa 8d 3c 2e 7a da 3b 03 6e 51 3e 45 c5 cc 3d
       0.017293278 0.006667397 0.20452122 0.09998564
0002e0 29 75 10 3e 5b cb fa 3d 32 4c 42 3d 96 fd 96 3c
       0.14107193 0.12245818 0.047435947 0.018431466
0002f0 16 f6 be bd c4 18 11 be 65 da 38 bc 6d e4 e4 3d
       -0.09324281 -0.14169604 -0.011282538 0.11176381
000300 46 72 62 3e
       0.22113904

Dense1.weight f4 [193, 193]
000000 de 59 5a bd 55 4d 2e 3d 25 12 02 3e 2b 51 68 3d
       -0.05330836 0.04255422 0.12702234 0.056718033
000010 e1 12 41 bc 81 ae 4b 3c 45 2c c8 3c 8d 0e 3b bd
       -0.011784286 0.012431742 0.024435172 -0.045668174
000020 87 a0 30 3d 52 f3 53 3d d4 cd ac bc 28 10 97 bd
       0.04312184 0.05174572 -0.02109424 -0.073761284
000030 42 56 c9 3c 4d 81 02 3e e7 03 d3 bc 93 ee 81 bd
       0.024577264 0.12744637 -0.025758697 -0.063443325
000040 26 73 63 3c 03 8b 16 3b f3 f1 28 3d 0d dc b2 bd
       0.013882434 0.002297104 0.041246366 -0.087333776
000050 b2 be 13 3d d8 15 cb 3d df 38 d2 3b 68 fd 49 3d
       0.036070533 0.09916276 0.006415471 0.049313933
000060 03 a3 45 bd d4 9b c2 bc a6 6c 71 3d d1 5f b9 3b
       -0.048251163 -0.023755945 0.058941506 0.005657174
000070 bd 36 0c bd 9c 38 86 3d cb bd 9b bd e2 36 15 3e
       -0.03423189 0.06553766 -0.076045595 0.14571717
000080 16 9d 3a 3d 49 e6 95 3d f1 56 ac 3d 0e 29 99 3d
       0.045559965 0.07319314 0.0841502 0.07478534
000090 7c c1 ae 3d 28 91 87 3d e4 21 e2 bb 64 94 69 3d
       0.08532998 0.06619483 -0.0069010127 0.057026282
0000a0 e7 a7 24 bd 94 b8 ec bd a8 f9 9c bc 41 73 f4 bb
       -0.040199187 -0.11558643 -0.019162014 -0.0074600284
0000b0 aa d2 5d bd f4 04 80 bd 55 ed 50 3d 2b ca 0f 3d
       -0.054155983 -0.06250945 0.051007587 0.03510491
0000c0 0a 36 63 bc 40 4a 85 3d 18 50 0e 3e 13 e8 a6 bc
       -0.013867864 0.06508303 0.13897741 -0.020374333
0000d0 52 65 e1 3c 39 49 42 3d 4c fc 3e 3d f6 e5 9e 3c
       0.027514134 0.04743311 0.046627328 0.019396763
0000e0 97 37 4c bd c0 a4 ba 3d 5e 83 3c 3c 1d 99 b5 3d
       -0.049857702 0.09113455 0.01150593 0.08867095
0000f0 38 aa 31 3c 2b 62 bb bd 9c a5 c6 bd 73 73 4a 3d
       0.010843806 -0.091495834 -0.09699556 0.049426507
000100 bb 88 52 3b ff 88 0d be 36 90 05 3d 05 46 26 3d
       0.0032124955 -0.13821791 0.032608233 0.04059412
000110 fb 4d 07 3e 9f 82 00 bc cb c9 15 be 97 e8 dc 3d
       0.13213341 -0.0078436425 -0.14627759 0.107865505
000120 9f 58 79 3d 08 fa 9c bb e8 1d ca bd a6 ec df 3d
       0.06087553 -0.0047905482 -0.098689854 0.10933809
000130 ce 2c 2b 3e 1c 19 ce 3d fb 78 87 3d b2 86 3e 3d
       0.1671631 0.10063383 0.06614872 0.046515174
000140 16 31 56 3e 1d 45 8b bd ba 5b 30 3d f0 36 58 3d
       0.20917162 -0.06800292 0.043056227 0.052786767
000150 27 9c 6c bd 18 49 16 bd 06 62 6d bd 11 3d 8b bc
       -0.057766106 -0.0366908 -0.05795481 -0.016996892
000160 79 a5 20 be e2 f2 87 bc 57 00 21 3e f2 41 63 bd
       -0.15688123 -0.016595308 0.15722786 -0.055482812
000170 b7 34 a4 3d 1e 21 08 b9 e1 41 fc bb 06 eb 35 be
       0.08017867 -0.00012982308 -0.007698283 -0.17765436
000180 ff 7e ab bd 23 b3 90 be 1e 20 d0 3c 12 12 03 bd
       -0.08373832 -0.2826167 0.02540594 -0.031999655
000190 9c 51 ae 3c 70 82 f6 bd d0 24 86 3d 40 e9 06 3e
       0.021279149 -0.12036598 0.0654999 0.13174915
0001a0 64 a1 26 be 7d 7c 35 bd 83 77 b2 bd 01 49 01 3e
       -0.16272503 -0.044308174 -0.08714201 0.12625505
0001b0 76 c3 d6 bc 82 16 2f 3e ea ae 44 bd b9 a7 2f 3d
       -0.02621625 0.1709843 -0.048018374 0.042884562
0001c0 1b 6c 22 bd ea 70 6f bd f4 63 f8 3d f0 fd 9e 3c
       -0.03965388 -0.058457293 0.121284395 0.019408196
0001d0 8d e7 c2 3c e9 c6 4e 3d 22 7f 1e bd 7f ae f1 bc
       0.023792053 0.050482664 -0.038695462 -0.029502152
0001e0 ba 1e 26 be d6 94 e4 3c 31 02 9d bd 3a 7f 99 bd
       -0.16222659 0.027903002 -0.076664336 -0.0749497
0001f0 37 bd b5 3b e8 3b 09 3b d2 05 38 3d 23 be 8e bd
       0.005546238 0.0020940248 0.044927426 -0.069698595
000200 57 91 82 3c 79 98 27 bc 96 87 df 3c d0 53 7f 3c
       0.015938444 -0.010229223 0.027286332 0.015583947
000210 07 68 88 bd 89 03 dc 3b 8d 25 cc bc 17 6e 4d 3d
       -0.06660467 0.0067142886 -0.02492025 0.050153818
000220 fb c8 44 3d 0e 7b 6e 3c 12 b3 4c bd 38 0e 0f 3c
       0.048043232 0.014555706 -0.049975462 0.008731417
000230 87 e2 53 3b 7f ee 7c bc 01 45 86 3c 8f 63 77 bd
       0.0032331066 -0.015437721 0.016390326 -0.06039768
000240 40 80 0d bc 01 e8 4b bd 67 34 da 3c ef 7e 57 3c
       -0.008636534 -0.049781803 0.026636316 0.013152822
000250 f9 f1 0e 3a 0b a0 5d bd 1f cf 12 bd d9 77 c6 3c
       0.0005452927 -0.054107707 -0.035842057 0.02422707
000260 d6 1c 3c bc b3 be 33 3d 00 b7 af 3d f0 30 8c 3d
       -0.011481484 0.043883037 0.08579826 0.068452716
000270 82 d6 0c bd 4c a3 a6 bd b2 02 b3 bc e4 d2 49 bd
       -0.034384258 -0.08136615 -0.021851871 -0.049273387
000280 51 bd 18 bc c0 dc 58 bd ca b4 11 bc bb d5 46 3d
       -0.00932248 -0.0529449 -0.008893201 0.048543673
000290 97 ef 1d 3d 9b ae f3 b8 97 08 97 3d 7a a2 43 bd
       0.03855857 -0.00011619666 0.07374685 -0.04776237
0002a0 57 09 2d bd 9e 1d 82 3d b2 37 7d bd 92 8a fd 3c
       -0.042245235 0.06353305 -0.061820693 0.030949865
0002b0 d0 4c 6d 3d 08 f6 cc 3c 81 e3 9e 3d 89 a3 08 bd
       0.057934582 0.02501966 0.07758237 -0.033359084
0002c0 e7 35 4d 3d d4 d0 16 3c 17 9e 48 bd 8e a1 2f bb
       0.050100233 0.009205062 -0.04897889 -0.0026799175
0002d0 f2 e8 ae 3d 6d e9 b4 3d af 73 41 bd f0 d5 29 3d
       0.085405245 0.08833585 -0.047229465 0.041463792
0002e0 6e 97 5d bd f7 51 a3 bd 4f be c5 3c 37 3a a7 bc
       -0.054099493 -0.07974618 0.024138598 -0.020413501
0002f0 57 8d 53 3d 7f b6 be 3d 15 47 7e 3d 06 2a e1 bc
       0.051648464 0.09312152 0.062079508 -0.027485859
000300 09 c6 9a 3c f7 ac ce bc e5 26 33 be 41 eb 4d 3d
       0.018893259 -0.02522896 -0.17495306 0.050273184
000310 43 52 85 bd fe 9e 28 bd 3f 98 97 bd 86 3a e8 3b
       -0.06509831 -0.04116725 -0.074020855 0.0070870547
000320 c1 d0 97 3d 2e 20 3c 3b be 4a 4f bc a8 c1 a8 3c
       0.074128635 0.0028705704 -0.012652097 0.020600155
000330 0a 6f 75 bb 9b 33 eb 3d f7 8b 95 3d 23 cd 56 bd
       -0.0037450218 0.11484452 0.07302087 -0.052441727
000340 00 6c e1 3d 19 ed 3d 3d f9 89 b5 bc c9 f3 53 bd
       0.110069275 0.046368692 -0.022160517 -0.051746164
000350 ea 5e 85 bd 69 64 54 3d e7 22 96 ba 64 39 ca 3c
       -0.06512244 0.05185357 -0.0011454494 0.02468557
000360 b7 74 46 bd e9 bc 6a bd ab 52 84 3c 66 f4 a9 3d
       -0.04845115 -0.057309065 0.0161527 0.082985684
000370 0c cc 76 3d 21 b7 65 bd a0 be 8c 3d 66 ac 80 bd
       0.060253188 -0.05608285 0.06872296 -0.062828824
000380 f6 41 82 bc 44 6e b0 bc 89 e6 97 3d f3 cc 33 bb
       -0.015900593 -0.021536954 0.07417018 -0.0027435392
000390 25 df b8 3c 4f 0c 1a bd d5 ad 36 3d 81 cd 9b 3d
       0.022567341 -0.037609395 0.044599373 0.07607556
0003a0 77 81 57 3d 86 d8 99 bc 4b 87 81 bd 62 b5 42 3d
       0.0526137 -0.018780004 -0.06324633 0.04753626
0003b0 24 2b 3b bd a7 42 af 3a b2 67 87 3d d9 2e 70 bc
       -0.04569544 0.0013371304 0.06611575 -0.014659607
0003c0 47 c6 83 bc 9d 24 64 3d fe 98 6a 3c 35 c3 b3 bc
       -0.016085757 0.05569898 0.014318703 -0.021943668
0003d0 97 a1 0d bd b3 40 02 bd 3f 3c a6 3d 52 a8 f8 bc
       -0.034577932 -0.031799983 0.0811696 -0.030353699
0003e0 1b 2f 32 bd c5 86 8a bb 6d a0 c4 3b ba 73 e4 bc
       -0.043501955 -0.0042274916 0.0060005696 -0.027887214
0003f0 d2 1f 8f 3d 2e 43 25 3d 4b 16 0b bb 01 52 cb 3d
       0.06988491 0.04034727 -0.0021223004 0.099277504

Dense1.bias f4 [193]
000000 f6 50 64 ba 7e ae 5d 3d 08 47 d9 bc 55 74 49 3d
       -0.0008709574 0.054121487 -0.026523128 0.04918321
000010 fa fd 05 bc c2 d3 10 3d 8a 00 37 3b 4e 27 cc bd
       -0.0081782285 0.035358198 0.0027923905 -0.09968434
000020 ba f2 28 bd 80 55 af bc bd 5a 7a bd d2 e9 03 bd
       -0.041247107 -0.021403074 -0.06112169 -0.03220541
000030 9b 43 a2 bd fe 77 d6 3b 3c 07 a3 bd 6c 23 55 bd
       -0.07923051 0.006545066 -0.07960364 -0.052035734
000040 a1 c3 17 be 32 39 ad 3c e3 89 aa bc e8 c9 64 3d
       -0.1482072 0.021145437 -0.020817703 0.055856615
000050 3c 0e 86 bd ea fc 75 bd f8 73 0c bd 77 dc 49 bd
       -0.06545684 -0.06005565 -0.034290284 -0.049282517
000060 c8 8a 3f bd 5b 29 4c 3c aa f3 5d 3c c4 be 15 be
       -0.04676321 0.012461032 0.013546864 -0.14623553
000070 58 5c 02 be 10 ad 60 3d 8b 81 1b bd 57 c6 9d bc
       -0.12730539 0.054852545 -0.03796534 -0.019259615
000080 e7 ca 3b bd 84 83 8d bd 72 78 42 bb 8d b5 c3 bc
       -0.0458478 -0.0690985 -0.0029673842 -0.023890281
000090 9a c5 19 bd 0c cd 17 3d 49 13 97 3b ce b8 e5 bd
       -0.037541963 0.037060782 0.0046104533 -0.11216889
0000a0 dc ba 63 bd 83 8d 9e bc 38 fe e6 bd 98 d1 7f 3d
       -0.055598125 -0.019354587 -0.11278957 0.062455744
0000b0 bb ec 96 3c 74 03 84 bd 97 37 41 bd 45 40 42 bd
       0.018423429 -0.06445971 -0.047172155 -0.047424573
0000c0 c4 d1 4b bd 3b 1d d5 bd 1d cf 84 bd b1 7b 5c bc
       -0.049760595 -0.10405966 -0.06484816 -0.013457225
0000d0 84 b4 fb bd 5a 16 9d 3d 97 42 32 bd 4c 4a c5 bd
       -0.1229029 0.07670279 -0.043520536 -0.09633312
0000e0 54 fa cf bd 68 27 35 bd 16 7e 44 bd d5 23 b0 bd
       -0.10155168 -0.044227034 -0.047971807 -0.086005844
0000f0 a2 07 89 bd 7f e1 81 bd 58 a6 87 3d 0c 25 f9 bc
       -0.06690909 -0.06341838 0.066235244 -0.030413173
000100 4a b9 e2 bd 78 cb b8 bb 71 4b 3e bc 43 40 48 bc
       -0.11070497 -0.0056394897 -0.011614666 -0.012222352
000110 2d e4 2f 3d f9 c0 27 3d 07 40 6c bd ae 21 2d bd
       0.042942215 0.040955517 -0.05767825 -0.042268448
000120 0b ee 6f 3c d1 8a 68 bd 80 ee 48 3a 84 1b 43 bc
       0.014644156 -0.05677301 0.0007664934 -0.011908416
000130 71 fb 26 bd 33 e6 84 3d d1 70 a9 bd 5c 85 02 bd
       -0.040767137 0.064892195 -0.08273471 -0.031865463
000140 8e 86 18 bd 0d 4e 2a be 3e 7f 8f bc ca 78 c5 bc
       -0.037237696 -0.16631337 -0.017516728 -0.024105448
000150 0e 94 3a bd 0c 80 25 3d 5a 70 e4 3c e1 32 48 bd
       -0.045551352 0.04040532 0.027885605 -0.048876647
000160 bb 00 75 bd 2b ef 87 bd b9 9a 67 3b 91 09 94 bd
       -0.05981515 -0.066374145 0.0035340025 -0.07228387
000170 8d 1c b3 3d 8d bd ae bd dd a5 d5 3a 4a e0 d9 bd
       0.0874568 -0.08532248 0.0016300041 -0.10638483
000180 f4 ab cf 3b e2 1e 80 bd f9 89 9a 3c e4 77 fe bc
       0.006337637 -0.062558904 0.018864619 -0.031063028
000190 b0 86 a0 3c ac 21 cc bd d8 e1 89 3d 4b b7 a5 bb
       0.019595474 -0.0996736 0.067325294 -0.0050572506
0001a0 2f d4 20 3d 64 1e 0e be 92 d6 4f bc 1b db c8 3d
       0.039264854 -0.1387878 -0.012685435 0.09807416
0001b0 21 c4 43 3d cf 04 92 bd 8c 99 40 bd 5a a6 c0 bc
       0.047794465 -0.071298234 -0.047021434 -0.023516823
0001c0 d0 58 2a bd a1 a3 45 bc b8 b1 a1 bd 1f db 94 bd
       -0.041588604 -0.012062938 -0.07895225 -0.072683565
0001d0 cf 78 47 bc 74 ac 8f bd b4 d8 6c 3d 6f 3c 6a bd
       -0.012174799 -0.07015315 0.05782385 -0.05718654
0001e0 78 8a 0b bd f1 d9 b5 bc 87 68 46 bd 60 07 b7 bd
       -0.0340676 -0.02219865 -0.04843953 -0.089369535
0001f0 5b 8e 01 3b a5 17 3a bd 2c ac b1 3d 33 ff 99 bd
       0.0019768688 -0.045432705 0.08675417 -0.075193785
000200 53 7a 48 bd 89 bb 1c bd 86 c1 67 bb e3 01 33 bd
       -0.048944782 -0.038264785 -0.0035363152 -0.04370297
000210 ee 58 34 bc 27 9f a5 3c dc a4 84 bd f0 6e 1e bd
       -0.011007531 0.020217491 -0.06476757 -0.038680017
000220 89 08 84 3c 8f 91 2b bd bf 50 67 bd 0e d1 39 3c
       0.016117351 -0.041886862 -0.05647349 0.011341346
000230 5e e9 fb bc a4 8d 54 3d 63 54 eb 3c c7 d9 a4 bd
       -0.030750927 0.05189289 0.028726762 -0.0804935
000240 85 4e d5 bd 01 f3 11 bc fe f3 83 3d ac 24 b3 bd
       -0.10415367 -0.008908034 0.06443022 -0.08747229
000250 b2 e3 fd bd 14 e7 60 bd 81 ea 8e 3d ca 70 a2 bd
       -0.12396945 -0.054907873 0.06978322 -0.07931669
000260 14 6a 6b bd 25 40 4d bd a3 4d 2c bd 5a fc f6 3b
       -0.05747421 -0.05011 -0.042066228 0.007537407
000270 6a 92 bb 3d bc cc da bd ad b7 a9 bd f0 2d b8 3d
       0.09158786 -0.10683581 -0.082869865 0.08993137
000280 42 58 4c bd 04 86 bf bd 1b 93 47 bd a6 58 8a bc
       -0.049888857 -0.09351733 -0.048724275 -0.016887974
000290 d8 05 c2 bd 0b 3d 77 bd e6 f5 b4 bd 4e e5 4d bd
       -0.09473771 -0.06036095 -0.08835964 -0.05026751
0002a0 20 17 be bd a9 eb 7d bd 3e 7a 53 3d 45 7f ec 3c
       -0.092817545 -0.06199232 0.05163025 0.02886928
0002b0 d2 fa 00 be 44 dd 84 3d 0a ef 56 bd 90 db 32 3c
       -0.1259568 0.064875156 -0.05247406 0.010916606
0002c0 68 72 64 bd aa b3 09 be c3 f9 37 bb 6e fb e2 3b
       -0.05577317 -0.13447443 -0.0028072454 0.0069269454
0002d0 66 6f a1 bc e0 2b ce bc 67 a2 8a bc 02 36 c0 bd
       -0.01970644 -0.025167406 -0.016923143 -0.09385301
0002e0 0a ec 59 bd aa 93 c3 bd 89 89 72 bc e1 de 12 bc
       -0.05320362 -0.09549649 -0.014803299 -0.008964271
0002f0 cf 54 b3 bd ee 0c 0a 3d e5 38 2c be e6 71 69 bb
       -0.0875641 0.033703737 -0.16818579 -0.0035620867
000300 30 04 6f bd
       -0.058353603

Dense2.weight f4 [1, 193]
000000 a6 99 87 bc 02 62 c4 3d 81 8d 96 3c 67 0b ae bc
       -0.016552757 0.09589006 0.018378021 -0.021245671
000010 cb bd bb bd 4e 53 d1 3d 82 ba 4d 3c f0 66 85 36
       -0.091670595 0.10220967 0.012556674 3.9756924e-06
000020 a9 1f b6 bc 14 2b 5c b9 25 d2 fd 3a 3e 2e 1b bd
       -0.022231894 -0.00020996883 0.0019364996 -0.037885897
000030 9d 8b cc bc e8 2a 2e 3b 44 a0 f5 3c 4f 9d c8 bd
       -0.024968917 0.0026575867 0.029983647 -0.09795629
000040 ed fa 71 3c c1 76 59 bc ac 57 ae b9 c6 01 8e bd
       0.014769298 -0.013272942 -0.00033253187 -0.06933932
000050 3c 3c 66 ba c5 ca ac 39 b6 87 83 3c 99 61 23 bb
       -0.00087827793 0.00032957472 0.016055923 -0.002493
000060 c0 30 a3 ba d0 ae fc 39 b0 39 57 bc 9d 00 58 3a
       -0.0012450442 0.0004819543 -0.013136312 0.00082398375
000070 d6 1e dc 3a 34 63 82 bc 54 46 32 ba c5 92 d4 ba
       0.0016793858 -0.015916444 -0.0006800641 -0.0016218057
000080 e7 06 1c bd 89 56 cd b9 b0 35 da b9 28 34 3d bb
       -0.03809252 -0.0003916512 -0.000416202 -0.00288702
000090 58 c1 63 3a dd 51 8e ba e1 25 49 3b 64 08 32 b9
       0.0008688173 -0.0010858137 0.0030692744 -0.00016978529
0000a0 38 98 d8 bc 56 e0 51 3d 16 77 be 3a 19 64 56 bd
       -0.026439771 0.051239334 0.001453134 -0.052341554
0000b0 b5 5e 32 3d e6 4a c7 3c dd 88 2d 3b ac 6b f9 3d
       0.04354735 0.024327707 0.0026479282 0.1217874
0000c0 10 85 45 bc 2b 41 14 3c 8b 62 ad bc 59 fa 76 39
       -0.01205565 0.00904874 -0.021165153 0.0002355365
0000d0 0a 5b cc ba 4f f4 02 bd 14 66 6e 3c cc 8e d3 bb
       -0.0015591097 -0.031971272 0.0145507045 -0.0064562317
0000e0 e0 ba 9d 3c ec 99 f2 ba 6e 78 d1 3b f5 3c bb bc
       0.019254148 -0.0018509007 0.00639253 -0.022856215
0000f0 ca 51 cc bb 14 85 1f 3d fd 3f 4a bd c8 0d 87 ba
       -0.006235336 0.038945273 -0.04937743 -0.001030379
000100 2a 7c 29 3d 4a 72 8d 3d 56 46 d5 bc 28 0b 56 bd
       0.041378178 0.069065645 -0.026034515 -0.052256733
000110 d8 b7 c4 bd f7 0c a8 3d d3 f6 1c bd 1e c8 12 bd
       -0.09605378 0.08205598 -0.038321327 -0.035835378
000120 be 9a dd 3d 69 04 9d bd 71 14 c3 bc b0 ed 2a 3d
       0.1082053 -0.07666857 -0.023813458 0.041730583
000130 cf aa 06 3d d6 7d be bd ab 7b a8 bc da a0 4e 3d
       0.03287774 -0.09301345 -0.020566782 0.05044637
000140 96 95 83 3d 00 83 45 3d 12 53 93 bc 5b a1 13 3d
       0.06425016 0.048220634 -0.017983947 0.036042552
000150 02 2f fe 3d 29 82 81 bc 4c 40 3c 3d 4d df d8 3b
       0.1241131 -0.015809136 0.045959756 0.0066184164
000160 b5 bc 66 3c c8 99 05 3b d0 30 c3 bd 39 7c 6a 3c
       0.014083077 0.002038585 -0.095307946 0.014311844
000170 9a 21 14 be a5 e5 cc bc 9d 45 35 3c b3 ca f0 bc
       -0.14465943 -0.025011847 0.01106396 -0.02939353
000180 cc 58 29 bc de 57 cd 3c 49 7d d5 3d 61 a2 8a bd
       -0.010336112 0.025066312 0.10424287 -0.067692526
000190 22 10 37 3c 3a ec 7f 3d df c1 97 bd bc dc 7e 3a
       0.01117328 0.062481143 -0.07410025 0.0009722223
0001a0 87 29 54 3d d5 72 98 3c 74 47 3e 3d af 0f d4 bd
       0.051797416 0.018609444 0.04645486 -0.10354554
0001b0 67 d6 95 bd 84 51 69 3c dc ad 48 3c ac 6a 3b 3c
       -0.073162846 0.014240626 0.012248483 0.011439007
0001c0 13 c1 05 3d fe f9 c6 3d d7 2a de bc 2b ce b1 bc
       0.032654833 0.09715651 -0.027120037 -0.021704754
0001d0 7e 48 9c bc 03 15 2d ba 80 eb 3e 3e fb 28 53 bd
       -0.019077536 -0.0006602557 0.18644524 -0.051552754
0001e0 22 50 f3 bb de 03 8d bb 22 06 66 3a f4 90 f4 bc
       -0.007425324 -0.0043034395 0.00087747176 -0.029854275
0001f0 e7 b1 0f bc 82 50 0e bb b1 66 a6 bd 42 e1 4a bc
       -0.008770443 -0.0021715467 -0.081250556 -0.012382807
000200 e0 b1 bd bc 2d eb 95 3c 84 e2 03 3d 97 b1 b8 3d
       -0.023156106 0.018300617 0.032198444 0.090182476
000210 bb 9c 94 bd ae b5 8d bc d7 96 b4 ba ae f3 7a bc
       -0.072564565 -0.017298546 -0.0013777864 -0.015316887
000220 7a 11 08 b8 d5 3c 15 3e e1 fd 5a bc 4a 59 f4 3d
       -3.2441203e-05 0.14573987 -0.0133661935 0.11931093
000230 fc 00 50 bd 6e 66 45 bd 01 77 9e b9 b1 94 58 bd
       -0.05078219 -0.048193388 -0.00030224773 -0.05287618
000240 5f 90 d4 ba 28 5c a1 3c e7 78 06 3d cc bc 64 3b
       -0.0016217342 0.019697264 0.032830145 0.003490257
000250 11 9d 99 3c a1 e5 af 3d f2 8b f6 bc d9 6a b8 3c
       0.018751653 0.0858872 -0.030096028 0.022511886
000260 8f 6b af 3b da e3 bb bb 49 14 1f 3d 3d 65 2b bb
       0.005353398 -0.005733949 0.038837705 -0.0026152872
000270 35 83 f8 3d 9c cc be 39 c4 79 b8 bc f2 b4 a5 bd
       0.12134401 0.0003639207 -0.022519 -0.08091153
000280 c7 57 d0 bc ed 79 3a 3d 6e 07 d3 b8 66 f3 83 bc
       -0.02543248 0.045526434 -0.00010062648 -0.016107272
000290 f9 c7 ea 3c a2 52 a7 bc 39 eb 07 bd 83 19 f1 3a
       0.028659808 -0.020425145 -0.03318331 0.0018394444
0002a0 55 4f 22 3d e7 9e 1c bc e5 d0 da bb 08 e1 04 3e
       0.03962644 -0.00955937 -0.006677734 0.12976468
0002b0 fa a2 66 3d be 0d e1 3d 72 fb 42 39 08 98 d9 3c
       0.05630777 0.10988949 0.00018594952 0.026561752
0002c0 48 bc e0 3b 40 15 09 3d ed cb fc bc 3b 78 01 3e
       0.0068583824 0.03346753 -0.030858958 0.1264352
0002d0 f4 92 8d b9 91 7d 4b 3c 6b b6 af bc b1 69 8b 3b
       -0.00027003104 0.012420074 -0.021449288 0.0042545428
0002e0 4a a9 b4 39 15 94 04 bb 0b e7 92 38 3c 2d 85 3d
       0.00034458406 -0.0020229865 7.0048576e-05 0.065027684
0002f0 9d 37 47 bb 39 0b c1 bc 52 d8 62 3d be 5d 8a bc
       -0.0030398138 -0.023564922 0.05538208 -0.016890403
000300 4d 35 29 ba
       -0.0006454781

LN.weight f4 [193]
000000 fc 6b 43 3f 88 a4 4d 3f 93 d8 4f 3f d6 52 3c 3f
       0.76336646 0.8032918 0.8118984 0.735639
000010 b6 60 2e 3f 74 7a 3e 3f 5c cd 6f 3f e9 a3 56 3f
       0.6811632 0.744056 0.9367273 0.8384386
000020 3d f6 77 3f ce 9d 5b 3f ff 8b 3c 3f 76 5c 62 3f
       0.96860105 0.85787666 0.7365112 0.88422334
000030 a2 0e 6a 3f 3d 80 55 3f 05 d1 55 3f 5f 33 41 3f
       0.9142858 0.833988 0.83522063 0.7546901
000040 d3 55 3f 3f 54 d3 33 3f aa 16 16 3f 5b d0 56 3f
       0.7474033 0.70244336 0.5862833 0.83911675
000050 d2 d4 86 3f f0 fe 3e 3f f7 c6 82 3f 7f ca 57 3f
       1.0533698 0.74607754 1.0216969 0.8429336
000060 e0 22 40 3f d0 53 53 3f 5f ca 50 3f a4 38 45 3f
       0.75053215 0.8254976 0.81558794 0.7703955
000070 04 3b 43 3f bc 51 44 3f c8 26 4f 3f c6 77 47 3f
       0.76261926 0.76687217 0.8091855 0.77917135
000080 d4 47 65 3f 2d f8 54 3f 11 f7 4e 3f a0 6f 57 3f
       0.89562726 0.83191186 0.80845743 0.841547
000090 e6 e3 3b 3f 1c 42 37 3f fc 56 62 3f 24 0b 54 3f
       0.7339462 0.7158525 0.8841398 0.828295
0000a0 af 0a 52 3f d7 00 5f 3f b3 ad 50 3f 24 5e 57 3f
       0.8204755 0.87110656 0.81515044 0.8412802
0000b0 19 98 65 3f d5 b0 30 3f f5 f1 65 3f b4 8a 74 3f
       0.8968521 0.69019824 0.8982232 0.95524144
0000c0 18 9d 40 3f 68 f6 2b 3f de 29 64 3f 84 19 2f 3f
       0.75239706 0.6717286 0.89126384 0.6839831
0000d0 93 57 66 3f 6b 95 55 3f d2 ab 55 3f 91 6b 4d 3f
       0.8997738 0.8343112 0.834653 0.8024226
0000e0 34 0c 20 3f de 31 6b 3f 00 c6 40 3f 53 64 22 3f
       0.6251862 0.91872966 0.75302124 0.6343433
0000f0 2b 23 54 3f 0f 45 28 3f 60 e7 55 3f 2d e8 57 3f
       0.8286616 0.65730375 0.83556175 0.8433865
000100 ff a3 bf 3d 84 ea 9d 3f 81 ec 90 3f dc b2 62 3f
       0.09357452 1.2337193 1.1322175 0.8855417
000110 ff de 84 3f 53 1a 61 3f f4 6b 89 3f aa 14 85 3f
       1.0380553 0.8793079 1.073607 1.0396931
000120 af d9 71 3f 42 27 6d 3f 15 5d 85 3f 8e 28 83 3f
       0.94472784 0.9263803 1.0419031 1.0246751
000130 d1 e5 87 3f a9 5f 8f 3f e0 b2 70 3f da 2a 69 3f
       1.0617009 1.1201068 0.9402294 0.9108101
000140 ff 88 9d 3f cc 0e 67 3f 2e 06 83 3f 89 39 76 3f
       1.2307433 0.90256953 1.0236261 0.9618154
000150 c7 a6 59 3f 09 58 80 3f b9 95 91 3f bc 73 6f 3f
       0.8502011 1.0026866 1.1373817 0.9353597
000160 b9 92 91 3f 08 fa 81 3f e4 de 88 3f 17 fd 85 3f
       1.1372901 1.0154428 1.0693021 1.0467862
000170 c6 62 9b 3f aa 2f 45 3f a0 5a 6f 3f fb f4 86 3f
       1.2139518 0.77025855 0.9349766 1.0543512
000180 9e 0c 65 3f 80 d9 90 3f 8a 0a 69 3f 0a 6b 67 3f
       0.8947238 1.1316376 0.91031706 0.90397704
000190 b9 00 64 3f c1 0a 8b 3f 63 0f 82 3f 8d 6b 84 3f
       0.890636 1.0862657 1.0160946 1.0345322
0001a0 e4 75 91 3f 4e 25 59 3f 48 29 7b 3f de e5 87 3f
       1.1364102 0.8482255 0.98109865 1.0617025
0001b0 b8 34 80 3f 21 a1 98 3f 59 19 46 3f 12 6e 6b 3f
       1.0016088 1.1924173 0.7738243 0.9196483
0001c0 22 69 6c 3f 0c be 8b 3f f9 9b 61 3f 05 23 8e 3f
       0.9234792 1.0917373 0.8812862 1.1104437
0001d0 9a 05 61 3f 46 2b 4f 3f 0e a8 80 3f 26 ce 86 3f
       0.8789917 0.80925405 1.0051286 1.0531662
0001e0 0b 7c 9c 3f 4d 46 81 3f 96 80 85 3f 3d ff 5f 3f
       1.2225355 1.0099579 1.0429866 0.8749884
0001f0 e7 58 55 3f aa dc 82 3f d2 22 79 3f 98 7e 9c 3f
       0.8333878 1.0223591 0.97318757 1.2226133
000200 4a c3 52 3f 4f 7f 7f 3f 09 fc 4d 3f 93 b1 81 3f
       0.8232924 0.9980363 0.804627 1.0132316
000210 3d 2f 6c 3f 4c 1c 4f 3f 66 9c 5a 3f 9c db 73 3f
       0.9225958 0.8090255 0.85394895 0.9525697
000220 d6 e0 25 3f c3 d3 6c 3f 2c 7a 55 3f 3b f9 77 3f
       0.647962 0.9251062 0.83389544 0.9686467
000230 a4 4e 1f 3f 57 8b 62 3f 3e c1 7f 3f fa 0e 47 3f
       0.6222937 0.88493866 0.9990424 0.7775723
000240 22 b4 70 3f 2f 98 75 3f c1 50 82 3f d3 0b 54 3f
       0.9402486 0.9593534 1.0180894 0.8283054
000250 6d 6b 5c 3f ad 44 28 3f e0 dc 88 3f 2b 1c 80 3f
       0.8610142 0.6572979 1.0692406 1.0008596
000260 c8 5a 80 3f 29 1a 82 3f f2 c1 76 3f 1e 09 60 3f
       1.0027704 1.0164233 0.9638969 0.8751391
000270 f4 6a 7e 3f 07 29 45 3f f1 75 2a 3f 6a 7e 51 3f
       0.9938195 0.7701573 0.66586214 0.8183352
000280 5d 0f 64 3f aa 0a 67 3f 72 4a 48 3f 49 fe 61 3f
       0.8908594 0.9025065 0.78238595 0.88278633
000290 04 c4 6c 3f 43 fa 61 3f ec 08 51 3f 59 64 64 3f
       0.92486596 0.88272494 0.8165424 0.8921562
0002a0 6d 5c 70 3f 86 a8 47 3f d1 58 28 3f f4 83 3b 3f
       0.9389103 0.7799152 0.65760523 0.7324822
0002b0 18 9c 7d 3f 62 d3 88 3f b2 41 7b 3f c8 0d 59 3f
       0.99066305 1.0689509 0.9814712 0.84786654
0002c0 fd d7 43 3f 29 41 65 3f a9 c1 36 3f 92 ac 75 3f
       0.76501447 0.8955255 0.7138925 0.95966446
0002d0 2a 42 36 3f 12 c6 79 3f d2 3a 8d 3f a7 e7 6a 3f
       0.7119471 0.97567856 1.1033576 0.91759723
0002e0 a7 a8 74 3f 8b 28 57 3f be 3d 8b 3f ae 10 4f 3f
       0.95569843 0.8404624 1.0878217 0.80884826
0002f0 2f aa 45 3f 67 33 80 3f cc 0b 69 3f f9 18 64 3f
       0.77212805 1.0015687 0.91033626 0.89100605
000300 25 7b 65 3f
       0.8964103
