Result/hsm.pth (torch, 54146 bytes, 28 tensors)

feature_embedding.weight f4 [15, 14]
000000 26 a2 88 be 86 80 46 be cc ec 33 be 6a 9b 91 be
       -0.2668621 -0.19384965 -0.175708 -0.28438884
000010 c7 69 70 bd 27 be 92 be bd e7 94 3d fe cb 9d 3d
       -0.058694627 -0.286607 0.07270763 0.07704924
000020 49 a0 3a 3b 74 fa 34 3e 10 37 7b bb 56 06 13 3e
       0.0028476885 0.17673665 -0.003833238 0.14357886
000030 58 aa 33 be ce 18 79 bd 91 7d 66 be 41 33 8f 3b
       -0.1754545 -0.06081467 -0.22508837 0.0043701236
000040 c2 cd 4f be 3d 8a 6e 3e 02 52 22 3e b1 eb 39 3e
       -0.20293334 0.23294921 0.15851596 0.18156315
000050 34 a5 1b 3d a0 33 34 be 7e c6 59 3e 7f a3 86 be
       0.037999347 -0.17597818 0.21267125 -0.26296613
000060 19 43 20 be 24 f4 20 be a6 9d df bd c5 4b 11 3d
       -0.15650596 -0.15718132 -0.10918741 0.03547265
000070 84 f6 31 be 76 b8 1f be f7 72 20 be 44 f9 17 3e
       -0.17379194 -0.1559771 -0.15668856 0.14841181
000080 63 40 2f be 8b 1e 6f be 88 ff 8b be 66 74 28 be
       -0.17114405 -0.23351495 -0.27343392 -0.16450652
000090 37 c6 5f bd 5c 89 72 be 26 de d1 bd 30 2a fd 3c
       -0.05463239 -0.23685211 -0.102474496 0.030903906
0000a0 f9 67 10 3d 75 f8 51 bd f1 91 df bc 42 33 1b be
       0.035255406 -0.051262338 -0.02729127 -0.15156272
0000b0 80 ad b8 3d e0 2a ae bd 9c e3 51 be 2e 5c ca bd
       0.090174675 -0.085042715 -0.20496982 -0.09880863
0000c0 8b d7 c0 bd 40 66 50 3e 56 78 e2 3d b4 ed 01 be
       -0.094161116 0.20351505 0.110581085 -0.12688333
0000d0 36 37 7a bc 24 d9 6b 3e f4 50 1c 3e 08 32 00 3d
       -0.015271952 0.23032051 0.15265256 0.031297714
0000e0 89 cf aa bd 28 ef 68 3e 8c 79 68 3d c6 cf 10 be
       -0.083403654 0.22747481 0.05675654 -0.1414176
0000f0 85 1c 26 3e 70 78 19 bc 7c bb 83 be b4 65 20 be
       0.16221817 -0.009367093 -0.25728977 -0.15663797
000100 c7 f1 6a be 8f 90 6b be 01 39 a6 3c d3 68 34 be
       -0.22943793 -0.23004363 0.020290853 -0.17618112
000110 f6 19 fd 3d 72 6b c2 3d e2 09 57 3d 8e 53 4f 3e
       0.12358467 0.0949315 0.05249966 0.20246717
000120 0a 22 24 be 4d 81 fc 3c bf 96 25 3e fa a8 f9 3d
       -0.1602861 0.030823374 0.16170786 0.12190433
000130 bd e1 8f bc 6d cf 65 3e f2 0b 5a 3d 13 f9 73 3e
       -0.017563695 0.22442408 0.05323405 0.23825483
000140 41 f6 69 be 37 3a 51 be b7 e4 33 be d7 b6 8c 3b
       -0.22847845 -0.20432363 -0.17567717 0.004294257
000150 45 f2 72 3e b2 6a 3e be d0 66 82 3d 08 9d 89 be
       0.23725231 -0.18595389 0.06367266 -0.26877618
000160 4b 36 61 be bc f0 0d be 3a 00 24 be a5 a5 c8 3c
       -0.21993367 -0.13861364 -0.16015711 0.024493048
000170 7b f0 8a be 56 87 65 3e 19 31 9d 3d 72 ec be 3d
       -0.27136597 0.22414908 0.0767538 0.09322442
000180 c3 e4 21 be 91 80 d7 3d 50 89 4e bd 3a 87 ea bd
       -0.15809922 0.10522569 -0.05042392 -0.11451574
000190 35 f5 18 bc 83 1e 95 3d b9 b6 9f bb 89 9a 0c be
       -0.009335806 0.0728121 -0.004874077 -0.13730825
0001a0 30 67 8f bc c3 ff 28 be 32 30 01 be b8 6a fe bd
       -0.017505258 -0.16503815 -0.12616041 -0.12422699
0001b0 51 25 43 3e d5 15 3e be 23 8c c7 3d 37 e5 c5 3d
       0.19057204 -0.18563016 0.09743526 0.0966286
0001c0 51 6e 2f be 88 f5 3f be dc c0 6c be c4 69 8a be
       -0.17131926 -0.18746006 -0.23120445 -0.27033818
0001d0 61 8f 2f 3e 5c 6d 3e 3e 1d 9a d9 bd 1e 00 44 3e
       0.17144538 0.18596405 -0.10625098 0.1914067
0001e0 e8 7b 9c 3c f6 ca 97 be f6 0b 56 be bf 1a 14 be
       0.019102052 -0.29647034 -0.20903 -0.14463328
0001f0 79 db 8b be e5 b8 16 be 00 9d e6 3d 84 04 82 3d
       -0.27315882 -0.14718969 0.11260414 0.063485175
000200 7e 90 64 bd a5 40 21 bd 43 e4 3e 3e fd af 77 bd
       -0.05580186 -0.03936829 0.18641762 -0.06047057
000210 69 82 c5 3d 14 4d ff bd 64 c4 83 be 76 a6 f8 bb
       0.096440144 -0.12465873 -0.25735772 -0.007588203
000220 6f 51 49 3e 36 cb 27 3e 5c 2c 7d be 08 a5 b4 bd
       0.1965997 0.16386113 -0.24723953 -0.0882054
000230 d3 4d 6f be 12 e1 5d 3c eb 83 e5 bc 30 c2 e1 3d
       -0.23369531 0.0135424305 -0.028017005 0.110233665
000240 6d b7 86 bd f9 06 ac bc 78 81 56 3c 07 24 79 be
       -0.065779544 -0.020999419 0.013092391 -0.2433015
000250 be 11 1b 3e 62 fa 99 3e 87 21 45 be 2d ea 7b 3e
       0.15143487 0.3007384 -0.19251071 0.2460105
000260 c9 e2 65 3d 02 dd 67 3e b1 c4 73 3e b2 d1 55 be
       0.056124482 0.22642902 0.238055 -0.20880774
000270 ad 3e 1e 3e 3a 15 84 bc 4f e0 25 3d fd 91 01 be
       0.15453596 -0.016123403 0.04049712 -0.12653346
000280 35 7a 89 be 79 37 72 bc 03 60 32 3d 05 31 f8 3d
       -0.2685105 -0.0147837335 0.043548595 0.12118725
000290 48 ce 4c be bb 30 85 be bb 22 fa 3d 80 d1 91 bd
       -0.20000565 -0.2601374 0.122136556 -0.07120037
0002a0 58 dc 72 3b 6e c9 18 bd 88 68 26 bd d5 ea 2c 3c
       0.0037057605 -0.037301473 -0.040627033 0.010554035
0002b0 91 b2 8e be cf bd 79 3d ac 58 d0 bc 30 89 93 3d
       -0.2787061 0.06097203 -0.025432907 0.07203901
0002c0 67 b4 2e be 42 db 2c 3e 72 fb 58 3e 5b 3f 07 be
       -0.17061006 0.16880515 0.21189669 -0.13207762
0002d0 51 15 65 3e 44 82 8e 3b 68 a2 49 3e f4 44 59 3e
       0.22371413 0.004349025 0.1969086 0.2121771
0002e0 7d bf aa bc c0 c2 90 3d 6f 61 a1 3d 18 2a 30 3e
       -0.020843262 0.070683956 0.07879912 0.17203557
0002f0 44 64 99 be 09 6b c5 3b b9 9f 75 3e 5b e0 11 be
       -0.2995931 0.0060247225 0.2398671 -0.14245741
000300 22 84 24 be c3 69 ed 3c 3a 07 c8 3d 6d af 04 3e
       -0.1606603 0.028981095 0.09767003 0.12957545
000310 73 05 49 3c 06 2c 8f 3d fd 90 2f be 9b c0 95 3e
       0.012269366 0.06990819 -0.17145152 0.2924851
000320 e7 ef 1c be 92 e8 41 3e 78 7d a5 3d b8 11 80 3e
       -0.1532589 0.18936375 0.08080572 0.25013518
000330 5a 2a 82 3e 53 8a 0f bd 80 82 26 3e c3 67 34 be
       0.25422937 -0.035044026 0.1626072 -0.17617707
000340 74 19 30 3e db 7d 14 be
       0.1719721 -0.14501135

feature_embedding.bias f4 [15]
000000 4e b8 22 be ba e8 22 be 2e 80 8f 3e 31 68 ca 3d
       -0.15890619 -0.1590909 0.2802748 0.09883154
000010 eb 15 23 be 1a 45 39 be a1 ec 62 3d 46 95 03 bd
       -0.1592633 -0.18092766 0.05540145 -0.03212478
000020 64 65 b3 3d f6 4e 53 3e 86 b8 17 be 7e 12 64 be
       0.08759573 0.2063559 -0.14816484 -0.22272679
000030 3a 1d 55 3d 3e f6 42 3e 91 42 35 3e
       0.052029826 0.19039246 0.17701174

transformer_encoder.layers.0.self_attn.in_proj_weight f4 [45, 15]
000000 b7 e4 8b bd be 91 77 3d 92 97 19 3e 75 60 ed 3d
       -0.06830733 0.060441725 0.14999226 0.11590663
000010 fe 64 b5 bd 9c de 8d be ce 57 18 3e 36 c9 a8 3d
       -0.08857153 -0.277089 0.14877245 0.08241503
000020 8b 50 66 be 96 28 22 3d 43 4c 89 be f0 33 38 be
       -0.22491662 0.039589487 -0.26815996 -0.17988563
000030 2c b5 12 3e 60 92 19 3e 5f f8 87 3e 90 a7 5a be
       0.14326924 0.14997244 0.2655668 -0.21352983
000040 ce 87 82 bd dc 58 1b 3d 36 04 65 3e 9c ca 21 3e
       -0.06373559 0.03792654 0.22364888 0.15799946
000050 a7 a7 09 3c 16 2f 49 3e f4 fc 63 bc ea 3b 86 be
       0.008401788 0.19646868 -0.013915289 -0.26217586
000060 6c e8 1c 3e 6e 72 7d be d0 11 d9 bb 45 f5 21 3e
       0.15323037 -0.24750683 -0.006624438 0.15816219
000070 1b 86 8f be 48 09 26 3e bc a8 9e be 1c 34 25 bd
       -0.28032002 0.16214478 -0.3098811 -0.0403329
000080 ba 73 23 3e 32 ee 90 3e 5e de 00 3e 4c 83 9b 3d
       0.15962115 0.2830673 0.12584826 0.07593402
000090 0f 7d 2f 3e 93 95 d0 bd c7 58 60 3d 39 65 e3 bd
       0.1713755 -0.10184779 0.054772165 -0.11103291
0000a0 3b 99 58 be 0a ce 90 3e 8a bc 98 be 4b fc 3d be
       -0.21152203 0.28282195 -0.29831344 -0.18553273
0000b0 10 22 5c 3d 6c 48 86 bd a2 32 c3 3c 97 02 63 be
       0.053743422 -0.06556782 0.023827855 -0.22168957
0000c0 06 2e 78 be 32 44 8f be ea 0a a7 be d2 59 1e 3e
       -0.24236307 -0.27981716 -0.32625514 0.15463951
0000d0 5f 3b 17 be 30 0c 85 3e 36 e1 54 3e f3 53 9a be
       -0.14768742 0.2598586 0.20789036 -0.30142173
0000e0 11 36 96 be cd dc 75 be 34 9d 80 be f8 f3 79 3e
       -0.29338124 -0.2401001 -0.25119936 0.24409473
0000f0 c7 a9 f7 bc 1a 9d 69 3e 17 c4 cb 3b f2 cc f7 3d
       -0.030232323 0.22813836 0.006218444 0.12099637
000100 0b 7f 6a be 78 f0 8f be 01 66 9c 3e 9c aa 80 be
       -0.22900026 -0.2811315 0.30546573 -0.25130165
000110 a5 7e a4 3e d7 68 79 be 28 5f 8c 3e 09 c5 cc bc
       0.32127872 -0.243564 0.27416348 -0.024996297
000120 95 5d 3f 3d b7 a0 56 bd 72 79 9a 3e 85 92 75 bc
       0.046720106 -0.052399363 0.3017078 -0.014988546
000130 9c b0 19 3e 23 d9 49 bd c6 6c 7f 3e 38 5a ec bc
       0.15008777 -0.049279343 0.24943838 -0.028851613
000140 04 c2 6b 3e 27 9e 21 3d 80 26 a9 3d f9 f3 9d be
       0.2302323 0.039457466 0.082592964 -0.308502
000150 c0 dc d5 3c 0b d6 82 be a2 53 0e be 7d 78 20 be
       0.026106238 -0.25553927 -0.13899091 -0.15670963
000160 cf f8 a3 3e 2f f6 5f be a7 67 00 3e 73 d3 5c be
       0.32025763 -0.21871255 0.1253954 -0.21565036
000170 b9 3a 6b bc f0 11 81 3e d7 16 87 be fa 6b b1 bd
       -0.014357262 0.25208998 -0.26384613 -0.08663173
000180 37 7b a0 3d 07 f8 57 3d 63 65 bd 3d 16 83 3a be
       0.07836001 0.05272677 0.092478536 -0.18214068
000190 09 0e d5 bd fe 59 8e 3e a3 01 80 bc 4b 0a 00 be
       -0.104030676 0.27803034 -0.01562578 -0.12503926
0001a0 89 45 36 be cf df 93 be e0 f4 8b be fd db 34 bc
       -0.17799963 -0.2888169 -0.27335262 -0.011038777
0001b0 be ca 81 3d 1e b5 5d 3e e7 e3 70 be c7 99 41 3d
       0.06337498 0.21651122 -0.23524438 0.047265794
0001c0 41 ff 9f 3c c4 ab 84 bd 8c 3c 34 be 5b fe 18 bd
       0.019530894 -0.06478074 -0.17601222 -0.037351947
0001d0 5d 72 a5 3e dd 6b 73 be 7e c9 ff 3d ea af 9d bd
       0.32313815 -0.23771615 0.124896035 -0.076995686
0001e0 0e 36 9b 3d 00 6f b7 3d 94 da b8 bd 97 d8 b6 bd
       0.075786695 0.089567184 -0.090260655 -0.0892803
0001f0 7d 5f 89 3d 58 47 d1 3d da d5 97 be 8c 93 82 3e
       0.06707666 0.10218686 -0.29655343 0.25503194
000200 1b 6c b9 3c 80 f0 1a 3e 77 20 6e be 0f 9d 1f 3e
       0.022634557 0.15130806 -0.23254572 0.15587257
000210 5c 47 2d 3e 52 1e d2 bc 97 c7 9f 3e 93 1d fd 3c
       0.16921753 -0.025649223 0.31206962 0.030897891
000220 02 ee 3f 3e fe a9 40 3c f5 36 7d 3d 6a cf 6b 3d
       0.18743137 0.011759279 0.06181999 0.057570852
000230 5f 67 8c 3e f4 1a 06 3e c8 52 3b be 44 b9 23 3d
       0.27422616 0.1309622 -0.18293297 0.039971605
000240 98 45 20 3e 59 bb 8f be 2a 57 03 be 4c 02 f9 3d
       0.15651548 -0.28072622 -0.12826219 0.12158641
000250 c9 f4 7e bd 48 95 ac bd 6d 00 2a be 2a 33 24 3e
       -0.062245164 -0.08426911 -0.16601725 0.16035143
000260 56 4d 6b 3e 61 2b a0 3e 64 90 91 be dc 2d 8b 3e
       0.2297872 0.31283095 -0.28430474 0.27183425
000270 58 cb 41 be e4 12 92 3e 71 8f 9d 3d fa 92 90 3d
       -0.18925226 0.28530037 0.07693375 0.070592836
000280 79 17 69 3c ee a1 4b be 86 4e 6d 3e c9 ef e8 bd
       0.014226788 -0.1988599 0.23174486 -0.113738604
000290 87 7f 9e 3e bb 7e 63 3d 44 67 4f 3e 7e b8 15 3e
       0.3095667 0.05554078 0.20254236 0.1462116
0002a0 bc 0e be 3d d4 18 9c 3b ec ae 4a be 79 a9 3d be
       0.09280154 0.004763702 -0.1979329 -0.1852168
0002b0 60 33 4b be cb 18 a8 3e 55 6b 61 3e 65 4f 9b 3e
       -0.19843817 0.32831416 0.220136 0.3033401
0002c0 52 ca 82 3c bb 22 bb 3d 58 a2 3a 3e 1c 7c 1a be
       0.015965614 0.09137484 0.18225992 -0.15086406
0002d0 07 cb 89 3e 86 2c 5c be 68 5a 5f be c1 96 be 3d
       0.2691271 -0.2150136 -0.21811831 0.09306098
0002e0 40 e2 d7 3d dd 13 b2 3c 29 d7 01 3e 20 9c 11 3e
       0.10541201 0.021737987 0.12679733 0.14219713
0002f0 3b ef 13 3d 14 73 25 be ca 65 19 3e 15 f2 91 be
       0.03611682 -0.1615718 0.14980236 -0.28505006
000300 24 72 9b 3e 2a 50 8f be 0a ec 44 bd 86 5a 32 be
       0.3036052 -0.27990848 -0.048076667 -0.17417344
000310 c6 9e 88 bc 3d 8a a9 3c 63 e0 38 be 4d df 6e 3e
       -0.016677272 0.0206958 -0.18054347 0.2332737
000320 7e b6 12 be 07 19 6e 3b 7a ce 76 be 14 0b 93 bc
       -0.14327428 0.0036330835 -0.24102202 -0.017949618
000330 a2 a3 1c bd 3d e7 7d 3d 54 f8 71 be ce b7 99 be
       -0.03824199 0.061988104 -0.23629886 -0.30023044
000340 31 80 88 be 9f 7b 83 be 74 c6 85 bd b2 37 20 3e
       -0.26660302 -0.25680253 -0.065319926 0.15646246
000350 7a 06 5a 3e fd 6f 17 be 89 21 b8 3d a3 9f ae be
       0.21291533 -0.14788814 0.08990771 -0.34106168
000360 a6 b6 59 3e 46 d5 21 bd c1 7d aa bd 25 19 a9 3d
       0.21261081 -0.039510034 -0.08324767 0.08256749
000370 1e 89 58 3e de c2 9c be 08 f2 2b 3e 20 bd 91 3e
       0.21146056 -0.30617422 0.16791546 0.28464603
000380 6a 3c 41 3e 01 f2 19 3e a5 75 6a 3e 30 6f 4c bd
       0.18870702 0.15033723 0.2289644 -0.049910724
000390 b2 1c 4d be a0 23 1d 3e d4 d0 8d 3e 00 fb 71 be
       -0.20030478 0.15345621 0.27698386 -0.23630905
0003a0 fd 30 5e be eb 87 04 bd de 11 20 be 8a f3 01 3e
       -0.21698375 -0.032356184 -0.15631816 0.12690559
0003b0 b9 4f 8c be f3 e7 8d 3e fb 5b 8a be 60 58 94 bd
       -0.27404574 0.27716026 -0.270233 -0.07243419
0003c0 e8 cf 8c be 9a 09 7a 3e 3b 46 0a 3e 02 0b 24 be
       -0.2750237 0.24417725 0.13503353 -0.16019824
0003d0 5f 86 ca 3c 33 1c 8b 3e a8 50 96 be 75 fb 84 3e
       0.024722276 0.27169952 -0.2935841 0.25973096
0003e0 f8 e6 57 3d 42 cb 03 3e 69 cc 5d be 74 d2 bc bc
       0.052710503 0.12870505 -0.21660008 -0.02304957
0003f0 eb 8a 57 be b9 60 0e 3e 6e 8c 60 bd f1 8d 97 3e
       -0.21049087 0.13904084 -0.054821424 0.2960048

transformer_encoder.layers.0.self_attn.in_proj_bias f4 [45]
000000 27 5b 38 bc 14 c3 5c 3c f4 85 69 3c 71 65 99 bc
       -0.011252201 0.013474245 0.014253128 -0.018725129
000010 3d 4d 75 bc dd 8e 87 bc 95 53 85 3c 28 11 d4 bc
       -0.014972028 -0.016547615 0.016275207 -0.025887087
000020 46 36 55 bc b0 06 66 bc a3 bf 85 bc b4 43 04 bc
       -0.013013428 -0.01403968 -0.016326731 -0.008072782
000030 c0 bd 37 ba 8e bf 09 3c fc a9 1e 3c 6a dd 13 ba
       -0.0007009171 0.008407487 0.009684082 -0.0005640598
000040 dd c1 a3 ba d3 2f 22 3b 65 db c6 ba 02 e8 60 bb
       -0.0012493689 0.0024747744 -0.0015171586 -0.0034317975
000050 61 a1 85 b8 bd c4 2d 3b ea 82 ae 3b 82 e2 76 bb
       -6.3719934e-05 0.002651497 0.0053256648 -0.003767163
000060 9a d1 20 3a cc a5 87 3b 8e 55 3f 3b 5c b6 10 ba
       0.00061347487 0.0041396376 0.0029195282 -0.0005520338
000070 e2 85 67 b9 63 77 d2 ba dd e7 86 bc d9 27 ac 3c
       -0.00022079752 -0.0016057309 -0.016467983 0.021015095
000080 e7 de 96 3c 91 c8 a6 3c 2d 36 a9 3c f8 5a 61 bc
       0.018416835 0.02035931 0.020655716 -0.013754599
000090 2b a1 b2 3b b3 83 a7 3c 02 ce ae bc a7 d8 af 3c
       0.0054513416 0.020448541 -0.021338467 0.021465613
0000a0 56 8d 90 bc 06 2b 8f bb 34 65 48 3b a6 9c a2 3c
       -0.01764552 -0.0043691425 0.00305779 0.019850086
0000b0 ef da a1 3c
       0.019757716

transformer_encoder.layers.0.self_attn.out_proj.weight f4 [15, 15]
000000 ea 50 26 39 69 e3 7b bd b7 df 9d 3d 63 ac 38 3e
       0.00015861136 -0.061496172 0.07708686 0.1803451
000010 60 f0 78 be 57 e4 bf bc 7e b5 45 3e c5 b0 49 3e
       -0.24310446 -0.02342431 0.19307515 0.19696338
000020 bc 03 7d 3e d3 2f c9 3d 50 42 80 3e f6 92 79 be
       0.24708456 0.09823575 0.25050592 -0.24372467
000030 a4 2a 3a 3d 6a 72 14 3d 7a ea 3a 3e 0f 51 78 3d
       0.04545082 0.036241926 0.18253508 0.06062418
000040 1c 17 f4 3d b8 62 4e be da c7 26 bd 66 16 05 3e
       0.1191847 -0.20154846 -0.040717937 0.12996826
000050 4b 65 14 3e b1 79 a7 3d 46 0a 21 3e c4 58 ce bd
       0.14491765 0.08177508 0.15726575 -0.100755244
000060 5b 70 f9 bb ce c9 86 3e 9a 25 2f 3e b5 94 27 3e
       -0.007612271 0.2632584 0.17104188 0.16365321
000070 92 61 49 be 85 cd e9 bc 8a b8 64 be 82 15 83 3e
       -0.19666126 -0.028540382 -0.22336021 0.25602347
000080 cf 93 48 3e 72 a7 15 3e 2d 2b 5f be aa 59 0f be
       0.19587635 0.14614657 -0.21793814 -0.13999048
000090 a7 97 3a be c8 0a ce 3d e6 51 61 3e cc e5 1a bd
       -0.18221913 0.1006065 0.22003898 -0.037816808
0000a0 b9 05 7f be 78 6e 35 bd 96 43 f9 3c e8 72 ca 3b
       -0.24904527 -0.044294804 0.030427735 0.0061782487
0000b0 01 9c 16 3e c0 d3 94 3d 96 cb ca bd 12 90 36 be
       0.14707948 0.072669506 -0.09902112 -0.17828396
0000c0 bb 5d b9 ba 71 bf 9a bd dc 49 57 be 6a 30 03 be
       -0.0014142314 -0.07556046 -0.21024269 -0.12811437
0000d0 48 5f 86 be 0a c6 91 3c dc 45 8e bd 87 71 0e be
       -0.2624457 0.017794628 -0.06946918 -0.13910495
0000e0 fe ab 28 3d cf 15 59 bd a8 d3 27 be 53 63 ce 3d
       0.04117965 -0.052999314 -0.16389334 0.10077538
0000f0 a1 ce 7e be 18 0f bc 3a 24 c1 41 3e ac f5 5a 3e
       -0.2488351 0.001434776 0.18921334 0.21382779
000100 b2 da a7 3d 8e 8f 1a bd 47 ae 27 3d 79 77 34 be
       0.0819601 -0.03773456 0.04093769 -0.176237
000110 3d 31 be 3b 82 10 5b 3e 0a ed eb bd ad 3f 68 be
       0.0058042095 0.21393016 -0.11519821 -0.2268054
000120 58 e5 5b 3e 57 49 c9 3d 09 8e 3e 3e 66 27 b6 bd
       0.21474206 0.098284416 0.1860887 -0.088942334
000130 23 09 05 be 72 a8 39 bd 0e 68 94 bd 20 d6 96 3d
       -0.12991767 -0.045326658 -0.07246409 0.0736506
000140 fa 43 85 bd 2f ce 6a bd cf 61 4a be b0 48 d8 bd
       -0.06507106 -0.05732554 -0.19763874 -0.10560739
000150 d6 40 33 be 94 ca 87 3c d2 3f 0e 3e e2 c3 b6 3d
       -0.17505202 0.016576089 0.13891533 0.089240804
000160 af 1b 45 3d f7 c9 43 be 9c 38 28 bd d6 34 23 3c
       0.048122104 -0.19120012 -0.041069612 0.009961328
000170 1d 8e 2c 3e 78 8b 77 3d fa b4 01 3e b5 3b 80 3e
       0.16851087 0.060435742 0.12666693 0.25045553
000180 b0 05 03 bd d3 bb 63 be 1c 0f 2c be 72 2c 38 3e
       -0.031987846 -0.22239618 -0.16802639 0.17985705
000190 50 9f 02 be 98 1b 9a 38 3e 85 b9 3d 94 c3 f8 bc
       -0.12756085 7.348432e-05 0.09058617 -0.030366696
0001a0 34 33 5c be 53 5e dd bc 49 f8 3f 3d 3a b5 c0 bd
       -0.21503907 -0.027022516 0.046867643 -0.09409566
0001b0 86 1e 1a b9 e0 13 07 3d 33 00 b4 3d c1 7a e8 bd
       -0.00014697955 0.03297794 0.087891005 -0.113515384
0001c0 d3 45 82 3e 16 88 50 3e 28 1a 37 3e 75 ab 1d be
       0.25443897 0.20364413 0.17881072 -0.15397437
0001d0 a4 a4 10 be 3f 8a 7b 3d 72 5c f2 bd f7 2d 99 bc
       -0.14125305 0.06141114 -0.11834039 -0.018698676
0001e0 4c 2f fe bd 56 f6 90 bd 1e 28 78 3c d5 c8 52 be
       -0.12411365 -0.07078235 0.015146283 -0.20584424
0001f0 71 4c 0e 3d e5 cc af ba a3 24 0e be 0b 48 f6 bd
       0.03474087 -0.0013412504 -0.13881163 -0.1202546
000200 3e a1 06 be 83 c5 42 3e 55 bf 55 3b b4 9e 30 bd
       -0.13147447 0.19020657 0.0032615263 -0.0431201
000210 1d 4a 8f ba b7 ea 60 be a7 98 62 be 63 4b 4d be
       -0.0010932122 -0.21964537 -0.22128545 -0.20048289
000220 78 ba e6 bc 35 3e 0a be b8 d3 c4 3d 74 31 f8 3d
       -0.028165087 -0.13500293 0.09610695 0.121188074
000230 c5 f7 18 be ff c1 1b 3e d2 92 94 bd 2d 46 7e bd
       -0.14938267 0.15210722 -0.07254566 -0.062078644
000240 06 71 70 3e 04 15 37 be 15 96 96 3d 5f b8 b6 3d
       0.23480615 -0.1787911 0.073528446 0.08921885
000250 00 f4 7c 3d a6 ea e9 bd a3 a0 5b 3e 3b fb 57 be
       0.061756134 -0.11421709 0.21447997 -0.2109193
000260 74 7a b3 bd 13 36 87 3e 4e 30 68 bc 2c 69 d9 bd
       -0.087635905 0.26408443 -0.014171673 -0.10615763
000270 f7 26 5b be 69 67 8f be d5 f3 5c be cd 9f a0 bd
       -0.21401583 -0.28008583 -0.2157739 -0.078429796
000280 44 6c 2d be 53 7d be 3d 0c 75 fa bd ec fd 0b be
       -0.16935831 0.093012474 -0.12229356 -0.13671082
000290 42 64 2d be 44 0c 77 3e 85 8c f5 3c ad ea 76 3d
       -0.16932777 0.24125773 0.029974231 0.060282398
0002a0 d0 54 29 3d c4 28 4c 3e 93 9d 15 bd 77 79 a6 bd
       0.04134065 0.19937426 -0.036527228 -0.08128636
0002b0 30 61 7a bd 51 38 49 be 6d 4c 6b bd d1 65 f6 3c
       -0.06112784 -0.19650389 -0.057445932 0.030077847
0002c0 d4 13 95 3d ca 94 a6 3d 0e 96 67 3b d0 54 61 3e
       0.072791725 0.08133848 0.0035337242 0.2200501
0002d0 b8 6e 47 3d 06 73 f2 bd 53 ac 05 be 8a 4d 75 be
       0.048689574 -0.11838345 -0.13054018 -0.2395536
0002e0 fa 20 e7 bd 33 ec a9 3d 3c 2f 8a 3e f7 76 10 bd
       -0.11285587 0.082970046 0.26989162 -0.035269704
0002f0 61 52 25 3e 66 7f 8e bd cf 0f ab 3d 58 bb 2f 3e
       0.16144706 -0.06957893 0.083526246 0.1716131
000300 24 25 6b be 16 68 85 bc 6d 30 e9 bd 47 a2 3b bd
       -0.22963387 -0.016284984 -0.113861896 -0.045809057
000310 f0 86 73 3e c5 f7 f9 bd d5 c8 3f 3e 7e 8f ab bc
       0.23781943 -0.122054614 0.18728955 -0.020942446
000320 c9 f3 62 be ed d7 00 bd 2f c0 41 bc 11 47 1f be
       -0.22163309 -0.031455923 -0.011825605 -0.15554453
000330 bb 7f 59 3e ed cc 26 be a5 f5 68 3e 29 54 ea bd
       0.21240132 -0.1628911 0.22749956 -0.114418335
000340 57 8c 20 bd 1c f0 01 3e 85 9b e6 bd 0d f0 22 be
       -0.03919634 0.1268925 -0.11260132 -0.15911885
000350 5f 70 bd bd 14 fe f7 3d 5e 81 41 be f7 a4 2e be
       -0.09249949 0.121090084 -0.18897006 -0.17055117
000360 7d 08 31 3e 74 0e 6b 3d c7 35 30 bd 46 eb 69 3e
       0.17288394 0.05738683 -0.043020036 0.22843656
000370 01 ef fa bd 08 61 27 3d 85 86 6d bc ed 4e 7b be
       -0.122526176 0.04086402 -0.014497404 -0.24541827
000380 13 21 2f be
       -0.1710246

transformer_encoder.layers.0.self_attn.out_proj.bias f4 [15]
000000 fc d1 03 bc 1c 5d a6 bc 6d 0a 77 3c 07 fb 95 bc
       -0.00804567 -0.02030807 0.015078169 -0.018308176
000010 6b f4 b2 3c 7d 04 bd bc f3 a7 4a 3c 6e fb a0 3c
       0.021845063 -0.02307343 0.012369144 0.019651141
000020 99 c1 f0 3a 23 1d b2 3c 7c a4 97 bc c0 84 b2 3c
       0.0018368243 0.02174241 -0.01851105 0.021791816
000030 b9 16 8e bc a7 43 af 3c ca 0e a5 3a
       -0.01734482 0.021394564 0.0012592908

transformer_encoder.layers.0.linear1.weight f4 [128, 15]
000000 59 dd cd bd 18 26 82 bd a8 95 9a bc e8 8a 36 bd
       -0.10051984 -0.06354922 -0.01887019 -0.044566065
000010 da 9a 59 3d e7 12 28 bd a4 35 6f 3e 63 4a 3d be
       0.053126194 -0.04103365 0.23360306 -0.18485408
000020 a3 b9 6d be 7f 9a c8 3d 19 26 82 3c c6 9f 3a 3e
       -0.23215346 0.09795093 0.015887307 0.18225011
000030 10 a4 6a 3d c1 0f 80 bd 4b f7 2b 3b ee 1d 34 3e
       0.05728537 -0.06253005 0.0026239927 0.17589542
000040 3b f6 27 3d dd 69 13 bd 52 8c 66 3e aa 37 5d 3e
       0.041006308 -0.03598963 0.22514465 0.21603265
000050 54 fd 45 3d 49 de a9 bc 09 de 3b be 41 9c c0 3d
       0.048337296 -0.020735877 -0.18346418 0.09404803
000060 32 0d c8 bd 80 34 6d be c0 89 e2 bd 48 b1 c2 3d
       -0.09768142 -0.23164558 -0.1106143 0.0950647
000070 46 9a 67 3e 59 36 d9 bd 42 9b 5c 3e 27 fb 09 be
       0.22617444 -0.10606069 0.21543601 -0.13474713
000080 e5 02 ec 3d 6e ae 73 be d8 b9 75 3e 46 cd 01 3e
       0.115239896 -0.23797008 0.23996675 0.12675962
000090 77 26 25 3e ef 9b 72 be 35 a5 24 3e cc 41 47 be
       0.16127954 -0.23692296 0.16078646 -0.19458693
0000a0 ea ba 6e 3e da 74 5c bd 10 fe 33 3e 34 ed d4 bd
       0.2331349 -0.053822376 0.17577386 -0.103968054
0000b0 17 05 05 3d 45 b2 25 3e 69 82 47 3e b2 b2 20 3e
       0.032475557 0.16181286 0.19483341 0.15693167
0000c0 16 1f ff bd d3 b1 04 be a8 34 ff bb 9c 6c 83 3d
       -0.12457101 -0.1295846 -0.0077882595 0.064172
0000d0 da e0 62 3e 47 d9 12 3e 01 e0 41 3d a2 af 25 bc
       0.22156087 0.14340697 0.047332767 -0.010112675
0000e0 99 6d 16 be 78 15 2c 3d 9a 72 b4 bc de e7 38 3e
       -0.14690246 0.04201266 -0.022027303 0.180572
0000f0 d1 c8 f9 bd 8d 86 25 be 62 92 63 3e 1b 2e 47 bd
       -0.12196506 -0.16164608 0.2222381 -0.048627954
000100 86 e4 e9 3c 1a 1f 4b 3d 8a 4c 5b bd 5c ad 61 3e
       0.028551351 0.049590208 -0.05353979 0.22038788
000110 dc cd 84 be a8 e6 41 3e 7c 39 0a bc c5 38 03 3e
       -0.25938308 0.18935645 -0.008436557 0.12814625
000120 77 28 6a be 8e f5 a1 3d 50 77 62 3d 0a 9d d0 3c
       -0.22866999 0.07908164 0.055289567 0.025465507
000130 fc a9 23 3e 9d d7 c8 bd 77 a6 44 be 5e a0 82 bd
       0.15982813 -0.0980675 -0.19204126 -0.06378244
000140 96 14 6a be e1 b9 41 bc cc aa ee bc 82 1c 97 bd
       -0.22859415 -0.011824102 -0.029134177 -0.07378484
000150 22 e5 05 3e b0 3f f1 3d 5e ab af bd c1 2e 1f bd
       0.13075688 0.117797256 -0.085776076 -0.038862947
000160 54 69 16 3c 95 ef 58 be 74 c4 a5 3d c7 c0 ef 3d
       0.009180386 -0.21185143 0.08094111 0.11706691
000170 f5 56 cd bd f2 ec 0d bc c4 90 cd 3d c6 ef 2f 3e
       -0.10026351 -0.008662449 0.100373775 0.1718131
000180 6b 46 55 be 56 c4 b5 3a f4 70 7a be bc f4 03 bc
       -0.20827644 0.0013867717 -0.2445715 -0.008053955
000190 d8 9f 0e 3e c4 88 d2 3d c4 ea 0f 3e 76 96 f1 bd
       0.13928163 0.10279992 0.140544 -0.11796276
0001a0 2f 0d 81 be df 17 81 be f6 ca 28 3e af 47 34 3e
       -0.2520537 -0.25213525 0.16483673 0.1760547
0001b0 46 73 83 3e 05 15 a7 3d 75 bd ff 3d 53 96 40 3c
       0.25673884 0.08158306 0.12487308 0.01175459
0001c0 b6 24 38 be 7f 97 6d 3d b8 3c 80 be 29 89 3a be
       -0.17982754 0.058005806 -0.25046325 -0.18216385
0001d0 50 02 2f bd b5 68 84 3d 4a d3 6d bd 24 32 94 bd
       -0.042726815 0.06465284 -0.05806283 -0.07236126
0001e0 05 46 a6 be 7b d6 80 be 9e ae 74 3d 68 ee 12 be
       -0.32475296 -0.25163636 0.05973684 -0.14348757
0001f0 2d af 77 3e af d3 47 be 1b 7c 8f bd 6b c1 14 be
       0.24187918 -0.19514345 -0.07006093 -0.14526908
000200 56 9c 83 bb f4 f6 0f 3e 3e 45 80 bd 00 4d 49 bc
       -0.0040164394 0.14059049 -0.06263207 -0.012286425
000210 3c 44 4c be b3 67 0e 3d 52 8b b6 bd 51 72 3e 3e
       -0.19947904 0.034766864 -0.08913292 0.18598296
000220 b2 4f 80 3e 15 de 93 3d 69 e5 24 be 67 a5 24 bb
       0.25060803 0.07220093 -0.16103138 -0.0025123002
000230 dc 18 48 3e 91 2e b0 3d 7c 49 7d be c7 d7 ce 3d
       0.19540733 0.08602632 -0.24735063 0.1009975
000240 da 9a cd 3d 35 d0 85 bd a4 f0 02 be f0 c1 90 3c
       0.10039301 -0.06533853 -0.1278711 0.017670602
000250 bd ed 49 be 4c 16 60 3e da 9b bd 3c 5b e0 28 be
       -0.19719596 0.21883506 0.023145605 -0.16491835
000260 16 d2 34 3e 58 52 0b 3b cc e2 6a 3e 0b 35 85 bc
       0.17658266 0.0021258797 0.22938079 -0.016260644
000270 aa bc 60 be 80 c4 08 bd 9a 1e 67 3e 81 ba 43 be
       -0.2194697 -0.033390522 0.22570267 -0.19114114
000280 c8 83 be bc 28 e5 82 3d c3 f5 da bc c7 01 4f bd
       -0.023256198 0.06391364 -0.026728516 -0.050538804
000290 33 ea cd bd 53 b1 17 3e 98 2b b2 3c 00 02 dd 3c
       -0.100544356 0.14813738 0.021749303 0.026978493
0002a0 cc 5d 21 be 39 b5 40 bd 39 e4 01 3e 72 f3 24 3e
       -0.15758437 -0.047047827 0.12684716 0.16108492
0002b0 d3 a5 33 bd 36 60 10 3e 0c 8a 38 be 89 f7 e1 bd
       -0.043859314 0.14099202 -0.1802141 -0.11033542
0002c0 7e 14 20 bd 3f fd 5a be e1 d6 46 be e9 ea 1f 3e
       -0.039082043 -0.21385668 -0.19417907 0.15616955
0002d0 b0 2c b4 3c 7b 3d 97 3c 43 34 4e bd 5e 34 1c be
       0.021993965 0.018461933 -0.05034281 -0.15254351
0002e0 09 31 81 bd b8 88 06 3e 01 0c 30 be e0 cc 1c 3d
       -0.06308181 0.13138092 -0.17192079 0.03828132
0002f0 dd 48 09 be ce 8b 37 be 87 1e 1f be b1 5a f8 bd
       -0.13406701 -0.17924425 -0.15538989 -0.12126673
000300 93 6a 3b 3e 64 f9 6f bd dc 3e f9 bd f9 35 85 3e
       0.18302374 -0.058587447 -0.121701926 0.2601774
000310 bc 6d 38 3e 23 ae c1 3d 97 82 54 bd e3 44 70 be
       0.1801061 0.09457042 -0.051882353 -0.23463778
000320 db 7a 48 3e 35 f1 d2 3d 6e 0d d1 3c b9 32 7d 3e
       0.19578116 0.10299913 0.0255191 0.2472638
000330 d9 94 02 3c bd 60 14 be 9c c3 26 be ec e0 48 3e
       0.007970058 -0.14490028 -0.16285557 0.19617051
000340 fa 0d 4c 3e 76 e5 76 3e 9e 9b 48 bd 4f 18 2a bd
       0.19927207 0.2411097 -0.048976533 -0.04152709
000350 83 21 a5 3d bf 30 99 3d 7b 97 ce bd 03 bb 15 3e
       0.080630325 0.07480001 -0.10087486 0.1462212
000360 0b b4 5c 3d e3 49 87 3e f4 f2 d0 bc c8 30 54 3e
       0.05388264 0.2642356 -0.025506474 0.20721734
000370 a7 81 eb 3c 9d d4 4b 3e 70 c0 fe bc 20 fd 08 3e
       0.028748346 0.19905324 -0.03109762 0.1337781
000380 18 03 a4 3d ee 85 74 3e 91 16 e4 3d 10 ce 3d bd
       0.080084026 0.23879215 0.11137117 -0.046339095
000390 4a bf bf 3c b3 76 80 bd 76 93 f8 3d 34 f2 69 3e
       0.023406643 -0.0627264 0.12137501 0.228463
0003a0 38 42 75 3d 48 a1 7b be a6 37 1f 3e 7f 4d 55 be
       0.059877604 -0.24573243 0.15548572 -0.20830344
0003b0 39 d8 64 bb c1 36 03 be c7 ca 70 bd 7c 4e 53 be
       -0.0034918918 -0.12813856 -0.058787134 -0.20635408
0003c0 bf 48 7f be c0 2b f1 3d d2 f3 39 bc 0f 6e 2a 3e
       -0.24930094 0.11775923 -0.011349635 0.16643547
0003d0 fc 93 c7 3d f3 39 76 3e 02 11 bd 3b f2 d7 49 3e
       0.09745023 0.24045543 0.0057698498 0.19711283
0003e0 2a 32 e1 3d 06 db 92 3d 06 ca 32 bd 8f 6c 93 bd
       0.10995896 0.07170682 -0.043649696 -0.0719844
0003f0 ab b1 32 3e b7 81 5b be 24 1d fd 3d 6f d9 40 be
       0.17450587 -0.21436201 0.12359074 -0.18832944

transformer_encoder.layers.0.linear1.bias f4 [128]
000000 a5 fd 68 be 24 43 90 be 3b ed 04 be d9 5f ec bc
       -0.22753008 -0.28176224 -0.12981121 -0.028854297
000010 ee d9 5e ba da 12 43 3e b0 d5 6b be d1 05 07 bc
       -0.0008501102 0.1905016 -0.23030734 -0.008241133
000020 1e 58 5d 3e e4 c0 78 3e af 07 87 be 35 9e 3d 3e
       0.21615645 0.24292332 -0.2637305 0.18517382
000030 64 ca 49 be 6f 67 48 3e fe c7 4a 3e 8b 50 70 be
       -0.19706112 0.19570707 0.19802853 -0.23468225
000040 f2 13 57 bd 8d 63 6f be d3 b1 55 3e d1 b7 21 bd
       -0.052509256 -0.2337782 0.20868616 -0.03948194
000050 8c 9e 84 39 5b ed 62 3e 19 56 83 3d 56 be 57 be
       0.0002529513 0.22160856 0.06412906 -0.21068701
000060 c5 a7 54 be 00 62 51 3d 9d d1 46 be 88 4d 3f 3d
       -0.20767124 0.05111885 -0.19415899 0.0467048
000070 10 2c af 3d ea fe 84 3e c1 16 2b 3e ef d9 4f 3d
       0.08553326 0.25975734 0.16707899 0.050744947
000080 5c b3 59 be 98 00 5d 3e dc 32 07 be 5a 6a 18 bc
       -0.21259826 0.21582258 -0.13202995 -0.0093027
000090 4e 13 75 be f5 15 af 3d 0f 91 2d bd de f0 48 3e
       -0.23933145 0.0854911 -0.042374667 0.19623134
0000a0 43 19 0b 3e e0 fb 32 be 83 17 de 3c d8 bb 86 be
       0.13583855 -0.17478895 0.02711082 -0.26315188
0000b0 86 1d 06 bc 7e 29 55 3e 8e f4 2b be 31 9d e6 3d
       -0.00818575 0.2081661 -0.16792509 0.11260451
0000c0 a5 d2 94 bd fc ff 89 3d 7a 91 72 3e 2b c4 60 3e
       -0.0726674 0.06738278 0.23688307 0.21949832
0000d0 a7 52 85 3e 72 b7 33 3e 81 f8 56 3d b3 92 66 be
       0.2603962 0.17550448 0.052483086 -0.22516899
0000e0 c4 f3 ce 3d df cd 85 3c 48 e5 e6 bd bf c5 21 be
       0.10105088 0.016333519 -0.11274201 -0.1579809
0000f0 73 01 68 be 72 ee 31 3e f3 81 af bd 57 f6 db 3d
       -0.22656803 0.17376116 -0.08569708 0.10740345
000100 b5 b7 e0 bd 20 1c 71 bd 51 b8 8c bb 3a 8f 5e be
       -0.10972539 -0.058864713 -0.004294433 -0.21734324
000110 12 37 47 3c e3 50 4f be 11 10 48 be 85 24 57 be
       0.012159126 -0.202457 -0.19537379 -0.21010025
000120 71 73 39 bb 01 30 8f bc e1 50 52 3e 8e a8 3a be
       -0.0028297568 -0.017478945 0.20538665 -0.18228361
000130 00 cc 9c bd 63 28 70 be 4c bd 59 3e e1 26 71 be
       -0.076560974 -0.23452906 0.21263617 -0.23549987
000140 74 36 40 3c 4a f3 13 3e 08 f8 a9 3b 3d ec 7f be
       0.011731733 0.14448276 0.0051870383 -0.24992462
000150 2c 81 c0 bc df 33 df 3d 28 eb 6c be d9 f9 1b 3d
       -0.023499094 0.108985655 -0.2313658 0.03808007
000160 df 94 00 be 03 4e a6 3d 9b fd 37 be 86 b9 5e 3d
       -0.1255679 0.08120348 -0.17967837 0.054376148
000170 70 b8 24 3e 42 26 12 bc e9 fd 51 3e c0 9a 39 3e
       0.16085982 -0.008920254 0.20507015 0.18125439
000180 9d 40 42 be 61 52 08 be f0 45 65 bb 57 52 bd 3c
       -0.1896996 -0.13312675 -0.0034984313 0.023110552
000190 c5 47 7d 3e a6 01 d5 bd 53 df 19 bd 8a c5 68 be
       0.24734409 -0.10400705 -0.037566494 -0.22731605
0001a0 3e e8 af bd 4b 73 76 be 33 b9 32 be 45 1d 24 be
       -0.085892186 -0.24067418 -0.1745346 -0.1602679
0001b0 78 11 56 3e ce c3 e0 3d 25 71 57 bc cf 50 ca bd
       0.20905101 0.10974847 -0.013149534 -0.09878694
0001c0 14 0e 1e be 9e a7 22 3e 79 dd 10 3d aa 25 47 3c
       -0.15435058 0.15884253 0.035367463 0.012154976
0001d0 44 9b c1 3d b3 e7 cf bd 43 87 49 3e 22 65 81 be
       0.09453443 -0.10151615 0.19680505 -0.2527247
0001e0 64 86 0a 3e 1f 3b 4b be c1 b7 e1 3b d4 60 9c bd
       0.13527828 -0.19846772 0.0068883603 -0.07635656
0001f0 f0 ac 47 bb e4 6c f9 3c 67 fe 87 be e0 a3 08 be
       -0.003046807 0.03044743 -0.2656128 -0.13343763

transformer_encoder.layers.0.linear2.weight f4 [15, 128]
000000 2c d7 59 3d cb 96 66 3b 9c da 8f 3d 69 25 0a bd
       0.05318372 0.0035185094 0.07024118 -0.033727083
000010 28 9e 8c 3d 61 4d 7c bd 9c 64 f9 bc 02 2d 64 3c
       0.068661034 -0.06159723 -0.030443482 0.013926746
000020 dc 0f a6 3d a6 e4 47 bd cd 4f 0d bd fd 19 f9 3a
       0.08108494 -0.04880204 -0.034499932 0.0019004937
000030 bc 53 1e bd 08 21 ad 3d 1d 90 d5 bc c8 7a 98 3a
       -0.038654074 0.08453566 -0.026069695 0.0011633271
000040 e1 7f 5a 3c 2e eb 85 3d ab 57 6e 3c 18 23 26 3d
       0.013336153 0.065389976 0.014547269 0.04056081
000050 1b ac b7 3c 7d ca 98 3d 69 f2 e7 bb 9d a8 ef 3c
       0.022420933 0.074604966 -0.007078458 0.029255206
000060 31 6c c0 bd 97 fd 12 bd 6b 98 b8 3d 3b 06 d3 3b
       -0.09395636 -0.035886373 0.090134464 0.0064399517
000070 37 9f 39 3d 4a 1c f6 bc 08 81 aa bd 05 1a 8a 3d
       0.045317855 -0.030042786 -0.08325392 0.06743244
000080 dd 72 79 3d 32 01 93 bd d6 c7 a7 3d 0f 57 cd bd
       0.060900558 -0.07177962 0.081924126 -0.10026371
000090 fa 1c fb bc 44 50 9f ba 0b 2e 86 bd 18 5d 7e bd
       -0.030653466 -0.0012154658 -0.06551751 -0.0621005
0000a0 84 f0 1e bd c8 d1 c6 3d eb 74 6e bd 3d c3 3c bd
       -0.038803592 0.09707981 -0.05821697 -0.04608463
0000b0 73 6e 21 3c e4 fe cf 3b 63 f7 5d bd c0 d9 a8 bd
       0.009852993 0.006347524 -0.054191004 -0.082446575
0000c0 c6 7e 5b 3d b9 d4 91 bc e8 7f 9c bd 07 c1 dc bd
       0.053587697 -0.01780163 -0.07641584 -0.107790045
0000d0 cc 36 9d bc 22 8a 87 bd 5a 8f c9 3c 35 fb 75 bd
       -0.019191168 -0.066181436 0.024604488 -0.060054023
0000e0 40 0a 74 bc 48 7b 77 bd 7f fa 6b 3c d1 f4 fd bc
       -0.014895022 -0.060420305 0.014402985 -0.031000527
0000f0 b4 38 05 bd 13 77 8e 3c 56 aa cf 3c 25 15 2e bd
       -0.03252478 0.017390763 0.025349777 -0.042500634
000100 1b 3d e4 3b b5 3d 8c bd a0 c0 9b bd ad 71 30 bc
       0.006965292 -0.06847707 -0.076051 -0.01076929
000110 d3 30 99 bd ce 62 3b bd b0 6e 6e 3d 4a e5 cd bd
       -0.074800156 -0.045748524 0.05821103 -0.10053499
000120 29 8c 94 3c 0e 61 18 bd c9 f1 ad bc 02 e4 18 3d
       0.01813324 -0.037201934 -0.021233456 0.03732682
000130 17 d0 c4 bc e2 fd 3e 3c 97 fa 6e 3d 55 c8 ae 3c
       -0.024025006 0.01165721 0.05834445 0.02133576
000140 9a b0 13 bd 6f 4b 01 bd 64 b6 68 3d 85 bc 79 bd
       -0.036057092 -0.03156608 0.056814566 -0.0609708
000150 e2 12 40 bc df 4c 2c bd a3 18 dd 3c 2a 49 a7 bd
       -0.011723252 -0.042065497 0.026989287 -0.08168252
000160 2f b4 02 3c a2 cd 0a bd 6e 34 5c bd 78 ab da bc
       0.007977529 -0.033887513 -0.05376094 -0.02669309
000170 fc 9a bf bd 9f 7b d2 bd 14 77 96 bd ac 47 f0 3c
       -0.09355733 -0.10277485 -0.07346931 0.02933105
000180 80 a6 9b bd c4 49 7e bd df 55 22 3c 83 ed 49 bd
       -0.07600117 -0.062082067 0.009908169 -0.049298774
000190 c7 d0 ad bc f5 45 70 bb b8 99 38 bd a9 e6 cf 3c
       -0.021217717 -0.0036662791 -0.045068473 0.025378542
0001a0 84 eb 85 3c af 6c 31 bd 5e cf b6 bd 95 c2 27 3d
       0.016347654 -0.04331654 -0.08926271 0.040957052
0001b0 9e cd ac 3d 4a db 55 bd fe 45 04 3d b4 d4 02 3d
       0.08437656 -0.052211083 0.032293312 0.03194113
0001c0 49 bf d7 bc f5 7a ab bb ba 92 f1 3c 31 5c 33 bd
       -0.026336329 -0.0052331635 0.02948891 -0.043789092
0001d0 8e 54 3d bd c4 bf 68 b9 19 4d 5b 3d 5c e5 89 3d
       -0.046223216 -0.00022196682 0.053540323 0.067332
0001e0 be 5f 77 bd aa 3a 46 3b b8 3c 8c bd cd a0 aa bd
       -0.06039404 0.003024737 -0.06847519 -0.083314516
0001f0 c0 ff 6d 3d b9 0e 2c 3c 6f 99 e8 bc 6b 41 e1 bd
       0.05810523 0.010501557 -0.028393475 -0.109988056
000200 62 02 a4 bd 4c cc 2d bd 7f 37 71 bd d6 2e f6 3c
       -0.08008267 -0.04243116 -0.058890816 0.03005163
000210 5f 42 42 3d cd ad 95 bb b1 b1 bb 3d 21 08 00 3d
       0.047426578 -0.004567838 0.09164751 0.031257752
000220 76 40 9a bd 62 b7 8d bd e4 cd 33 bd 12 7e 4a bd
       -0.07531826 -0.06919743 -0.043897524 -0.049436636
000230 a6 fd 5a 3d 41 50 ef bc ee fc a9 bd d8 a1 57 bd
       0.053464554 -0.029213073 -0.08300196 -0.05264458
000240 46 7d a4 3c f4 ea 73 bb 54 56 a9 bc e8 54 63 3d
       0.020079266 -0.00372189 -0.020671047 0.055500895
000250 ce 91 3a 3d b6 b6 12 bd 63 40 7f 3d 7d 70 96 3c
       0.045549206 -0.035818778 0.062317263 0.018364185
000260 42 80 fb 3c 7e ed 75 3d 61 55 20 3d 21 8e 50 bd
       0.030700807 0.060040943 0.039143924 -0.050916795
000270 b6 49 8d bb 06 42 03 3d 2f cf 8d 3d 42 ac 6b bb
       -0.0043117655 0.032045387 0.06924283 -0.0035960828
000280 67 83 bd bd 1b f0 b9 3c d6 b1 a2 3d 73 a3 c6 3d
       -0.09253579 0.022697499 0.07944076 0.09699144
000290 20 fe 1e 3d cb d3 48 bd d7 a2 41 bd 96 72 aa 3c
       0.03881657 -0.049030107 -0.047274437 0.020806592
0002a0 a9 8b 78 3d c4 71 6e 3d 58 f4 37 3d 50 82 82 3d
       0.060680065 0.058213964 0.04491076 0.063725114
0002b0 9c 44 84 3d 10 44 76 3d ae 90 16 3c 17 8e 98 3c
       0.06458399 0.060123503 0.009189768 0.018622441
0002c0 06 30 66 3d 80 e5 98 3b e7 81 bb bc 78 d2 36 3b
       0.056198142 0.0046660304 -0.02288909 0.0027896445
0002d0 02 78 da bc ae 59 c3 3c 17 6e ea bc b9 c7 46 3d
       -0.026668552 0.023846474 -0.028616948 0.048530314
0002e0 57 c7 cb bd 20 e8 3e bd ad 83 8a bd a3 4c 87 3d
       -0.099501304 -0.04660809 -0.067633964 0.06606414
0002f0 9f d7 94 3d 2e f9 09 bb cc 2e e2 b9 82 aa 69 bd
       0.07267689 -0.0021053064 -0.00043140945 -0.057047375
000300 ee 3f a7 3d b6 db 40 3d 6c dd b1 3d 9e cc 95 bd
       0.081664905 0.047084533 0.08684811 -0.07314418
000310 b6 de 09 bd 0c f7 1c 3c 73 db b7 3c a2 be 45 bd
       -0.03365966 0.009580385 0.022443509 -0.048277505
000320 c7 4c 10 3d d2 eb 61 3c 76 e2 44 bd 52 e7 4d 3d
       0.03522947 0.013789134 -0.048067532 0.050269432
000330 5a 27 ae 3c 12 7d 98 bc 04 75 15 bd a2 5e 9b 3c
       0.021258999 -0.018614326 -0.036488548 0.018966023
000340 1a 97 80 bd b4 f0 a4 3c d1 f9 89 bd e4 07 8d bd
       -0.0627882 0.020134307 -0.06737102 -0.06886271
000350 57 22 3d 3c aa ba 82 bc ef 77 65 bc 90 50 6c bd
       0.011543832 -0.015958149 -0.014005645 -0.057694018
000360 98 ec 19 3c 19 69 88 3d ee fb db bc 58 98 71 3d
       0.009394787 0.06660671 -0.026853528 0.058983177
000370 4a c4 5a bc 9d e1 77 bd 59 a1 0c bd 27 07 3b bc
       -0.013352463 -0.060517896 -0.03433356 -0.0114152795
000380 cb b0 c1 3c 06 50 46 bc f7 76 c9 bb be 6a 17 bc
       0.023643872 -0.01210404 -0.006148215 -0.009241758
000390 d3 79 68 bd b2 e3 95 3d af 1a 06 bc 9d 42 d5 bd
       -0.056756806 0.0731882 -0.008185073 -0.10413096
0003a0 d0 a4 a7 bd c8 ee b1 3d bc 2a b1 3d 1b 19 29 bd
       -0.08185732 0.08688122 0.08650729 -0.041283708
0003b0 e8 e0 6b 3d d1 6e 22 3d 47 58 b7 bc 8e 58 ca 3c
       0.057587534 0.039656464 -0.022380961 0.02470043
0003c0 b0 1d 41 bd 00 d7 85 bb 63 fd da 3d a1 b1 6b bc
       -0.047147453 -0.004084468 0.10692861 -0.014385612
0003d0 2c 33 f8 bc a5 fd 02 bd 18 b2 36 bd 4f 78 8a 3d
       -0.030297838 -0.031980176 -0.044603437 0.06761228
0003e0 72 bd 7b bd 3f 30 a3 bd 55 3c f6 3c 07 ae 72 bd
       -0.061459966 -0.079681866 0.030058065 -0.059247997
0003f0 5e 9b 52 3d 2e 2b 43 bb 51 b7 98 3c dd 39 50 3c
       0.0514177 -0.0029780376 0.0186421 0.012709108

transformer_encoder.layers.0.linear2.bias f4 [15]
000000 f8 c4 9b 3d 2d ea 55 ba 80 e1 06 bd 79 37 52 3d
       0.07605928 -0.00081602 -0.032929897 0.051322434
000010 ad 6c b2 bc ec 0e a6 3d cf f6 d8 ba 6c 00 a7 bd
       -0.021780336 0.08108315 -0.0016553047 -0.08154377
000020 f6 36 60 3d bd 00 49 bd a0 b5 5d 3d 54 63 b2 bd
       0.054739915 -0.04907297 0.05412829 -0.087103516
000030 66 ee c3 3c 41 86 f9 3c d0 bf 8b bd
       0.023917388 0.030459525 -0.06823695

transformer_encoder.layers.0.norm1.weight f4 [15]
000000 cf 79 80 3f c7 dc 83 3f 70 cf 7d 3f 86 29 7f 3f
       1.0037173 1.0301751 0.9914465 0.99672735
000010 c9 c2 79 3f 8f a7 7e 3f f8 9b 76 3f d0 f6 7c 3f
       0.97562844 0.99474424 0.9633174 0.98814106
000020 26 44 7c 3f fc 4b 76 3f 59 93 80 3f 96 94 7f 3f
       0.98541486 0.9620969 1.0044967 0.998361
000030 e3 f1 77 3f 97 78 85 3f 77 aa 81 3f
       0.96853465 1.0427426 1.0130147

transformer_encoder.layers.0.norm1.bias f4 [15]
000000 27 00 58 bc 20 4f e4 ba 6f a0 4f bc f0 8c af 3b
       -0.01318363 -0.0017418601 -0.012672528 0.005357377
000010 52 a4 96 bc 7b 4d db 3b 9e e4 e7 bb 65 6d 27 bc
       -0.0183889 0.006692586 -0.007076814 -0.010218953
000020 4e 77 be 3b be 16 36 bc 0d 2d cb 3b c3 45 82 bb
       0.005812562 -0.011113821 0.006200439 -0.0039756014
000030 e8 b9 f1 3b 0f 2b 94 bb de fa a2 3c
       0.007376898 -0.0045217345 0.019895013

transformer_encoder.layers.0.norm2.weight f4 [15]
000000 86 cf 7a 3f 51 c1 84 3f f9 c0 7d 3f 40 49 81 3f
       0.97972906 1.0371495 0.9912258 1.0100479
000010 80 98 7c 3f 53 67 7c 3f 9a 5e 78 3f 5e 74 7e 3f
       0.98670197 0.9859516 0.9701935 0.9939631
000020 5e 05 7f 3f f9 49 7a 3f 3a e8 7f 3f c8 13 83 3f
       0.99617565 0.97769123 0.99963725 1.0240412
000030 b5 0c 78 3f b5 5b 86 3f f4 87 84 3f
       0.9689439 1.0496737 1.035399

transformer_encoder.layers.0.norm2.bias f4 [15]
000000 a5 66 d0 bb 34 3b 8e bb bc 43 22 bc 06 ec 6e 3b
       -0.0063598924 -0.0043405537 -0.009903844 0.00364566
000010 64 b6 80 bc cb 07 fd 3b c2 74 72 bb ac d3 52 bc
       -0.01571197 0.0077218763 -0.0036995863 -0.012867849
000020 ce 5a 46 ba d6 06 a6 bb 29 cc e8 3b 78 b5 a2 bb
       -0.00075666315 -0.005066733 0.007104416 -0.0049654804
000030 18 65 a6 3b 84 95 7c bb aa 59 3f 3c
       0.0050779693 -0.0038541267 0.011679092

transformer_encoder.layers.1.self_attn.in_proj_weight f4 [45, 15]
000000 22 9a 12 be 8c 32 ee 3d a9 d8 2b 3e 74 7a 1f 3e
       -0.1431661 0.11630735 0.16781868 0.15574056
000010 c2 ac 31 be a9 99 8a be 47 fe a8 3d 3a 52 e4 3d
       -0.17351058 -0.27070358 0.082516246 0.11148496
000020 8f 7f 99 be 42 97 71 bd 0e c5 6a be 9b 63 54 be
       -0.29980132 -0.05898214 -0.22926733 -0.20741121
000030 4e af 60 3e c6 25 0f 3e 47 61 72 3e 61 a1 69 be
       0.21941873 0.13979253 0.23669921 -0.22815467
000040 c1 d9 c7 bd c8 5e a3 3c bb 85 4d 3e 83 86 36 3e
       -0.0975833 0.019942656 0.20070545 0.1782475
000050 55 0f 79 bc fd df 56 3e a5 4b 88 bc 99 09 73 be
       -0.015201409 0.20983882 -0.016637633 -0.2373413
000060 ba 0b 43 3e eb 3f 83 be 02 c6 1a 3d 5b 63 0a 3e
       0.19047442 -0.25634703 0.03778649 0.13514464
000070 f6 f7 6d be 93 5f 5a 3e 46 12 93 be db 30 58 3b
       -0.23239121 0.21325521 -0.2872488 0.0032988105
000080 f6 2d 2f 3e fb e9 9b 3e 0a db ea 3d da a3 01 3e
       0.17107376 0.3045195 0.1146756 0.1266016
000090 a1 71 36 3e 80 b5 c3 bd 7a ca 76 3d d2 6d 09 be
       0.17816783 -0.09556103 0.06025169 -0.134208
0000a0 07 f9 2f be 8c f4 69 3e 58 de 82 be 52 55 80 be
       -0.1718484 0.22847193 -0.2556026 -0.25065094
0000b0 2d ee 03 bc 80 f3 16 3b da b2 b0 3c 37 a3 54 be
       -0.008052391 0.002303332 0.021569658 -0.20765387
0000c0 a2 f1 81 be 9c 66 78 be fb 39 93 be c2 7b 54 3e
       -0.25379664 -0.24257892 -0.28755173 0.20750335
0000d0 2b ca 18 be 76 b1 a1 3e 87 07 85 3e f9 d8 91 be
       -0.14920871 0.31580704 0.25982305 -0.2848585
0000e0 4e 06 a0 be 04 d8 72 be c1 c0 94 be 4b 0e 58 3e
       -0.3125481 -0.23715216 -0.2905331 0.21099202
0000f0 b3 58 6e bd 9a 48 65 3e 8d 95 bf bc c4 c3 dd 3d
       -0.05819006 0.22390977 -0.023386741 0.10828355
000100 6f 42 87 be bb 0b 88 be c2 20 96 3e 07 d4 90 be
       -0.26417872 -0.2657145 0.29321867 -0.28286764
000110 b7 f7 a2 3e 64 e2 89 be fb 74 9c 3e 24 95 0b bd
       0.31829616 -0.26930535 0.30558 -0.03407778
000120 be e6 9d 3d e5 e1 83 bd 1a 31 9c 3e 3d 10 74 3d
       0.07710026 -0.0643957 0.30506212 0.0595858
000130 2d b1 1d 3e 4c 4d 74 bd 10 43 6a 3e 7e 57 4c bc
       0.15399618 -0.05964403 0.22877145 -0.012472032
000140 01 4d 6b 3e f6 04 45 3d 4a f6 81 3d 75 ef 97 be
       0.22978593 0.048100434 0.06345804 -0.2967488
000150 08 ba 9a 3d c3 96 83 be ff d1 12 be 9c d3 3f be
       0.07555014 -0.2570096 -0.1433792 -0.18733066
000160 b3 56 95 3e 19 f3 80 be f1 73 30 3d 6e fa 6b be
       0.2916771 -0.2518547 0.04307932 -0.2304475
000170 3e ca 85 bb e7 d9 88 3e e0 2c 8a be a4 9d cd bd
       -0.004082947 0.26728746 -0.26987362 -0.10039833
000180 6d 32 8c 3d ed 99 a3 3d 27 e5 90 3d ea b6 5f be
       0.068455555 0.079883434 0.07074957 -0.2184712
000190 50 62 f9 bd 8b 63 97 3e 4d 68 de bb d5 ce 96 bd
       -0.12176955 0.29568133 -0.006787336 -0.07363669
0001a0 40 0a 11 be 1d cf b6 be 38 05 8f be 93 04 37 bc
       -0.14164066 -0.3570489 -0.2793367 -0.011170524
0001b0 55 dd 88 3d a7 24 47 3e f2 a3 7e be 45 3f bc 3c
       0.06682841 0.19447576 -0.24867228 0.022979388
0001c0 58 b1 f5 3c 7e cb b9 bd 1a 22 64 be 62 1b 50 bd
       0.02999179 -0.09072016 -0.22278634 -0.050807364
0001d0 2c 7e a5 3e 7e 44 73 be 4f 88 13 3e bd 21 80 bd
       0.32322824 -0.23756596 0.14407466 -0.06256435
0001e0 5f 34 d7 3d 34 cc 0b 3e b4 73 a3 bd 3e 0f 88 bd
       0.10508036 0.13652116 -0.07981053 -0.06643532
0001f0 e6 af 79 3d 84 75 b9 3d b1 c0 a7 be 39 80 83 3e
       0.060958765 0.090556175 -0.327642 0.25683764
000200 7a 7f 7f 3c ab f2 23 3e a9 f7 65 be f8 28 10 3e
       0.015594358 0.16010539 -0.22457756 0.14078128
000210 fa 85 2d 3e 3e b2 97 bc 9f 09 a1 3e 4c b5 3e 3d
       0.16945639 -0.01851761 0.31452653 0.046559617
000220 12 c4 6b 3e 61 4a 4e 3c c8 5e a5 3d 3d 75 35 3d
       0.23024014 0.0125909755 0.08074719 0.04430126
000230 d7 f7 81 3e ae c6 a9 3d cf 9b 35 be c6 eb 69 3c
       0.253844 0.08289848 -0.17735218 0.014277404
000240 09 f5 26 3e 65 d7 8a be 5a fe 0e be a9 14 eb 3d
       0.16304411 -0.27117458 -0.13964215 0.1147855
000250 6c c1 37 bd 73 bd a4 bd 4e 05 50 be f8 af 3e 3e
       -0.044862196 -0.08043947 -0.20314524 0.18621814
000260 d2 65 69 3e 18 cc a4 3e cc 2d b3 be 51 2d 82 3e
       0.22792748 0.3218696 -0.34995878 0.254252
000270 b3 ee 7a be fe ca 8c 3e 65 f3 9a 3c 66 80 56 bb
       -0.24505119 0.2749862 0.018914888 -0.003273034
000280 bc 21 b0 3b f5 1b 8b be 8d 1b 7b 3e 1e d7 1e be
       0.005375115 -0.27169767 0.24522229 -0.15511748
000290 73 ff 87 3e 0a c8 6f 3d e4 4c 23 3e 5c 42 c6 3d
       0.2656208 0.05854038 0.159473 0.09680626
0002a0 05 26 1f 3d 4d d3 36 bc 01 76 4e be dc 02 4a be
       0.038854618 -0.0111587765 -0.20162202 -0.19727653
0002b0 c2 77 86 be 44 79 a8 3e 80 ec 5f 3e 62 75 95 3e
       -0.26263243 0.32905018 0.21867561 0.29191118
0002c0 f1 0d bd bc 9a ed 52 3d bc 95 0b 3e d0 bb 3f be
       -0.023077937 0.051496126 0.13631338 -0.18723989
0002d0 e5 b6 85 3e fd 7e 90 be 52 e7 84 be 51 14 3e 3d
       0.261161 -0.28221884 -0.25957733 0.046406094
0002e0 5c 22 1e 3e 5c 00 b6 3c b8 7f 22 3e 28 8b e6 3d
       0.15442795 0.022216968 0.15869033 0.11257011
0002f0 33 ac 45 3d 04 6b fd bd ad ba 04 3e 67 5d 82 be
       0.048259925 -0.12373927 0.12961836 -0.25461885
000300 0a 44 65 3e e9 2d 9c be 20 46 15 bd 17 d5 30 be
       0.22389236 -0.30503777 -0.03644383 -0.17268787
000310 85 46 cc 3c bd e4 8d 3d 0d 94 09 be e1 3c 80 3e
       0.02493597 0.06928394 -0.13435383 0.25046447
000320 ab a9 db bd 45 33 03 3d d6 ff 40 be ef 80 06 3c
       -0.10725721 0.032031316 -0.18847594 0.008209451
000330 2e c1 e3 bc e2 7c af 3d 2b 3c 64 be ab 4e 88 be
       -0.027802076 0.085687414 -0.22288577 -0.2662252
000340 c0 9f 64 be f6 c0 73 be f7 41 14 bd d0 75 47 3e
       -0.22326565 -0.23804078 -0.03619572 0.19478536
000350 a9 cd 7e 3e 2d b3 e6 bd 62 5e eb 3d 00 49 ab be
       0.2488314 -0.11264644 0.114926115 -0.33454132
000360 f2 f3 67 3e 7f 22 f8 bb 7d 38 86 bd 8d 15 d9 3d
       0.22651652 -0.0075724716 -0.06553743 0.105998136
000370 53 c0 78 3e 32 07 81 be f0 ac 63 3e eb e0 ac 3e
       0.24292116 -0.25200802 0.22233939 0.3376535
000380 a5 24 6c 3e ff f4 2c 3e 11 20 71 3e a1 28 34 bd
       0.23060854 0.16890334 0.23547389 -0.04398406
000390 2c 45 4b be 8f 17 1d 3e c0 e5 82 3e dd ae 8f be
       -0.19850606 0.15341018 0.2556591 -0.28063098
0003a0 87 b1 8b be 3c 05 91 bd f3 9f 30 be 4a 39 b9 3d
       -0.2728388 -0.070810765 -0.17248516 0.0904413
0003b0 20 a7 b7 be 12 16 61 3e fb 52 b7 be 13 0c 2b be
       -0.35869694 0.21981075 -0.35805497 -0.16703825
0003c0 0b 86 82 be 76 d2 85 3e 09 df 21 3e 6a 12 0e be
       -0.25492892 0.2613713 0.15807737 -0.13874212
0003d0 aa 48 63 3d 87 a8 89 3e 07 08 9b be 62 a5 67 3e
       0.05548922 0.2688639 -0.30279562 0.22621682
0003e0 3a 2f 6c 3d d7 02 e8 3d da 00 69 be 1b 28 d8 bc
       0.057662226 0.11328667 -0.22754231 -0.026386311
0003f0 9b 5c 5b be 40 d4 0a 3e 9e f2 23 bd 09 78 a2 3e
       -0.21422045 0.1355753 -0.0400263 0.31732205

transformer_encoder.layers.1.self_attn.in_proj_bias f4 [45]
000000 28 34 9e 3b fc 00 8e bb 40 15 2c bb 2a 4b 88 3c
       0.004827995 -0.0043336134 -0.0026257783 0.016637404
000010 7e ab a8 bc ec 69 ab b9 98 af 48 3c 90 b2 fa bb
       -0.020589586 -0.0003269458 0.012248896 -0.007650681
000020 29 55 35 3b d8 07 04 bc 62 0b 0b bb b5 26 17 bd
       0.0027669168 -0.008058511 -0.0021216501 -0.03690215
000030 2e ac b0 bc 85 a4 bb bb 11 78 c1 3c 04 02 b3 3b
       -0.021566477 -0.0057263994 0.023616822 0.0054628868
000040 1c e8 7a 3a 6a 8d 92 3a 46 8f a7 bb 89 82 6d bb
       0.000957133 0.0011181061 -0.005113515 -0.0036241135
000050 1f 83 8e 39 9e fe d5 3b 0b 58 0d 3a 52 c3 16 3b
       0.00027182043 0.006530597 0.00053918426 0.0023004604
000060 0b 92 b5 b9 92 89 9d 3a b0 12 cc b9 ed 56 40 3b
       -0.0003463182 0.0012019149 -0.00038923835 0.0029348687
000070 8a 5b 86 3b f6 79 f1 ba 85 ef 69 3b af 43 41 bb
       0.004100268 -0.0018423188 0.0035695743 -0.0029489805
000080 6d 56 ae bb 51 4b f2 bb a7 4b ae bb e0 d1 f4 bb
       -0.0053203613 -0.0073942323 -0.005319077 -0.007471308
000090 27 7c 3e bc c9 27 60 bb 71 1b 85 39 e6 8c 10 bb
       -0.01162628 -0.0034203401 0.00025388182 -0.0022056638
0000a0 82 6d db bb 6e cc 08 3c 35 a9 9c bc 9b 24 12 bc
       -0.006696404 0.008349521 -0.019123653 -0.00891986
0000b0 cd 4e 72 bc
       -0.014789295
