Result/MLP.pth (torch, 6856 bytes, 8 tensors)

params f4 [8]
0	0x42c7a405	99.82035
1	0x42c7a6f1	99.82606
2	0x42c7aacf	99.83361
3	0x42c7aa61	99.83277
4	0x42c7a2ff	99.81835
5	0x42c7a2a3	99.81765
6	0x42c7b201	99.847664
7	0x42c7a7b7	99.82757

dnn.0.weight f4 [10, 65]
0	0x3ca5fb34	0.020261385
1	0xbc9cd17f	-0.019142864
2	0x3dc23748	0.094832
3	0xbd8c538d	-0.068518735
4	0x3dbfa923	0.09358432
5	0xbd898bbe	-0.06716107
6	0xbd0c8fe7	-0.034316923
7	0xbda2cdce	-0.079494104
8	0x3d991227	0.074741654
9	0x3dac4795	0.08412091
10	0x3e4d60ea	0.20056501
11	0xbd1496d0	-0.03627664
12	0xbcfdb1ef	-0.030968634
13	0xbe01f476	-0.1269091
14	0xbcb1bb91	-0.021695884
15	0x3cf5e15a	0.030014683
16	0x3d95c2e7	0.07312565
17	0x3d87604d	0.06610165
18	0x3ac0ba44	0.0014703949
19	0x3cd5d4c2	0.026102427
20	0x3e2de938	0.16983497
21	0x3ad402e6	0.001617518
22	0xbda6da1e	-0.08147071
23	0x3e417d0b	0.18895356
24	0xbe08d0b8	-0.1336087
25	0xbdc0a65e	-0.09406732
26	0xbea57882	-0.32318503
27	0x3e481a04	0.19541174
28	0xbde2eb40	-0.110800266
29	0x3a214efe	0.00061534334
30	0xbd26aeff	-0.040694233
31	0x3daa7486	0.08323006
32	0xbd48b4f3	-0.04900069
33	0x3de692b9	0.11258454
34	0x3e4e9702	0.20174792
35	0xbda7c95a	-0.08192702
36	0x3d21b840	0.039482355
37	0xbd011b38	-0.0315201
38	0x3df5f286	0.12009148
39	0xbcfd36cf	-0.030909924
40	0xbd7206f7	-0.059088673
41	0x3d07a7b0	0.033118904
42	0x3c91dceb	0.017805537
43	0xbd4f984b	-0.050682347
44	0x3d55a508	0.05215934
45	0xbe5f56fd	-0.21810527
46	0x3da7ae78	0.08187574
47	0xbd8a58dc	-0.0675523
48	0xbdba1abc	-0.090871304
49	0x3be4eef4	0.0069864932
50	0x3e0a0ccc	0.13481444
51	0xbb4c1dee	-0.003114577
52	0xbdf11274	-0.11771098
53	0xbd9206a7	-0.07130175
54	0xbe15a947	-0.14615355
55	0xbe0119e3	-0.12607531
56	0xbdf51c31	-0.11968268
57	0xbcea9b35	-0.028638462
58	0xbb9185c9	-0.0044409973
59	0xbd1f81c2	-0.038942106
60	0x3d1075a9	0.03526846
61	0xbc78eab0	-0.015192673
62	0xbe23812a	-0.15967241
63	0xbc28fcdb	-0.010314192
64	0xbe03b3e8	-0.12861598
65	0xbc8a8208	-0.016907707
66	0xbc233caf	-0.009963199
67	0x3e23bdf5	0.15990432
68	0xbda88105	-0.082277335
69	0xbdaacfd5	-0.08340422
70	0xbdb965dc	-0.09052631
71	0x3e62cc27	0.2214819
72	0xbc8594e2	-0.016306344
73	0x3e78d2c0	0.24299145
74	0x3d6368f3	0.05552001
75	0x3ce96a65	0.028493116
76	0x3c224e3a	0.009906346
77	0x3c8c8bab	0.017156443
78	0x3ca221da	0.019791532
79	0xbc54200c	-0.012947094
80	0xbddefd63	-0.108881734
81	0x3c715909	0.0147307
82	0x3d074d20	0.033032537
83	0xbd9e5688	-0.07731348
84	0x3dd98277	0.10620587
85	0xbcb2d679	-0.021830784
86	0x3d361e6d	0.04446261
87	0xbe288088	-0.16455281
88	0x3e0bc0ba	0.13647738
89	0xbd62b9c1	-0.05535293
90	0x3ccfe160	0.025376022
91	0xbe9666a9	-0.29375198
92	0x3e23c097	0.15991436
93	0xbd15ce8f	-0.036573943
94	0x3c154681	0.009111048
95	0xbd9181bd	-0.07104824
96	0x3da02d8f	0.078211896
97	0xbddf80c7	-0.10913234
98	0x3dde7064	0.108612806
99	0x3dd5cc3f	0.104393475
100	0x3c6aa1cc	0.014320802
101	0x3d83d779	0.064375825
102	0xbd3fcdea	-0.046827234
103	0x3e15757a	0.14595595
104	0x3cff7d94	0.03118781
105	0x3d41eb24	0.04734339
106	0xbd261d5f	-0.040555354
107	0x3c667ae1	0.014067383
108	0xbda9b82f	-0.08287083
109	0x3b4623b1	0.0030233676
110	0xbe1e4dc5	-0.15459354
111	0x3e192dbe	0.14958856
112	0xbe526b9b	-0.2054886
113	0x3dfa42c4	0.12219766
114	0x3cd8f04a	0.026481766
115	0xbd017746	-0.03160789
116	0x3ccd08a6	0.025028538
117	0xbda64739	-0.081190534
118	0x3d19e07a	0.037567593
119	0x3d8d6279	0.06903548
120	0xbc3868a7	-0.01125542
121	0xbd83d9c2	-0.064380184
122	0x3e2303d7	0.15919434
123	0x3e74e60e	0.23915884
124	0xbce13932	-0.027493093
125	0xbe62a0b2	-0.22131613
126	0xbc9d2a71	-0.019185277
127	0xbe04f1fa	-0.12982932
128	0x3e4b5cb3	0.1985958
129	0xbd21adae	-0.039472274
130	0x3ce14f47	0.027503623
131	0xbd96c645	-0.07362036
132	0xbdcc6198	-0.09979552
133	0x3e29fc77	0.16600214
134	0x3df9b2b7	0.1219229
135	0x3c828b9c	0.015935712
136	0xbd2b38d7	-0.041802254
137	0xbe1aa69d	-0.1510262
138	0x3e0e8b78	0.1392039
139	0x3dc1a9e6	0.09456234
140	0x3dc91291	0.098179944
141	0xbd626f3c	-0.055281863
142	0x3e0a5406	0.13508615
143	0xbd98ba1f	-0.07457375
144	0xbd9393a8	-0.072058976
145	0xbdacbb54	-0.084341675
146	0xbd553f50	-0.052062333
147	0xbcd861db	-0.026413849
148	0x3d776366	0.060397528
149	0x3e2900e3	0.16504245
150	0x3e39613e	0.18103501
151	0x3df49690	0.1194278
152	0x398c90eb	0.00026810853
153	0x3e093777	0.13400064
154	0xbdd045ad	-0.101695396
155	0x3b2794f6	0.0025570965
156	0xbdf981f9	-0.121829934
157	0x3dd67072	0.10470666
158	0xbd3ab9a1	-0.045587186
159	0x3e00a862	0.12564233
160	0x3c9ca65b	0.019122293
161	0x3dbf1566	0.09330253
162	0x3d9c2bac	0.07625517
163	0x3e5871aa	0.2113711
164	0x3e079d81	0.13243677
165	0x3da7e501	0.08197976
166	0x3d3c0c70	0.0459103
167	0xbd7bd7a3	-0.061484944
168	0xbd0cdee9	-0.03439227
169	0x3d342342	0.043978937
170	0xbe069f4f	-0.13146709
171	0x3d049ea3	0.03237785
172	0xbce76768	-0.02824755
173	0x3e220016	0.15820345
174	0x3d138439	0.03601477
175	0xbe236d69	-0.15959705
176	0x3e3b962b	0.18319003
177	0xbcdd95df	-0.027049003
178	0xbdb9014c	-0.090334505
179	0x3dbea532	0.09308852
180	0x3db12e64	0.086514264
181	0x3e0757bb	0.1321706
182	0x3d2629ec	0.040567324
183	0x3de3718c	0.11105642
184	0xbead3c62	-0.3383513
185	0xbba48e3b	-0.005021838
186	0x3cf960ec	0.030441724
187	0x3e6d0801	0.23147584
188	0x3e1e68e8	0.15469706
189	0xba9431ce	-0.0011306347
190	0xbd66f8ab	-0.056389492
191	0x3cd82ec6	0.02638949
192	0xbd565b38	-0.052333087
193	0x3dc72e25	0.09725598
194	0xbe48978f	-0.19589065
195	0xbed3024b	-0.41212687
196	0x3e6e8caf	0.23295854
197	0xbc5da2cf	-0.013527586
198	0xbdb50ca3	-0.08840301
199	0x3e1bcd0d	0.1521494
200	0xbd91760d	-0.071025945
201	0x3e0df308	0.1386224
202	0xbd30ec07	-0.043193843
203	0x3e6498cd	0.22323914
204	0x3e2146aa	0.15749612
205	0x3d4c6245	0.049898405
206	0x3e91f97b	0.2851065
207	0xbd17d000	-0.0370636
208	0xbb8528e7	-0.004063714
209	0x3de08b74	0.109640986
210	0x3e531855	0.2061475
211	0xbdb2d3f0	-0.0873183
212	0x3df4019b	0.11914369
213	0x3de4ad6e	0.111658916
214	0x3d0eae3d	0.034834135
215	0x3cd42601	0.025897028
216	0xbee747f1	-0.45172074
217	0x3d26542e	0.040607624
218	0xbe963670	-0.29338408
219	0x3b599144	0.0033198157
220	0x3e1e26c3	0.15444474
221	0xbd0d2b67	-0.03446522
222	0xbc66d276	-0.014088264
223	0x3de0a2b7	0.109685354
224	0x3e52b8c2	0.20578292
225	0xbe92c670	-0.2866702
226	0xbd21bd6f	-0.0394873
227	0xbdf79b83	-0.120902084
228	0x3cfc351a	0.03078704
229	0xbd98381b	-0.07432576
230	0x3d0fabfc	0.035076126
231	0xbe0ce2bc	-0.13758367
232	0xbde66cfd	-0.112512566
233	0x3e504daf	0.20342134
234	0xbe45c105	-0.19311912
235	0x3c52b804	0.012861256
236	0x3d65e40f	0.056125697
237	0x3d10fbce	0.03539639
238	0xbde6a9e5	-0.112628736
239	0xbd0ec7cf	-0.03485852
240	0xbd975b5c	-0.07390472
241	0x3d55c644	0.052191034
242	0xbdf4cd4c	-0.1195322
243	0xbe1096fa	-0.14120093
244	0x3de20005	0.1103516
245	0x3aa1f3f0	0.0012356024
246	0xbc82e321	-0.015977444
247	0xbd8472ac	-0.064671844
248	0xbd8509c3	-0.064960025
249	0xbde8f508	-0.11374861
250	0xbe7f57a9	-0.24935783
251	0x3e3c9436	0.18415913
252	0xbe4f6948	-0.20255005
253	0x3cdf5bc1	0.027265431
254	0x3d198dc2	0.037488706
255	0xbd925f5a	-0.07147093

dnn.0.bias f4 [10]
0	0xbcc77631	-0.02434835
1	0x3b748e2c	0.0037316186
2	0xbdcba95a	-0.099444106
3	0x3db731ee	0.0894507
4	0xbeb34c09	-0.35018948
5	0xbe145393	-0.14485006
6	0x3cb7630d	0.022386098
7	0xbd298887	-0.04138997
8	0xbda52791	-0.08064187
9	0x3d600c0b	0.054698985

dnn.2.weight f4 [10, 10]
0	0x3d219c1e	0.039455526
1	0xbdb64d73	-0.08901491
2	0xbe3a5b24	-0.1819883
3	0xbe0720c8	-0.13196099
4	0x3e26640d	0.16249104
5	0x3e153a9a	0.14573136
6	0x3e110056	0.14160284
7	0x3b8eb7bd	0.0043553994
8	0xbe536b84	-0.20646483
9	0xbdcc8b70	-0.09987533
10	0x3e160e2a	0.1465384
11	0x3e785f75	0.24255164
12	0xbe11aac8	-0.14225304
13	0xbe757228	-0.23969328
14	0x3e1a8ca0	0.15092707
15	0xbc8d99b5	-0.017285207
16	0xbea8bac6	-0.32954997
17	0xbd03fbdf	-0.032222625
18	0x3b759537	0.0037472972
19	0xbe4163fd	-0.18885799
20	0xbe96efd5	-0.29479852
21	0xbe7dc0cb	-0.24780576
22	0x3e4928dc	0.19644493
23	0x3e85f88c	0.2616619
24	0xbe733531	-0.2375076
25	0xbe5de33a	-0.21668711
26	0x3ea081c9	0.31349018
27	0xbe520fc2	-0.20513824
28	0x3e34c5b5	0.17653544
29	0x3e01e2a4	0.12684113
30	0x3d8268e5	0.06367663
31	0xbe0173f7	-0.12641893
32	0xbcb299d1	-0.021801861
33	0x3e6555cd	0.22396012
34	0xbe134941	-0.14383413
35	0xbe9e231d	-0.30886164
36	0x3da4d145	0.080477275
37	0xbe536e69	-0.20647587
38	0x3d1f810b	0.038941424
39	0x3e8b1436	0.27163857
40	0xbdd2599d	-0.102709986
41	0x3e7ea769	0.2486855
42	0x3d57c938	0.05268213
43	0xbd45f1e6	-0.048326395
44	0xbd53e528	-0.051732212
45	0x3dfb834f	0.122809045
46	0x3d7e045c	0.062015876
47	0x3e574282	0.21021464
48	0x3e101c6a	0.14073339
49	0x3e9ff08f	0.3123822
50	0xbe5f4d8c	-0.21806926
51	0x3deabec4	0.11462167
52	0x3e4ab66e	0.19796154
53	0x3e231f85	0.15929992
54	0xbe8c9306	-0.2745592
55	0x3e411b0c	0.18857974
56	0xbe5897cc	-0.21151656
57	0xbe90302b	-0.2816175
58	0xbd7c8f6e	-0.061660223
59	0x3e8393ed	0.25698796
60	0x3de4ba2c	0.11168322
61	0xbc1c2d4c	-0.009532284
62	0x3dffb9b1	0.1248659
63	0xbc1f0396	-0.009705445
64	0x3e60d511	0.21956278
65	0x3db2a00d	0.087219335
66	0xbd7ea4f6	-0.062169038
67	0xbe782d97	-0.24236141
68	0xbe15214e	-0.14563486
69	0x3e70e61a	0.23525277
70	0xbe9b2912	-0.30304772
71	0x3dc651d1	0.09683574
72	0xbea59a1a	-0.32344133
73	0x3d55f668	0.052236944
74	0xbe956a1f	-0.29182526
75	0xbd939fc2	-0.07208206
76	0xbd4071bc	-0.046983466
77	0xbdd06d77	-0.10177129
78	0xbe80ff03	-0.25194559
79	0xbde36abc	-0.11104342
80	0x3d055800	0.032554626
81	0x3e432edc	0.19060844
82	0x3e91b60e	0.2845921
83	0xbdc77f37	-0.09741061
84	0xbe5f0743	-0.21780114
85	0xbe2fdb48	-0.17173493
86	0x3e02bc62	0.12767175
87	0x3e0f8a88	0.14017689
88	0x3e98061a	0.29692155
89	0xbc327713	-0.010892647
90	0x3e2985b7	0.16554914
91	0xbe7de8f9	-0.24795903
92	0x3e5358f2	0.20639399
93	0x3e30e966	0.17276534
94	0x3e4bfadb	0.19919913
95	0xbc924aca	-0.017857928
96	0x3e4fc0a3	0.20288329
97	0x3e9fe5ce	0.31230015
98	0xbea3f642	-0.32023817
99	0xbe838ddb	-0.25694165

dnn.2.bias f4 [10]
0	0x3db84b58	0.08998746
1	0xbe31f7e6	-0.17379722
2	0xbe9b11b1	-0.30286935
3	0x3daf49e9	0.08559019
4	0x3e86b839	0.26312426
5	0xbda374a3	-0.07981231
6	0x3d4bf709	0.049796138
7	0x3ea1cb6b	0.31600508
8	0xbe8a00c1	-0.269537
9	0xbd86fa9d	-0.065907694

dnn.4.weight f4 [10, 10]
0	0x3e8b54b5	0.27213064
1	0xbe32d6ad	-0.17464705
2	0xbdd0c1f7	-0.10193246
3	0x3e59e2da	0.21277943
4	0x3e3fc937	0.18729101
5	0x3e4482d3	0.1919053
6	0x3d06e963	0.03293742
7	0x3e9b6c38	0.30356002
8	0xbe714fc0	-0.23565578
9	0xbe7134cb	-0.23555295
10	0x3e5f3621	0.21797992
11	0x3dafbbe0	0.08580756
12	0x3eab32a7	0.33437082
13	0xbe812cdb	-0.25229535
14	0xbe6c12fb	-0.23054115
15	0x3c01d9f7	0.007925502
16	0x3d348f46	0.04408195
17	0x3e8f7fda	0.2802723
18	0x3d9f1199	0.07767028
19	0x3e615079	0.22003354
20	0x3e0f031a	0.13966027
21	0x3da9a576	0.08283512
22	0x3e494dd9	0.19658603
23	0xbdf9d3f4	-0.1219863
24	0xbc3ea4c9	-0.0116359675
25	0xbe85a4f1	-0.26102403
26	0xbd11e5a8	-0.035619408
27	0xbe8a6418	-0.2702949
28	0xbe56c10d	-0.2097208
29	0xbd2553b9	-0.040363047
30	0x3e37e581	0.17958643
31	0xbe49321b	-0.1964802
32	0x3e13cdfd	0.14434047
33	0x3e06438f	0.13111709
34	0xbb61bd0c	-0.0034444956
35	0xbe8907e9	-0.26763847
36	0xbde3c3f0	-0.111213565
37	0xbe0e15c6	-0.13875493
38	0xbe592559	-0.21205653
39	0xbe170371	-0.14747407
40	0x3dbdad89	0.09261615
41	0xbd898188	-0.06714159
42	0x39d50db2	0.0004063673
43	0xbe269d2e	-0.16270897
44	0xbe182549	-0.14857973
45	0xbdc4f51e	-0.09617065
46	0xbe699e09	-0.22814192
47	0xbd213ab7	-0.039362635
48	0xbe2c8863	-0.16848902
49	0x39c7582d	0.00038021934
50	0x3ab41f85	0.0013742304
51	0x3e6bd5c7	0.23030768
52	0x3e0803e9	0.13282742
53	0x3ece9d42	0.40354353
54	0x3c8565bb	0.01628386
55	0xbd3f7e28	-0.04675117
56	0xbe789856	-0.24276862
57	0x3d4ae6a4	0.049536362
58	0x3d0cf69a	0.034414865
59	0x3e28ab32	0.16471556
60	0xbe7e0f02	-0.24810413
61	0xbe235353	-0.15949754
62	0x3e448cfc	0.19194406
63	0xbe6cedf0	-0.23137641
64	0x3e654e8d	0.22393246
65	0x3e8f41d7	0.2797992
66	0xbdee890a	-0.11647232
67	0x3d754340	0.059878588
68	0xbe487ce4	-0.19578892
69	0xbe81055b	-0.25199398
70	0x3d240166	0.040040396
71	0xbc23f211	-0.010006444
72	0x3d174660	0.03693235
73	0x3e5f8e3b	0.218316
74	0x3e279eae	0.16369125
75	0xbe1026a5	-0.14077242
76	0xbe2f253e	-0.1710405
77	0x3e90e2b9	0.28297976
78	0x3e8ac129	0.27100495
79	0xbdb3c2c3	-0.08777382
80	0xbdaa7ab8	-0.08324188
81	0xbd3ffd07	-0.046872165
82	0xbe25cf53	-0.16192369
83	0x3dae01ee	0.08496462
84	0xbe7a7158	-0.244573
85	0x3dda6fc3	0.10665848
86	0xbe7d7d48	-0.24754822
87	0xbe23e8a8	-0.1600672
88	0x3e19bc27	0.1501318
89	0xbd2ea295	-0.04263552
90	0xbbaff6ba	-0.0053699883
91	0xbe7244bc	-0.23659033
92	0xbe4e62c7	-0.20154868
93	0x3b85fc8f	0.004088945
94	0x3e296437	0.16542135
95	0x3dc6e816	0.09712236
96	0x3e851ef3	0.26000175
97	0xbe59ed4b	-0.21281926
98	0x3d83f2b4	0.06442776
99	0x3d0244b5	0.031803805

dnn.4.bias f4 [10]
0	0x3e67effc	0.2265014
1	0xbdf074ee	-0.117410526
2	0xbe5fea95	-0.2186683
3	0x3e310a16	0.17289004
4	0xbde0e0ab	-0.10980352
5	0xbe4fdb06	-0.20298395
6	0x3e73b9df	0.23801373
7	0x3e9f6591	0.31132177
8	0xbc4baad2	-0.012430863
9	0xbe193eda	-0.14965382

dnn.6.weight f4 [1, 10]
0	0x3e8d7346	0.2762701
1	0xbde9b02f	-0.114105575
2	0x3e252e87	0.1613103
3	0xbe3eb3f3	-0.18623333
4	0x3e2b8cac	0.16752881
5	0x3d308c5f	0.04310262
6	0x3e4f43eb	0.20240752
7	0x3ddbe4e4	0.10737017
8	0xb8e29db2	-0.00010805893
9	0xbde8dc71	-0.11370171
