Result/pgr.pth (torch, 754496 bytes, 9 tensors)

multihead_attn.in_proj_weight f4 [579, 193]
-0.050224833 -0.08887708 0.0646549 0.0611996 0.07726567 0.020762457 0.07068063 0.03603364
-0.06185457 0.04642776 0.07571027 -0.071879655 0.044456508 -0.05992045 0.06645578 0.063601375
0.013868134 0.027293548 -0.0029408052 0.07815663 0.029294308 0.06283193 0.07332526 -0.060617242
-0.0050642723 0.019537944 0.11578656 0.057584558 0.044491224 0.01649792 -0.09331135 0.009218018
0.010615497 0.04642377 0.07851968 0.05046904 -0.013329907 0.07806781 0.0678466 0.006995939
-0.022824703 -0.069267645 -0.03240831 -0.03279342 0.034076944 0.008385022 -0.04624362 -0.07256079
-0.070880346 -0.047025993 0.00405558 0.070925936 -0.039096016 0.0033826013 0.081603706 0.000548447
0.028164744 -0.09335662 -0.040483013 0.020537436 0.06331079 0.04610287 -0.08740278 0.007062703
0.10776829 -0.006829387 -0.027696865 -0.06012723 0.026331907 -0.04714121 0.025731843 -0.053358886
-0.06137788 -0.012448929 0.09335925 -0.063370064 -0.05150106 0.057319727 -0.07345437 -0.043638892
0.013652925 -0.108317226 0.097373255 0.0634176 0.0035693643 -0.09566919 0.06374448 0.0036218702
-0.0675571 -0.017742515 -0.0818565 0.03761183 0.059707183 0.09416401 -0.016091052 -0.100033924
-0.041283052 -0.03469291 -0.060870264 0.0410401 -0.07170036 -0.05098144 0.050106294 -0.04619662
0.08306674 -0.06674566 -0.0090918 0.0054549505 -0.06088006 0.01941043 0.080544874 0.045769
0.060061034 0.03493307 0.07029948 -0.0045887385 -0.09580198 -0.026960215 -0.0933597 -0.08341863
0.019006992 0.054184828 -0.03963023 0.056958914 -0.07468317 0.07494381 0.09245985 0.057611845
-0.020271203 0.0853553 0.0029739018 0.06960085 -0.10688928 0.05608744 0.0019935546 -0.09114162
0.046705958 0.047755077 0.03763016 -0.013012238 -0.02527875 0.049965635 0.047733426 0.057781238
0.014634736 -0.06483448 -0.022578385 0.006977956 0.06671229 0.032968603 -0.028442636 -0.026786376
0.008152154 0.01310316 0.04427062 -0.0021945203 0.09154877 -0.02359464 -0.018014275 0.042010635
0.034264427 0.08487884 0.07452884 -0.042395707 -0.0033938827 -0.03481208 -0.05079994 0.035686377
-0.0031399291 -0.031220935 0.053657137 -0.04875765 0.038277365 -0.038823497 0.020636315 0.07187298
0.07442421 -0.08815356 -0.0042645084 0.04305908 0.05796393 -0.09294979 0.062962405 -0.04158891
-0.050934985 -0.08034631 -0.01715469 -0.062319353 -0.0040881066 -0.01128207 0.054564342 0.0740385
-0.08488929 0.11878168 0.107596874 -0.092771456 0.07724547 0.06363201 -0.06476787 -0.06239567
0.025414996 -0.09262959 0.07610345 0.015540431 -0.02027139 0.046473958 -0.009716267 0.032601133
-0.029052407 -0.08864539 0.05165502 -0.07299155 -0.102071285 -0.10792317 -0.021246202 0.035429556
0.022376247 0.104179054 -0.054297283 -0.081889585 -0.011967439 0.09347632 0.052543927 -0.02330427
-0.010894147 0.08902357 0.048163436 -0.020328375 -0.028800441 0.0585546 -0.05022987 0.0016545889
0.04327246 0.027493497 0.032766026 -0.07894015 -0.035749096 0.09325149 0.07290875 0.04312542
0.053022068 -0.097015746 -0.019409858 0.04003155 0.015360178 0.028157195 0.050320502 -0.09229203
-0.013868217 -0.04639561 0.11808227 0.049452282 0.011294974 0.06202417 0.06642934 0.053606853
00000000: 8eb8 4dbd 3005 b6bd ca69 843d 6fac 7a3d
00000010: 773d 9e3d 0716 aa3c 02c1 903d 0398 133d
00000020: 385b 7dbd 092b 3e3d fc0d 9b3d a435 93bd
00000030: 0718 363d 256f 75bd f819 883d 7041 823d
00000040: 2b37 633c b896 df3c 86ba 40bb 9510 a03d
00000050: 9efa ef3c 07ae 803d 8e2b 963d c949 78bd
00000060: 32f2 a5bb 0a0e a03c 8121 ed3d c9dd 6b3d
00000070: 6e3c 363d a526 873c 051a bfbd 2b07 173c
00000080: 9fec 2d3c da26 3e3d edce a03d a0b8 4e3d
00000090: af65 5abc 04e2 9f3d 29f3 8a3d 313e e53b
000000a0: dffa babc 32dc 8dbd 93be 04bd 6552 06bd
000000b0: 4494 0b3d 5561 093c f369 3dbd c09a 94bd
000000c0: b729 91bd 549e 40bd ace4 843b 9e41 913d
000000d0: 2523 20bd a2ae 5d3b d81f a73d a8c5 0f3a
000000e0: c0b9 e63c c131 bfbd 84d1 25bd 203e a83c
000000f0: 16a9 813d 5dd6 3c3d 3b00 b3bd 3f6e e73b
00000100: 9fb5 dc3d 0dc9 dfbb 89e4 e2bc f847 76bd
00000110: 03b6 d73c 2417 41bd 96cb d23c d98e 5abd
00000120: 5f67 7bbd 98f6 4bbc 2233 bf3d 2ac8 81bd
00000130: c7f2 52bd 17c8 6a3d 3f6f 96bd b2be 32bd
00000140: 85b0 5f3c 6cd5 ddbd a16b c73d 16e1 813d
00000150: ffeb 693b 35ee c3bd 778c 823d e65c 6d3b
00000160: 605b 8abd c058 91bc 61a4 a7bd dd0e 1a3d
00000170: 858f 743d 0fd9 c03d 62d1 83bc 96de ccbd
00000180: 6b18 29bd 271a 0ebd 1953 79bd aa19 283d
00000190: a3d7 92bd ead1 50bd 423c 4d3d ab38 3dbd
000001a0: e51e aa3d f3b1 88bd c6f5 14bc 71bf b23b
000001b0: 5f5d 79bd 9f02 9f3c b6f4 a43d 4678 3b3d
000001c0: 8f02 763d fb15 0f3d 2cf9 8f3d 215d 96bb
000001d0: d433 c4bd abdb dcbc 5f33 bfbd 63d7 aabd
000001e0: 8db4 9b3c e9f0 5d3d 4f53 22bd c04d 693d
000001f0: 7df3 98bd 247c 993d 975b bd3d 66fa 6b3d
00000200: cb0f a6bc c2ce ae3d cbe5 423b e48a 8e3d
00000210: c4e8 dabd f2bb 653d 4ca6 023b 75a8 babd
00000220: bf4e 3f3d d49a 433d 1522 1a3d 4831 55bc
00000230: 6215 cfbc c4a8 4c3d 2084 433d 05ac 6c3d
00000240: 88c6 6f3c f1c7 84bd 4ef6 b8bc 56a7 e43b
00000250: 74a0 883d 160a 073d 8800 e9bc 1a6f dbbc
00000260: 9d90 053c a3ae 563c 1c55 353d f1d1 0fbb
00000270: ec7d bb3d 8c49 c1bc ac92 93bc 5813 2c3d
00000280: db58 0c3d f5d4 ad3d 94a2 983d 1fa7 2dbd
00000290: e76b 5ebb 1d97 0ebd 9913 50bd e12b 123d
000002a0: 45c7 4dbb 0cc3 ffbc 96c7 5b3d 1ab6 47bd
000002b0: bac8 1c3d 6305 1fbd 7d0d a93c 2432 933d
000002c0: b86b 983d db89 b4bd 4abd 8bbb b85e 303d
000002d0: 966b 6d3d 765c bebd 6ff2 803d 2259 2abd
000002e0: 34a1 50bd 9b8c a4bd fe87 8cbc 9442 7fbd
000002f0: 86f5 85bb 6ed8 38bc dc7e 5f3d 7fa1 973d
00000300: 70da adbd cf43 f33d c05b dc3d f6fe bdbd
00000310: df32 9e3d 8051 823d 04a5 84bd 9a92 7fbd
00000320: 1c33 d03c 95b4 bdbd 20dc 9b3d 4b9d 7e3c
00000330: 3010 a6bc 7a5b 3e3d fa30 1fbc c488 053d
00000340: 50ff edbc b78b b5bd 3794 533d 987c 95bd
00000350: c00a d1bd d306 ddbd 840c aebc 951e 113d
00000360: 644e b73c d45b d53d d466 5ebd bab5 a7bd
00000370: 1413 44bc 8370 bf3d 4d38 573d 99e8 bebc
00000380: 5d7d 32bc fd51 b63d 0647 453d b187 a6bc
00000390: e7ee ebbc f3d6 6f3d d6bd 4dbd cade d83a
000003a0: 773e 313d 0b3a e13c ab35 063d 60ab a1bd
000003b0: a56d 12bd a3fa be3d 2f51 953d 48a4 303d
000003c0: ab2d 593d 31b0 c6bd 6c01 9fbc 1ff8 233d
000003d0: 42a9 7b3c eba9 e63c df1c 4e3d 9b03 bdbd
000003e0: 8537 63bc 5309 3ebd 1ed5 f13d 7a8e 4a3d
000003f0: 8e0e 393c 0e0d 7e3d 1b0c 883d dc92 5b3d

multihead_attn.in_proj_bias f4 [579]
0.02585941 -0.032350287 0.017842231 -0.025342429 -0.034461413 0.032423917 0.03016226 -0.02203572
-0.014570834 0.025351044 0.023942877 -0.033520088 -0.031324558 -0.001635871 -0.027279733 -0.0023265136
0.016177578 0.036874406 -0.028259356 0.032574266 -0.01296614 0.03561521 -0.023527028 -0.032832306
0.032910667 0.015805718 0.011666328 0.021489905 0.03428771 0.019469049 -0.030117916 -0.0008339417
-0.023959477 0.02805158 0.017080028 -0.009276817 0.0018435167 -0.0039965934 -0.015508988 -0.009051997
-2.659639e-06 -0.034623004 0.0066360743 -0.032841057 -0.00032634297 0.01105508 0.0345879 0.017743902
0.009066324 0.01691487 -0.025532838 -0.008286444 0.004048107 0.029125338 0.028773978 0.01076849
-0.027910128 0.029166088 0.03546185 0.025390664 -0.020552242 0.027811501 -0.008931437 -0.008752664
-0.027869403 -0.019853702 0.0070166294 -0.006525217 -0.033420086 0.033945795 -0.016371239 0.030906007
-0.016547004 -0.011002513 -0.017730674 -0.03754912 -0.025093231 0.0059848693 -0.027167803 -0.0072167185
-0.03308969 -0.010999341 -0.03320357 0.029654011 -0.0056849555 0.018914858 0.034189742 0.0355481
-0.005761246 0.029301526 -0.031553786 -0.0071299667 -0.023491174 0.03356632 0.027853101 -0.026120445
-0.015871434 0.026405126 -0.006097519 -0.030686634 0.026289502 0.028412078 -0.0317126 -0.023706112
0.029641815 -0.036705226 0.019704042 -0.03457641 0.032701943 0.032348737 0.030811511 -0.019759139
0.018587127 -0.011194823 -0.024047464 -0.026865413 0.014851097 0.008371129 -0.030915726 -0.031885967
-0.020925643 0.02934407 -0.0048880083 0.026717933 0.02150293 -0.021636626 0.028664347 -0.011152815
0.024174206 -0.013245046 0.021041472 0.02348828 -0.020072272 -0.027460651 0.018234387 0.009786247
0.0068073412 -0.0374236 0.037744965 -0.024151951 0.013714347 -0.01588781 -0.03178893 -0.026084721
0.03659574 -0.035698503 -0.020047609 -0.0259754 0.037822634 -0.03356728 0.035097297 0.026219865
0.024921127 -0.031822965 -0.0371981 0.016178843 -0.021267224 0.0064783664 0.02387222 0.021751389
-0.0069190073 0.009105424 -0.0015578044 -0.015657656 0.005454076 0.0029337304 -0.03105951 0.022419024
-0.02190866 0.024735041 -0.031872008 -0.002766871 0.028691955 0.0013680559 0.036939777 0.016541697
-0.03081278 -0.023007706 0.03362122 0.018688764 -0.034645654 -0.02928348 0.0029310235 -0.02985144
0.025187308 0.030091655 0.018091302 0.021819785 0.02604631 0.024551848 -0.033329453 -0.026681235
0.008772056 0.00025549598 -1.6366443e-05 -0.00023888706 -0.00019547797 -0.00015086094 0.00016734443 4.3372052e-05
0.00013940738 7.952131e-05 -0.00016305818 7.420971e-05 1.478251e-05 -0.00021096965 6.1031704e-05 -4.2909283e-05
-0.00012192908 -0.00019698469 3.1189436e-05 -8.027219e-05 9.22034e-05 -0.00025315917 -4.7217043e-05 0.00019975737
2.4128794e-05 -0.00010070341 6.179286e-05 -0.0001276894 -0.00015690358 3.279993e-05 0.0002002232 -0.00015163001
0.000189574 -0.00018809205 -5.984812e-05 6.178873e-05 9.24504e-05 6.008204e-05 -0.00016677432 9.5835494e-05
-0.0001728883 -0.0002195719 -0.000100675104 0.00016756137 -3.503298e-06 -5.8499314e-05 -8.411367e-05 5.3082444e-05
-6.8475616e-05 -0.00010620925 0.00019541562 -0.0001792223 0.00023588137 8.0325124e-05 -0.00019221901 9.604269e-05
-0.00017915975 -0.00012394662 8.442143e-05 4.0458926e-05 -0.00018424097 -3.5579655e-05 -6.931743e-05 -9.5954565e-05
00000000: 1dd7 d33c bc81 04bd df29 923c ed9a cfbc
00000010: 6927 0dbd f1ce 043d d816 f73c 4184 b4bc
00000020: 82ba 6ebc feac cf3c da23 c43c 5c4c 09bd
00000030: 2e4e 00bd b96a d6ba bf79 dfbc 6c78 18bb
00000040: d786 843c 9e09 173d 2a80 e7bc 986c 053d
00000050: ef6f 54bc 41e1 113d c1bb c0bc 2b7b 06bd
00000060: 56cd 063d fe7a 813c 2024 3f3c 990b b03c
00000070: 4571 0c3d 8e7d 9f3c d9b9 f6bc e19c 5aba
00000080: aa46 c4bc 6dcc e53c 6aeb 8b3c cafd 17bc
00000090: 28a2 f13a dbf5 82bb 6919 7ebc d44e 14bc
000000a0: 407c 32b6 dad0 0dbd 6d73 d93b 5884 06bd
000000b0: 0319 abb9 5e20 353c 0bac 0d3d a95b 913c
000000c0: eb8a 143c 0e91 8a3c 3e2a d1bc ddc3 07bc
000000d0: fca5 843b 4398 ee3c 68b7 eb3c 526e 303c
000000e0: c8a3 e4bc b8ed ee3c 7240 113d 1500 d03c
000000f0: 2d5d a8bc f2d4 e33c 2955 12bc 5567 0fbc
00000100: 604e e4bc 3ba4 a2bc c1eb e53b 7dd1 d5bb
00000110: 80e3 08bd bf0a 0b3d fa1c 86bc 982e fd3c
00000120: 958d 87bc e243 34bc eb3f 91bc 1bcd 19bd
00000130: 5290 cdbc b91c c43b 038f debc 397a ecbb
00000140: 0e89 07bd 9436 34bc 7700 08bd f8ec f23c
00000150: dd48 babb 55f3 9a3c 8b0a 0c3d e29a 113d
00000160: d6c8 bcbb c109 f03c 8b3e 01bd 7fa2 e9bb
00000170: 9070 c0bc d67c 093d 302c e43c 8bfa d5bc
00000180: cf04 82bc 904f d83c b2cd c7bb 8962 fbbc
00000190: 155d d73c 72c0 e83c 12e5 01bd 5233 c2bc
000001a0: 64d3 f23c 3858 16bd 5f6a a13c fe9f 0dbd
000001b0: 79f2 053d 1c80 043d 6c68 fc3c ebdd a1bc
000001c0: 0844 983c 7e6a 37bc 30ff c4bc db14 dcbc
000001d0: 0452 733c 0f27 093c fa42 fdbc dc9a 02bd
000001e0: 416c abbc fa62 f03c 962b a0bb 91df da3c
000001f0: ea26 b03c 4b3f b1bc 7ed1 ea3c 4cba 36bc
00000200: fc08 c63c c001 59bc 2a5f ac3c 7e6a c03c
00000210: 9b6e a4bc 29f5 e0bc 4860 953c 7f56 203c
00000220: 1e10 df3b 7d49 19bd 779a 1a3d 50da c5bc
00000230: 24b2 603c 2727 82bc 1c35 02bd a0af d5bc
00000240: 6ae5 153d 9838 12bd e23a a4bc 5dca d4bc
00000250: e8eb 1a3d d87d 09bd 2fc2 0f3d 0bcb d63c
00000260: 6427 cc3c cc58 02bd 095d 18bd 7e89 843c
00000270: 9a38 aebc 7a48 d43b ad8f c33c f82f b23c
00000280: d7b8 e2bb eb2e 153c 3e2f ccba 7c44 80bc
00000290: 1bb8 b23b d443 403b 8370 febc 1aa8 b73c
000002a0: ca79 b3bc 24a1 ca3c 398c 02bd 6454 35bb
000002b0: 640b eb3c 5750 b33a 2a4e 173d 7482 873c
000002c0: 156b fcbc a87a bcbc 68b6 093d 2e19 993c
000002d0: 9ae8 0dbd e9e3 efbc 6a16 403b 028b f4bc
000002e0: 9d55 ce3c c682 f63c 3634 943c 68bf b23c
000002f0: 125f d53c f520 c93c 7784 08bd 9b92 dabc
00000300: abb8 0f3c 17f4 8539 ab4a 89b7 c27d 7ab9
00000310: 38f9 4cb9 6d30 1eb9 2e79 2f39 63ea 3538
00000320: e22d 1239 aec4 a638 99fa 2ab9 09a1 9b38
00000330: 6602 7837 bc37 5db9 4bfc 7f38 7ef9 33b8
00000340: 2db4 ffb8 ad8d 4eb9 67d1 0238 ce57 a8b8
00000350: 535d c138 73ba 84b9 ea0a 46b8 f675 5139
00000360: 3168 ca37 bb30 d3b8 ca96 8138 5de4 05b9
00000370: 7c86 24b9 a892 0938 02f3 5139 dffe 1eb9
00000380: 62c8 4639 933a 45b9 6e05 7bb8 9294 8138
00000390: eee1 c138 9900 7c38 24e0 2eb9 4afb c838
000003a0: 5a49 35b9 e23c 66b9 8921 d3b8 6ab3 2f39
000003b0: 341a 6bb6 295d 75b8 2f66 b0b8 d7a4 5e38
000003c0: 919a 8fb8 a8bc deb8 7be8 4c39 9fed 3bb9
000003d0: ec56 7739 3974 a838 668e 49b9 876a c938
000003e0: d4dc 3bb9 abf7 01b9 690b b138 71b2 2938
000003f0: cf30 41b9 5d3b 15b8 835e 91b8 373b c9b8

multihead_attn.out_proj.weight f4 [193, 193]
-0.003347428 -0.032390192 0.06472563 -0.035212975 0.028902983 0.002998514 0.006791507 0.050191112
-0.03116469 0.03500724 -0.014269921 -0.004799741 -0.026310226 -0.03708715 -0.0025775903 -0.048812047
-0.06175947 0.046989065 0.047266316 0.046368193 0.017564923 -0.009001235 -0.06987936 0.035907954
0.057548545 0.03349185 0.011519787 -0.027276758 0.004580568 0.018649971 0.013285496 0.019810323
0.0016397147 0.07179774 -0.04417645 0.043074965 0.021976044 -0.00702081 0.025741108 -0.039879788
0.063693285 0.042010292 0.08413185 0.03066287 0.023935186 0.04264655 0.053100955 -0.008437259
-0.05025406 0.022115448 -0.017008169 0.006170254 -0.013047777 0.03130896 -0.074237265 -0.016210658
-0.033156365 -0.025630929 -0.0017572874 0.051255494 0.014419186 -0.029234465 0.0015011819 0.006145792
0.08463007 0.040948275 -0.07238164 0.013326805 0.015523749 0.058960114 0.063287094 0.024011951
0.06079106 -0.04634244 -0.04842149 -0.020218732 -0.056236673 0.03153826 0.030895451 0.0016153022
0.08381857 -0.0139731085 -0.0092621045 -0.031317223 0.023323113 0.023159172 0.0047648516 0.028012248
-0.055570222 0.041118737 0.00594713 -0.028065851 -0.029312583 0.022163317 3.3441087e-05 -0.019600017
0.046887003 -0.05735342 -0.05301365 -0.02270236 -0.0032311222 0.037720546 0.02671506 0.047520928
0.006263192 0.014883962 -0.054946918 0.036484405 -0.013089487 -0.06217201 -0.013241826 -0.0662739
-0.059908815 -0.04129449 -0.00593342 0.010199696 -0.010889583 -0.07373263 0.0637575 0.058517445
-0.007569174 -0.062264875 -0.004930211 -0.05307927 -0.04089748 -0.07673021 -0.049361683 0.047216922
0.049824134 0.02452929 0.022929555 0.05006891 0.007630555 0.009414364 0.03401639 0.034131326
-0.062222898 0.013793707 0.044839676 0.03458018 0.01629113 -0.034117065 0.04115144 0.0136753945
-0.021125395 -0.026743365 -0.020942347 0.028594464 -0.012828119 0.031074606 -0.050355136 0.03201847
-0.04294728 0.03868512 0.04104522 -0.019589256 -0.053643458 -0.029091826 0.04290185 0.0082815895
0.014161362 -0.015463447 0.01785592 0.028268127 0.076557085 0.028549237 -0.03839226 0.008961781
0.008814559 0.012271126 0.015159554 0.056030817 -0.059815563 -0.022336733 0.046174534 0.055846702
-0.05102444 -0.055606145 0.03498992 0.08485571 0.060009476 0.057949502 0.045840986 0.026960809
0.058017552 0.040399276 -0.01674299 0.017942747 0.045636177 -0.03895969 -0.0112233665 -0.0058819912
-0.029340088 -0.06384743 -0.074372835 -0.016419604 -0.04321584 -0.03689259 -0.013947894 -0.0064060125
0.054216098 -0.00028801843 0.055946667 -0.07840711 0.0037409763 -0.0066987257 0.057011057 0.06690618
0.06370338 0.031144619 -0.0235097 0.05969485 0.06295934 -0.019227069 -0.042254094 0.014648756
-0.014926078 0.038392007 -0.05218466 0.028909532 0.0071212957 0.06542802 -0.03720866 -0.048287604
-0.061544567 0.021275332 -0.02423526 0.054309227 0.020357016 0.030626202 0.025878916 0.072793685
-0.043666363 0.026205458 0.0457689 -0.054182965 -0.044005718 0.029997159 0.060846265 -0.022287905
0.024546023 0.040520336 0.011956286 -0.014751475 0.035958182 0.0009795165 -0.008684807 0.058604937
0.043217517 0.030618295 -0.058437534 -0.057814106 0.04059 0.021895057 -0.004626886 0.028011264
00000000: 8660 5bbb 94ab 04bd df8e 843d 7b3b 10bd
00000010: f3c5 ec3c b882 443b 4a8b de3b 3295 4d3d
00000020: 184d ffbc c063 0f3d 63cc 69bc 2547 9dbb
00000030: 8b88 d7bc b2e8 17bd caec 28bb 24ef 47bd
00000040: 7ff7 7cbd 9b77 403d 539a 413d 93ec 3d3d
00000050: 50e4 8f3c ea79 13bc e91c 8fbd 3814 133d
00000060: 06b8 6b3d c02e 093d 7dbd 3c3c 8273 dfbc
00000070: 9718 963b d3c7 983c 69ab 593c 4249 a23c
00000080: b2eb d63a b20a 933d 5ef2 34bd 606f 303d
00000090: 1b07 b43c d30e e6bb 04df d23c fd58 23bd
000000a0: a071 823d fc12 2c3d 524d ac3d b330 fb3c
000000b0: b913 c43c 26ae 2e3d 6380 593d 6e3c 0abc
000000c0: 34d7 4dbd 752b b53c b754 8bbc d82f ca3b
000000d0: 58c6 55bc d33d 003d b509 98bd 37cc 84bc
000000e0: f8ce 07bd f4f7 d1bc c854 e6ba 48f1 513d
000000f0: 733e 6c3c 1e7d efbc 4ec3 c43a a462 c93b
00000100: 8852 ad3d 61b9 273d d33c 94bd ac58 5a3c
00000110: 5357 7e3c 2980 713d aa9c 813d b6b4 c43c
00000120: 0c00 793d 92d1 3dbd 9d55 46bd c1a1 a5bc
00000130: 6d58 66bd 432e 013d 7518 fd3c 8cb8 d33a
00000140: 12a9 ab3d 77ef 64bc 15c0 17bc 7d46 00bd
00000150: 1d10 bf3c 4eb8 bd3c 7922 9c3b f179 e53c
00000160: 9a9d 63bd 1f6c 283d 24e0 c23b 5bea e5bc
00000170: f120 f0bc d88f b53c 1843 0c38 3790 a0bc
00000180: 960c 403d 6beb 6abd d724 59bd 4dfa b9bc
00000190: 3cc1 53bb dc80 1a3d 8bd9 da3c 4ea5 423d
000001a0: 763b cd3b dddb 733c 0510 61bd ac70 153d
000001b0: 4a75 56bc 14a8 7ebd 3ef4 58bc 9cba 87bd
000001c0: f262 75bd 6924 29bd 226d c2bb a01c 273c
000001d0: 396a 32bc 2201 97bd 4b93 823d fdaf 6f3d
000001e0: d506 f8bb 7409 7fbd 9c8d a1bb a669 59bd
000001f0: 1e84 27bd ba24 9dbd 7a2f 4abd 8866 413d
00000200: 6414 4c3d a6f1 c83c c3d6 bb3c 0f15 4d3d
00000210: bc09 fa3b b43e 1a3c c554 0b3d 4acd 0b3d
00000220: 70dd 7ebd 00ff 613c cfa9 373d f2a3 0d3d
00000230: fa74 853c 56be 0bbd 6a8e 283d c30e 603c
00000240: 2a0f adbc e714 dbbc 498f abbc f03e ea3c
00000250: 082d 52bc 2c90 fe3c 3041 4ebd cd25 033d
00000260: 7de9 2fbd 4a74 1e3d 081f 283d a679 a0bc
00000270: 3eb9 5bbd fb51 eebc dab9 2f3d 81af 073c
00000280: 0f05 683c 665a 7dbc 9446 923c 8f92 e73c
00000290: f6c9 9c3d 17e0 e93c 3441 1dbd 6fd4 123c
000002a0: f16a 103c d50c 493c c75f 783c 9280 653d
000002b0: 2a01 75bd 86fb b6bc 8221 3d3d 83bf 643d
000002c0: 01ff 50bd 45c3 63bd 9751 0f3d d5c8 ad3d
000002d0: 7fcc 753d 755c 6d3d c2c3 3b3d eadc dc3c
000002e0: d0a3 6d3d b679 253d 9828 89bc abfc 923c
000002f0: 00ed 3a3d 3294 1fbd 36e2 37bc b8bd c0bb
00000300: a05a f0bc 71c2 82bd c950 98bd 6882 86bc
00000310: 1803 31bd af1c 17bd b585 64bc 87e9 d1bb
00000320: b311 5e3d 2e01 97b9 5528 653d e893 a0bd
00000330: 2b2b 753b fc80 dbbb 6d84 693d 1b06 893d
00000340: eb76 823d 0023 ff3c 6a97 c0bc 9682 743d
00000350: d4f0 803d 1682 9dbc a112 2dbd 5601 703c
00000360: 828c 74bc f040 1d3d 95bf 55bd afd3 ec3c
00000370: c259 e93b 20ff 853d 1c68 18bd 39c9 45bd
00000380: 2816 7cbd 9b49 ae3c 0689 c6bc 5a73 5e3d
00000390: c2c3 a63c cde3 fa3c 0500 d43c db14 953d
000003a0: 80db 32bd d4ac d63c 2c78 3b3d f5ee 5dbd
000003b0: 573f 34bd 9abc f53c ef39 793d 2095 b6bc
000003c0: be14 c93c a7f8 253d 4ce4 433c 2cb0 71bc
000003d0: e348 133d 1f63 803a b94a 0ebc bb0b 703d
000003e0: da04 313d 38d3 fa3c 325c 6fbd 7cce 6cbd
000003f0: b341 263d 435d b33c 229d 97bb e177 e53c

multihead_attn.out_proj.bias f4 [193]
0.012849783 -0.0063034263 0.009754504 0.011640286 -0.011386694 -0.00016491683 0.0023679107 0.011434823
0.012171659 0.007754598 -0.0041652718 0.0040880144 0.013913434 0.02244064 0.0011491296 -0.0025061716
4.182235e-05 -0.0012386779 0.00014407988 0.0062439144 0.015840884 0.010607204 -0.012927207 0.030110627
0.011974832 -0.01179362 0.022965198 0.015969861 0.017283594 0.0146561405 0.007070725 0.0091168955
-0.010742297 -0.007770877 0.014053594 0.0345134 0.008415838 0.012349785 -0.005686558 -0.011486692
0.028066557 0.030175967 0.03888697 0.0046155998 -0.0472986 0.016154336 0.007016016 -0.024338786
0.011673102 0.014625463 -0.016551403 0.023909366 0.02042815 -0.02164093 -0.0038250126 0.0038278722
-0.0058235913 -0.004081159 0.022685599 -0.003823093 0.008976267 0.020144526 -0.013540981 0.024521086
0.08260335 0.040332917 0.008642253 0.011117325 -0.018511353 -0.01010305 0.0043519395 -0.041950334
-0.011335149 0.009872257 0.018637754 -0.018019252 -0.0006106139 -0.027003638 0.006703589 0.0053151525
-0.031688437 0.032643996 0.01814204 0.0020159082 -0.02645104 0.0071837152 -0.024487393 -0.0061052437
0.018059224 0.0053238887 0.009643643 0.028308745 -0.012401239 -0.0032965743 -0.0020646635 0.018363964
0.0043782 0.031887755 -0.039951507 -0.0029958668 -0.004001195 -0.008886456 -0.048035733 0.0045972667
-0.0061567207 0.0051225326 0.016467053 -0.020535437 -0.017885149 -0.0039590434 -0.015948275 0.012165091
0.0020191248 -0.012872275 0.00019714118 0.029338285 0.02350075 -0.008647877 -0.002258438 0.01942665
0.011879476 0.029612053 0.0068593975 -0.019708773 0.004521493 0.032887578 -0.017256383 0.0054450342
-0.0026478716 0.00038277113 0.003119061 -0.0046865074 -0.0032938884 0.006794756 0.030996779 0.018920438
0.016593877 0.028531855 0.031407673 -0.015506664 0.022794677 -0.040087778 0.0052756453 0.0018927233
-0.00092830247 -0.022540271 -0.006014907 -0.015223185 0.008114953 0.006184791 0.005184037 0.0012645801
-0.026587332 0.02933082 -0.009662058 0.00044577447 -0.0015491955 0.023437673 0.031723924 0.0048592584
-0.029506281 0.00060271856 0.029644808 -0.0018896747 -0.0056149913 0.017161053 0.013376144 0.010712928
0.053623583 -0.0043725576 0.0037987567 -0.016968643 0.025975658 -0.023513163 0.007819567 0.014816975
-0.013854161 0.009585118 0.022700837 -0.00841443 0.022745563 0.018484384 0.040266626 0.00902437
0.03634614 0.008076754 0.011609896 -0.0044003753 0.027497347 -0.024332054 0.015134879 0.009439865
0.024273047
00000000: e587 523c f98c cebb 5bd1 1f3c e6b6 3e3c
00000010: 428f 3abc 86ed 2cb9 f32e 1b3b 2059 3b3c
00000020: a36b 473c 481a fe3b d57c 88bb c0f4 853b
00000030: 2cf5 633c 6fd5 b73c 649e 963a 953e 24bb
00000040: 686a 2f38 225b a2ba 2614 1739 c099 cc3b
00000050: bec4 813c d7c9 2d3c a3cc 53bc 90aa f63c
00000060: 1632 443c 073a 41bc 8321 bc3c 3ad3 823c
00000070: 5396 8d3c 4f20 703c 8ab1 e73b 085f 153c
00000080: 7600 30bc d7a2 febb 0c41 663c ec5d 0d3d
00000090: 95e2 093c c156 4a3c 4e56 babb ae32 3cbc
000000a0: d6eb e53c 9733 f73c f247 1f3d 753e 973b
000000b0: 2dbc 41bd 1956 843c 9ce6 e53b 2262 c7bc
000000c0: 8a40 3f3c a39f 6f3c cf96 87bc 93dd c33c
000000d0: f058 a73c 5248 b1bc 10ad 7abb 0add 7a3b
000000e0: d3d3 bebb 3ebb 85bb 26d7 b93c db8c 7abb
000000f0: 3111 133c 2206 a53c feda 5dbc 72e0 c83c
00000100: f22b a93d 2134 253d 3c98 0d3c 7125 363c
00000110: 1fa5 97bc 4387 25bc b79a 8e3b 1dd4 2bbd
00000120: 10b7 39bc 3fbf 213c 34ae 983c 1c9d 93bc
00000130: 9b11 20ba bc36 ddbc c8a9 db3b bb2a ae3b
00000140: bccb 01bd b6b5 053d 9e9e 943c 541d 043b
00000150: daaf d8bc 5f65 eb3b c999 c8bc 7f0e c8bb
00000160: f0f0 933c 0474 ae3b 5f00 1e3c bee7 e73c
00000170: 912e 4bbc 570b 58bb 4e4f 07bb 0670 963c
00000180: 0177 8f3b bc9c 023d 31a4 23bd 4e56 44bb
00000190: 751c 83bb 7f98 11bc 1ec1 44bd aba4 963b
000001a0: 51be c9bb ebda a73b eae5 863c ef39 a8bc
000001b0: e083 92bc ddba 81bb f5a5 82bc 1750 473c
000001c0: 4b53 043b 3ce6 52bc afb7 4e39 d856 f03c
000001d0: a584 c03c d3af 0dbc 4d02 14bb a324 9f3c
000001e0: 22a2 423c fa94 f23c ccc4 e03b 4b74 a1bc
000001f0: 0829 943b 20b5 063d 425d 8dbc 426c b23b
00000200: ea87 2dbb acae c839 2969 4c3b 4691 99bb
00000210: 47de 57bb 8ba6 de3b f5ec fd3c 09ff 9a3c
00000220: e2ef 873c a3bb e93c 55a5 003d aa0f 7ebc
00000230: e7bb ba3c 1533 24bd 52df ac3b 4115 f83a
00000240: 5359 73ba 60a6 b8bc b218 c5bb aa6a 79bc
00000250: 94f4 043c caa9 ca3b dbde a93b 44c0 a53a
00000260: adcd d9bc 3047 f03c 9c4d 1ebc d6b6 e939
00000270: 600e cbba 5d00 c03c f2f0 013d 6a3a 9f3b
00000280: 28b7 f1bc c2ff 1d3a abd9 f23c f6ae f7ba
00000290: f6fd b7bb 5695 8c3c 9d27 5b3c 4785 2f3c
000002a0: 67a4 5b3d ac47 8fbb 90f4 783b d301 8bbc
000002b0: e7ca d43c ad9e c0bc a41d 003c e6c2 723c
000002c0: 90fc 62bc e60a 1d3c 1bf7 b93c addc 09bc
000002d0: e754 ba3c 906c 973c 9eee 243d f4da 133c
000002e0: b1df 143d 5d54 043c 6f37 3e3c 0631 90bb
000002f0: 1e42 e13c 0454 c7bc 49f8 773c aaa9 1a3c
00000300: 45d8 c63c

Dense1.weight f4 [193, 193]
-0.05872123 0.0506745 0.045283485 -0.009365778 0.025179235 -0.03221202 0.060301416 -0.024341442
0.0050294804 0.03924459 -0.055045065 -0.04731809 0.0028179889 0.052379508 0.025866339 -0.0276558
-0.03906128 0.01295965 0.024161132 -0.07227462 0.0070313066 0.0676403 0.044519555 0.0048915073
-0.037392475 0.0022513815 0.049939446 0.017082445 -0.03241222 0.017297782 -0.062289793 0.065860465
0.063526034 0.047181576 0.023096442 0.011333774 0.057219084 0.010084683 -0.014219244 0.020587267
-0.044810787 -0.06830859 -0.020544587 -0.0227286 -0.018831512 -0.0007103127 0.023074634 -0.0123075675
-0.021176782 0.075085744 0.063828014 -0.067043416 -0.009699545 -0.008204844 0.022943912 0.02352547
-0.039027993 0.047677085 -0.019481612 0.057371467 -0.052231744 -0.0684413 -0.06255986 -0.05551463
0.039307073 -0.012533385 -0.08952956 -0.048228312 0.07692427 -0.061732102 -0.07411432 0.062121373
0.07085062 -0.0839963 -0.12236907 0.09193242 0.060251854 0.0933435 0.027274132 0.00048500544
0.024047008 0.02479257 0.022328598 0.023058085 -0.012340452 0.019599594 0.030873278 -0.030347247
-0.016667787 -0.025643237 -0.012393221 -0.0149223525 -0.036979623 -0.07067271 -0.0688616 0.027685659
-0.06985261 -0.064349726 -0.00029423862 -0.009571369 0.0070279846 0.003804154 0.04928341 0.047645777
-0.0035501877 0.0012990332 -0.0333388 0.017408965 -0.013537465 0.107680656 -0.053355787 -0.071605794
-0.0459836 -0.011013362 0.030211994 0.041625958 0.009792997 0.042750247 -0.02076711 -0.009533241
-0.007573582 0.0066383444 -0.03554236 -0.039869748 -0.028625583 -0.050623287 0.042533215 -0.007573935
-0.013785389 -0.050679687 0.050587934 -0.021230917 -0.059226476 -0.044664256 -0.049870323 0.055484
0.058892623 -0.017472727 -0.08325289 -0.015309433 0.013499183 -0.025889266 0.031942695 -0.039611436
-0.05994703 -0.049679425 0.01927214 -0.0084598875 0.0026881164 -0.032319613 0.018837748 0.02934399
0.0035313 0.036201943 0.08655285 0.042025506 -0.06981605 -0.04226567 -0.029463742 -0.0076054004
-0.01551895 -0.021901118 -0.015134273 0.002979318 0.07032031 -0.036852933 0.06856586 -0.025502153
-0.039707005 0.0860999 -0.062488478 0.027656337 0.035537023 0.014636079 0.06773612 -0.041722335
0.062000446 0.023836277 -0.06568583 -0.052597616 0.049913898 0.06431961 -0.07678219 0.0142250955
-0.067570664 -0.06743181 0.05755496 -0.02233937 0.043079484 0.04686313 0.050568152 -0.069979236
-0.013680788 -0.009045296 -0.059821583 0.047340065 -0.024945742 0.016412992 -0.061061125 0.037653048
0.0647976 -0.025109889 -0.015037535 0.009229174 -0.019764647 0.06896159 0.06310862 -0.03192932
0.05950422 0.06085626 0.0015341322 -0.051950958 0.039578896 0.042531252 0.0250022 0.071387045
-0.0101969885 -0.043575753 0.06983472 -0.029304452 0.045176703 -0.033787277 0.06362968 -0.025782337
0.03521283 0.0030974806 0.058935214 0.025916371 0.009458145 -0.04210882 0.04788796 0.084584326
-0.0006740877 0.020933503 0.0069663604 0.05685377 -0.008210242 0.06617909 0.0322115 -0.018034205
-0.019505393 0.07172946 0.017161816 -0.021705132 -0.040221248 -0.047799394 0.07913852 -0.010397763
-0.028893884 -0.04584148 0.019811762 -0.020771759 0.072153986 0.026053311 -0.026499009 0.04621645
00000000: ac85 70bd 1190 4f3d 2d7b 393d ec72 19bc
00000010: af44 ce3c c0f0 03bd 9efe 763d b467 c7bc
00000020: 57ce a43b efbe 203d ef76 61bd 9dd0 41bd
00000030: 02ae 383b e58b 563d a5e5 d33c 6b8e e2bc
00000040: b9fe 1fbd b654 543c 91ed c53c b704 94bd
00000050: e066 e63b ff86 8a3d 235a 363d f048 a03b
00000060: da28 19bd ea8b 133b 4e8d 4c3d 7cf0 8b3c
00000070: adc2 04bd 14b4 8d3c 9523 7fbd dae1 863d
00000080: f019 823d 7841 413d c034 bd3c 4bb1 393c
00000090: 8f5e 6a3d 3a3a 253c d5f7 68bc a1a6 a83c
000000a0: 848b 37bd 60e5 8bbd 1f4d a8bc 5431 babc
000000b0: 8b44 9abc 4734 3aba 0407 bd3c aea5 49bc
000000c0: ee7a adbc 8ec6 993d 43b8 823d 0f4e 89bd
000000d0: d7ea 1ebc 9c6d 06bc dff4 bb3c 7db8 c03c
000000e0: d1db 1fbd 0c49 433d e797 9fbc 58fe 6a3d
000000f0: f4f0 55bd f42a 8cbd 621f 80bd 4f63 63bd
00000100: 7400 213d d458 4dbc 465b b7bd 0d8b 45bd
00000110: 798a 9d3d cdda 7cbd 40c9 97bd fb72 7e3d
00000120: 211a 913d 4106 acbd a39c fabd 1147 bc3d
00000130: a6ca 763d e02a bf3d 006e df3c 5448 fe39
00000140: 3bfe c43c ca19 cb3c 77ea b63c 4fe4 bc3c
00000150: 9b2f 4abc 548f a03c f5e9 fc3c ca9a f8bc
00000160: e28a 88bc c411 d2bc f00c 4bbc e27c 74bc
00000170: f277 17bd dbbc 90bd 4f07 8dbd 09cd e23c
00000180: e30e 8fbd cac9 83bd 0a44 9ab9 3bd1 1cbc
00000190: 024b e63b 1d4f 793b 67dd 493d 3828 433d
000001a0: 44aa 68bb 5244 aa3a 448e 08bd 3f9d 8e3c
000001b0: 3ecc 5dbc ad87 dc3d 998b 5abd 0fa6 92bd
000001c0: 4d59 3cbd 6371 34bc 257f f73c fb7f 2a3d
000001d0: ce72 203c e21a 2f3d c91f aabc 5031 1cbc
000001e0: d02b f8bb 7886 d93b de94 11bd 764e 23bd
000001f0: 3380 eabc 5d5a 4fbd 4f37 2e3d c62e f8bb
00000200: 1ddc 61bc 8195 4fbd 4b35 4f3d 76ec adbc
00000210: 7697 72bd def1 36bd d344 4cbd 3143 633d
00000220: 6439 713d f722 8fbc 7e80 aabd 6bd4 7abc
00000230: ad2b 5d3c ba15 d4bc 58d6 023d 9a3f 22bd
00000240: 048b 75bd a77c 4bbd 9be0 9d3c 579b 0abc
00000250: 1c2b 303b 9261 04bd 9f51 9a3c cf62 f03c
00000260: 626d 673b 7d48 143d 9f42 b13d f022 2c3d
00000270: b8fb 8ebd c41e 2dbd f25d f1bc b936 f9bb
00000280: 3243 7ebc f969 b3bc bef5 77bc a940 433b
00000290: 1804 903d 1af3 16bd 426c 8c3d e4e9 d0bc
000002a0: d0a3 22bd 2555 b03d ebf3 7fbd 8b8f e23c
000002b0: 458f 113d 2acc 6f3c 3cb9 8a3d 0ae5 2abd
000002c0: 2ef4 7d3d 4c44 c33c 4b86 86bd 9970 57bd
000002d0: 8472 4c3d 00ba 833d fb3f 9dbd 6010 693c
000002e0: 7d62 8abd b019 8abd c0be 6b3d 0e01 b7bc
000002f0: 1d74 303d 8ef3 3f3d 8d20 4f3d 4651 8fbd
00000300: 6225 60bc b932 14bc 7a07 75bd a8e7 413d
00000310: 035b ccbc 8a74 863c 3b1b 7abd 153a 1a3d
00000320: 9bb4 843d 41b3 cdbc fe5f 76bc f635 173c
00000330: 78e9 a1bc bc3b 8d3d 183f 813d 52c8 02bd
00000340: b2ba 733d 6a44 793d ef14 c93a 87ca 54bd
00000350: 7b1d 223d 4035 2e3d 6ad1 cc3c 5f33 923d
00000360: 4511 27bc 7d7c 32bd 8105 8f3d e40f f0bc
00000370: 350b 393d 8764 0abd 4750 823d 7b35 d3bc
00000380: 543b 103d 1aff 4a3b 0d66 713d 924e d43c
00000390: 56f6 1a3c 4c7a 2cbd 2a26 443d 8c3a ad3d
000003a0: 43b5 30ba bd7c ab3c 1146 e43b 80df 683d
000003b0: 4084 06bc e788 873d 35f0 033d 78bc 93bc
000003c0: c6c9 9fbc e5e6 923d f096 8c3c f6ce b1bc
000003d0: 09bf 24bd 4cc9 43bd 6013 a23d 615b 2abc
000003e0: deb2 ecbc 47c4 3bbd 474c a23c 8929 aabc
000003f0: 78c5 933d c16d d53c 7314 d9bc 764d 3d3d

Dense1.bias f4 [193]
0.035481133 0.037516758 0.035374403 0.054212917 -0.028922763 -0.0006700334 0.03091244 -0.079064146
-0.0010855283 0.020154973 -0.03464661 -0.011070698 -0.064657755 0.049057934 -0.051616322 -0.030708285
-0.068075016 0.022065945 0.05830251 0.053380527 -0.02116353 -0.040434897 -0.00024259147 -0.023540525
-0.035092495 0.055200096 0.04948718 -0.06239869 -0.06842695 0.07299642 -0.0143745085 -0.0019329777
-0.061710916 -0.034653872 0.024931878 -0.007012479 -0.01827481 0.05941984 0.05311859 -0.086387634
-0.037157327 0.050767135 -0.077570826 0.06791271 0.045594204 -0.039220437 -0.019456843 0.0067932317
-0.027208544 -0.08341233 -0.00035889595 0.01686088 -0.1093104 0.06199316 -0.010908014 -0.07877019
-0.07297103 -0.028111843 -0.006956077 -0.044914242 -0.0018601287 -0.056079406 0.0584576 0.025284873
-0.075800605 0.024372922 0.02562451 0.0023253926 0.027443852 0.02619984 -0.03719487 -0.014502843
-0.026266515 -0.06523994 -0.0052878894 -0.0388617 -0.005945295 0.040371895 -0.088102765 -0.023008028
-0.040391374 -0.08280729 0.043866824 -0.0030224493 -0.051852033 0.054005075 0.023309447 0.014316245
-0.0087204445 -0.05732188 0.060255542 -0.061354134 0.040956803 -0.069185354 0.059411097 -0.1074012
0.041510157 -0.03826654 0.028437575 -0.0366867 0.047652166 -0.083757 -0.0010646164 0.01671033
-0.015973067 -0.047070883 0.044642143 0.065961935 0.05152701 0.011164197 -0.049624924 0.0015498308
-0.048879422 -0.013809764 -0.07164019 -0.06688944 0.02197735 -0.008966012 0.01469123 -0.02519697
0.053343814 0.018142907 0.0047875782 -0.039634015 0.034930006 -0.012981172 0.052717857 -0.049293056
-0.03656014 -0.023820668 0.050439477 -0.023432182 -0.06807941 0.027206432 -0.027415808 -0.0085465675
0.047234282 0.014506654 -0.030880895 -0.020199405 -0.023185184 0.04136866 0.041895315 -0.08027651
-0.08220981 0.04125891 0.057611812 -0.037234064 -0.046967287 -0.06355462 0.063203044 -0.061881814
-0.013219179 -0.027734952 -0.08621867 0.047102693 0.05844932 -0.06737231 -0.046870753 0.053926885
0.014126201 -0.019446053 -0.018216863 0.015230671 -0.07915118 -0.0070049204 -0.06860849 -0.023696657
-0.035453975 -0.01950876 0.059509184 -0.006890122 -0.07199273 0.028778054 -0.020760505 0.036349744
-0.029415196 -0.07105062 0.03527896 -0.03885101 0.015874857 0.055175878 0.020825244 -0.03695975
0.012009192 -0.04338768 0.043662842 -0.027558345 -0.06608675 0.057841312 -0.072345585 -0.0036915794
-0.0020521341
00000000: aa54 113d 2cab 193d c0e4 103d 5d0e 5e3d
00000010: 6eef ecbc 2ea5 2fba 163c fd3c 62ec a1bd
00000020: 4948 8eba 0b1c a53c 9be9 0dbd df61 35bc
00000030: 496b 84bd f9f0 483d a36b 53bd f18f fbbc
00000040: ea6a 8bbd a4c3 b43c 9dce 6e3d 8aa5 5a3d
00000050: 245f adbc 109f 25bd 2760 7eb9 0fd8 c0bc
00000060: 26bd 0fbd 7f19 623d 12b3 4a3d c595 7fbd
00000070: 6e23 8cbd 267f 953d 0f83 6bbc f85b fdba
00000080: 96c4 7cbd 38f1 0dbd f03d cc3c f0c8 e5bb
00000090: 0eb5 95bc 3862 733d e192 593d 00ec b0bd
000000a0: 4832 18bd 33f1 4f3d 74dd 9ebd d215 8b3d
000000b0: fdc0 3a3d 9ca5 20bd f563 9fbc c299 de3b
000000c0: 74e4 debc 15d4 aabd 332a bcb9 d41f 8a3c
000000d0: 22de dfbd 8aec 7d3d 87b7 32bc 4452 a1bd
000000e0: d671 95bd cf4a e6bc ceef e3bb fff7 37bd
000000f0: 90cf f3ba 85b3 65bd 3d71 6f3d 3922 cf3c
00000100: 593d 9bbd b9a9 c73c 7eea d13c 9d65 183b
00000110: eed1 e03c 0ca1 d63c a659 18bd 559d 6dbc
00000120: e02c d7bc 859c 85bd 0846 adbb 722d 1fbd
00000130: c0d0 c2bb 005d 253d 396f b4bd 557b bcbc
00000140: 6d71 25bd de96 a9bd b3ad 333d 4914 46bb
00000150: cc62 54bd 6d34 5d3d 74f3 be3c af8e 6a3c
00000160: 32e0 0ebc 59ca 6abd 84ce 763d 794e 7bbd
00000170: 52c2 273d 0db1 8dbd 0d59 733d 29f5 dbbd
00000180: 8e06 2a3d 60bd 1cbd ebf5 e83c cb44 16bd
00000190: eb2e 433d ca88 abbd 998a 8bba 1ae4 883c
000001a0: f3d9 82bc 66cd 40bd aeda 363d 0d17 873d
000001b0: fc0d 533d 09ea 363c 8143 4bbd b123 cb3a
000001c0: ca35 48bd 5942 62bc 18b8 92bd 55fd 88bd
000001d0: d809 b43c 2ee6 12bc 7cb3 703c e069 cebc
000001e0: 0b7f 5a3d 6fa0 943c 1ee1 9c3b 4757 22bd
000001f0: c412 0f3d fbae 54bc aeee 573d 84e7 49bd
00000200: 16c0 15bd 9023 c3bc a099 4e3d d9f4 bfbc
00000210: 386d 8bbd 06e0 de3c 1e97 e0bc e706 0cbc
00000220: bc78 413d 51ad 6d3c eef9 fcbc 3979 a5bc
00000230: dbee bdbc 2f72 293d 6c9a 2b3d 0368 a4bd
00000240: 9e5d a8bd 1aff 283d 5dfa 6b3d bf82 18bd
00000250: c560 40bd ed28 82bd 9970 813d c977 7dbd
00000260: 4195 58bc 6934 e3bc 6a93 b0bd c1ee 403d
00000270: 8e68 6f3d 7efa 89bd 8cfb 3fbd 70e2 5c3d
00000280: 9571 673c 544d 9fbc 883b 95bc 108a 793c
00000290: 041a a2bd 8889 e5bb 9c82 8cbd 7e1f c2bc
000002a0: 3038 11bd d6d0 9fbc e7bf 733d 88c6 e1bb
000002b0: ed70 93bd f4bf eb3c ef11 aabc 78e3 143d
000002c0: 23f8 f0bc fd82 91bd ac80 103d 3d22 1fbd
000002d0: fd0b 823c 1a00 623d b499 aa3c 1b63 17bd
000002e0: 34c2 443c 48b7 31bd cfd7 323d 0ac2 e1bc
000002f0: 7d58 87bd 03eb 6c3d ec29 94bd 6dee 71bb
00000300: 197d 06bb

Dense2.weight f4 [1, 193]
-0.03406059 0.062226947 0.0434617 -0.056157466 -0.031220675 0.032599002 0.034994144 0.0016096929
-0.042908173 0.018071042 0.03991508 -0.000830551 -0.04624412 0.05192037 0.046238415 -0.053745188
0.05687124 -0.04569555 0.042923708 -0.048348833 -0.015794111 -0.016999708 0.007210618 -0.02269238
-0.014348546 0.02940689 -0.05294751 -0.016021665 0.0042023715 -0.03464804 0.00068491127 -0.015303485
-0.02215554 0.0019834978 -0.019307941 0.0002888358 0.018539753 -0.021662597 0.029596696 -0.00093790464
-0.024469415 0.016464908 0.008524545 -0.028654166 0.013602802 0.055543464 0.035513557 0.036400847
-0.03408501 8.270134e-05 -0.032129902 -0.008446363 2.04008e-05 -0.035391033 0.047742352 -0.00042122617
0.025783869 -0.01990675 0.045518015 -0.012219979 -0.027438533 0.0469719 -0.06325832 -0.020759406
0.051607072 0.048499223 -0.00028378214 -0.06235652 -0.09652939 0.036141828 0.012243405 0.01580204
0.06435634 -0.019037856 -0.05311807 0.043561555 0.038270358 -0.048201635 -0.043579746 0.047549274
0.03692285 0.025147397 -0.035733107 0.036690105 0.06462385 -0.032991752 0.03245862 -0.025278192
-0.014350918 -1.8963765e-06 -0.059738908 -0.02084844 -0.06779557 -0.04459082 0.041291397 0.00015617468
-0.05052727 -0.020550255 0.074165955 -0.021505138 0.021856407 2.2489126e-05 -0.03594407 0.0026005802
0.075296275 0.007826958 0.0035729087 -0.077173054 -0.07707756 0.029793395 9.594642e-05 -0.000811087
0.031526644 0.039817598 -0.03949383 -0.03086926 -0.017356206 -0.028415646 0.09013307 0.012531866
-0.01986749 -0.00946232 0.01926523 -0.03287467 -0.048068378 -0.02029225 -0.06142032 -0.0098114675
-0.043037936 -0.009057198 0.039029025 0.05313188 -0.031230792 -0.04250018 -0.017965492 -0.050611015
0.03649361 0.031675823 -0.053410076 0.051134095 -0.007447307 -0.049846828 -0.0017858618 -0.052975174
0.0033310591 0.051902507 0.07503401 -0.027462896 -0.016239328 0.028217884 -0.03028815 0.041951023
0.015359757 -0.02919218 0.03528497 0.03967223 0.07586562 2.1363458e-06 -0.063286446 -0.047239147
-0.031099377 0.029157035 0.03343395 1.6509322e-05 0.047339212 -0.03518481 -0.059024345 -0.013991802
1.7783022e-05 0.019997338 -0.05842901 0.05888225 0.019775396 0.06253535 -3.075699e-05 0.058251005
0.008936077 0.012844771 -0.027995728 0.07164794 0.00024273994 0.032490056 -0.045796387 -0.0043193507
0.034336776 0.031698007 -0.0015050593 0.016490366 -0.0061696395 -0.04706174 -0.00864604 -0.06272611
-0.020892309
00000000: 1e83 0bbd afe1 7e3d e504 323d 5f05 66bd
00000010: 80c2 ffbc 8886 053d 0556 0f3d 55fc d23a
00000020: 7bc0 2fbd b909 943c ff7d 233d 56b9 59ba
00000030: 796a 3dbd 74aa 543d 7e64 3d3d ea23 5cbd
00000040: d1f1 683d 422b 3bbd c5d0 2f3d 6d09 46bd
00000050: a762 81bc f942 8bbc 0c47 ec3b 5fe5 b9bc
00000060: 2a16 6bbc b8e6 f03c 7ddf 58bd de3f 83bc
00000070: 0cb4 893b 1aeb 0dbd 9e8b 333a 78bb 7abc
00000080: 897f b5bc 92fd 013b b02b 9ebc e36e 9739
00000090: aee0 973c c275 b1bc c574 f23c b7dd 75ba
000000a0: 1574 c8bc 6ae1 863c 88aa 0b3c 24bc eabc
000000b0: 49de 5e3c 8b81 633d aa76 113d 0e19 153d
000000c0: b99c 0bbd f26f ad38 a59a 03bd 9d62 0abc
000000d0: 6222 ab37 30f6 10bd 7c8d 433d 05d8 dcb9
000000e0: b138 d33c 7b13 a3bc 1971 3a3d 4f36 48bc
000000f0: c6c6 e0bc 9b65 403d 948d 81bd a10f aabc
00000100: f061 533d 1fa7 463d 98c8 94b9 8d69 7fbd
00000110: 33b1 c5bd 7409 143d 9098 483c 4873 813c
00000120: 42cd 833d 47f5 9bbc 5592 59bd 9a6d 323d
00000130: 61c1 1c3d 146f 45bd ad80 32bd 07c3 423d
00000140: 6a3c 173d ea01 ce3c e15c 12bd 5d48 163d
00000150: 8259 843d 5c22 07bd 54f3 043d 3614 cfbc
00000160: 1d20 6bbc 0087 feb5 c9b0 74bd 59ca aabc
00000170: 67d8 8abd dda4 36bd 2b21 293d d2c2 2339
00000180: aff5 4ebd 0259 a8bc 52e4 973d 8b2b b0bc
00000190: 350c b33c 08a7 bc37 173a 13bd 7f6e 2a3b
000001a0: ef34 9a3d a43c 003c 7627 6a3b e80c 9ebd
000001b0: d7da 9dbd 4711 f43c d836 c938 219f 54ba
000001c0: 1522 013d c717 233d 48c4 21bd 88e1 fcbc
000001d0: 9a2e 8ebc eec7 e8bc b097 b83d 7552 4d3c
000001e0: 25c1 a2bc d907 1bbc 1ed2 9d3c 97a7 06bd
000001f0: 59e3 44bd ef3b a6bc e093 7bbd 47c0 20bc
00000200: 8c48 30bd a464 14bc e6dc 1f3d d0a0 593d
00000210: b8d7 ffbc ab14 2ebd 5e2c 93bc 7f4d 4fbd
00000220: 537a 153d 82be 013d 86c4 5abd fc71 513d
00000230: 8a08 f4bb 302c 4cbd 9413 eaba 7ffc 58bd
00000240: e64d 5a3b b997 543d 6eab 993d def9 e0bc
00000250: 5708 85bc 3129 e73c db1e f8bc d6d4 2b3d
00000260: 7da7 7b3c 7024 efbc f986 103d 597f 223d
00000270: 6f5f 9b3d 245e 0f36 539c 81bd d67d 41bd
00000280: 1fc4 febc bcda ee3c 0af2 083d 807d 8a37
00000290: c3e6 413d f31d 10bd 83c3 71bd df3d 65bc
000002a0: c02c 9537 75d1 a33c 4253 6fbd 842e 713d
000002b0: 0300 a23c 8912 803d 1101 01b8 9b98 6e3d
000002c0: a068 123c e072 523c 4c57 e5bc 28bc 923d
000002d0: 0288 7e39 4b14 053d fe94 3bbd 5789 8dbb
000002e0: b8a4 0c3d c5d5 013d 6945 c5ba ce16 873c
000002f0: b02a cabb d0c3 40bd 1fa8 0dbc 8c76 80bd
00000300: 5926 abbc

LN.weight f4 [193]
0.9534202 0.98407257 0.9515823 0.937022 0.9725389 0.9523157 0.93201977 0.95825356
0.9657457 0.95318455 0.96700543 0.952462 0.96971965 0.96121716 0.9565085 0.98283064
0.96412164 0.96165824 0.946354 0.92667514 0.977364 0.93972427 0.9822128 0.94464153
0.9457232 0.9624463 0.9380792 0.94884485 0.96504533 0.9489652 0.9633299 0.96088356
0.97460383 0.9284656 0.9498032 0.9463103 0.9364588 0.9314865 0.96811247 0.9780446
0.9338395 0.96943676 0.949876 0.962881 1.0109246 0.94557285 0.95565385 0.98716503
0.9498343 0.9368166 0.9575669 0.9482611 0.96166295 0.9845087 0.96416515 0.9665432
0.94701785 0.98454493 0.9398537 0.9414196 0.9641854 0.9509935 0.9855387 0.9616943
0.84526247 1.0039421 0.99293697 0.95912004 1.0093952 0.96624804 0.9970245 1.01977
1.0013833 0.97372913 1.0159026 0.9998416 1.0022053 1.0462861 0.9960302 0.9790367
1.055991 0.94795835 0.9846463 0.98992735 1.0088189 0.98354787 1.0214367 0.9869385
0.9968698 0.9290792 0.96419805 0.9730818 1.0158641 0.9789867 0.984805 0.9744042
0.9928461 0.9606929 1.0101715 1.0014464 0.9981518 0.9856412 1.0003908 0.9702927
1.0111625 0.99027455 0.97180456 1.005584 1.0022169 1.0517831 0.9419748 0.99521327
0.9835605 1.0115807 0.9893111 0.97476923 0.9682468 0.9703342 1.0169739 0.9943658
1.056465 0.97452563 0.9954079 0.9701116 0.96415806 1.021685 1.0095628 1.0646085
1.0020627 1.0002117 0.97995865 1.036458 0.9892888 0.9758467 0.95352167 0.9582453
0.93813384 0.9783737 0.9746658 1.0195639 0.91212225 1.0014802 1.028649 0.98920184
1.0084704 1.0102538 1.0428568 0.9319086 0.9835757 0.9423906 0.9956449 1.0046417
0.99331367 1.0034939 1.0036068 0.9902782 1.0280703 0.99050313 0.927412 0.9388716
0.9954782 1.0192912 0.99206614 1.0076159 1.0116842 0.96671647 0.9874692 0.9957908
0.9865246 0.9826947 0.95015985 0.9641739 0.9780593 1.0098978 1.005057 0.9508123
0.99687994 0.98828584 0.94340634 1.0123591 0.93099034 1.0005721 0.98994714 1.0037698
0.9992626 0.976123 0.99305624 0.97505546 0.96535236 0.98902345 0.95532507 0.96093357
1.0025594
00000000: 5913 743f 2eec 7b3f e69a 733f ace0 6f3f
00000010: 4ff8 783f f6ca 733f d998 6e3f 1b50 753f
00000020: 1c3b 773f e703 743f ab8d 773f 8dd4 733f
00000030: 8c3f 783f 5412 763f bedd 743f ca9a 7b3f
00000040: add0 763f 3c2f 763f 4144 723f 953a 6d3f
00000050: 8734 7a3f c591 703f 4c72 7b3f 07d4 713f
00000060: ea1a 723f e162 763f f525 703f 7fe7 723f
00000070: 360d 773f 62ef 723f ca9c 763f 77fc 753f
00000080: a37f 793f ecaf 6d3f 4d26 733f 6441 723f
00000090: c4bb 6f3f e675 6e3f 38d6 773f 2261 7a3f
000000a0: 1b10 6f3f 022d 783f 132b 733f 5f7f 763f
000000b0: fa65 813f 1011 723f bba5 743f d9b6 7c3f
000000c0: 5728 733f 36d3 6f3f 1b23 753f 3dc1 723f
000000d0: 8b2f 763f c308 7c3f 87d3 763f 606f 773f
000000e0: c36f 723f 230b 7c3f 419a 703f e000 713f
000000f0: dbd4 763f 4f74 733f 444c 7c3f 9931 763f
00000100: 1f63 583f 2d81 803f 1e31 7e3f e488 753f
00000110: dd33 813f 085c 773f ff3c 7f3f d387 823f
00000120: 542d 803f 5046 793f 1909 823f 9ef5 7f3f
00000130: 4348 803f b4ec 853f d6fb 7e3f 26a2 7a3f
00000140: b72a 873f 66ad 723f c811 7c3f e16b 7d3f
00000150: fa20 813f cbc9 7b3f 70be 823f 00a8 7c3f
00000160: dc32 7f3f 22d8 6d3f afd5 763f e41b 793f
00000170: d607 823f df9e 7a3f 2e1c 7c3f 8e72 793f
00000180: 292b 7e3f f8ef 753f 4d4d 813f 652f 803f
00000190: e086 7f3f fb52 7c3f ce0c 803f 1a65 783f
000001a0: c66d 813f a282 7d3f 2fc8 783f fab6 803f
000001b0: a548 803f d4a0 863f 4325 713f 4cc6 7e3f
000001c0: 9fca 7b3f 7a7b 813f 7e43 7d3f 7a8a 793f
000001d0: 06df 773f d267 783f 332c 823f c28e 7e3f
000001e0: 3f3a 873f 837a 793f 0dd3 7e3f 3c59 783f
000001f0: 10d3 763f 93c6 823f 5b39 813f 1745 883f
00000200: 9743 803f f006 803f 92de 7a3f a8aa 843f
00000210: 0842 7d3f 17d1 793f ff19 743f 904f 753f
00000220: 8a29 703f b376 7a3f b383 793f 1281 823f
00000230: d880 693f 8130 803f c5aa 833f 553c 7d3f
00000240: 8f15 813f ff4f 813f 557c 853f 9091 6e3f
00000250: 9ecb 7b3f 8340 713f 96e2 7e3f 1998 803f
00000260: ce49 7e3f 7d72 803f 3076 803f df82 7d3f
00000270: cf97 833f 9d91 7d3f df6a 6d3f e459 703f
00000280: a9d7 7e3f 2278 823f 0cf8 7d3f 8ff9 803f
00000290: de7e 813f bb7a 773f c8ca 7c3f 25ec 7e3f
000002a0: e08c 7c3f e191 7b3f ad3d 733f 1ad4 763f
000002b0: 1862 7a3f 5544 813f b5a5 803f 6f68 733f
000002c0: 8633 7f3f 4d00 7d3f 1483 713f fc94 813f
000002d0: 6255 6e3f bf12 803f 2d6d 7d3f 877b 803f
000002e0: accf 7f3f 32e3 793f ef38 7e3f 3c9d 793f
000002f0: 5521 773f a430 7d3f 2f90 743f beff 753f
00000300: de53 803f

LN.bias f4 [193]
0.026656836 -0.007676435 0.021615846 0.022844803 0.00627636 0.0029292812 0.008073098 0.007913005
0.00079647393 0.025482342 -0.005471716 -0.0004646576 0.004368041 0.017605921 0.017431742 0.0006270264
0.019225897 0.0013352303 -0.0044083907 0.012908542 0.00017235134 0.009253678 0.01436064 0.02918833
0.008759283 -0.0047588143 0.008967155 -0.004920553 0.015040573 0.0060779033 0.005911832 0.019045215
0.006230965 0.0031744598 0.01457935 0.015674278 -0.0018867286 0.027071843 0.012308526 -0.00084997754
0.04342184 0.0136760995 0.020974915 0.013005262 -0.013605606 0.008117 0.014284486 -0.001794639
0.027313905 0.008696715 -0.0033767722 0.013284119 0.005451303 -0.004171535 -0.004749683 0.011798122
-0.0062435386 0.011006133 -0.008858461 -0.0030368445 0.009237488 0.0006084454 0.006098894 0.016410487
-0.14759818 0.021828318 0.0065913233 0.02968678 0.0035869973 -0.018445758 -0.00079707365 -0.025355155
-0.007557857 -0.018554475 -0.0013798092 -0.010120387 -0.010568421 -0.0044681625 -0.006089071 0.004481766
-0.008802287 0.0432632 0.017073587 -0.0025378577 -0.008713781 0.011126002 -0.0061804084 -0.0028693643
0.00420471 -0.044795446 0.015956627 -0.03026535 1.541345e-05 -0.013388305 -0.017735634 0.030247401
4.362115e-05 0.00017691485 -0.02002025 0.001951995 -0.0012889738 -0.004406905 -0.02172041 -0.018166326
-0.0010233974 -0.0026020878 -0.0012206293 0.009089716 -0.0027984132 0.0044494364 -0.023797585 0.0024256802
0.0070155836 -0.010588689 -0.009151465 0.029215002 0.0112088295 0.0034651237 -0.006054044 0.002240668
-0.0056559844 0.0025221964 -0.004653347 -0.0030866573 0.02375102 0.0027112297 -0.0027350467 -0.005258186
-0.004567622 -0.012642657 0.00512039 -0.0068272366 0.007916351 0.003241366 0.051609933 0.03087908
0.025161278 0.036390655 0.009820644 -0.014804309 0.029094072 0.0013121511 0.010724169 -0.0029268023
-0.009669688 -0.006763561 -0.010472051 -0.017614234 0.011058521 0.010548999 0.013037371 0.00793364
-0.02302798 0.019902479 0.0001851471 0.009999389 -0.004198164 0.017447297 0.0281894 0.0016898155
-0.012368647 0.0021492627 0.028590566 -0.0093189385 0.006946771 0.009908722 0.014360616 -0.0023675337
0.039373446 0.0028713376 0.012613382 0.006118057 0.027088162 -0.010283653 0.012322238 0.018608054
-0.0003111894 0.012996108 0.03761515 -0.0050255284 0.032257453 0.021491 0.039499033 -0.0004714558
0.03290754 0.013401397 0.014607386 -0.010343168 0.040805127 -0.013500743 0.012670154 0.017966418
0.0050256653
00000000: 705f da3c 9b8a fbbb b713 b13c 0625 bb3c
00000010: eca9 cd3b 2ff9 3f3b 0745 043c 8ca5 013c
00000020: 76ca 503a 58c0 d03c 154c b3bb 4a9d f3b9
00000030: c921 8f3b 4b3a 903c 03cd 8e3c 085f 243a
00000040: a17f 9d3c e502 af3a 4374 90bb 597e 533c
00000050: 36b9 3439 bd9c 173c e448 6b3c 5d1c ef3c
00000060: 1983 0f3c d4ef 9bbb f9ea 123c 973c a1bb
00000070: bc6c 763c 2629 c73b 0bb8 c13b b604 9c3c
00000080: 1f2d cc3b 990a 503b 3ade 6e3c 5867 803c
00000090: 1b4c f7ba c5c5 dd3c b3a9 493c 07d1 5eba
000000a0: 19db 313d b811 603c 96d3 ab3c 0614 553c
000000b0: 0cea 5ebc 2afd 043c 7a09 6a3c 183a ebba
000000c0: 69c1 df3c ab7c 0e3c d64c 5dbb a2a5 593c
000000d0: d8a0 b23b 5fb1 88bb 3ba3 9bbb e94c 413c
000000e0: 9996 ccbb 1153 343c 1423 11bc cc05 47bb
000000f0: d558 173c 1480 1f3a 3bd9 c73b 496f 863c
00000100: fa23 17be 4dd1 b23c 07fc d73b b131 f33c
00000110: d413 6b3b 8f1b 97bc b5f2 50ba 9db5 cfbc
00000120: e6a7 f7bb 8eff 97bc b7da b4ba fbcf 25bc
00000130: 2c27 2dbc aa69 92bb d486 c7bb c7db 923b
00000140: 7837 10bc c134 313d e8dd 8b3c 3052 26bb
00000150: 3fc4 0ebc d649 363c 0685 cabb f20b 3cbb
00000160: aac7 893b 6e7b 37bd 79b7 823c 0aef f7bc
00000170: 224c 8137 9f5a 5bbc 524a 91bc 66c9 f73c
00000180: daf5 3638 3882 3939 8201 a4bc 15da ff3a
00000190: c9f2 a8ba cc67 90bb 00ef b1bc 8cd1 94bc
000001a0: 8523 86ba ca87 2abb 86fd 9fba 08ed 143c
000001b0: 9565 37bb 94cc 913b 27f3 c2bc 29f8 1e3b
000001c0: fbe2 e53b 2e7c 2dbc 07f0 15bc 4d54 ef3c
000001d0: 3da5 373c 2117 633b 0061 c6bb 2cd8 123b
000001e0: d655 b9bb 6f4b 253b 1b7b 98bb 8449 4abb
000001f0: 8091 c23c e3ae 313b 783e 33bb dc4c acbb
00000200: feab 95bb 2623 4fbc f2c8 a73b 03b7 dfbb
00000210: 95b3 013c 196d 543b f064 533d 20f6 fc3c
00000220: 061f ce3c 5e0e 153d c4e6 203c c68d 72bc
00000230: b156 ee3c 7cfc ab3a 6db4 2f3c 98cf 3fbb
00000240: 9c6d 1ebc dda0 ddbb f792 2bbc ba4b 90bc
00000250: cd2e 353c b5d5 2c3c b39a 553c 19fc 013c
00000260: 2da5 bcbc 860a a33c 0c24 4239 7ad4 233c
00000270: c190 89bb a2ed 8e3c 75ed e63c cd7c dd3a
00000280: dea5 4abc a5da 0c3b c336 ea3c 76ae 18bc
00000290: bda1 e33b 3158 223c ca48 6b3c a028 1bbb
000002a0: 0d46 213d 0d2d 3c3b 5ca8 4e3c fb79 c83b
000002b0: fee7 dd3c c47c 28bc 36e3 493c eb6f 983c
000002c0: 2227 a3b9 a1ed 543c 5812 1a3d 30ad a4bb
000002d0: 6420 043d e50d b03c bdc9 213d ba2d f7b9
000002e0: 0fca 063d 8891 5b3c d153 6f3c 6476 29bc
000002f0: 4723 273d 3832 5dbc 7a96 4f3c 4f2e 933c
00000300: 56ae a43b
