Result/predictorP.pth (torch, 6947 bytes, 8 tensors)

params f4 [8]
000000 23 f7 c7 42 0e fa c7 42 ec fd c7 42 7e fd c7 42
       99.98269 99.98839 99.99594 99.9951
000010 1c f6 c7 42 c0 f5 c7 42 1f 05 c8 42 d4 fa c7 42
       99.98068 99.97998 100.01 99.9899

dnn.0.weight f4 [10, 65]
000000 b7 1a a4 3d 9a 32 17 3d 46 cf b9 3d 4e 81 9b bd
       0.08012908 0.03691349 0.090727374 -0.07593022
000010 34 53 ca 3d fb c7 a6 bc 2d e3 97 bd 01 88 cd bc
       0.09879151 -0.02035903 -0.07416377 -0.025089266
000020 11 18 00 be df d7 b9 3c 03 a3 8a 3d 6a 1e bb bc
       -0.1250918 0.022685943 0.06769373 -0.022841651
000030 c0 85 c5 bc cb 4d 04 be b8 5f 1a 3d c7 46 8e 3d
       -0.024111629 -0.129203 0.03768894 0.069470935
000040 4e a2 82 3d 81 6a af 3d 61 3d 2e 3c 2f 09 ab bd
       0.063786134 0.08565236 0.010634751 -0.08351361
000050 dd 58 61 3b 83 7e 76 bd 21 fb ba bd b6 d1 50 3d
       0.0034385242 -0.060179245 -0.0912993 0.050981246
000060 d4 39 b3 bd ce 09 f5 bd b3 71 e8 bd 03 d1 c8 3d
       -0.08751264 -0.11964761 -0.113498114 0.09805491
000070 05 54 d5 bd 8a 30 8c bd 22 37 c3 3c d1 22 29 3d
       -0.10416416 -0.068451956 0.02383 0.04129297
000080 1b 6e b3 bd 95 39 65 bd 24 bc d6 3d 23 1d f2 bd
       -0.08761235 -0.055963118 0.10485104 -0.11821964
000090 11 e5 c5 bc 43 94 51 bd 28 f4 4f 3d 17 70 75 bd
       -0.024157079 -0.051166784 0.050769955 -0.05992135
0000a0 60 a8 bc bd 27 50 90 3c 02 e3 bc 3c 4d 33 82 bd
       -0.092118025 0.017616345 0.023057465 -0.06357441
0000b0 04 aa 79 3d 3a cd a8 bd d0 c8 66 bd ce f6 0e bd
       0.060953155 -0.08242269 -0.056343853 -0.03490334
0000c0 ae 27 ab bd 26 36 21 bc 90 b5 c5 3d ce d1 6f bc
       -0.08357178 -0.00983957 0.09653771 -0.014637424
0000d0 28 86 e7 bd 34 ae af bd 38 7e d8 3d 70 fe 01 be
       -0.11304885 -0.085781485 0.10570949 -0.12694716
0000e0 83 8d c6 bd be bc e8 bd fb 9b 97 bc cb ec 1d bd
       -0.0969496 -0.11364125 -0.018506994 -0.0385559
0000f0 33 8a 16 3d 3e b6 98 3a bd d4 d1 bd 2e 61 55 bc
       0.03675289 0.0011650992 -0.10245655 -0.013023658
000100 5c 1e a0 bd ae 42 85 3c 3a 9c 7c bd 98 cd 04 3e
       -0.078182906 0.016267147 -0.061672427 0.12969053
000110 8c 1b 5e bc 98 67 90 bd 1c 29 48 bd 9c 01 fb 3d
       -0.013556372 -0.07051009 -0.04886733 0.12256166
000120 7a 77 36 3d 7c 14 df 3d 9e 0d 37 bc 3a c1 17 ba
       0.044547535 0.10892579 -0.01117268 -0.0005788986
000130 54 e9 31 bd 51 94 28 bd 0a ce b7 bd ea 16 3e 3b
       -0.04343541 -0.04115707 -0.08974846 0.0029005357
000140 2c cd dc bc 68 cc 63 bd ab e6 cf 3d 12 2b db bd
       -0.026953302 -0.05561486 0.10151418 -0.107015744
000150 21 92 02 bd 93 a2 87 bd 13 1a d6 3c a6 07 9e bd
       -0.03187764 -0.066228054 0.02613548 -0.077163026
000160 dc 16 e2 bd af bf 10 3d 20 9d 78 bd 39 86 9a bd
       -0.11039516 0.035339054 -0.06069672 -0.07545132
000170 f2 34 a7 3d 1e eb a8 bc dd de 7a bc 40 40 b1 bc
       0.081643954 -0.020619925 -0.015311924 -0.021637082
000180 2e 12 d9 bc db 59 04 be cb c5 b5 3d af 2d 97 3c
       -0.026497927 -0.12924902 0.08875617 0.0184544
000190 36 08 89 bd 65 80 b6 3d a2 40 20 bd de aa d4 3c
       -0.06691019 0.08911208 -0.03912414 0.025960382
0001a0 02 18 ea 3c 17 36 7f bd a2 63 ca bd b9 e2 8a 3c
       0.028575901 -0.062307443 -0.09882285 0.016953813
0001b0 75 8d a3 3c 1d 62 b5 3d 69 b0 b6 bd 1a 84 93 bd
       0.019964913 0.08856604 -0.08920366 -0.07202931
0001c0 50 17 eb bd 97 20 f2 3d 6d 6b 08 3d d0 0e b7 bd
       -0.11479056 0.11822622 0.033305574 -0.08938372
0001d0 1c 4b ff bb fc 29 c4 bd 8e 0b 94 3d 65 d2 d5 3d
       -0.007790936 -0.095783204 0.072287664 0.1044052
0001e0 45 f5 38 bd e6 db bc bc a5 b0 9c 3c 01 ba b3 3d
       -0.045155782 -0.023054074 0.0191272 0.08775712
0001f0 fb 5f 37 bd a4 a7 08 be 15 23 0d 3d bc 14 8f bd
       -0.04476927 -0.133452 0.034457285 -0.06986377
000200 cc f7 01 3e 12 b3 87 bc 52 fa a0 3d fc 85 df bc
       0.12692183 -0.01656488 0.07860245 -0.027285568
000210 02 9a 91 bd b9 b7 07 3e 2e 25 eb 3d 55 e6 c3 3c
       -0.07109453 0.13253678 0.11481701 0.023913542
000220 4b 6c 67 bd a9 27 8c bc 01 cd 89 bd d4 47 6a 3d
       -0.05649976 -0.017108755 -0.067285545 0.057197407
000230 09 a1 21 3c b6 42 1c 3b 47 38 da 3d 61 ac 83 bd
       0.009865054 0.0023843474 0.10655265 -0.06429363
000240 45 9d 26 3d d5 4d 8a bd 1d 90 2c bd 97 65 9f bc
       0.040677328 -0.067531265 -0.042129625 -0.019457621
000250 63 bd f7 3c bb 6e 79 3d 03 b1 64 3d 8b b5 b9 3d
       0.030241674 0.060896616 0.055832874 0.0906783
000260 b7 89 b8 bc 0a 80 af bc f6 ce aa bd 24 52 dc b9
       -0.022526605 -0.021423358 -0.08340256 -0.0004202287
000270 79 8c b5 3d e3 46 4b 3d a7 45 86 bd 82 f3 8a 3c
       0.08864684 0.04962815 -0.06556254 0.016961817
000280 69 7a af 3d d1 3c 0a 3d 14 79 56 3a f0 9d 1b 3d
       0.0856827 0.033749405 0.0008181494 0.037992418
000290 dd a8 29 3d 92 0c 94 3d da d8 71 bd 1d 8e a9 bd
       0.041420806 0.0722896 -0.059044696 -0.08279059
0002a0 d2 09 d4 bd 44 fe 34 bd aa 1b f2 bd ab 7f 73 3d
       -0.103534356 -0.0441878 -0.11821683 0.059447926
0002b0 ce fb 66 bc c8 10 f7 3d 58 96 16 3d 11 7c 23 bd
       -0.014098121 0.12063748 0.036764473 -0.03991324
0002c0 8b 7d b6 3c 18 70 09 bd 83 21 ac bc 47 1a 44 3d
       0.02227666 -0.033554167 -0.021012073 0.047876623
0002d0 c5 1c 06 3c 11 cf 00 3e 27 e3 71 3d 81 5b 9b 3d
       0.00818557 0.1257899 0.05905452 0.07585812
0002e0 ac 6a 35 bd a8 06 61 3c 76 1e 67 3d 0a d7 cc 3d
       -0.044291183 0.013734497 0.056425534 0.10001953
0002f0 79 57 cd 3d 39 eb 3e 3a 79 bc d2 bd 4e 32 75 3d
       0.1002645 0.0007282976 -0.102898546 0.059862427
000300 c5 ce 7c bd d9 94 f0 3d 62 68 01 be 68 b6 0e bd
       -0.06172063 0.117471404 -0.12637475 -0.034841925
000310 03 c0 09 3e bd 90 32 3c 2e 88 6b b9 2a 99 9f 3d
       0.13452153 0.010898766 -0.00022462077 0.077928856
000320 55 22 32 bd 85 8f 83 bd 50 8b 20 bd 9e b7 47 3d
       -0.043489773 -0.064238586 -0.03919536 0.048759095
000330 8d 37 f4 3d bb 34 12 3d b2 f8 ab 3d af 51 30 bd
       0.11924658 0.03569482 0.08397044 -0.04304665
000340 56 0a 6e 3c d3 15 a5 3d 4f c4 b0 3d 5d fb be bc
       0.0145288315 0.08060803 0.08631193 -0.023313219
000350 dd 58 13 3c a8 f2 04 bc f0 a8 d2 b7 7b 54 cc bd
       0.008993355 -0.008114494 -2.5112618e-05 -0.09977051
000360 20 b8 01 be 8c 9e 80 3d e7 d4 06 bd b9 3e 48 bd
       -0.12667894 0.062802404 -0.032917883 -0.048887942
000370 c4 38 e1 3d 60 7a 3f bd f3 c5 93 bc 4f f5 b5 3d
       0.10997155 -0.046747565 -0.018038725 0.088846795
000380 20 3b aa 3c cd dc f9 bc e4 0b f3 3c 12 d7 f8 bd
       0.020780146 -0.030500794 0.029668756 -0.121503964
000390 b6 e5 47 bd fc 90 a2 bd 35 da bc 3d 15 ec d0 bd
       -0.048803054 -0.0793781 0.09221307 -0.10201279
0003a0 e9 70 ee bc b4 1f 06 3e 6e f8 0b be 02 fb c2 3c
       -0.029106574 0.13098031 -0.13668987 0.02380133
0003b0 ba cc 5f bc 3b b1 95 3d 69 6b e8 3b 6b f8 08 bd
       -0.01365965 0.07309195 0.0070928824 -0.033440035
0003c0 f9 85 c7 bd cb 4f 9c bd fa 1a a4 bd 4c 36 e4 bc
       -0.0974235 -0.07632407 -0.08012958 -0.027857922
0003d0 14 46 2e 3d de fd a4 3b dd eb b7 3c 78 c3 b2 bc
       0.0425473 0.005035146 0.022451336 -0.021821722
0003e0 b2 a7 0b 3d a3 6d 03 3c 00 1e a0 bd c3 ba 80 3d
       0.034095474 0.008021745 -0.07818222 0.06285622
0003f0 a2 d5 95 bd df 30 00 bd 9f f5 d7 3d b5 a0 3a 3c
       -0.07316138 -0.031296607 0.105448954 0.011390855

dnn.0.bias f4 [10]
000000 73 e3 06 3d 56 d1 52 bd 99 96 89 bc 11 07 39 3b
       0.032931756 -0.05146917 -0.016795443 0.0028232972
000010 40 53 17 be 61 6e aa bd 85 ad 58 3d 27 ad b4 bd
       -0.14777851 -0.08321834 0.052899856 -0.08822089
000020 0a 07 02 bd 23 b4 82 bc
       -0.031744994 -0.015955037

dnn.2.weight f4 [10, 10]
000000 97 d8 f0 3d 12 69 0b bd af b5 d4 bd 7f 6c 04 be
       0.11760061 -0.03403575 -0.10386216 -0.12932013
000010 1b 65 76 3e 9a 8b 12 3e e7 6b 70 3e ea b1 10 bd
       0.24062006 0.14311066 0.23478661 -0.035325922
000020 b0 a8 8f be a8 22 e1 bc ed 05 42 3e e8 93 9f 3e
       -0.28058386 -0.027482346 0.18947573 0.3116753
000030 e4 a2 cb bd 95 03 31 be 03 66 46 3e 2e b2 55 3d
       -0.09943178 -0.17286523 0.19374852 0.05217188
000040 0c 58 95 be 31 e3 8d bd 4d 66 28 bd 6c 64 28 be
       -0.29168737 -0.06928099 -0.041113187 -0.16444558
000050 49 a1 a0 be fe b0 89 be 8c ff 35 3e 8b 13 82 3e
       -0.3137305 -0.26892847 0.17773265 0.25405535
000060 f9 2c 83 be e3 3e 9d be 66 fe 8d 3e 16 57 09 be
       -0.2562025 -0.3071204 0.27733153 -0.13412127
000070 89 31 48 3e e5 48 c4 3d ed b1 26 3d 23 99 17 be
       0.19550146 0.09584216 0.040697027 -0.14804511
000080 53 82 38 bd 81 17 32 3e 82 1b 2b be dd 90 97 be
       -0.04504616 0.17391779 -0.16709712 -0.2960271
000090 6d 18 dd 3b 15 af 8e be ca ef 80 3d 5a 0b 8f 3e
       0.0067472965 -0.27867952 0.06295736 0.27938348
0000a0 ed 5a b9 bd 15 90 81 3e 07 82 85 3d 30 95 57 bd
       -0.09050546 0.25305238 0.065189414 -0.05263251
0000b0 bb 92 20 bd 61 d1 a9 3d ec a2 06 3d 27 c1 71 3e
       -0.039202433 0.08291889 0.03287022 0.23608838
0000c0 0c 42 05 3e e6 d7 a0 3e 72 da 33 be b9 6e 14 3e
       0.13013476 0.31414717 -0.17563799 0.14495362
0000d0 99 5a 76 3e c2 89 3c 3e ce 7a 6d be d7 9f cb 3d
       0.24057998 0.18411925 -0.23191378 0.099425964
0000e0 e2 b4 43 be b7 8d 8f be 06 93 d0 bd 92 1d 92 3e
       -0.1911197 -0.28037807 -0.101842925 0.28538185
0000f0 11 75 c6 3d 4c 63 c0 bc 84 e4 e0 3d c9 21 16 bc
       0.096902974 -0.023484848 0.10981086 -0.009163328
000100 60 58 51 3e 92 da e0 3d 9d ea 6e bd a1 d8 91 be
       0.20443869 0.10979189 -0.058329213 -0.28485587
000110 db 43 07 be 7b b1 79 3e 44 b9 94 be ed 78 ce 3d
       -0.13209479 0.2438411 -0.29047596 0.100816585
000120 78 1a 9f be 6c 3d 87 3d a9 e8 8e be b1 82 06 be
       -0.31074882 0.06603512 -0.2791188 -0.13135792
000130 66 6a 94 bd 81 e9 d3 bd c4 d5 86 be d4 ab e4 bd
       -0.072468564 -0.10347272 -0.26334965 -0.11165586
000140 d0 44 08 3d 60 2e 4f 3e 3e fa 91 3e 16 1f a9 bd
       0.03326875 0.20232534 0.28511232 -0.08257882
000150 58 83 5e be 8d 24 12 be 47 81 3c 3e 94 7b f1 3d
       -0.21729791 -0.14271756 0.1840869 0.11791149
000160 53 9f 96 3e 36 8a 0d 3c ba 77 22 3e 92 49 7a be
       0.2941843 0.008638909 0.15865985 -0.24442127
000170 33 03 4c 3e 7a 9d 3f 3e 42 9e 44 3e 12 a6 b2 3c
       0.19923095 0.18712416 0.19200996 0.021807704
000180 bc 23 8d 3e 71 1e 9a 3e 55 85 a1 be 35 e1 86 be
       0.27566326 0.3010135 -0.31547037 -0.26343694

dnn.2.bias f4 [10]
000000 f0 3a 42 3c 41 d3 5d be 3c 80 91 be 75 f1 de 3d
       0.011854872 -0.21662618 -0.28418148 0.10885898
000010 41 4d 80 3e fe ce fa bd ff f9 84 3d 6c 49 9b 3e
       0.2505894 -0.12246512 0.064929955 0.30329454
000020 f9 41 8a be 4f 7e 70 bd
       -0.27003458 -0.058714207

dnn.4.weight f4 [10, 10]
000000 86 39 8b 3e 0c e2 24 be 2d af 1d bd 89 b8 31 3e
       0.27192324 -0.16101855 -0.03849714 0.17355551
000010 78 a7 85 3e 40 0d 49 3e db 7f f0 3c 72 d3 98 3e
       0.2610433 0.1963396 0.029357841 0.2984882
000020 f2 32 91 be 01 7f 7e be d8 31 68 3e 0f 6b 5b 3d
       -0.2835918 -0.24853136 0.22675264 0.053568896
000030 77 2a 96 3e 2e c2 37 be d5 fe 9f be 0f e4 55 3c
       0.29329273 -0.17945167 -0.3124911 0.013054862
000040 d6 b2 79 3d e5 bd 8c 3e 35 a3 fc 3d 1f e3 75 3e
       0.060961567 0.27488628 0.12335817 0.24012421
000050 30 8d 06 3e 70 2a d6 3d 3f 29 80 3e 9d 12 39 be
       0.13139796 0.10457313 0.25031468 -0.18073507
000060 e9 de 89 3d 19 2e 86 be ea be 38 bd b7 81 8b be
       0.0673197 -0.26207045 -0.045103945 -0.27247402
000070 de e4 7c be 37 23 55 bd b8 c3 48 3e 21 68 65 be
       -0.24696681 -0.052035537 0.19605911 -0.22403003
000080 39 ea b9 3d 01 07 44 3e 97 49 a0 bd 4d 64 8b be
       0.090778776 0.19143297 -0.07826536 -0.2722496
000090 8e 55 d3 bd 65 a1 0a be ec dd 38 be 9b 1a 0f be
       -0.10319053 -0.1353813 -0.18053406 -0.13974993
0000a0 b7 06 b7 3d b8 79 27 bd 88 d6 40 3d 2c ee 6e be
       0.08936828 -0.040887564 0.047079593 -0.23333043
0000b0 cf eb 86 bd f6 cb cb bd c4 82 79 be ea 63 14 bd
       -0.06587946 -0.09951012 -0.2436629 -0.036228098
0000c0 4a c0 57 be 4b d6 82 bc 83 7f c3 3c 05 ae 87 3e
       -0.21069446 -0.015971323 0.023864513 0.26499954
0000d0 36 88 1f 3e c4 5e 9c 3e 27 03 d5 3d 3a 3c 37 bd
       0.15579304 0.3054105 0.10400992 -0.04473517
0000e0 cb 21 7a be dc 7c 19 3d be 32 ab 3b ce c8 27 3e
       -0.24426953 0.03747259 0.005224555 0.16385195
0000f0 37 c2 81 be 9e 07 18 be 2a 5f 86 3e b8 0b 8b be
       -0.25343487 -0.14846656 0.2624448 -0.27157378
000100 ce 4a 99 3e bf e3 8f 3e 89 f3 f4 bd c4 27 58 3d
       0.29939884 0.28103444 -0.11960513 0.0527723
000110 d0 01 6c be 4d aa 84 be 0f 9f 06 bc 9c 63 2b 3c
       -0.23047566 -0.2591118 -0.008216633 0.01046076
000120 2d 97 e9 3d 8d 97 3b 3e 63 41 82 3e a2 d9 11 be
       0.114057876 0.18319531 0.2544051 -0.14243177
000130 21 99 3e be 47 61 91 3e c1 2d 80 3e 6f 19 c9 bd
       -0.18613102 0.2839453 0.25034907 -0.09819304
000140 1c e0 fc bd 98 f4 bd 3d 8f e3 a0 be b1 4a a3 3d
       -0.12347433 0.09275168 -0.31423613 0.07973231
000150 41 32 88 be b9 64 84 bd c5 3f 8e be 4f d6 25 be
       -0.2660084 -0.06464524 -0.27783027 -0.16195033
000160 c8 bf 88 3e 7e f6 a1 bc d9 ad 74 bc 7b 58 88 be
       0.26708817 -0.019770857 -0.014934027 -0.26630005
000170 0a 56 77 be 80 cf ae 3d e3 8d c4 3d 3f 28 c4 3d
       -0.24153915 0.08535671 0.09597375 0.09577989
000180 8e 53 8a 3e ab 97 55 be 6d fd ca 3d 6a d0 1c 3d
       0.27016872 -0.20858638 0.099116184 0.038284697

dnn.4.bias f4 [10]
000000 c1 ec 58 3e 1d 94 e8 bd 68 cf 6b be 2f d7 3d 3e
       0.21184064 -0.11356375 -0.23028338 0.18539117
000010 71 b5 ec bd 4e a8 65 be 89 e4 61 3e 61 4c 9b 3e
       -0.11558045 -0.22427484 0.22059835 0.3033171
000020 12 d6 80 bb 2f 8e 0b be
       -0.003931769 -0.13628457

dnn.6.weight f4 [1, 10]
000000 cf eb 92 3e 03 58 45 be 9c 7d 56 3e 22 86 52 be
       0.28695533 -0.19271855 0.20946354 -0.2055898
000010 71 1f 95 3e dc c4 e9 3d e2 50 60 3e b8 22 dd 3d
       0.2912555 0.11414501 0.21905854 0.10797638
000020 7c cb 14 be 07 63 01 be
       -0.14530748 -0.12635432
