Result/predictor.pth (torch, 6934 bytes, 8 tensors)

AWC f4 [8]
00000000: 96f0 c742 82f3 c742 60f7 c742 f2f6 c742
00000010: 90ef c742 34ef c742 92fe c742 48f4 c742
99.969894 99.9756 99.983154 99.982315 99.967896 99.96719 99.99721 99.97711

dnn.0.weight f4 [10, 65]
00000000: 3eb5 a93d 8448 013d 6ffd a73d d46b 95bd
00000010: e2b8 ce3d 0a3b 56bd 5098 92bd a3cc 0abd
00000020: 90e7 17be 02b5 d63c c0fd 8f3d 78b9 60bd
00000030: 7a68 1cbd e2d5 0dbe 9cf5 653d 3930 973d
00000040: 00a2 843d 5f69 aa3d fc62 4e3c 82f2 a2bd
00000050: c466 1bbc 1007 e4bc 6ee1 9cbd d992 463d
00000060: 3cfd b5bd 9784 03be 343b e2bd 6ab3 cc3d
00000070: 9a3f c1bd d60f 89bd 9ae3 c43c de1a 153d
00000080: a498 a9bd 113d 1ebd e3dd d73d 3d53 fbbd
00000090: 5bea 98bc 6277 46bd 41e9 6b3d d50f a2bd
000000a0: d24c d4bd cce9 ed3c 416f b63c b48b 71bd
000000b0: 853e 8a3d f958 b5bd 1b0c 9bbd 104f 38bd
000000c0: 6ef8 a9bd 1024 bebb 2da4 bc3d 3c29 88bc
000000d0: 80a7 f6bd a915 94bd 8e4c ef3d 1255 0abe
000000e0: 315c cdbd e79b f6bd 75ef d2bc 101b 19bd
000000f0: 2e52 093d 6f15 ff3a 2ffe d1bd a6eb a6bc
00000100: 7d8c a8bd e259 b13c 97d5 58bd 3151 0d3e
00000110: 0c51 2bbc 8c22 a2bd 2890 f5bc 518e 043e
00000120: ab6e 5e3d 4ad8 093e 6d08 88bb d522 8e3b
00000130: a031 3abc 50c5 0ebd fc6f a2bd e19c 3fba
00000140: 958b 15bd 3e23 46bd 366f c03d 4df1 ebbd
00000150: 311b 70bc d916 5bbd 7f38 973c fab4 b7bd
00000160: 7f74 c6bd ccc0 d53c e799 6fbd 8421 acbd
00000170: 9198 b23d 56b6 fdbc 98e2 b0bc 359e 55bc
00000180: 2d78 84bc 486c 0dbe 3337 a53d 98c9 d83c
00000190: 0a08 64bd 3753 a33d 39e5 08bd 39e8 af3c
000001a0: d266 0d3d 57b7 54bd 1a39 cebd 2ac4 c83c
000001b0: 9e48 c33c 7cef 9b3d 782e c0bd dc6c 83bd
000001c0: 129e eebd 1563 003e ea87 d23c 21af b5bd
000001d0: 68f9 9e39 b0d0 aabd 75db 983d f526 be3d
000001e0: d922 8abc 2c81 e3bc 939f c03c c83b b23d
000001f0: 25b7 21bd 4602 07be a38e c53c 5e51 9bbd
00000200: 1a6d 0d3e 42bf b0bc 6fd6 be3d 267f adbc
00000210: 7d3a b6bd e27b 173e dfeb f13d 0731 3e3b
00000220: 8ca3 92bd 6c1d 26bd e908 afbd f846 8c3d
00000230: 346d 8b3c a098 27bd 3c68 c03d bf5d 9ebd
00000240: 68a1 4f3d 2a50 86bd 7c52 16bd 3115 d0bc
00000250: 46d0 ef3c 8a0c 8d3d 1d72 053d 1242 e93d
00000260: fb03 59bb cfab 89bb e16f a6bd 93ce adbc
00000270: 6dd6 a13d 095d 3d3d 030d 4dbd bc87 933c
00000280: 5a77 c23d ed26 2a3d 500c 8a3c d789 6e3d
00000290: e2df 443d 6a39 853d 76e7 49bd ed4a 98bd
000002a0: c4df b6bd 97b3 6dbd 9512 0cbe 0736 603d
000002b0: dcd3 6bbc 5cf4 0d3e caff 383d 7c43 67bd
000002c0: 83b1 183b f85a 24bd 356f b7bc b469 683d
000002d0: 34f2 053c 4845 003e c7d4 3c3d 3833 d23d
000002e0: b82f 4cbd d566 803c 59f7 343d 5850 db3d
000002f0: 5086 cd3d 4f27 ea3b 5f13 bbbd 24f6 493d
00000300: fead 6abd 3949 d23d 565c 15be da81 cfbc
00000310: daea 1e3e db7e 343c 7707 3fbc 448e 9d3d
00000320: bc18 5abd bd65 0bbd 6f8e cebc 577f 3a3d
00000330: 8b8a fb3d cab6 023d 10bb 183e c0a7 82bd
00000340: fe88 6c3c 9e58 de3d b62c a53d 4fe4 a0bc
00000350: c002 f33b f2c7 8fbc a010 0e3c 8b37 c5bd
00000360: 4796 05be a394 883d 632c 35bd 365b 21bd
00000370: a564 163e 0b2b 58bd 1e7e cbba 12bc b73d
00000380: 11b8 4a3b 0ae5 e5bc c2be db3c 1457 fdbd
00000390: 1d3e 95bd 83ae a9bd 3900 c93d 8eb8 11be
000003a0: 0d31 06bd edc5 103e 593f 24be d0c3 963d
000003b0: 74da 9a3c 64ec 963d fc63 36bb 6129 01bd
000003c0: dd80 c0bd accb 95bd 59f5 d7bd a777 8bbc
000003d0: ec5d 1c3d 2c66 84bc 0b39 b73c 8768 b5bc
000003e0: f211 c23c ec6d 203d a11c 29bd 53d9 783d
000003f0: c4f5 7bbd 59c2 f9bc 2704 d93d 1af8 68bc
0.08286522 0.031563297 0.082026355 -0.07295957 0.10093857 -0.052302398 -0.071579576 -0.033886563
-0.14834428 0.026209358 0.07030821 -0.054864377 -0.038185574 -0.13851121 0.056142434 0.073822446
0.064762115 0.08320879 0.012596842 -0.07956411 -0.00948495 -0.027835399 -0.07660185 0.04847989
-0.08886191 -0.12843548 -0.11046448 0.09995158 -0.09435959 -0.066924736 0.02403431 0.036402576
-0.08281067 -0.038632456 0.105403684 -0.12271736 -0.018666437 -0.048453696 0.057595495 -0.07913176
-0.10366215 0.029042147 0.022269847 -0.058971122 0.06750206 -0.08854861 -0.07570668 -0.044997275
-0.08299337 -0.005802639 0.092110015 -0.016621225 -0.12043667 -0.07230694 0.116845235 -0.13509014
-0.1002735 -0.12041455 -0.025748948 -0.037379324 0.03352564 0.0019461344 -0.1025356 -0.020376038
-0.08229921 0.021649305 -0.05293807 0.13800503 -0.010456335 -0.079167455 -0.029975966 0.12944914
0.05430476 0.13461414 -0.004151395 0.0043376484 -0.011364371 -0.03485614 -0.079315156 -0.00073094486
-0.03651007 -0.048373453 0.09396212 -0.11520634 -0.01465492 -0.053488586 0.018459557 -0.089700654
-0.096901886 0.02609291 -0.058496382 -0.0840483 0.08720506 -0.030970734 -0.021592423 -0.013038208
-0.016170586 -0.13810837 0.08067169 0.026463315 -0.05567173 0.07974856 -0.03342173 0.021473037
0.034521885 -0.05193266 -0.10069485 0.0245076 0.023838338 0.076140374 -0.09383863 -0.06417248
-0.11651243 0.12537797 0.025699575 -0.08871294 0.0003032193 -0.08340585 0.07463733 0.09284774
-0.01686232 -0.027771555 0.02351359 0.087028086 -0.0394813 -0.13184461 0.024115866 -0.07583879
0.1381115 -0.021575574 0.09318244 -0.021178793 -0.088978745 0.14793351 0.11812567 0.0029020922
-0.071601 -0.040555403 -0.08546621 0.06849474 0.017019846 -0.04091704 0.09394881 -0.077327244
0.05069104 -0.06558259 -0.036699757 -0.02540073 0.029274117 0.06887157 0.03257953 0.11389555
-0.0033113945 -0.0042013894 -0.08126808 -0.021216666 0.079022266 0.046231303 -0.050061237 0.01800906
0.09495421 0.04154103 0.016851574 0.058236923 0.048065074 0.065050915 -0.049293004 -0.07436166
-0.08929399 -0.0580326 -0.13678963 0.054739024 -0.014393773 0.13862747 0.045165814 -0.056460842
0.0023299165 -0.040125817 -0.022391895 0.05674143 0.0081754215 0.12526429 0.046101358 0.102636755
-0.049850196 0.015674034 0.0441812 0.10708684 0.10035384 0.007145799 -0.09134554 0.049307004
-0.057294838 0.10267872 -0.14586005 -0.025330473 0.15519276 0.011016573 -0.011659495 0.07693151
-0.053246245 -0.034032572 -0.025214402 0.045531597 0.12282284 0.031912602 0.14915109 -0.06379652
0.014436958 0.10856746 0.080651686 -0.019640116 0.0074160993 -0.017551396 0.008670956 -0.096297346
-0.13045608 0.06668975 -0.044231784 -0.039393626 0.1468683 -0.052775424 -0.0015525257 0.089714184
0.0030932466 -0.028063316 0.026824359 -0.123701245 -0.07287238 -0.082852386 0.098144956 -0.14230558
-0.032761622 0.14138003 -0.1603979 0.07361567 0.018902995 0.07369307 -0.0027830591 -0.031533603
-0.09399579 -0.07314238 -0.10544843 -0.017024828 0.03817551 -0.016162 0.022366067 -0.02214457
0.023690198 0.03916733 -0.04128707 0.06075413 -0.061513677 -0.03048818 0.10596495 -0.014219308

dnn.0.bias f4 [10]
00000000: 8758 c83c 0837 5bbd 53f3 23bd 92ea 7e3c
00000010: 220a 31be d8b0 b6bd 5ab6 5c3d 79f9 b1bd
00000020: e57f 6cbd 07bc e4bb
0.024456276 -0.05351928 -0.040026974 0.015558856 -0.17289022 -0.08920449 0.05388484 -0.08690161
-0.057739157 -0.0069804224

dnn.2.weight f4 [10, 10]
00000000: 1135 e73d 9ca8 1fbd 614f debd cd69 09be
00000010: 3397 713e a675 143e 9e68 6f3e ea50 06bd
00000020: 5c40 8dbe 9790 03bd f962 3d3e 05a4 9c3e
00000030: 6bba d4bd e953 37be c1d8 413e 7e8a 613d
00000040: 2954 96be 00b9 89bd 6b2b 16bd 2639 2dbe
00000050: 1aa1 a0be f4d4 89be 1de9 353e c2d1 813e
00000060: 0739 83be a3fd 9bbe 47fa 8e3e 9005 0cbe
00000070: b233 483e ad90 c43d 98a6 223d b431 18be
00000080: 296d 3cbd 359d 313e c014 2cbe 8b02 98be
00000090: 3836 403b 22e0 8cbe 6df7 823d 967e 8e3e
000000a0: 18c6 b9bd bb4b 813e 84f0 843d ba65 5abd
000000b0: f4ba 21bd 3c9c af3d 2189 0e3d 9f7c 6f3e
000000c0: d382 053e d0c2 a03e 52d0 37be 8923 103e
000000d0: 3e64 723e 5c16 383e fe72 71be fa8f db3d
000000e0: deab 46be b357 8fbe 46bc c8bd ae46 903e
000000f0: 4115 c93d fbad b1bc 129f e33d 854d e9bb
00000100: d2b7 523e 9218 d83d 6de1 6fbd 7dd0 90be
00000110: 6c93 08be bde1 7a3e f1d7 94be 7bbc cc3d
00000120: 653b 9fbe a802 853d 260a 8fbe 6244 ffbd
00000130: 5e06 93bd 5dd4 d7bd 95b7 86be e363 e5bd
00000140: 6033 083d ad4b 4f3e c701 923e 42ac a8bd
00000150: d772 5ebe ea36 13be 44fb 383e 5e18 f63d
00000160: 29a2 963e a762 093c 765e 223e 403f 7abe
00000170: fcf0 4b3e 78a3 3f3e 188d 443e 3d37 a53c
00000180: b0ca 8a3e 514d 9b3e 6678 a1be 9a06 87be
0.112894185 -0.038979158 -0.10854984 -0.13419266 0.23592834 0.14498004 0.23379752 -0.03279201
-0.27588165 -0.032120313 0.18494786 0.30593887 -0.10387119 -0.17903103 0.18930341 0.055063717
-0.29361084 -0.06724739 -0.0366625 -0.16916332 -0.3137291 -0.26920283 0.17764707 0.25355345
-0.25629446 -0.30466947 0.2792532 -0.13673997 0.1955097 0.09597907 0.039709657 -0.1486271
-0.04600254 0.17345126 -0.1680479 -0.2968944 0.0029329192 -0.2751475 0.06394849 0.27830952
-0.090709865 0.2525309 0.06491187 -0.05331967 -0.039484933 0.08574721 0.034798745 0.23387383
0.13038187 0.3139863 -0.17950562 0.14076056 0.23671052 0.1797728 -0.23579022 0.10720821
-0.194015 -0.27996597 -0.09801535 0.28178924 0.09818507 -0.021689406 0.11114325 -0.0071198368
0.20577934 0.105515614 -0.058564592 -0.28284064 -0.13337487 0.24500175 -0.29071 0.09996887
-0.31100002 0.06494647 -0.2793743 -0.12464215 -0.07178949 -0.10538552 -0.26311937 -0.112006925
0.03325212 0.20243712 0.2851698 -0.082359806 -0.21723495 -0.14376417 0.180646 0.120163664
0.29420593 0.008385337 0.15856346 -0.2443819 0.19916147 0.18714702 0.19194448 0.020167941
0.27107763 0.30332425 -0.3153717 -0.26372224

dnn.2.bias f4 [10]
00000000: 7b92 873c c144 59be 9173 91be dbe1 e03d
00000010: bb72 803e 04dc f2bd fe37 823d 4a6b 9b3e
00000020: b44a 8abe 823c 70bd
0.01654934 -0.21217634 -0.28408483 0.109805785 0.25087532 -0.11858371 0.06358336 0.30355293
-0.2701012 -0.058651455

dnn.4.weight f4 [10, 10]
00000000: 65ec 8a3e 7a98 26be c736 20bd 8e7c 363e
00000010: 7856 823e 5038 483e a52d f33c 9fd0 983e
00000020: 7b34 90be fc57 7ebe 7e77 683e 534b 613d
00000030: 5ff1 953e bdbd 3dbe be5c 9cbe 391c 5c3c
00000040: 4752 763d 56f6 8c3e 3269 f73d 8460 753e
00000050: 501d 063e abbe d23d a7f8 7f3e 2c35 34be
00000060: 2513 783d 4984 86be 7e02 36bd e7ab 8bbe
00000070: a1c7 7abe eb2b 54bd f0f9 483e 4fc2 63be
00000080: 4bd5 bb3d 827a 3f3e 5ebb 91bd 500b 8bbe
00000090: 8ac5 d4bd 7526 0abe f688 3abe 0c58 0fbe
000000a0: b623 b63d 68a1 2ebd 424b 423d 7c7b 69be
000000b0: f962 95bd 1020 cdbd d3c8 78be baae 15bd
000000c0: 5f6b 55be 9895 80bc 661e bd3c 509e 863e
000000d0: b3d8 203e 854f 9f3e 5744 c73d a3d8 3abd
000000e0: 03c4 79be 5be9 193d ff29 f93b 4ed9 273e
000000f0: e577 82be 8162 1abe 1de7 853e 3dee 88be
00000100: a943 963e c338 8f3e 8787 f5bd 90c7 5a3d
00000110: 2ccd 6abe 5405 85be 5b56 0dbc 3096 0e3c
00000120: fdbb e13d ef0d 3e3e 1634 7d3e 0a9c 12be
00000130: fdab 3dbe b31a 913e 8f58 803e 7685 c9bd
00000140: 9415 fbbd fa6a c23d 0900 a1be cc81 993d
00000150: 89cc 84be 2b53 82bd 416c 8ebe 0ae5 25be
00000160: 5fd0 873e 650d a1bc 31b9 6abc 7453 87be
00000170: cc0f 77be dd6c a53d 035d d23d e635 c63d
00000180: 470d 8a3e 1e97 55be 7a85 c73d 5d3c 1d3d
0.2713348 -0.16269103 -0.03911474 0.17820951 0.25456595 0.19552732 0.029684851 0.29846665
-0.2816504 -0.24838251 0.22701833 0.055003475 0.29285714 -0.1852941 -0.30539507 0.013434463
0.06013706 0.2753169 0.12080611 0.23962599 0.1309712 0.10290273 0.24997197 -0.17598408
0.060565133 -0.262728 -0.04443597 -0.2727959 -0.24490215 -0.051799696 0.19626594 -0.22242092
0.09171542 0.18699077 -0.071158156 -0.27157068 -0.1038924 -0.13491233 -0.18216309 -0.13998431
0.0889353 -0.042634398 0.047435053 -0.22801012 -0.07294268 -0.10015881 -0.24295358 -0.036543585
-0.2084174 -0.015696332 0.023085784 0.26292658 0.15707664 0.31115356 0.09729832 -0.045616757
-0.24391179 0.03757606 0.0076038833 0.16391489 -0.25482097 -0.15076639 0.26152888 -0.2674426
0.29348496 0.27972993 -0.119887404 0.053412974 -0.2292983 -0.25980628 -0.008626546 0.0087028
0.11022184 0.18560003 0.247269 -0.14317337 -0.1852264 0.28340682 0.25067565 -0.09839909
-0.12259975 0.094930604 -0.3144534 0.0749546 -0.25937298 -0.06363519 -0.27816966 -0.16200653
0.26526162 -0.019659707 -0.01432638 -0.26430857 -0.2412712 0.08077405 0.10271647 0.09678249
0.26963255 -0.20858428 0.097422555 0.038387645

dnn.4.bias f4 [10]
00000000: d382 593e 67c5 e8bd 8168 6bbe 56c0 3d3e
00000010: 8e2d ecbd af07 65be e430 633e 8b64 9b3e
00000020: 00ba 95bb 7c0a 0cbe
0.21241312 -0.113657765 -0.22989084 0.18530402 -0.11532126 -0.22366212 0.22186619 0.30350146
-0.004569292 -0.13675874

dnn.6.weight f4 [1, 10]
00000000: 703c 923e cc3a 44be c1d2 523e 5981 50be
00000010: dfb1 923e d08c e43d b5d3 5e3e 7f49 dc3d
00000020: c33b 09be 3211 00be
0.28561735 -0.19163054 0.20588209 -0.20361842 0.2865133 0.1115967 0.21760447 0.10756206
-0.13401704 -0.1250656
