Result/xNN.pth (torch, 54146 bytes, 28 tensors)

feature_embedding.weight f4 [15, 14]
00000000: 21f7 7bbe e932 cbbd 3163 67be f876 81be
00000010: 802b 9dbd be6b c9be 5f37 0c3d e12f 5a3c
00000020: 22e5 19bd a2bf b13d fe91 12bd a542 8b3d
00000030: 7834 01be d33e a73d 55fa 25be 3863 c03c
00000040: f375 23be 3490 5c3e 7af3 833c 1ea0 b23d
00000050: beab c43c ec02 30be 5e02 ae3d 3235 8fbe
00000060: bcf2 44be 3157 e6bd 85bd 50bd f465 a93c
00000070: d548 e0bd 5b7a 25be ccf5 04be c698 0e3e
00000080: 0203 a2bd bc83 62be d8a3 a6be 13a4 87be
00000090: 409c 71bd da75 2fbe 5a7b cebd 3364 a13d
000000a0: 931a ac3d 341f a7bc 7c30 cbbc e0c6 aabd
000000b0: 7286 063d 3ff3 4dbd 24a2 26be 2342 11be
000000c0: 8e08 f1bd 790f 053e 1f0d 0f3e 3266 5fbe
000000d0: d98e 2b3d d572 043e df11 983d 8493 83bd
000000e0: 2150 94bd c2ef 2a3e 17ff da3b 7670 debd
000000f0: 0b81 e73d 2d1b c5bd 716d 8bbe 7be2 d4bd
00000100: 8cc4 99be 2fd2 adbe 1a61 31bd cebb f2bd
00000110: 9215 8a3c 88f8 303e f666 6dbc 1a04 94bd
00000120: ce69 36be a7ce a63d eea0 483e 6e61 623e
00000130: 541d 51be 2e1f 873e 3e9a 8aba f042 1b3f
00000140: 3390 65be 9525 cdbc ed2d c63c 4e78 85bc
00000150: 017f 4f3e 66ce 8c3b c89b 82ba 134a 90be
00000160: 2455 1cbe 1537 22be 1c7e 02be a11c d9bd
00000170: 7c3e 6fbe 8451 1a3e 796b 163e e54b e43d
00000180: fbb3 083c 45cf 9a3c 0cff ee3c b92c 0abc
00000190: 8ce1 8c3d 1989 ed3d 5fcf 85ba 3947 8cbe
000001a0: 60d1 a4bc 5265 45be 178c f8bd 22e1 a5be
000001b0: 67a9 253e b6c4 dabc f210 b23c bc51 893d
000001c0: 37a3 21be d96c abbd 1baf 90be 005b 8cbe
000001d0: e7df b73d 7299 153e 03dd 3cbe 2c08 ef3d
000001e0: 36c0 e1bd b20a 9bbe 8e97 1cbe 9c6e 63be
000001f0: f42d 4fbe 4e15 c0bd 4f19 18bd 27dd dc3d
00000200: 95a2 2ebd a62a d7bd 37ec 363e 71c8 54bd
00000210: 5d99 fa3c 84e9 70be 22c6 46be 2d11 95bd
00000220: a54c cd3e 74ac 3d3d f582 a7bd 252b 75bc
00000230: d4bf fcbd 042d 04bd 8701 96bd f54e d23d
00000240: b6b8 99ba 2bd7 433e 2aa3 e9bd a1d3 203d
00000250: 45f9 063e cb0e 323f 8c93 7cbe 3332 df3c
00000260: 193d 833d 5f3f f63c 5a9b 333e bd6f 1abe
00000270: f0fe ac3d 10db 013c f418 073c 04fb 06be
00000280: e670 9bbe f107 32bd 06be bfbb 2bcc 123e
00000290: fccd 17be cc92 8ebe 91df d63d 1f04 be3c
000002a0: 5737 cd3b 7708 883d f984 9ebd 0c43 16bc
000002b0: 6581 a6be 13ac 4f3d d9b6 783a 6f73 e9bc
000002c0: 9950 4cbe 59b7 063e d932 843e 7f34 38bd
000002d0: 37be b23d 1640 9ebd 1797 643d 09fb 19bd
000002e0: 5f49 6abd 5d46 903e eec1 8b3d a458 aa3d
000002f0: 8e5d a9be 870b 823e 924a 003e cd66 df3d
00000300: b517 93be ada2 8ebc 8499 6f3d d94f 0e3e
00000310: b5eb 72bd 69dc a4bc 62ce 4dbe 4b7f d13e
00000320: 7884 75bd e6e8 423e 984c f6bd c739 bd3e
00000330: 1021 7b3e f8c2 623e ce85 0e3d e480 9abd
00000340: c1f2 c13d e47c 83bd
-0.24605991 -0.0992182 -0.22596432 -0.25286078 -0.076743126 -0.39340013 0.034232493 0.013317079
-0.037572034 0.08679129 -0.03578376 0.06799821 -0.12617671 0.0816628 -0.16208775 0.023484811
-0.15962963 0.21539384 0.01610731 0.08721946 0.024007674 -0.17188615 0.08496545 -0.27970272
-0.19233221 -0.11247099 -0.05096199 0.020678498 -0.109513916 -0.16159956 -0.12984389 0.13925466
-0.0791073 -0.22120565 -0.32546878 -0.26492366 -0.058986902 -0.171348 -0.10082121 0.078804396
0.08403506 -0.020400621 -0.024803393 -0.08338714 0.03284306 -0.050280806 -0.16272789 -0.14185385
-0.1176921 0.12994184 0.13969849 -0.21816328 0.041884277 0.1293443 0.07425284 -0.06424621
-0.07241846 0.16693023 0.006683241 -0.10861294 0.1130391 -0.09624324 -0.27231935 -0.1039476
-0.30032766 -0.3394942 -0.043305494 -0.11852227 0.016855989 0.17282307 -0.01448988 -0.07227345
-0.17813799 0.081448846 0.1959264 0.22107479 -0.20421344 0.26390976 -0.0010574532 0.60649014
-0.22418289 -0.025042335 0.024191821 -0.016292717 0.20263292 0.0042970655 -0.0009964639 -0.28181514
-0.15266854 -0.15841325 -0.1274342 -0.10601164 -0.2336368 0.15070158 0.14689435 0.11147288
0.008343692 0.018897662 0.02917435 -0.008433514 0.06878957 0.11598415 -0.0010208896 -0.2739809
-0.020119369 -0.19276932 -0.12136095 -0.32398325 0.16177903 -0.026705127 0.021736596 0.06705043
-0.15784918 -0.083703704 -0.28258595 -0.27413177 0.08978253 0.14609316 -0.18443684 0.116714805
-0.110229895 -0.30281597 -0.15292189 -0.22210163 -0.20232373 -0.093790635 -0.03713351 0.10784369
-0.04263552 -0.105061814 0.17863546 -0.05194897 0.030590707 -0.23526579 -0.19411519 -0.07278667
0.40097538 0.046307042 -0.08179275 -0.0149639 -0.12341276 -0.032269493 -0.0732451 0.10268966
-0.0011728022 0.19125049 -0.11408074 0.039264325 0.13181026 0.6955382 -0.2466566 0.027245617
0.06408138 0.030059515 0.1753973 -0.15081687 0.08447063 0.007925764 0.008245695 -0.13181692
-0.30359572 -0.043464605 -0.00585151 0.14335696 -0.1482467 -0.27846372 0.10491861 0.023195324
0.0062627005 0.066422395 -0.07740206 -0.009171259 -0.32520595 0.050701212 0.00094876956 -0.028497426
-0.1995262 0.13155879 0.25820044 -0.04497194 0.08727687 -0.07727067 0.055808153 -0.03759292
-0.05719888 0.28178683 0.068240985 0.08317688 -0.3307919 0.2539942 0.12528446 0.109082796
-0.28729025 -0.017411554 0.058496013 0.13897647 -0.05930682 -0.020124631 -0.2009826 0.4091743
-0.059940785 0.19034156 -0.12026328 0.36958143 0.24524331 0.22144687 0.034795575 -0.07544115
0.0947013 -0.06420305

feature_embedding.bias f4 [15]
00000000: 2aad dbbd 5c13 b2bd d73a 933e e5cf 203e
00000010: 63ec 0abe 955c 54be fd62 de3d 0e65 0c3c
00000020: 8ea7 073e cc03 743e 4f2d 1bbe 71ff 15be
00000030: dd6f 063e c594 1b3e 9290 103e
-0.10726388 -0.08695099 0.2875583 0.15704305 -0.13566737 -0.20738442 0.10858724 0.008569015
0.13247511 0.23829573 -0.15154003 -0.14648224 0.1312861 0.1519347 0.14117649

transformer_encoder.layers.0.self_attn.in_proj_weight f4 [45, 15]
00000000: ceae aebd bf41 2b3d ceaa 0b3e c807 d73d
00000010: 077d c2bd daa7 92be e4d9 123e 99d6 a53d
00000020: 3374 66be 0718 3a3d f238 87be a79c 2cbe
00000030: dcc8 213e 9f87 303e 3e17 953e eef0 68be
00000040: 67d5 97bd cabf 073d 5aec 633e 3d09 213e
00000050: a939 c33b f136 463e 643c 9abc aa49 89be
00000060: 7b75 1a3e 6029 80be f56f b3bb cf95 263e
00000070: 96bd 8cbe eaa3 313e 6184 99be 0ee0 eabc
00000080: 93a3 313e fa33 973e 44e7 093e 5c5e aa3d
00000090: 4d0c 353e 01e8 ccbd 1d9a 623d af8e e9bd
000000a0: 3b33 5bbe 838e 8e3e 326f 9bbe c73c 42be
000000b0: 32b1 5f3d 0814 2c3d 031f 073e 2254 ebbd
000000c0: 718b 0bbe 44a3 32be 450c 60be 5de4 853e
000000d0: 7adb 32bd 0508 b93e 9fe0 9b3e 35c6 54be
000000e0: ef72 52be 3c0a 1dbe 5a9b 29be 74e5 a93e
000000f0: 4b66 7ebd 3fbf 473e 73c9 e4bc 420f b23d
00000100: 2c6d 86be 6e91 a0be ae51 8d3e d50a 90be
00000110: 3d9c 953e 6c15 8cbe 0997 783e a551 72bd
00000120: 70bd 273c 1273 b4bd df9f 883e 79cf 023b
00000130: 7c7a 323e d314 eebc f6a8 883e 3956 aebc
00000140: 190c 733e 0bed 283d 6c89 a13d eab2 a1be
00000150: 0517 3d3c cc66 89be 13ed 24be 053c 35be
00000160: 603a 9b3e eb65 60be 8c27 f43d 3b70 6bbe
00000170: 80b5 cdbc c0e1 793e cb2c 86be c188 adbd
00000180: 7fb8 ad3d 827c 823d 94a4 d93d 2084 25be
00000190: a10c b0bd d7eb 9b3e 52d9 0b3c d9a9 d7bd
000001a0: d355 33be 8c85 81be 437e 6bbe 500b e53c
000001b0: a8bc cb3d 2e6b 783e 15c5 56be b155 8c3d
000001c0: ea40 143d b974 4cbd 4940 2bbe 8896 d5bc
000001d0: 4cfa a63e b0c4 6dbe 3cb6 093e 1726 4ebd
000001e0: faf5 153d 48a4 633d cdab 00be 207a 00be
000001f0: 40a7 d33c 4ad6 753d c6b4 aebe 9c64 543e
00000200: 8a77 dbbc 7467 ca3d 0aaa 91be 69f9 cb3d
00000210: 2fdb ee3d d72f 94bd b8d6 8e3e 548b 1ebb
00000220: bf29 233e 5f52 63bc 6bfd 203d 1798 113d
00000230: 6320 823e a461 e23d 7165 51be 7fd8 953c
00000240: fbaa 073e 4d9d 9bbe 1e8d 1bbe bd1e d53d
00000250: 573f 97bd d11e afbd d7a2 28be 9e06 243e
00000260: e090 5b3e 4e00 963e 0ed5 9abe 3487 853e
00000270: bc86 4ebe 52be 863e 31b5 6d3d 9083 4f3d
00000280: dbe6 9abb 88e6 63be 87ef 5c3e e4ac 04be
00000290: 7301 9c3e a885 9f3d b332 643e 24c4 1a3e
000002a0: 99c5 be3d 1bbf f03b 4fc1 40be da98 35be
000002b0: 9ac3 4cbe bde0 a83e 765a 613e 1436 9b3e
000002c0: addd 343c 19ee be3d e039 3c3e 2e73 0ebe
000002d0: 1cf9 6f3e 10c0 80be 971b 7cbe 9d98 8b3d
000002e0: f45b a63d 3eff 86bb 0f08 d43d d830 003e
000002f0: 9c66 903c b9de 34be 1820 0d3e cf4d 95be
00000300: 8cc3 993e 393c 8ebe b7e4 33bd baad 57be
00000310: 9c2d 4fbd 0ded 1b3b 50d5 46be 864d 5f3e
00000320: d2ca 27be 4d03 63bc 747e 7dbe a331 d2bc
00000330: 0d5a 2fbd d1eb 703d 29c7 6fbe 585c 9bbe
00000340: a14a 89be 6515 89be 4032 f5bd e00c d53d
00000350: afe1 323e 9214 3abe e22d 5c3d 290a c5be
00000360: e277 2e3e a121 94bd f884 f4bd 4f49 423d
00000370: 31fe 333e 9ddb acbe cbba 043e 8810 7c3e
00000380: a9df 0e3e 2227 403e 4c3b 863e e867 a3bc
00000390: 6b09 32be 602b 363e 9c3d 983e 2bbb 60be
000003a0: 4c1a 51be e2a5 c5bc b12b 1abe 97d1 043e
000003b0: 52ec 8bbe 68ef 8c3e 6ff1 8bbe a03b a0bd
000003c0: 88fa 88be c808 813e 2baf 113e 6f1d 1fbe
000003d0: 079e db3c 3e90 8b3e 7aff 96be 3444 843e
000003e0: a69d 503d 4030 013e 67dd 63be 3415 00bd
000003f0: cc4b 61be b1ac 063e d934 78bd 238e 8a3e
-0.08529435 0.041810747 0.13639376 0.10499531 -0.09496503 -0.28643686 0.14340931 0.08097572
-0.22505264 0.04543307 -0.26410633 -0.16856633 0.15799278 0.17239235 0.29119295 -0.22748157
-0.0741375 0.03314189 0.2225813 0.1572618 0.0059578014 0.19356896 -0.018827625 -0.26814014
0.15083878 -0.25031567 -0.005475993 0.16268085 -0.27488393 0.17347685 -0.2998381 -0.02867129
0.17347555 0.29531842 0.13467127 0.08318779 0.17680474 -0.10005189 0.055322755 -0.11404168
-0.21406262 0.27843103 -0.30358273 -0.18968497 0.054612346 0.04201129 0.13195424 -0.114906564
-0.13627411 -0.17445093 -0.2187968 0.2615079 -0.04366634 0.3613893 0.3044481 -0.20778735
-0.20551656 -0.15335935 -0.16563168 0.3318287 -0.062109273 0.19506548 -0.02792809 0.086943164
-0.26255167 -0.31360954 0.2760138 -0.28133264 0.29220763 -0.27360094 0.24276365 -0.059159894
0.0102380365 -0.088110104 0.26684472 0.001996009 0.17429537 -0.029062664 0.26691407 -0.021281349
0.23735084 0.041241687 0.07887539 -0.31581813 0.011541133 -0.2683624 -0.16106062 -0.17698677
0.30317974 -0.21913879 0.119216055 -0.22992031 -0.02511096 0.24402523 -0.2620605 -0.08473349
0.084824555 0.06371404 0.10627094 -0.16163683 -0.08596159 0.3045337 0.0085357 -0.10530443
-0.17513208 -0.252972 -0.22997384 0.027959496 0.09948093 0.24259636 -0.20973618 0.06852282
0.03619472 -0.049916003 -0.16723742 -0.026072755 0.32612836 -0.23219562 0.13448423 -0.050329294
0.036611535 0.055576593 -0.12565537 -0.12546587 0.025836587 0.060018815 -0.34122294 0.20741504
-0.0267904 0.09883013 -0.28450042 0.099596806 0.116629 -0.07235687 0.27898192 -0.0024191933
0.15933894 -0.013874619 0.03930418 0.035545435 0.25415334 0.1105378 -0.20448853 0.01829171
0.13248818 -0.30393448 -0.1519055 0.104062535 -0.07385128 -0.085508 -0.16468368 0.1601815
0.21441984 0.29297107 -0.30240673 0.26079714 -0.20168585 0.26317078 0.058034126 0.050662577
-0.004727227 -0.2225591 0.21575747 -0.12956578 0.30469856 0.07789165 0.22284965 0.15113884
0.093150325 0.0073470003 -0.18823741 -0.1773409 -0.19996491 0.32983962 0.22007164 0.30314696
0.01103918 0.09322757 0.18381453 -0.13911125 0.23434871 -0.25146532 -0.246199 0.06816218
0.081230074 -0.0041197827 0.103530996 0.12518632 0.017627053 -0.17663087 0.13781774 -0.29160926
0.30032003 -0.2778032 -0.04391929 -0.21062365 -0.050580606 0.0023792416 -0.1941731 0.21806917
-0.16385964 -0.013855767 -0.2475527 -0.025658434 -0.04281049 0.058818642 -0.23415817 -0.3034389
-0.2681475 -0.26774135 -0.11972475 0.10402846 0.17468904 -0.1817191 0.053754695 -0.38484314
0.17037919 -0.07232977 -0.11939424 0.047433194 0.17577435 -0.33761302 0.12961881 0.24615681
0.13952507 0.18764928 0.26217115 -0.019947007 -0.17386405 0.17789984 0.29734504 -0.21946399
-0.20420188 -0.02412695 -0.1505573 0.12970577 -0.27328736 0.27526402 -0.27332637 -0.078238726
-0.2675364 0.25202012 0.14226978 -0.15538572 0.026808752 0.27258486 -0.29491788 0.25833285
0.050931595 0.12616062 -0.22252427 -0.03127022 -0.2200157 0.13151814 -0.060597274 0.27061567

transformer_encoder.layers.0.self_attn.in_proj_bias f4 [45]
00000000: d6ed 0b3d 7b3c d13a 0481 c7bb a7ba eaba
00000010: 229a 993b eb03 a3bd 4093 c33d 11d0 ebbd
00000020: c5aa 663c 6327 82bc a675 e73d fa44 e63d
00000030: cc74 f3bd a254 f0bd a152 a3bd e8af a9ba
00000040: cbb2 0bbc d21f 4f3a ff72 90bc 5e4d 3d3b
00000050: 2860 d4bb 62f8 a53c 6b58 923c 12bc 88bb
00000060: c2bc 91b9 2ea0 613c 5b60 ab3c 7f82 fd3a
00000070: 088a 90bb ddf0 9c3b f62e a03a 4772 993c
00000080: 8b4f 213d 2307 8d3b 9d9a 95bc 3087 15bc
00000090: c25c eb3b d777 623c 91d7 1cbb 8c0a 5d3d
000000a0: 79cc 32bd a6ef 1bbc c4e3 5b3b 9156 abbb
000000b0: c8cf 833d
0.034162365 0.0015963459 -0.006088378 -0.001790841 0.0046875635 -0.07959732 0.0954957 -0.11514295
0.014078801 -0.015887922 0.113017365 0.11243625 -0.118875116 -0.117348924 -0.079747446 -0.0012946101
-0.008526514 0.0007901165 -0.01763296 0.0028885226 -0.0064811893 0.02026004 0.017864427 -0.0041728104
-0.0002779719 0.0137711 0.02091997 0.0019341259 -0.004410986 0.0047894553 0.0012221027 0.01873125
0.0393825 0.0043038293 -0.018262202 -0.0091264695 0.0071826885 0.013822517 -0.0023932199 0.053965136
-0.04365203 -0.009517586 0.0033552507 -0.0052288254 0.064361155

transformer_encoder.layers.0.self_attn.out_proj.weight f4 [15, 15]
00000000: 82c7 74bd 4a0b 9fbd b7b0 3a3d 0d80 3e3e
00000010: c920 7fbe 5bf6 81bd 34c9 533e d001 243e
00000020: 39f7 253e 9a61 e93d 1bc5 2c3e 3fab fcbd
00000030: ab80 e33c 3210 a73c c228 013e 1dbf 9739
00000040: c062 f73d a3fc 55be 65e2 8bbc d227 113e
00000050: f927 ba3d bc01 ee3d c5b5 fa3d a795 01be
00000060: e4d7 35bb 07b2 3f3e 5e12 343e 9e6b 1c3e
00000070: 6459 50be 5c21 65bd 58c0 25be 37f7 433e
00000080: 572b 1e3e 6e99 103e 8041 95be 94c4 febd
00000090: 6f0d ecbd 8836 a4bc 9730 1e3e f9b8 17bd
000000a0: 8c64 70be fa03 9b3d c4e8 84bd f643 b03c
000000b0: 2ada bb3d 8399 91bc 913c c1bd f82d 61be
000000c0: 01e7 c93b 3ca9 afbd 290e 83be 1f8a efbd
000000d0: de78 92be fd23 41bc 739a d1bd d401 56be
000000e0: 2867 003d 109d bfbc 3a82 3abe 5916 b83d
000000f0: 1efb 56be 7f14 9fbd fd00 573e fad7 123e
00000100: e3b9 9f3d 91c3 c43c c02f 503d 78d7 34be
00000110: d8e9 05bd d853 6c3e 26d9 64bd 27ea b8bd
00000120: 198c 4a3d 0c45 df3d e47b 1b3e 8435 e8bd
00000130: d8f8 c3bd a428 fdbc 2939 08bd f520 c43d
00000140: bc92 11be be62 afbc ec56 e8bd a34a 17be
00000150: c75d eebd a92b 1dbd 13e2 d13d 16d2 b63d
00000160: 690c 7f3d 46c2 44be 9986 b43d 2a29 023e
00000170: 1cf1 963d 5626 b43d a53e f8bc 6a51 853e
00000180: 1948 01be b813 dcbd c886 13be 6c20 293e
00000190: 94de 16bc cb3d 583d a8a6 053e 407d 353d
000001a0: f03b 94be 2d71 383d 92e5 dcbc 3416 07be
000001b0: 0ca8 b3ba ccff 96bc fd91 783d 1c6d f5bd
000001c0: 500a ff3d 6935 3c3e 8137 103e c072 09be
000001d0: 5598 a4bd 73ca a53d 49bb 0ebe 0310 36bd
000001e0: b880 0cbe 45aa 313d fcad 06bc d544 0fbe
000001f0: 6fb0 f73b 7064 743d 7dc9 43be 17ef ccbd
00000200: 167f 28bd 01b3 373e 5a74 b83b 78a0 9e3c
00000210: c860 8e3a 8866 4cbe 3949 72be d732 07be
00000220: fbdc 27be 61f6 cebd f305 5b3d f047 fc3d
00000230: 66dd 2fbe 6fd9 1e3e 763a bcbd d2b8 fbbd
00000240: 5170 803e 2989 1abe 0f0a 1a3e 4247 4e3b
00000250: 8d5f 453d 4a7d 0dbe 421d 293e 60b1 e5bd
00000260: d1a0 22be 007e a43e 922a 4cbd d2ce f3bd
00000270: eb28 64be ef85 89be 8314 19be 6512 e3bd
00000280: 7dcf 4bbe 2c88 943d aa7d 9cbd 9faa ecbd
00000290: 2201 53be 5eaa 8a3e 7c6c f2bc fd4c d83d
000002a0: 15f3 5cbc aa77 6a3e e45b 033c 29a3 9cbd
000002b0: 0199 aabc 4522 3cbe a5d5 d8bc 0899 ff3d
000002c0: b5db ba3d 6a1a 423d d3c3 f03c d823 5e3e
000002d0: 1bf6 8a3d 499e 1ebd 7879 08be 3d25 02be
000002e0: ace6 c0bd e700 20bd 899f 3e3e 922d d6bc
000002f0: fff9 2f3e ade7 d2bd da3b e53d d2db af3d
00000300: 599e dbbd 8820 173d 791a fabd d90b e73c
00000310: b4aa 3c3e b03a e8bd 9dee 183e 0369 2bbd
00000320: 2c86 2ebe 6a76 98bd 9fd7 fcbd f45b 03be
00000330: 12a8 0d3e 6ef9 3ebd a061 5f3e 3e08 0bbd
00000340: f67c d03b 9099 c53d 4ddb 8cbd e271 04be
00000350: 64ae 83bd 4c7e c33d c278 26be 24f2 bfbd
00000360: 0ac2 d13d 17b5 273d d261 4f3d 7e83 2f3e
00000370: 0c27 15bc bba2 0ebd 262f c63c 552a 46be
00000380: 23b4 16be
-0.059760578 -0.07765825 0.045578685 0.18603535 -0.2491485 -0.06345817 0.20682222 0.16016316
0.16207589 0.11395569 0.16872065 -0.1233735 0.027771315 0.020393465 0.12613204 0.00028943355
0.12079382 -0.20897155 -0.017075727 0.14175346 0.090896554 0.116214246 0.12241701 -0.12654744
-0.002774709 0.18720256 0.17585132 0.15275428 -0.203466 -0.055940017 -0.16186655 0.19137274
0.1544622 0.14121029 -0.29151535 -0.12439838 -0.11526 -0.020045534 0.15448223 -0.037041638
-0.23475856 0.07569118 -0.06489709 0.021516781 0.09172471 -0.017773395 -0.0943538 -0.21990192
0.006161571 -0.08577201 -0.2559674 -0.116962664 -0.2860784 -0.011788365 -0.10234537 -0.20899135
0.031348377 -0.023390323 -0.1821374 0.089886375 -0.20994231 -0.07767581 0.20996471 0.14340201
0.07799127 0.024019035 0.050826788 -0.1766032 -0.032693714 0.23078859 -0.05587115 -0.09029036
0.049450014 0.109018415 0.1518398 -0.11338332 -0.095689476 -0.030903168 -0.033257637 0.095765986
-0.14216131 -0.021409389 -0.11344704 -0.14774565 -0.1163898 -0.038371716 0.10248198 0.089267895
0.062267695 -0.19214734 0.08814735 0.12711015 0.07370207 0.087963745 -0.030303309 0.26038677
-0.1262516 -0.107459486 -0.14406884 0.16516274 -0.00920834 0.052793305 0.13051856 0.0443089
-0.2895198 0.045029808 -0.026964936 -0.13192064 -0.0013706698 -0.01843252 0.0606861 -0.119837016
0.12453139 0.1837975 0.14083673 -0.1342268 -0.080368675 0.08095255 -0.13938631 -0.044448864
-0.13720977 0.043375272 -0.008220192 -0.13991101 0.0075588743 0.059666097 -0.1911983 -0.1000654
-0.041136824 0.17939378 0.0056291046 0.019363627 0.0010862583 -0.19960988 -0.23660745 -0.13202988
-0.16392891 -0.10105587 0.05347247 0.123184085 -0.171743 0.15512632 -0.09190838 -0.12291111
0.2508569 -0.15091385 0.150429 0.0031475578 0.048186827 -0.13817325 0.16515067 -0.11215472
-0.15881659 0.3212738 -0.049845286 -0.11904682 -0.22281234 -0.26859996 -0.14949231 -0.11087493
-0.19903369 0.07252535 -0.07641156 -0.11555981 -0.20605901 0.27083105 -0.029592745 0.10561559
-0.01348569 0.2289721 0.008017514 -0.07648308 -0.020824911 -0.18372448 -0.026469061 0.1248036
0.09123937 0.04738847 0.029390251 0.21693361 0.06785222 -0.03872517 -0.13327587 -0.12709518
-0.09418997 -0.03906336 0.18615545 -0.026144776 0.1718521 -0.10298095 0.111930564 0.08586849
-0.10723562 0.03689626 -0.122120805 0.028203892 0.18424493 -0.11339319 0.14934774 -0.041848194
-0.1704337 -0.07444461 -0.12345814 -0.12828046 0.13833645 -0.046624593 0.21814585 -0.033943407
0.0063625528 0.0964843 -0.06877766 -0.12934068 -0.06429747 0.095455736 -0.16257003 -0.093723565
0.10242088 0.040944185 0.050630398 0.17140004 -0.009103548 -0.03482316 0.024192404 -0.19352086
-0.14717154

transformer_encoder.layers.0.self_attn.out_proj.bias f4 [15]
00000000: 5898 bdbc e542 47bd 3053 b23c 2dbe c9bc
00000010: f7c2 2c3d f0e6 84bd 4eb3 cc3c 5292 273d
00000020: 29bf 3abd 14b1 e63c e80d 56bd 1529 583d
00000030: d10d 7a3b de91 6b3d 0e04 743c
-0.023143932 -0.04864778 0.021768183 -0.024626816 0.04217812 -0.0648936 0.024987843 0.040911026
-0.04559246 0.02816061 -0.052259356 0.052773554 0.0038155208 0.057512157 0.014893545

transformer_encoder.layers.0.linear1.weight f4 [128, 15]
00000000: cef8 05be 04b0 60bd 2ebb 43be dc48 a6bd
00000010: 085a 903d 32f7 afbc f957 683e 6cc6 6bbe
00000020: 863f 70bc 42e0 de3d ebbf 5f3c bcac 2b3e
00000030: 78a1 813d 93dd 4dbd 27c9 cd3d fa9f 433e
00000040: 0d16 7a3d 8eef 30bd 4e29 573e b834 1d3e
00000050: 84ce 373d 30ba a3bd b677 32be 5400 ed3d
00000060: 6f44 c0bd 882b 2ebe c1c0 94bd dd88 e43d
00000070: 4413 6b3e 95b8 dbbd d904 073e 4d4e 64be
00000080: daf9 61bb 76dd 98be ba89 753e 1076 223e
00000090: 2b02 2f3e c54e 9ebe f32d b53e cdc4 f0bd
000000a0: 7dff 653e 4ff0 dc3c 2088 4d3e a70f 4ebd
000000b0: e0d2 9b3d 973a c73d 7b1f 0d3e ba44 013e
000000c0: 942a 13be 36af acbd 173a d2bc d99b 213d
000000d0: 44d7 5f3e 6e7b 453e cf70 1f3d f375 853c
000000e0: 7ee7 d2bd ec80 2d3d 68bd 5abd 28bf 963e
000000f0: 4170 9dbd 0a5d f6bd 7323 f63d aedd 7bbd
00000100: c3ed 0fbe d0cb fb3d 31ec bdbb 4366 1f3e
00000110: d501 40be fc61 463e 39ab 303e d80c a83d
00000120: 3a61 24be c5cc 543c b40e 9fb9 4c4b ac3d
00000130: b502 533e c58a 06be 5c82 3dbe 49ed fdbd
00000140: 92bb 3ebe 9243 9ebd e3ca a5bd 6684 f5bc
00000150: 5e2d d23d 13b8 123e 16dc c1bd def5 913c
00000160: c919 cb3c 67f0 42be d8b8 953d e6c9 ea3d
00000170: f544 17be 8cab dbbb d1d4 623d e262 473e
00000180: 8b05 65be c5d6 1fbe 547b 1fbe df58 0a3d
00000190: 15d8 813e e220 ed3c 3704 c13d e95e d8bd
000001a0: 78af 4ebe 46ef c0be 44cc db3d 8a6a 243e
000001b0: fa52 783e afa8 943d f293 043e e685 323d
000001c0: 3c70 63be e848 863d 8d79 19be 23df 43be
000001d0: 6d5d 13bc 6cc2 993d 36d8 9abd 8f44 903a
000001e0: 487a c0be 474f 0cbe 7295 4a3c dac5 24bd
000001f0: 0875 0e3e 391e 0cbe f906 35be 9eb1 52be
00000200: 1b52 f73c d136 e33c 019c fc3c be4f eabd
00000210: 1aab efbd df3d 53bc a78e ea3c 7623 ad3d
00000220: c2ce 313e 2fe5 36bd cb67 11be 9cc1 7abd
00000230: 4921 583e 0257 803d 822f 9dbe bfa3 2a3e
00000240: 3df8 103e 25ab 923c e560 c6bd 7740 1f3e
00000250: f984 04be d74a 833e 0448 5fbd 36a8 67be
00000260: 713e 063e 1581 443d 6c7d 303e b51e 4cbd
00000270: eff1 b6be 7b60 8d3c 62e7 7a3e 804f 59be
00000280: c678 383d da70 093e 5539 debb 1ca8 62bc
00000290: a41d 793c 7a00 2f3d 7efc c6bc 5e43 1abd
000002a0: e2d2 20be ca40 54bd c038 a03d f7a9 d93d
000002b0: 5401 3cbe 57f4 7a3e 7ab1 0dbe 4677 21bd
000002c0: c581 713d cd5f 32be 2a0e 1fbe 55ef 3f3e
000002d0: 9aab 933c 4809 56bd 5d49 64bd 498f 22be
000002e0: bc22 51bd 3611 023e 77a1 24be f04a 62bb
000002f0: 673e 1fbd be74 00be 4de4 e8bd 414e adbd
00000300: fd8c 333e 4b43 9fbd 9aee babd 0fff 8f3e
00000310: 03d4 2d3e 308c c03d 88c1 dabc b5c4 6cbe
00000320: e636 d73d 6a14 c43c 39c4 e33d aa39 923e
00000330: d7c7 bebc fb18 39be 04ba 08be 5a9c 253e
00000340: be98 8e3e 52c8 9c3e acc0 efbd cba6 1bbb
00000350: 1fb3 613d 23a7 873d f614 e1bd 141c 573e
00000360: 1646 2c3d 3b27 8e3e 73cf f2bc c536 603e
00000370: caa5 693d 1b24 063e 841c a5ba 2b01 203d
00000380: 91b7 b63d f948 663e 855a d73d e080 b9bd
00000390: f19f 8c3d 45d9 04be 2eab 8c3d 43dc 853d
000003a0: 5270 003d a242 45be 255e b83d 6da3 08be
000003b0: f791 5dbc 8433 5cbd b7dc bb3d d7e9 15be
000003c0: 3129 a0be bc4b 0c3e 5820 183d b22b 493e
000003d0: 4009 083e e25a 0c3e 87ba c33b 5aa0 7e3e
000003e0: b42d bc3d 4050 ba3d 82c1 b9bd b876 5ebd
000003f0: 04f4 f43d b960 87be ac67 e03d df3c 52be
-0.13083193 -0.05485536 -0.19114372 -0.081193656 0.07048422 -0.021480177 0.22689809 -0.2302491
-0.014663583 0.108826175 0.013656597 0.16765112 0.06329626 -0.050260138 0.100481324 0.19103995
0.061056186 -0.043197207 0.2101185 0.15352142 0.044874683 -0.07994497 -0.17428479 0.11572328
-0.09388053 -0.17008793 -0.072633274 0.11158917 0.22956568 -0.107285656 0.13185443 -0.22295494
-0.0034481199 -0.2985646 0.2397832 0.1586535 0.17090671 -0.3091947 0.3538662 -0.11756287
0.22460742 0.026970057 0.20071459 -0.050307896 0.076085806 0.09727972 0.1378154 0.12623873
-0.14371711 -0.08431856 -0.025662465 0.03945527 0.21859461 0.19285366 0.038925942 0.016291594
-0.1029806 0.042359278 -0.053403288 0.29442716 -0.07687426 -0.120294645 0.1201848 -0.061490707
-0.14055543 0.122947335 -0.0057959785 0.15566353 -0.18750699 0.19373316 0.17252816 0.08205575
-0.16052714 0.012988274 -0.00030337798 0.08412799 0.20606501 -0.13138874 -0.1850676 -0.12398774
-0.1862624 -0.07727732 -0.08095338 -0.029970359 0.10262559 0.14328031 -0.09465806 0.017817434
0.024792569 -0.19037019 0.07310647 0.1146429 -0.14772399 -0.0067037996 0.05537874 0.19471315
-0.22365396 -0.15609272 -0.1557439 0.03377616 0.2536017 0.028946344 0.09424632 -0.10564978
-0.20184124 -0.3768255 0.1073232 0.16056266 0.24250403 0.07258736 0.12947062 0.043584727
-0.22210783 0.065568745 -0.14987774 -0.19128089 -0.008994442 0.07507786 -0.0756077 0.001100676
-0.37593293 -0.13702117 0.012364732 -0.04022775 0.13911831 -0.13683404 -0.17678441 -0.20575568
0.030190518 0.0277361 0.030836107 -0.11440991 -0.11702557 -0.012893169 0.028632475 0.08454029
0.17364028 -0.04465216 -0.1419975 -0.061219797 0.21106447 0.062665954 -0.30700308 0.16664027
0.14157195 0.017903874 -0.0968645 0.15551935 -0.1294135 0.25643036 -0.05451204 -0.22622761
0.13109757 0.047974665 0.17235345 -0.049833972 -0.35731456 0.01725792 0.24502328 -0.21221733
0.045037054 0.13421956 -0.006781737 -0.013834026 0.015204821 0.042725064 -0.02429032 -0.037661903
-0.15705445 -0.0518196 0.07823324 0.10628121 -0.18359882 0.24507271 -0.13837233 -0.03942039
0.05896165 -0.17419358 -0.15532747 0.18743642 0.018026162 -0.052254945 -0.055734027 -0.15874971
-0.051058516 0.12701878 -0.16077219 -0.003452953 -0.03887787 -0.12544534 -0.1137167 -0.084621914
0.17534252 -0.07776507 -0.09127541 0.28124282 0.16975407 0.09401739 -0.026703611 -0.23121913
0.10508518 0.023935515 0.11121411 0.2855962 -0.02328865 -0.18075936 -0.1335221 0.16172925
0.27850908 0.30621582 -0.11706671 -0.002375054 0.055102464 0.06623676 -0.10990326 0.21006805
0.042059027 0.27764305 -0.029639935 0.21895893 0.057042874 0.1309971 -0.0012596999 0.039063614
0.08921731 0.22488774 0.10515312 -0.09057784 0.06866444 -0.12973507 0.068685874 0.06536152
0.031357117 -0.192637 0.09002332 -0.13343592 -0.01352357 -0.053760067 0.091729574 -0.14639984
-0.31281427 0.13700765 0.03714022 0.19645575 0.13284779 0.13706544 0.0059731635 0.24865857
0.09188405 0.09097338 -0.09070112 -0.054312438 0.11960605 -0.2644098 0.10957274 -0.20531033

transformer_encoder.layers.0.linear1.bias f4 [128]
00000000: c939 9dbe b8d8 acbe fe8c 0ebe 2072 7dbd
00000010: b99e 93bd 750e 133e 2a10 9cbe 73e3 96bc
00000020: 8c09 e73d 8521 773e 7bf4 a1be 403d 293e
00000030: cd58 7bbe 8ba9 a83d 596e fd3d 459d afbe
00000040: 193f bfbc 3708 60be c5c0 113e 3efd 70bd
00000050: d5d7 e7bd f45e 303e c431 083d ca86 5fbe
00000060: 7fcf 86be f4ff d2bc a653 42be 62b3 3fbc
00000070: 7b59 c53c f359 7b3e f2be 133e 69af 0ebd
00000080: fc3e 59be 3a53 203e 3194 cebd c041 37bd
00000090: a1b0 6bbe 32d7 c03c 3b62 7bbd 8c26 213e
000000a0: 1ff9 c83d d0d1 65be 6f84 1dbc df13 8dbe
000000b0: c59b 0ebd d822 cd3d 6716 36be 2555 a63d
000000c0: 6340 19be 145a a13c 37e1 513e 6c4e 043e
000000d0: ad79 433e 92e1 c83d 6889 78bd e2ec 80be
000000e0: c770 da3c 0099 bbbb e080 15be 6c42 26be
000000f0: f03b 6cbe a508 9d3d def4 39be f20d 913d
00000100: 6344 03be a90f ccbc 404e 9abd ded2 93be
00000110: 77e9 6abd 3ada 54be 5013 30be 7e0c 95be
00000120: 93b5 18bc 224d 9fbd 5e91 353e adce 77be
00000130: abb9 b0bd 2cc3 60be 93e3 353e 7247 81be
00000140: 17df a2bc 1ef9 b13d ec66 d1bc d6d5 77be
00000150: 4d38 cbbd 77a3 1f3d 51d0 89be 414a 1ebd
00000160: 085e 31be 2a03 333d 6407 6ebe 3069 a83c
00000170: c1c1 d33d e55b 29bc fc92 363e 3d9c 1c3e
00000180: ad19 67be f5da 26be fe9e 25bd 12c9 89bc
00000190: 69bd 4e3e dfa9 16be fc98 0dbe 08c9 6cbe
000001a0: 3eb9 a6bd 4dca 63be 8b01 6dbe 2748 53be
000001b0: d670 1e3e 017f 863d 4d1b ebbd 1aa0 d3bd
000001c0: df66 43be 8a96 723d 21aa 173d 8d75 14bd
000001d0: 6787 303d 4c97 13be 3b25 0c3e 452a 6cbe
000001e0: 58ef 40bc cf58 65be 24e3 3fbd fa5e 04be
000001f0: 858a 1fbd 8842 a7bc db6e aebe 0d2f b6bd
-0.3070815 -0.33759093 -0.13920972 -0.061876416 -0.07208008 0.14360984 -0.30481082 -0.018419003
0.11281118 0.2413388 -0.31631836 0.16527271 -0.24545594 0.08235463 0.12374563 -0.34299675
-0.023345517 -0.21878134 0.14233692 -0.05883526 -0.113204636 0.17223722 0.033250585 -0.21828762
-0.26330182 -0.025756814 -0.18977222 -0.011700483 0.02409052 0.24546032 0.14428309 -0.034835253
-0.21215433 0.15656748 -0.10086859 -0.04474044 -0.23016597 0.023540113 -0.061372977 0.1573736
0.09813141 -0.22443318 -0.009614094 -0.27554223 -0.034816522 0.100164115 -0.17781983 0.08121709
-0.14965968 0.019696273 0.20496069 0.1292054 0.19089384 0.09808649 -0.060677916 -0.25180727
0.026665105 -0.005725026 -0.14599943 -0.16236275 -0.2306974 0.076676644 -0.18159816 0.07082738
-0.12819056 -0.024909811 -0.07534456 -0.28871816 -0.057351556 -0.20786372 -0.17194867 -0.29111093
-0.009320634 -0.07778384 0.17731234 -0.24199934 -0.08629163 -0.21949452 0.17762594 -0.2524982
-0.019881768 0.086900935 -0.025561772 -0.24202666 -0.09922848 0.03897425 -0.26916745 -0.038645033
-0.17321026 0.04370419 -0.23245007 0.02055797 0.1033969 -0.010336851 0.17829508 0.15293975
-0.22568388 -0.16294463 -0.04043483 -0.01681951 0.20189442 -0.14713238 -0.1382789 -0.23123562
-0.08140801 -0.2224514 -0.2314512 -0.20632993 0.15472731 0.06567193 -0.114798166 -0.10333271
-0.19082211 0.059225596 0.037027482 -0.036244918 0.04309788 -0.14413184 0.13686077 -0.23063
-0.011775814 -0.22397159 -0.046847478 -0.12926856 -0.038950462 -0.020417467 -0.3406895 -0.08895693

transformer_encoder.layers.0.linear2.weight f4 [15, 128]
00000000: 7ccc c73d 5fcf 253d d212 c43d f768 b1bb
00000010: 6ca1 293d 697a b7bd 2d41 a6bd 24a3 3b3d
00000020: 4ae8 5a3d a28a dbbd 39d9 a0bd 6f46 b83c
00000030: 1ef0 e8bd 69d2 353e 2b21 83bd 9ca8 08bc
00000040: 87d5 fabb 8a6b d03d 4f31 633d a3d9 943d
00000050: a380 a6b9 4fe0 603d 9561 ee3c de20 973d
00000060: 749f ddbd 2c28 c5bd 4dcb 2c3e 5a88 ca3c
00000070: 0255 523d c352 79bd e611 dbbd db2e b93d
00000080: 936d db3c 563c 0dbe 5d10 303e 5c1c 07be
00000090: 55ca 94bd 761b 8abd cd7c cdbd 81cb 8ebd
000000a0: 3996 d1bd 6e8d be3d 35e4 a3bd a1d3 5dbd
000000b0: 3696 b03c 2595 653c 2c47 debd 2b55 d1bd
000000c0: 0516 953c 4025 953d e540 47be 83c7 1bbe
000000d0: a012 4fbd 481b b8bd eb11 7d3d 962a 1abd
000000e0: 0c74 25bd 241b 64bd 4141 0cbd e857 9dbc
000000f0: 2c45 59bd 73b1 963c 9355 883c a06c 0abd
00000100: cad0 d13c 8503 5cbe 8578 d3bd 814e 3cbc
00000110: 7258 b5bd c7f3 d7bc b897 b03d 7a9d b1bd
00000120: d973 233d 43ce 26bd 80a0 f0bc 6b88 fe3b
00000130: e824 00be 6036 b2b8 48d3 d43c 7338 3abb
00000140: 0eb1 33bc 0858 afbd 260f 513d 31be 1ebd
00000150: 3a7c 293d 9df5 a73c 0f89 133e 0ffb ccbd
00000160: 951a c1bd cf59 e1bd c41d d1bd d9f0 e9bc
00000170: b63f b0bd f4b8 1cbe d1e4 f1bd e539 183d
00000180: 34c3 87bd 863a 71bd 2f24 44bd 1ea8 5abd
00000190: fcd5 813c 0346 b8bc a8d0 36bd 9e03 933d
000001a0: 5d45 983b b8ab 4cbd 76a3 ccbd 0874 3e3c
000001b0: 4231 693d ee70 0dbe ce77 493d f43b 0bba
000001c0: 2340 62bc 1bb2 a73d 1bc8 5e3d 573e 9cbc
000001d0: 6a69 edbd ddcd 2d3d d534 833d b461 743d
000001e0: 8706 a5bb a544 753a 9ec5 2ebd c348 eebd
000001f0: 2ccd b33d 05b9 39bd 7a19 053d 58e7 24be
00000200: e64d 41bd 2889 3ebd d090 563b 9219 25bc
00000210: c598 433d 25a9 1cbc ec51 e13d d62f 0ebc
00000220: 90c9 4fbd 3961 a2bc 1e51 88bb 57f2 3cbc
00000230: 6c17 683d 6c24 6abd d7b0 d1bd 9c79 30bd
00000240: 360f 14bd 5c72 21bb a1c1 163c 42cc 953d
00000250: 6f2c 1e3d 2399 4cbd b54a 703d 683e 98bc
00000260: 6364 653d a45a 613d 4189 4dbc e8d3 32bd
00000270: 2e02 2fbc f415 263d 2020 be3d 11ca ffbc
00000280: d4fb 11be 6a7e c33b 47b0 3d3e 7ee7 9f3d
00000290: e4e2 fcbc e269 c1bb fa7f 86bd e28e d83c
000002a0: ff98 a83d 3839 843d d72b f03c 40e4 3e3d
000002b0: f0cd 993d 367a ce3d 76b5 903c fb9c 523d
000002c0: 2a21 7d3d 3e78 63bc 727a 083c 40bc 793c
000002d0: 0042 1bbc 1fe7 293d 1fa3 83bd 66f2 a33d
000002e0: 6172 78bd 99be 07bd e7a9 4bbd 9429 3a3d
000002f0: 20b4 a53d 4684 a8bb aee2 e63b 9255 73bd
00000300: c635 cd3d c804 263d 423d 623d ea65 69bd
00000310: e9d3 dfbc 2562 36bc d050 38bd c063 55bd
00000320: ab19 843d e2da 0bbc c1b4 0dbd 461d 6c3d
00000330: fba5 85bc 54c0 a0bd 0073 1bbd 6ace af3c
00000340: 3972 33bd fbd8 ee3c 2c5a 34bd 91c2 b1bd
00000350: fbf0 1e3d 3f52 9dbb 7744 a33c f6e0 70bd
00000360: f88f 3cbd 8c30 b93c 8c69 833c 03b9 513d
00000370: 08c0 b5b9 30cd cabd 33cd 9d3c 23d8 f9bc
00000380: 9cdf b93c b7ea 8a3b 9b9b 74bb ec19 453d
00000390: a953 6fbd 5714 fb3d df56 acbc 560b 41bd
000003a0: aea4 19be 15fa df3d 4bdc bd3d 186a 5ebd
000003b0: 20f2 553d 1fdf b53d 8a17 76bd fba9 853d
000003c0: 6247 83bd 3118 1fbc 7740 a63d 6eda 32bd
000003d0: 1e42 46bc 5e0c c4bd 3f5e 75bd 3971 f53c
000003e0: b7a9 8fbc 18c9 c2bd 1f03 97bb 01bc 83bd
000003f0: feea 923c e2b1 1a3d 0297 643d 8866 e53d
0.09755799 0.040480968 0.09573902 -0.005414124 0.04141371 -0.08958895 -0.081179 0.04580988
0.053444184 -0.107198015 -0.07853932 0.022494523 -0.11373924 0.17756046 -0.06402811 -0.008340981
-0.007654849 0.101767614 0.055466946 0.072680734 -0.0003175783 0.054901417 0.029099265 0.07379316
-0.10821429 -0.09626803 0.16874428 0.02472322 0.0513506 -0.060869943 -0.10696773 0.0904214
0.026785647 -0.13792548 0.17193742 -0.13194412 -0.07265154 -0.06743519 -0.100335695 -0.06972409
-0.10233731 0.09304319 -0.080025114 -0.054156903 0.021556001 0.01401261 -0.10853419 -0.102213226
0.018198976 0.072824955 -0.19458349 -0.15212826 -0.05055487 -0.089895785 0.061784666 -0.03763827
-0.040393874 -0.055689946 -0.03424192 -0.019206956 -0.053044483 0.018395161 0.016642367 -0.033795
0.025612254 -0.21485718 -0.10325722 -0.011493326 -0.0885476 -0.02636136 0.08622688 -0.086726144
0.039905403 -0.04072405 -0.029373407 0.007767727 -0.12514079 -8.4978295e-05 0.025979653 -0.0028414994
-0.010967506 -0.085617125 0.051039837 -0.0387556 0.041378237 0.02050286 0.14407752 -0.10008823
-0.09428898 -0.11003458 -0.102107555 -0.028557228 -0.08605902 -0.15304929 -0.118112214 0.037164588
-0.06629029 -0.058893703 -0.04788607 -0.053382985 0.015849106 -0.022494322 -0.044632584 0.07178424
0.0046469406 -0.04996845 -0.09992115 0.011624344 0.05693174 -0.1381261 0.04918652 -0.0005311363
-0.013809237 0.08188268 0.054390054 -0.019072695 -0.11592372 0.042432655 0.06406561 0.05966349
-0.0050361785 0.0009356237 -0.04266893 -0.11634972 0.08779368 -0.045342464 0.032495 -0.16103876
-0.04719343 -0.04651752 0.0032740124 -0.010076897 0.047753114 -0.009561812 0.110019535 -0.008678397
-0.050729334 -0.01982175 -0.0041600605 -0.011532388 0.05666296 -0.05716364 -0.10238808 -0.043084726
-0.03614732 -0.0024634814 0.009201438 0.0731435 0.038616594 -0.04995073 0.058664996 -0.018584445
0.05600394 0.055018082 -0.012544931 -0.04365912 -0.010681672 0.04054828 0.09283471 -0.031224282
-0.14256221 0.0059659975 0.18524276 0.078078255 -0.030869909 -0.005902515 -0.06567378 0.02643532
0.08232307 0.06456226 0.02931778 0.046604395 0.075099826 0.10081904 0.017664652 0.05141924
0.061799206 -0.013883648 0.0083299745 0.015242636 -0.009476185 0.04148018 -0.06427597 0.08005218
-0.060655955 -0.033140752 -0.04972258 0.04544981 0.08090997 -0.0051427213 0.0070460653 -0.059407778
0.10020022 0.040531904 0.0552342 -0.05698196 -0.027322726 -0.011131798 -0.044998944 -0.052097082
0.06450208 -0.008536072 -0.03459621 0.057645105 -0.016314497 -0.07849184 -0.03795147 0.02146073
-0.043810103 0.029156199 -0.044031307 -0.08679689 0.038804036 -0.0048010643 0.019930108 -0.05880829
-0.046035737 0.022606157 0.01604154 0.05120183 -0.00034666085 -0.09902418 0.019262886 -0.03049857
0.022689633 0.004239406 -0.0037324193 0.048120424 -0.058429394 0.12259739 -0.021037517 -0.04712995
-0.15004227 0.10936371 0.09270533 -0.054300398 0.05223286 0.088804476 -0.060081042 0.06526562
-0.064100996 -0.0097103575 0.081177644 -0.043665342 -0.0121007245 -0.09572671 -0.059904333 0.029961215
-0.017536981 -0.09511012 -0.0046085264 -0.06432343 0.017934319 0.0377673 0.055808075 0.11201197

transformer_encoder.layers.0.linear2.bias f4 [15]
00000000: 3275 903d 780f b5bb 9ec8 fbbc 789e 593d
00000010: 5139 e8bb 83d7 953d bb66 b1bb c9e3 c4bd
00000020: 6c21 4e3d 6329 b1bc bb7c 7e3d a45f a3bd
00000030: 2bb4 893c 604b e53c 00af 89bd
0.07053603 -0.0055255257 -0.03073531 0.053129643 -0.007086911 0.07316496 -0.0054138578 -0.09613759
0.050324842 -0.02162618 0.06213067 -0.079772264 0.016809544 0.027990043 -0.06722832

transformer_encoder.layers.0.norm1.weight f4 [15]
00000000: 0960 883f 704e 7e3f 6bb4 623f 0a73 713f
00000010: d4cf 643f 14ea 783f 9041 613f 921f 7d3f
00000020: dd24 763f b432 6b3f cb98 7e3f 7dea 7a3f
00000030: 9eab 6e3f 6dc7 7b3f aa4e 873f
1.0654308 0.99338436 0.88556546 0.9431616 0.8937962 0.97232175 0.87990665 0.988763
0.9615 0.9187424 0.99451894 0.9801405 0.9323062 0.98351175 1.0570881

transformer_encoder.layers.0.norm1.bias f4 [15]
00000000: cfed bfbc 63a4 95bb 8709 10be 4e11 393d
00000010: 1db9 4bbd 95d3 f03c a3dd 86bd 3a98 66bd
00000020: 1272 3c3d d4b8 4cbd c4d5 2d3c 9d45 38bc
00000030: d03e f33c 3da5 04bd 8ea5 e83c
-0.023428826 -0.0045667156 -0.14066134 0.04518252 -0.049737085 0.029397765 -0.065852426 -0.05629752
0.046007223 -0.049980953 0.010610048 -0.011247066 0.029693037 -0.032384146 0.028399255

transformer_encoder.layers.0.norm2.weight f4 [15]
00000000: 56d9 8a3f 150e 893f 068d 723f eaf3 813f
00000010: 31cb 7d3f 874d 803f 80a5 823f 4338 803f
00000020: 4356 7a3f 2e54 853f 4073 7b3f de78 7b3f
00000030: 50a8 813f 2f01 833f 4f8f 8f3f
1.0847576 1.0707422 0.94746435 1.0152562 0.9913817 1.002366 1.0206757 1.001717
0.97787875 1.0416315 0.9822273 0.98231304 1.012949 1.0234736 1.1215609

transformer_encoder.layers.0.norm2.bias f4 [15]
00000000: 8e2c efbc 1f8a 7bbc a513 9bbd d927 363c
00000010: b95c e5bc 900a e93a 0b9a 293c cd09 b7bd
00000020: f647 dcbc 81fb af3a 9c1c 953c cfb7 a1bb
00000030: 0d1b 3b3d 5fa7 08bb a409 783c
-0.02919605 -0.015352755 -0.07572106 0.011117899 -0.027998315 0.0017779637 0.010351668 -0.08937416
-0.026889782 0.0013426394 0.018202119 -0.004935242 0.045680095 -0.0020851714 0.015139017

transformer_encoder.layers.1.self_attn.in_proj_weight f4 [45, 15]
00000000: c949 3ebe d991 2f3e 21a8 243e a945 ad3d
00000010: bcf5 50be e705 5abe 0497 123e 061c c13d
00000020: 1ecd adbe d29a 2bbd 3ed7 33be 7a2c 87be
00000030: 7daa 933e 7fd3 dd3d 591a 453e 1303 40be
00000040: 4303 c7bd ef44 2d3d 9b14 803e 24fd 7d3e
00000050: 5888 9dbd f015 3d3e 1ec4 153c 76b6 58be
00000060: c755 853e 16e7 a3be ad4b 6b3d 0368 973d
00000070: 1d8e 91be 8f1d 233e 802e 86be f2f8 06bc
00000080: 0cc4 7b3e 92a0 ad3e e73c 133e d4d9 e23d
00000090: 2d01 243e 05f3 87bc 0417 833d 1086 04be
000000a0: 4290 06be 0eeb 503e ae23 c2be 2a60 81be
000000b0: cea4 8bbd 7525 903d 035a 01bd 53fd 7ebe
000000c0: 7977 98be f8fb 4cbe d3b9 86be 5ab8 823e
000000d0: 2775 29be 0b62 d23e 63ab 983e 8ca9 94be
000000e0: 6c21 8ebe dc50 a0be cb3a 9dbe a8fd 693e
000000f0: e1eb 34be 1a1a 903e 5f8c 41be 9ce1 3a3d
00000100: a6ba c8be 2afa cdbd 4180 aa3e c35d bdbe
00000110: 27c9 c13e e5f9 a4be 316a f13e fbd0 efbd
00000120: 751c 7b3e 2f22 22be 75d0 a73e fb44 c73d
00000130: 1d5e 003e 90c0 983d c47b b03e 7fea 3a3d
00000140: 016e d63d 3277 e4bd 9209 f93d 445f c7be
00000150: f8ec ab3d 344a 9ebe 2d13 04bd 6fbc 99be
00000160: 2b59 d33e cc8c 7fbe f630 923d 660a cdbd
00000170: 6813 613d 03f2 a83e 64a9 8dbe 5820 dfbd
00000180: 5c56 b43c f4dc 843d 6df9 72bc 4ab7 a3be
00000190: 160f 2cbe 6d44 713e 5bcc a23c e890 45bd
000001a0: b7c2 37be c107 b4be 5e11 1fbe 29f3 963c
000001b0: 404f 043e 186c 233e 6770 63be 7b7b b33c
000001c0: f131 19bb 52fd 07be dccc b2be b7e6 5cbd
000001d0: c499 603e 6b3d 33be 4416 ea3d ca03 f2bd
000001e0: 5f8c 0d3e 2420 483d 6541 67bd 93b9 b1bd
000001f0: 28a2 6f3e d84d 1dbc 9579 e4be d604 8a3e
00000200: 6eea c4bc 9e96 a03e e7c6 99be ee63 ae3e
00000210: 57f9 463d e5d6 56bc 9e03 b03e edab 6c3d
00000220: e7ff 073e 7520 123e 7159 3b3e 73d5 623e
00000230: cd69 8c3d 5a4a e8bd b37b 8fbd 21bb f9bd
00000240: 39e6 7e3e 610f c2be ae96 8a3d 35bf 32bd
00000250: 9eac 6a3d 3448 89bd 103c 7cbe 5075 6d3e
00000260: 62a0 383e 1277 9a3e 5814 ecbe 924b 933e
00000270: c318 8dbe 25a4 9e3e 6a3f 103d 8d3d 18bd
00000280: ea8e b53d 457c a7be 2d91 9c3e 3b9c 1dbe
00000290: 0dbc 933e 6f18 053e 2aa0 273e dd37 023e
000002a0: a67a d33d d7a3 123d d9b0 35be efc1 8fbe
000002b0: e0de abbe 5b78 af3e 30e8 4a3e b242 973e
000002c0: d8ac fe39 6c23 253b 7bfd 063e 6c66 50be
000002d0: 3896 a63e 13b8 9cbe 7081 8abe dfbc 993d
000002e0: cec6 f63d dfe3 263d 25d8 113e b9f7 053e
000002f0: 3f11 ac3d 0728 0abe f29e 293e 47a5 a4be
00000300: 2021 653e d062 a8be cd25 86bc ffdd 4fbe
00000310: a76b 29bd 8cfc 81bd 6518 9bbe faf0 4a3e
00000320: 0b02 57bd 17ff f83d a79d 49be 931a a83d
00000330: cc64 573d ed98 dc3d 7cb0 4fbe 00a2 33be
00000340: 4f30 62be 6540 23be 50a4 b4b9 325b a13e
00000350: 6fbf be3e c185 ff3c 7ca5 1f3e 4f75 bdbe
00000360: 52ad 163e 9a02 623c 9a9d 0fbe 6238 0fbb
00000370: bc9d 5d3e 1cf1 94be e0c3 013e 9845 a63e
00000380: 9555 4a3d 2f01 903e a801 8e3e 5c63 1dbc
00000390: 394c 0ebe 0889 223e ca4d 6e3e 634e 87be
000003a0: 63f4 9bbe 603e 9ebd a866 04be d9b4 eb3d
000003b0: e4d4 cfbe 67f4 3f3e 76f1 c8be 2632 90be
000003c0: bea6 a5be 90ba 803e d669 033e 4e82 cfbd
000003d0: abef 983d 2e48 8e3e 61e9 9bbe af2d 6f3e
000003e0: b22a bd3d 79bc 20bc 43c2 6fbe 924c 9dbd
000003f0: a0ee 68be a0cf 163e 415f 183d 0d41 b03e
-0.18582834 0.1714548 0.16079761 0.08460552 -0.2040624 -0.21291314 0.1431542 0.09429173
-0.33945554 -0.041895695 -0.17562577 -0.2640112 0.2884101 0.10831355 0.19248332 -0.18751173
-0.09717419 0.04230207 0.2501572 0.24803597 -0.07692021 0.184654 0.009140996 -0.21163353
0.26042005 -0.32012242 0.057445217 0.073928855 -0.28428736 0.15929244 -0.26207352 -0.008238064
0.24586505 0.33911568 0.14378701 0.11076704 0.16016074 -0.016595373 0.06400874 -0.12941766
-0.13140967 0.20402166 -0.37917846 -0.2526868 -0.068185434 0.07038394 -0.031579982 -0.24901323
-0.2977865 -0.20017993 -0.26313648 0.25531274 -0.16548596 0.41090426 0.29818258 -0.29035604
-0.27759874 -0.3131169 -0.30708918 0.22850668 -0.17668106 0.28144914 -0.18901204 0.045625314
-0.392049 -0.10057481 0.33300975 -0.36985597 0.3784878 -0.32221904 0.4715133 -0.11709782
0.24522574 -0.15833353 0.32776228 0.09729954 0.12535901 0.074586034 0.34469426 0.04563379
0.104702 -0.11155547 0.121600285 -0.3893987 0.083948076 -0.30915987 -0.03224485 -0.30026576
0.41278967 -0.24956053 0.07138245 -0.10011749 0.054950148 0.3299714 -0.27668297 -0.10894841
0.022013836 0.06487456 -0.014829976 -0.31975776 -0.1680263 0.23561259 0.019872835 -0.048233896
-0.17945372 -0.35162166 -0.15533969 0.018426495 0.12920856 0.15959203 -0.22210847 0.021909466
-0.0023375715 -0.13280228 -0.3492192 -0.053930964 0.21933657 -0.17503898 0.11430028 -0.11817129
0.13823079 0.048858777 -0.05645885 -0.086779736 0.23401701 -0.009601079 -0.4462401 0.26956815
-0.024037566 0.31364912 -0.30034563 0.34060615 0.048577633 -0.013112758 0.3437776 0.05778115
0.13281213 0.14270194 0.18295838 0.22151737 0.068561174 -0.113423064 -0.07006016 -0.12193895
0.2489251 -0.37902358 0.06767021 -0.04363938 0.057293527 -0.06703225 -0.24632287 0.23189282
0.18029931 0.30168968 -0.4610927 0.28768593 -0.27557954 0.30984607 0.035216726 -0.037168074
0.08865149 -0.32711998 0.3057951 -0.15391628 0.2885441 0.12997602 0.16369691 0.12716623
0.10326128 0.03580078 -0.17743243 -0.28077647 -0.33568478 0.3427151 0.19815135 0.29543072
0.00048575434 0.0025198115 0.13182633 -0.20351571 0.32536483 -0.30609187 -0.27051878 0.075067274
0.12049638 0.04074466 0.14242609 0.1308278 0.08401727 -0.13491832 0.16564539 -0.32157347
0.22375917 -0.32887888 -0.016375447 -0.20299529 -0.04136243 -0.063469976 -0.3029205 0.19818488
-0.052492183 0.121580295 -0.19689046 0.08208194 0.05258636 0.10771356 -0.20282167 -0.17542267
-0.22088741 -0.15942533 -0.00034454698 0.3151489 0.37255427 0.031191709 0.15590471 -0.37003562
0.14714554 0.013794566 -0.14024964 -0.0021853675 0.21642202 -0.29090202 0.12672377 0.3247497
0.049398024 0.28125903 0.2773564 -0.009606209 -0.13896264 0.15872586 0.23271862 -0.26426992
-0.3045989 -0.07726741 -0.12929785 0.11509103 -0.4059211 0.18745576 -0.3924672 -0.2816326
-0.32353777 0.25142336 0.12833342 -0.101322755 0.07467588 0.27789444 -0.3045149 0.2335727
0.09236659 -0.00981056 -0.23413949 -0.0768062 -0.22747278 0.1472764 0.037200216 0.3442463

transformer_encoder.layers.1.self_attn.in_proj_bias f4 [45]
00000000: 1642 78bc 3a96 c03a 2d05 86bd 4125 293c
00000010: 7baf 68bd 0303 253d 1e80 443d 0820 0fbc
00000020: a946 243d 4afa c23d 4cb9 553c 9f4f 94bd
00000030: 306c 37bd 769c 5dbc 8fb3 073d 0f57 013d
00000040: 0e33 663c fae2 00bc db95 a9bc bd9c 823b
00000050: 6be5 4abb e830 1c3a 5673 27bc 62e4 8ebb
00000060: 7022 8a3c b69f 1b3c 55d1 9d3b af55 733c
00000070: 3784 2d3c 5658 baba b849 513c 3705 4dbc
00000080: 357a 79bc 7d45 973b 0dc2 36bc e385 84bc
00000090: 2786 96bc 82b1 05bc e846 7c3c 2194 413c
000000a0: 67d9 1cbd 01bf 3d3d 39cb bc3c f4c7 7fbd
000000b0: 6ba8 18bc
-0.015152475 0.0014693209 -0.06543956 0.010323823 -0.056807976 0.040286075 0.047973745 -0.008735664
0.04010645 0.09520395 0.0130446665 -0.07241749 -0.04478091 -0.013526073 0.033130225 0.031577166
0.014050258 -0.007866615 -0.02070134 0.00398597 -0.0030959498 0.00059582153 -0.010220369 -0.0043607214
0.016862124 0.009498527 0.004816214 0.0148519715 0.0105906045 -0.0014217 0.012773924 -0.01251345
-0.01522689 0.004616438 -0.011154664 -0.016177123 -0.018374516 -0.008159997 0.015397765 0.011815102
-0.03829327 0.046324734 0.023046123 -0.06244655 -0.009317498

transformer_encoder.layers.1.self_attn.out_proj.weight f4 [15, 15]
00000000: b152 bbbd ba3a b0bd 0a5c e43d 2614 463e
00000010: 39e0 74be 8f6d 85bd 5b8a 383e a45b 8a3e
00000020: 74a0 933e 5f54 0a3e f8df 2c3e 108e 93be
00000030: dc36 18bd e846 d6bc 916d 8a3e 1f6d 75bc
00000040: 36bc 2a3e d510 6fbe 08bf 07bc 72a5 263d
00000050: 32e3 793e 9be2 2d3d 2fdf 623d a100 85bd
00000060: 3899 13bd b6d7 883e 2ed8 2d3e a2a5 3b3e
00000070: 161b 65be fbc1 0ebe 57ab 8ebe 24da a13e
00000080: 9e6b 0a3e 3a10 ce3d 7a39 94be be89 1bbe
00000090: 4989 8dbd f1f0 ed3c 4620 633e a4c3 02be
000000a0: 7219 e7bd a831 3bbd 4fe8 30bc d599 cfbc
000000b0: a64a 58bd 708b f73c 5930 cfbd 0831 37be
000000c0: 367d 7f3c e1b4 25be 8fd7 aebd 6554 e9bd
000000d0: a890 bbbe 35f8 5b3d 6db4 00be db9e 85bd
000000e0: bc63 163d 178a 3cbc c844 e6bd b1c5 98bd
000000f0: 421d 8ebe 0a56 5f3c 5035 4f3e 66bc 723e
00000100: 4290 563e 2f83 6cbd 7cb9 973d 2459 e1bd
00000110: f0bc d83b 6e3b 6e3e edd5 1abe 7723 67be
00000120: 7dbf 513e 5781 493d 7571 6e3e 395d 0abe
00000130: 571a 8fbc 4a0a 4cbe 7de8 3fbe 4d38 0fbe
00000140: daac 0ebe 6f6a a6bd b435 01be a96c 1ebe
00000150: 6bca 9bbd 9910 2b3d 56ce 183e 5790 7c3e
00000160: 067a 3d3d b6c4 89be 1c33 9dbd 53ba 63bd
00000170: d28b a73e 5ba7 633e c86d aa3e 6703 8b3e
00000180: 7865 f6bc 4b5e 2fbe 98e6 d4bd 999c 783e
00000190: 1700 1dbe a107 b6bc d86f 603d 0b46 913d
000001a0: f6e4 59be 2a9f 8abc 0db0 673e 823c 5cbe
000001b0: 435b 3bbd ed1d 00bd f3e9 18bc 2557 d0bc
000001c0: a5c4 b33e c94f 253e 0904 5d3e 5a0d 68be
000001d0: 531b 51be 0d8c 103d 6355 84be 1ac7 fa3d
000001e0: 32a7 bfbd afc3 46be 7c08 993d 717d 7abe
000001f0: 2d8e d33d b77b c2bd 73ec 2cbe b700 da3c
00000200: 9c49 26be 4f8d 9d3e 5b75 80bd da85 53bd
00000210: 2228 92bd 6cdc 64be 07fd c6bc 0cf5 5ebe
00000220: dc0e 7ebd 1e56 f2bd 2cd7 eb3d 0d80 613e
00000230: 15c3 54be 6226 473e 4b9c 893d e3c8 24bc
00000240: 6e8d 9d3e 1de3 90be 4e7e 913d 37f3 4c3d
00000250: d073 353d 0b4e 39bd e993 513e 298d 85be
00000260: 11b7 8cbd d507 923e dad4 87bd 3714 923c
00000270: 49e5 6abe 70ca d7be 19fa 3abe 67f4 05be
00000280: 16ff c1bd c003 c63d 9520 5bbd d353 5fbd
00000290: da44 9dbe 5297 973e deb5 0dbb f293 983d
000002a0: b6b2 363d c51c 9d3e 8395 8bbd b229 c6bd
000002b0: 809f 16bd 1b9e 50be 9e55 57bd ff0c 5f3b
000002c0: efdc a53d 635a 8f3d 4d18 073c 8231 a73e
000002d0: 4bee 70bb d5c2 193d 06c6 61be db97 78be
000002e0: f0de 8bbe 73bb 5b3e ef54 843e 8552 48be
000002f0: ab61 3c3e c5e7 f9bd d0bf 1a3e b965 4b3e
00000300: f6fc 0cbe 581c c03a 14d5 96be 8036 b8bb
00000310: b0d8 903e 8904 fabd 8975 403e d052 823d
00000320: 4b87 8bbe 0e05 ca3c e8d5 513d 750e 4bbe
00000330: 4fa1 5e3e 08c2 5fbe 5d00 353e 137c 3dbe
00000340: 9597 c2bd 56d7 893e cd0e ddbb 51ec 68be
00000350: 0fdc 72bd 793d 033e 0087 d2bd 65ec 44be
00000360: bb89 fa3d 0165 4b3d 3afd 96bd 626a 523e
00000370: 9ca2 06be dab0 353d f485 82bd bd95 68be
00000380: 0e5d c1bd
-0.091466315 -0.08604951 0.111503676 0.19343624 -0.23913659 -0.06515037 0.18021528 0.2702304
0.28833354 0.13508748 0.16882312 -0.28819323 -0.037161693 -0.026156858 0.27036718 -0.01497963
0.1667336 -0.23346265 -0.0082852915 0.040685125 0.24403074 0.042452436 0.055388626 -0.064942606
-0.036034793 0.26727074 0.16976997 0.18324903 -0.22373614 -0.13941185 -0.27865097 0.3161174
0.13517615 0.10061689 -0.289501 -0.15189263 -0.06910951 0.029045554 0.2218028 -0.12769943
-0.1128415 -0.045701653 -0.010797574 -0.025341908 -0.052805565 0.030217856 -0.101166435 -0.17889798
0.015593817 -0.16182281 -0.08537208 -0.1139305 -0.366338 0.053703506 -0.12568827 -0.0652444
0.036716208 -0.011507533 -0.11243588 -0.07459582 -0.27756697 0.013631353 0.20235181 0.23704681
0.20953467 -0.057742294 0.07408425 -0.1100333 0.00661432 0.23264858 -0.15120669 -0.22572123
0.20483203 0.049195614 0.23285468 -0.13512124 -0.017468615 -0.199258 -0.18741031 -0.13986321
-0.13933125 -0.08125769 -0.12618142 -0.15471138 -0.076069675 0.041763876 0.14922461 0.24664436
0.04625895 -0.2690789 -0.07675764 -0.055597614 0.32723862 0.2223181 0.3328688 0.27151033
-0.030077681 -0.17125814 -0.10395545 0.24278487 -0.15332066 -0.022220435 0.054794163 0.07093438
-0.21278748 -0.016921598 0.22625752 -0.21507457 -0.04574133 -0.03127854 -0.009333122 -0.025432179
0.35110965 0.16143717 0.2158357 -0.22661343 -0.2042058 0.035289813 -0.25846395 0.12245007
-0.09358062 -0.19410585 0.074723214 -0.24461915 0.10329852 -0.09496253 -0.16887073 0.026611669
-0.16239017 0.30771872 -0.06272384 -0.051641323 -0.07136561 -0.2234971 -0.024290575 -0.21773165
-0.06202589 -0.11832832 0.1151565 0.22021504 -0.20777543 0.19448236 0.06719264 -0.010057661
0.30771965 -0.28298274 0.07104169 0.050036635 0.0442999 -0.045240443 0.2046658 -0.2608426
-0.06870855 0.285216 -0.06632395 0.017831905 -0.22939028 -0.42146635 -0.18259467 -0.13081513
-0.09472482 0.09668684 -0.05349787 -0.0545233 -0.30716592 0.29607636 -0.0021623294 0.07450093
0.044604026 0.30686012 -0.068156265 -0.096759215 -0.036773205 -0.20372812 -0.052571885 0.0034034846
0.0809878 0.06999662 0.00824554 0.3265496 -0.0036763127 0.037539322 -0.22048196 -0.24276678
-0.27318525 0.21458225 0.2584605 -0.19562729 0.18396632 -0.1220241 0.15112233 0.19863023
-0.13768372 0.0014656885 -0.2945944 -0.0056217313 0.2829032 -0.12207896 0.18794836 0.063634515
-0.27251658 0.024660613 0.051229388 -0.19829734 0.21741222 -0.21851361 0.1767592 -0.18504362
-0.09501568 0.269221 -0.006746149 -0.22746398 -0.059291895 0.12816419 -0.102796555 -0.19230802
0.12233301 0.04965687 -0.07372518 0.20548394 -0.13147968 0.044358112 -0.06373206 -0.2271337
-0.09441577

transformer_encoder.layers.1.self_attn.out_proj.bias f4 [15]
00000000: 3c5a 2abd 1a67 4b3b f9fa e83c 972d bc3c
00000010: 7414 933b baee d6bc 40ce 173d 4e90 4f3b
00000020: 3de8 1abd ca10 0a3a 0cab 3fbc 5fc6 cabb
00000030: 6cf0 b33c cff1 823c e14e cb3c
-0.04158996 0.0031036795 0.028439986 0.022970958 0.004488522 -0.02623688 0.03706193 0.0031671706
-0.037819136 0.0005266784 -0.011698496 -0.0061881985 0.021965228 0.015984444 0.024817886
