Result/FD004/hsm.pth (torch, 54146 bytes, 28 tensors)

feature_embedding.weight f4 [15, 14]
00000000: 20ec 7bbe 9dc3 ccbd f379 67be aa5c 81be
00000010: 51d4 9cbd 5b99 c9be be9e 093d 8693 5d3c
00000020: 2551 1bbd e2f6 b03d ed1f 18bd 6b66 8b3d
00000030: f6c4 00be a871 a83d 7a4d 27be 5ef4 c13c
00000040: 0d47 24be 38d0 5b3e ae69 833c 3634 b63d
00000050: 0a9d c73c 859f 32be 1273 af3d f6b7 8ebe
00000060: 9ffe 44be 846d e6bd ff6e 55bd 2b8d a93c
00000070: 0c25 e0bd 7e9e 25be 606c 05be fb83 0e3e
00000080: 7e30 a2bd a087 62be 89cd a6be 01aa 87be
00000090: c17b 71bd d36c 2fbe b38b ccbd a077 a23d
000000a0: 5569 ac3d 6ac4 aabc ad30 cbbc 2bfc a8bd
000000b0: a8b2 073d 1b4e 4fbd 103f 27be 6961 11be
000000c0: 0556 f0bd 9465 053e 9eb5 0e3e 9c85 5fbe
000000d0: 3087 2f3d 1ecf 043e 72c9 973d 8110 84bd
000000e0: a6b3 94bd ff0b 2a3e eabe e83b 42c8 ddbd
000000f0: ffca e73d 8722 c7bd 716e 8bbe 3b62 d4bd
00000100: bbcd 99be fb11 aebe b6af 33bd 5341 f2bd
00000110: 1394 803c 66d4 303e 0655 6ebc 95e1 93bd
00000120: 33f5 35be adaf a63d 7120 493e 73ac 623e
00000130: 7b86 51be f718 873e 7ea2 a3ba cc24 1b3f
00000140: 75c7 65be e528 cebc 08b9 c53c 9f39 83bc
00000150: 46e9 4e3e 8ed5 9c3b a10b 0cbb b230 90be
00000160: 2844 1bbe a776 21be ae6f 02be 4393 d9bd
00000170: 020b 6ebe e4c9 1a3e b359 173e 7fd7 e43d
00000180: d449 053c b36c 903c 1160 f13c 8279 08bc
00000190: 7235 8d3d f279 ee3d 66b3 ddba 0e8d 8cbe
000001a0: 09ee a5bc fbe9 45be 9815 f9bd d6e6 a5be
000001b0: 00e8 253e f7bb dcbc 42a8 b23c ece5 883d
000001c0: b341 21be 3988 abbd 52b6 90be cfbb 8cbe
000001d0: 7815 b73d 0157 153e a608 3dbe dc7d ee3d
000001e0: 5535 e1bd cb13 9bbe 736c 1cbe 7e1a 63be
000001f0: f59e 4ebe 5f21 bfbd ac43 17bd 271c dd3d
00000200: efec 2fbd 1e20 d8bd 54c5 363e 3945 54bd
00000210: f09d f13c 9e64 71be ead2 46be 84e9 94bd
00000220: 6a42 cd3e fd38 3e3d 1b0e a8bd 67f5 74bc
00000230: 49c5 fbbd 8ae7 03bd e3da 95bd b2de d23d
00000240: e441 8fba c038 443e fc40 eabd c082 203d
00000250: a6cf 063e 2dfb 313f e409 7cbe 5ae4 df3c
00000260: 7cc9 823d 4d02 f73c f0dd 333e c686 1abe
00000270: 673f ab3d 34e2 f13b 9b3c 0d3c 11ba 06be
00000280: 83a4 9bbe 8334 33bd 0352 c4bb 9187 123e
00000290: 6d19 18be da61 8ebe 9266 d63d c9df c13c
000002a0: 4cd2 cc3b ae73 883d 5186 9dbd 7bf0 e2bb
000002b0: 4a53 a6be 0c87 4f3d 0fd1 03b9 e7c9 d8bc
000002c0: ce14 4cbe 6e9b 073e eb01 833e 7499 3cbd
000002d0: a661 b63d 1cb2 9abd 3adb 643d 69a6 18bd
000002e0: 08b9 69bd d66f 903e 63dd 8a3d 877f a93d
000002f0: 3452 a9be 6834 823e 371b 003e 8f25 dd3d
00000300: 9877 93be 409c 91bc 3db1 703d 7ef8 0d3e
00000310: db1f 73bd bf83 a1bc d21c 4dbe f4f7 d13e
00000320: 169b 75bd 0d9a 413e 369b f5bd 366d bd3e
00000330: b772 7a3e 6c59 603e 0ef1 083d c554 9abd
00000340: 8ac9 c13d 9e11 84bd
-0.24601793 -0.09998248 -0.22605114 -0.2526601 -0.07657684 -0.39374813 0.033598654 0.013523942
-0.037919182 0.08640839 -0.03713982 0.06806644 -0.12575135 0.08224803 -0.16338149 0.023676094
-0.16042729 0.21466148 0.016041603 0.08896677 0.024366874 -0.17443664 0.0856687 -0.27874726
-0.19237755 -0.11251357 -0.052107807 0.020697197 -0.10944566 -0.16173741 -0.13029623 0.13917534
-0.079194054 -0.2212205 -0.32578686 -0.2649689 -0.05895591 -0.17131357 -0.09987583 0.07932973
0.08418528 -0.02084561 -0.024803484 -0.08251222 0.033129364 -0.050611597 -0.1633265 -0.14197315
-0.11735157 0.1302703 0.13936469 -0.21828312 0.042853534 0.12969634 0.074114695 -0.0644846
-0.07260828 0.16606139 0.007102837 -0.10829212 0.11318015 -0.097233824 -0.27232698 -0.103702985
-0.30039772 -0.33998093 -0.043868743 -0.11828866 0.015695607 0.17268524 -0.014546638 -0.07220761
-0.17769317 0.08138976 0.19641282 0.22136097 -0.20461456 0.26386234 -0.001248434 0.6060302
-0.22439368 -0.025165984 0.024136081 -0.016018687 0.20206174 0.0047862 -0.0021369236 -0.28162152
-0.15162718 -0.15767919 -0.12737915 -0.10623791 -0.23246387 0.15116078 0.14780311 0.11173915
0.008135278 0.017629957 0.029464753 -0.008329751 0.068949595 0.11644353 -0.0016914427 -0.27451366
-0.020255106 -0.19327538 -0.12162322 -0.32402676 0.16201782 -0.026945097 0.021808747 0.06684479
-0.15747719 -0.08375592 -0.282641 -0.27487037 0.08939642 0.1458397 -0.1846033 0.116450995
-0.109965004 -0.30288538 -0.15275745 -0.22178075 -0.20177825 -0.09332537 -0.03692977 0.10796385
-0.042950567 -0.10553001 0.17848712 -0.05182383 0.029494256 -0.23573539 -0.19416395 -0.07271102
0.40089732 0.046441067 -0.082058154 -0.014951087 -0.122934885 -0.032203235 -0.0731714 0.10296382
-0.0010929671 0.19162273 -0.11438176 0.039187193 0.13165149 0.6952389 -0.24613148 0.027330566
0.06386086 0.030152464 0.17565131 -0.15090474 0.083617024 0.007381702 0.0086204065 -0.13156916
-0.3039895 -0.04375125 -0.005991222 0.14309527 -0.14853449 -0.2780903 0.104687825 0.02366628
0.0062506553 0.06662689 -0.076916344 -0.00692564 -0.3248542 0.0506659 -0.00012571014 -0.026463462
-0.19929811 0.13242885 0.255874 -0.04604478 0.08905344 -0.07553503 0.055873133 -0.037268076
-0.057061225 0.28210324 0.067805074 0.08276277 -0.33070529 0.25430608 0.12510382 0.10798179
-0.2880218 -0.017774701 0.058762778 0.13864323 -0.05935655 -0.019716142 -0.20030525 0.41009486
-0.059962355 0.18906422 -0.11992495 0.36997384 0.24457823 0.21909112 0.033433013 -0.075357
0.09462269 -0.06448673

feature_embedding.bias f4 [15]
00000000: 2ac9 dbbd 5e7b aebd 01cf 923e 5844 213e
00000010: d704 0bbe 36e7 54be 3696 de3d 5684 0a3c
00000020: 25f7 063e a2cb 733e 9327 1bbe 9170 16be
00000030: 36e7 083e 7f28 1b3e b1fe 0f3e
-0.107317284 -0.08519624 0.28673556 0.15748727 -0.13576065 -0.20791325 0.10868494 0.008454403
0.13180216 0.23808149 -0.15151815 -0.14691378 0.1336945 0.15152167 0.14062001

transformer_encoder.layers.0.self_attn.in_proj_weight f4 [45, 15]
00000000: 4e14 aebd c659 2c3d 2d1f 0c3e b085 d73d
00000010: b72a c2bd 038c 92be b76d 133e 9d7a a63d
00000020: eb09 66be 7311 3d3d d2ee 86be a8cc 2cbe
00000030: 4303 223e ae0b 303e 86d4 943e f3cf 67be
00000040: 61e4 94bd 1e4b 0a3d b72c 643e 1f6c 213e
00000050: 1129 bb3b 2bf7 453e 270d 9cbc e054 89be
00000060: 3b0d 1a3e c788 80be e327 bebb 6fd3 253e
00000070: ddfc 8cbe f8bf 313e 0298 99be ce1c e9bc
00000080: 7038 313e 0f04 973e ab47 0a3e c45b ab3d
00000090: fe53 353e c720 ccbd c20a 623d 0300 eabd
000000a0: b8d6 5bbe ff4a 8e3e ccc8 9bbe da4d 42be
000000b0: f8bd 5c3d 4609 2c3d 7292 073e 358a ebbd
000000c0: 4a85 0bbe e0b9 32be 8268 60be 0f8a 853e
000000d0: 5a76 34bd f915 b93e b6f6 9b3e cb8b 54be
000000e0: 7774 52be b1c6 1cbe e236 29be 1229 aa3e
000000f0: 1d3b 7bbd 8b4c 483e 40b0 e2bc 71ad b33d
00000100: 5e37 86be e2d0 a0be 2332 8d3e 9a34 90be
00000110: 4295 953e 8651 8cbe 2e34 783e 406d 74bd
00000120: e8d9 1e3c 0838 b5bd 41a1 883e f027 253b
00000130: eddc 323e 5217 ecbc a9c4 883e 963a a9bc
00000140: 0f14 733e 6850 293d e52a a03d 72cc a1be
00000150: 5974 363c f989 89be e0ed 24be 1227 35be
00000160: e54c 9b3e c05a 60be fcdf f23d bf99 6bbe
00000170: 3c07 cfbc 63ff 793e cf4d 86be 9795 adbd
00000180: 6d61 ad3d d7ef 823d 7f96 d93d b96e 25be
00000190: 1a06 b0bd d713 9c3e b5be 103c 71e9 d6bd
000001a0: 60ed 32be b65a 81be b38f 6bbe 0ac2 e53c
000001b0: 5627 cb3d b065 783e 8d80 56be 6637 8c3d
000001c0: cace 143d 948a 4cbd 2da4 2bbe f9b3 d3bc
000001d0: f5e8 a63e f4b8 6dbe 6474 093e 8b84 4ebd
000001e0: 08d0 123d 6dcc 633d cd18 01be 7ae7 00be
000001f0: 4fa5 d13c 3371 763d 71cc aebe 75f9 543e
00000200: 7385 d8bc d80d cb3d 86a1 91be eaa4 cc3d
00000210: fc6c ef3d 6c84 93bd 2309 8f3e 9c27 80bb
00000220: 4823 223e 4f79 63bc 298d 203d 301a 103d
00000230: 2b57 823e 3a1d e33d 876c 51be 07d6 963c
00000240: c915 083e fa6f 9bbe b9d9 1abe 503d d53d
00000250: ed18 97bd 3eea aebd 30a7 28be aabe 233e
00000260: 9517 5b3e 7ab3 953e e3ff 9abe 668c 853e
00000270: c7dc 4ebe 66c6 863e 64f7 6c3d 1dc3 4d3d
00000280: 0089 b8bb b349 64be 6f39 5c3e c219 05be
00000290: 49e1 9b3e e396 9e3d c402 643e 4c7b 1a3e
000002a0: 1778 be3d 3512 e93b ce8d 40be 6096 35be
000002b0: 62bc 4cbe 18c9 a83e e3a2 603e 1fd3 9a3e
000002c0: 81ec 303c b77a be3d 98e3 3b3e 3275 0ebe
000002d0: 1ead 703e 6483 80be ba99 7bbe 2cae 8c3d
000002e0: fe4c a73d 989c 7abb 2b47 d33d 8e66 ff3d
000002f0: ad7d 8d3c 2b93 35be d106 0d3e 5386 95be
00000300: 2747 993e 52a4 8ebe 4f54 37bd a445 57be
00000310: baf9 4dbd e6e4 273b ccd7 46be 1582 5f3e
00000320: 4fd8 27be e054 62bc b74c 7dbe 8248 d1bc
00000330: f4c6 2dbd 5c76 723d c3cb 6ebe 5239 9bbe
00000340: 105b 89be be22 89be eeb2 f4bd 7bd8 d43d
00000350: 0620 333e f1a4 39be 7498 5c3d 0fe0 c4be
00000360: 69f0 2e3e 30c8 93bd 50d0 f3bd 384b 453d
00000370: 6322 353e c988 acbe f324 053e a77a 7c3e
00000380: adf7 0e3e e141 3f3e 6dcb 853e 28a7 a9bc
00000390: cbc6 32be 85f4 343e 47ef 973e 80a9 61be
000003a0: 4ea8 51be d0f1 c9bc d98f 1abe d552 043e
000003b0: fc38 8cbe 40b2 8c3e 761d 8cbe b1fd a0bd
000003c0: 2f5c 89be ebb4 803e c624 113e 7b36 1fbe
000003d0: 84ac dd3c 058c 8b3e da07 97be 771a 843e
000003e0: c4f0 4f3d 1b0a 013e 4478 63be 870b febc
000003f0: 036a 61be 6ae2 063e cd4f 79bd 03b8 8a3e
-0.084999666 0.042077802 0.13683768 0.10523546 -0.094808035 -0.28622445 0.14397322 0.081288554
-0.22464721 0.04615922 -0.2635408 -0.16874945 0.15821557 0.17191955 0.29068393 -0.2263792
-0.07270122 0.033763044 0.22282682 0.15763901 0.0057116826 0.19332568 -0.01904924 -0.26822567
0.1504411 -0.25104353 -0.0058030947 0.16193937 -0.2753667 0.17358387 -0.29998785 -0.028456118
0.17306685 0.29495284 0.13503902 0.08367112 0.17707822 -0.09967189 0.05518604 -0.114257835
-0.21468627 0.27791592 -0.30426633 -0.1897501 0.053892106 0.04200103 0.13239458 -0.1150097
-0.13625064 -0.17453718 -0.21914867 0.26081893 -0.04405818 0.36149576 0.30461663 -0.20756452
-0.2055224 -0.1531017 -0.16524842 0.3323446 -0.06133567 0.19560449 -0.027671933 0.08773316
-0.26214117 -0.31409365 0.27577314 -0.28165132 0.29215437 -0.27405947 0.24238655 -0.0596745
0.009695508 -0.08848578 0.26685527 0.0025200807 0.17467089 -0.028819714 0.2671254 -0.020657819
0.2373812 0.041336447 0.078206815 -0.31601292 0.011136138 -0.26863077 -0.16106367 -0.17690685
0.30332103 -0.21909618 0.11859128 -0.23007868 -0.025272004 0.24413829 -0.26231238 -0.084757976
0.08465848 0.06393402 0.10624408 -0.16155519 -0.08594914 0.30483887 0.008834531 -0.10493744
-0.17473364 -0.2526452 -0.23004036 0.028046627 0.09919612 0.2425754 -0.20947476 0.06846504
0.036330022 -0.049936846 -0.16761847 -0.025842654 0.32599607 -0.23215085 0.13423306 -0.05041937
0.035842925 0.055614877 -0.12607117 -0.12588301 0.02559152 0.06016655 -0.3414035 0.20798285
-0.026430821 0.0991475 -0.28443545 0.09992392 0.11690709 -0.07202992 0.27936658 -0.003910972
0.15833771 -0.013883903 0.03919712 0.035181224 0.2545713 0.11089559 -0.20451556 0.018412603
0.1328956 -0.3035887 -0.15122117 0.10412085 -0.07377801 -0.08540772 -0.16470027 0.15990701
0.21395715 0.29238492 -0.3027335 0.26083678 -0.20201407 0.2632324 0.057853118 0.050234903
-0.005631566 -0.22293739 0.21506284 -0.12998107 0.30445316 0.07743623 0.2226668 0.15086097
0.09300249 0.007112766 -0.18804094 -0.17733145 -0.19993737 0.32965922 0.21937136 0.30239198
0.010798574 0.0930075 0.18348539 -0.13911894 0.23503539 -0.25100243 -0.24570361 0.06869158
0.08168982 -0.003824031 0.103163086 0.12470733 0.017271841 -0.17731921 0.13772132 -0.29204044
0.29937097 -0.2785974 -0.044758137 -0.2102266 -0.050286986 0.0025618612 -0.19418257 0.21826966
-0.16391109 -0.013814181 -0.24736296 -0.02554727 -0.042426065 0.059194908 -0.23319916 -0.3031717
-0.26827288 -0.2678432 -0.11948191 0.10392853 0.17492685 -0.18129326 0.053856328 -0.38452193
0.17083897 -0.07215917 -0.11904967 0.048167437 0.17688899 -0.3369811 0.13002376 0.24656163
0.13961668 0.18677475 0.26131764 -0.02070959 -0.17458646 0.17671402 0.29674742 -0.22037315
-0.2047436 -0.024651438 -0.15093936 0.12922223 -0.27387226 0.27479744 -0.27366227 -0.07860888
-0.26828143 0.2513803 0.14174184 -0.15548126 0.0270598 0.27255264 -0.29498178 0.2580144
0.05076672 0.12601511 -0.22213846 -0.031011356 -0.22013097 0.13172308 -0.06086712 0.27093515

transformer_encoder.layers.0.self_attn.in_proj_bias f4 [45]
00000000: bfc9 103d e12d ce3a 42c5 c4bb 0d3b ebba
00000010: c11e 9a3b dfd7 a1bd 55c7 c23d 822e ebbd
00000020: bb0a 6a3c a3fa 81bc a6a7 e93d e67f e93d
00000030: 976e f8bd 6798 f3bd efef a5bd be22 7cbb
00000040: 0257 06bc 8d90 3e3c 7f28 26bb 912c 133b
00000050: e009 92bb 4453 cdba e689 0b3b ee17 4f3c
00000060: fd5a e4bb 0122 24bc b1da e53a f312 803c
00000070: 1f38 9e3a ef5f 3bbc bb19 a13a 99cb 983c
00000080: 3624 213d 0f0d 8b3b 745f 92bc 85d3 13bc
00000090: 4cf9 ed3b 096e 633c a6d9 0ebb 8f2d 5d3d
000000a0: 94bd 33bd 5b74 16bc 2b1c 4f3b 2da3 b0bb
000000b0: 71dc 833d
0.03534865 0.0015730226 -0.0060049603 -0.0017946676 0.004703373 -0.07902502 0.09510676 -0.1148348
0.014284785 -0.015866583 0.114089295 0.11401348 -0.12130468 -0.11894303 -0.08102404 -0.0038472856
-0.008199455 0.011631143 -0.0025353727 0.0022456984 -0.0044567436 -0.0015665074 0.002129191 0.012639983
-0.0069688545 -0.010017873 0.0017536489 0.015634036 0.0012071169 -0.011436447 0.0012290993 0.01865177
0.039341174 0.0042435 -0.017867781 -0.009022598 0.0072623845 0.013881215 -0.002179721 0.053998526
-0.043881968 -0.009183015 0.0031602483 -0.005390546 0.0643853

transformer_encoder.layers.0.self_attn.out_proj.weight f4 [15, 15]
00000000: 5b1a 74bd f516 9dbd 63b7 3a3d 1b61 3d3e
00000010: 8823 7fbe fe99 83bd 6e24 543e cf27 243e
00000020: 28be 253e a728 e93d 8a9f 2c3e 40cb fbbd
00000030: 9146 e63c 8511 a23c bb05 023e 6dfa 9239
00000040: 6bd7 f63d 2dde 54be d5ec 8bbc fc06 113e
00000050: b057 ba3d e9f5 ed3d d5b5 fa3d 4ecd 02be
00000060: c243 d3ba fcda 3f3e f4f3 323e 19ba 1c3e
00000070: 1f5b 50be 5e3c 64bd 923e 26be 914f 443e
00000080: 7c1b 1e3e 44d7 0e3e 16ef 94be 812e 00be
00000090: 3d59 ecbd 2ada a3bc 65a7 1c3e 6981 1bbd
000000a0: df7f 6fbe 4818 9b3d 07bd 83bd 280c b43c
000000b0: ed3c b93d 8bd6 90bc ae67 c0bd 227c 61be
000000c0: 2fb6 8e3b 68f1 afbd 0c30 83be 8c08 efbd
000000d0: 4a26 92be 2f3d 45bc a987 d0bd b1fe 54be
000000e0: 4b49 f83c af09 c2bc 9dc7 3abe b65b b73d
000000f0: b62b 57be cf10 9fbd 2756 573e fe15 113e
00000100: 67cf a03d 90da ba3c 32cd 533d 87a5 34be
00000110: 86c6 07bd 95f0 6c3e 2dc9 64bd 255c b6bd
00000120: 3caa 4d3d 4e9b df3d 6117 1b3e cbec e7bd
00000130: 0cc8 c4bd 44e7 00bd 9544 01bd 010d c33d
00000140: cd10 10be 8254 b7bc 4a82 eabd 6948 16be
00000150: 4d54 efbd bc8d 20bd d2bd ce3d 6289 b63d
00000160: 5c2d 7f3d 50da 44be 1d2c b63d e1a7 043e
00000170: 1b93 983d 3d8b b33d f6e1 f1bc f7e4 853e
00000180: a8e9 01be fc8e d8bd 53ea 12be 88e2 293e
00000190: 7d95 0dbc 6ef7 553d 9c2d 063e 3d52 343d
000001a0: 9a2e 94be 35e4 363d 3011 d3bc bb93 07be
000001b0: 06ee dbba 568a 94bc 27ab 753d 9361 f4bd
000001c0: 418b ff3d 8eb9 393e b10d 103e 10fd 08be
000001d0: c8b4 a2bd b73d a43d f0cd 0ebe e56a 37bd
000001e0: d2e2 0bbe 83b0 2f3d 14b5 08bc c49b 0ebe
000001f0: 3fb8 e13b 0b50 743d 09ac 45be d90a cfbd
00000200: 32e0 1fbd f5b1 373e 082e b33b f543 9d3c
00000210: 69ed 343b 082c 4dbe 99e7 71be 081a 07be
00000220: f94e 28be 387e cdbd 7ae1 593d 57f4 fc3d
00000230: edc1 2fbe 4346 203e 13f7 bcbd 4939 fbbd
00000240: c3bb 803e 8f8c 1abe ccfd 1b3e ae6e 1d3b
00000250: 8336 473d a03a 0ebe b19c 283e cf05 e6bd
00000260: 76c5 22be 4153 a43e 4014 4fbd ef3d f6bd
00000270: 472b 65be 1c6c 89be 8ea8 19be 8efc e4bd
00000280: 1d72 4abe 2098 943d 8de7 9bbd 9b79 edbd
00000290: b4a2 52be 4ae7 8a3e 1cbd f6bc 75da d73d
000002a0: 48db 5dbc 9277 6a3e 9b1a 0e3c 6f60 9bbd
000002b0: 0dea afbc 23c3 3bbe 1c37 d7bc 647e 003e
000002c0: 08a9 bc3d b078 423d 1536 f23c 7bbc 5d3e
000002d0: f7fb 893d 93d6 1dbd 0522 09be 55eb febd
000002e0: 5fa2 c1bd fd81 21bd b184 3d3e a928 dbbc
000002f0: c9ba 2f3e 26d5 d2bd 1aa0 e73d 8f4e ad3d
00000300: 983b d9bd 35b2 183d 15ca fbbd e1c2 e73c
00000310: f449 3d3e 59c6 e8bd 8246 183e 7fc6 29bd
00000320: eb1f 30be 60dc 96bd 6468 febd 903d 04be
00000330: 153f 0e3e 91eb 43bd f9c1 5e3e 125f 0abd
00000340: 69f6 b23b 0082 c63d 7af9 8cbd 0982 05be
00000350: d273 84bd 11b1 c43d 221a 27be aa93 c1bd
00000360: 006d d03d c93d 283d 16b5 513d c9b6 2f3e
00000370: b330 1cbc 4292 0ebd 05bd c73c b920 46be
00000380: c3da 16be
-0.059595447 -0.07670394 0.045585047 0.18494074 -0.24915898 -0.06425856 0.20717022 0.16030811
0.1618582 0.11384707 0.16857734 -0.12294626 0.02810982 0.019783745 0.12697499 0.00028033872
0.120528065 -0.20787878 -0.017080704 0.1416282 0.09098756 0.11619169 0.12241713 -0.1277363
-0.0016118216 0.1873588 0.17475873 0.15305366 -0.2034726 -0.055721633 -0.16234806 0.19170977
0.15440172 0.13949305 -0.29088658 -0.1251774 -0.11540458 -0.02000149 0.15298231 -0.037965212
-0.23388623 0.07572991 -0.064325385 0.021978453 0.09044824 -0.017680427 -0.09394775 -0.22020009
0.004355214 -0.085909665 -0.25622594 -0.11671552 -0.28544837 -0.012038513 -0.10182125 -0.20800282
0.030308386 -0.023686258 -0.18240209 0.08953039 -0.21012768 -0.07766878 0.21028958 0.14168546
0.07852059 0.022809297 0.05170936 -0.17641269 -0.03314831 0.2313865 -0.05585592 -0.08904294
0.050211176 0.10918294 0.15145637 -0.113244615 -0.096084684 -0.031470552 -0.031559546 0.09523965
-0.14068909 -0.022379164 -0.11450632 -0.1467606 -0.11686001 -0.03919767 0.10094799 0.089129224
0.062299117 -0.19223905 0.08895133 0.12954666 0.07449933 0.08766792 -0.029526692 0.2615125
-0.12686789 -0.10574147 -0.143472 0.16590321 -0.008641598 0.05223792 0.13103336 0.04402374
-0.28941804 0.04465123 -0.025765032 -0.13239948 -0.001677931 -0.01813237 0.059977677 -0.11932673
0.124777324 0.1813719 0.14067723 -0.13377786 -0.079446375 0.08019584 -0.13945746 -0.044779677
-0.13660744 0.042892944 -0.008343954 -0.13926607 0.006888419 0.059646647 -0.19303907 -0.10109491
-0.03903217 0.17938979 0.005468134 0.019197444 0.0027607328 -0.20036328 -0.23623504 -0.13193524
-0.16436376 -0.1003384 0.053193547 0.123512916 -0.1716382 0.15651803 -0.09226813 -0.12266786
0.2514325 -0.15092681 0.15233535 0.002402227 0.04863597 -0.13889551 0.16466023 -0.11231577
-0.15895638 0.32094768 -0.05055642 -0.12023532 -0.2237979 -0.26840293 -0.15005705 -0.111809835
-0.19770093 0.07255578 -0.07612524 -0.1159546 -0.20569879 0.27129585 -0.030119471 0.10539714
-0.01354105 0.22897175 0.008673335 -0.075867526 -0.021473909 -0.18336158 -0.026271395 0.12548214
0.09211928 0.047478378 0.029566804 0.21653931 0.067375116 -0.038534712 -0.13391884 -0.1244723
-0.09454798 -0.039430607 0.18507649 -0.026752787 0.17161097 -0.10294561 0.11309834 0.084622495
-0.1060707 0.037279326 -0.122944035 0.028291168 0.18485242 -0.11365957 0.14870647 -0.041449066
-0.17199676 -0.07366252 -0.12422255 -0.12914109 0.13891251 -0.047832076 0.21753682 -0.033782072
0.0054615033 0.09692764 -0.068835214 -0.13037886 -0.064674035 0.09604085 -0.16318563 -0.09451993
0.1017704 0.041074548 0.051198088 0.17159571 -0.009533095 -0.03480745 0.024382124 -0.1934842
-0.14731888

transformer_encoder.layers.0.self_attn.out_proj.bias f4 [15]
00000000: 4a58 bcbc 6346 46bd d61e b73c 55f3 cabc
00000010: 9d70 2e3d a37b 84bd e242 ca3c 6274 283d
00000020: 71c3 3bbd 446b e13c a270 55bd 3043 583d
00000030: 3612 753b 373f 6c3d 716b 743c
-0.022991318 -0.04840697 0.02235357 -0.024774233 0.042587865 -0.06468894 0.024690095 0.041126616
-0.045840684 0.027516969 -0.05210937 0.05279845 0.0037394888 0.057677474 0.014918194

transformer_encoder.layers.0.linear1.weight f4 [128, 15]
00000000: 7d9d 06be 30e6 62bd 40e2 45be d9ce a6bd
00000010: b069 933d 59e7 b1bc 708b 673e 2265 6dbe
00000020: 7618 84bc c333 e03d e4dc 4e3c 5e75 2c3e
00000030: 3cc1 843d 4947 4dbd aff7 cc3d 6591 443e
00000040: c586 7f3d 2a68 2ebd 4af7 553e f901 1d3e
00000050: cc69 393d 5b8f a5bd 6718 34be 18ea eb3d
00000060: 0a5f c0bd 5cd8 2ebe f35a 95bd dd2d e33d
00000070: da8a 693e e6a6 dbbd 4ca0 063e 6037 64be
00000080: eb37 99bb 1568 99be 986b 763e 9de5 233e
00000090: 49e6 2f3e c0f3 9dbe eb1d b43e 945b eebd
000000a0: 3270 663e c24c dc3c 4f70 4e3e 4d74 55bd
000000b0: a0fb 9c3d 4c65 c33d 302a 0c3e 8c88 003e
000000c0: 3c96 11be 52aa adbd 58ee debc 59fa 233d
000000d0: 3b3e 603e 1895 433e 94b9 243d 8f90 733c
000000e0: bcbc d1bd cd07 313d 70b4 4abd 10ec 973e
000000f0: df73 9ebd af23 f6bd 67f8 f63d c9ef 7abd
00000100: 98e8 10be fe87 fb3d 481a b2bb 1e82 1f3e
00000110: be77 40be fe06 473e 40fb 2f3e 21ae a73d
00000120: 2f25 24be 020a 593c 2679 a2b9 07d5 b03d
00000130: 22eb 533e 780c 06be 2c8b 3dbe 107c fcbd
00000140: dd95 3fbe c0c9 a0bd 70f2 a6bd fc54 f7bc
00000150: 9400 d23d 4eee 123e fd11 c5bd d8a6 943c
00000160: 06a7 cb3c 0be7 42be db19 963d ca1d ee3d
00000170: 1fc4 17be 2a5e f9bb 5f46 583d bcff 473e
00000180: 28ec 64be 3411 23be 95d8 1fbe 5810 0c3d
00000190: 4c46 833e ce01 e33c be32 c33d 567f d9bd
000001a0: dc68 4fbe dec4 c1be c327 dc3d c63e 243e
000001b0: 8d98 773e 127e 923d 7980 053e 2119 373d
000001c0: cd08 63be 4342 853d 1235 1abe 29e4 43be
000001d0: 7d10 07bc 0ee9 9c3d 382a 9cbd c849 1e3a
000001e0: 36a7 c0be 72a4 0cbe e347 503c 5606 24bd
000001f0: e060 0f3e df89 0cbe ef28 34be f770 52be
00000200: 09ab f13c c9c3 e73c 30b5 f63c 9eb0 e8bd
00000210: 03b3 f1bd 484d 57bc a1ba e93c e753 ac3d
00000220: 4762 313e 8bac 3abd 9866 13be 3c85 7abd
00000230: 8509 583e 73e5 813d 93ce 9ebe b653 2c3e
00000240: 0672 113e d9d0 943c 2461 c8bd 177b 203e
00000250: 9991 05be 4453 833e cc35 5abd 6e66 67be
00000260: 7e72 043e 0e15 403d c533 313e c12b 4bbd
00000270: 1d83 b6be 3b9b 813c 5807 7c3e c783 58be
00000280: c96d 3c3d 803d 083e 2eb5 eabb 164b 59bc
00000290: 537a 753c eb01 2c3d 0ad1 c5bc 2cca 26bd
000002a0: ea64 20be b887 53bd 9b35 a43d 843d dc3d
000002b0: 83a0 3bbe 20b8 793e 3114 0bbe 1b72 23bd
000002c0: 4e52 6f3d b608 30be 8462 21be 9f52 3e3e
000002d0: e773 913c 5bf8 5abd 7bf2 63bd 2861 22be
000002e0: b229 4cbd 18fb ff3d 3639 27be 08ea a8ba
000002f0: aa9e 25bd f44c 00be c74b f1bd 14a0 a8bd
00000300: 8317 323e 8bf4 a0bd 93a1 bbbd 7ecb 903e
00000310: 3896 2d3e a87b be3d 7528 eabc c384 6abe
00000320: 3940 d43d f058 cd3c 774c eb3d d1b9 933e
00000330: 5eb5 a7bc 90ec 3bbe e9e9 08be d5f0 263e
00000340: 3e47 8e3e f7ab 9c3e 0d31 f0bd 46c7 05bb
00000350: 9347 623d f81a 863d 9ea2 e1bd a2f6 573e
00000360: 06e1 2f3d 1293 8e3e 3021 f6bc d4a9 5e3e
00000370: 4d59 6a3d 141f 073e 992b 2aba 5830 1d3d
00000380: bc96 b63d 0f1c 673e 7658 d73d 9c31 b9bd
00000390: 51a7 8d3d 7250 04be 1f97 8c3d 5b2a 893d
000003a0: d248 023d fae8 44be 8f2a b83d 63ef 08be
000003b0: 3f0d 6cbc 439d 5cbd 094c b73d 9965 17be
000003c0: 9c6e 9fbe 62c8 0d3e 183d 1b3d c6f1 493e
000003d0: d976 073e 17ab 0a3e e45d b73b ea24 7f3e
000003e0: 547f b93d 9aab b63d 7648 b9bd 2f94 63bd
000003f0: 8bd0 f53d aa44 87be 60f9 df3d 3a9a 51be
-0.13146015 -0.055395305 -0.19324589 -0.08144922 0.07197893 -0.02171676 0.22611785 -0.2318311
-0.016124945 0.10947373 0.012625907 0.16841647 0.06482169 -0.05011681 0.100081794 0.19196089
0.062384386 -0.042579807 0.20895115 0.15332784 0.04526691 -0.080839835 -0.17587434 0.11519259
-0.09393127 -0.17074722 -0.07292738 0.11092732 0.22806874 -0.10725193 0.13147086 -0.22286749
-0.0046758554 -0.2996222 0.24064481 0.1600556 0.1717769 -0.3085003 0.35179076 -0.11638561
0.22503737 0.02689207 0.2016003 -0.052112866 0.07665181 0.09540805 0.13687968 0.12552088
-0.14217466 -0.08479752 -0.02721326 0.040033672 0.21898739 0.19099844 0.040216044 0.014866008
-0.10241076 0.04322033 -0.049488485 0.2967229 -0.077369444 -0.12018525 0.12059098 -0.061263833
-0.14151227 0.12281798 -0.005435262 0.1557698 -0.18795678 0.19436261 0.17185688 0.08187509
-0.1602981 0.013247015 -0.0003098931 0.08634382 0.20695165 -0.13090694 -0.18510121 -0.123283505
-0.18709512 -0.07850981 -0.0815171 -0.03019189 0.102540165 0.14348719 -0.096225716 0.018145964
0.024859916 -0.19033448 0.0732915 0.116267756 -0.14820908 -0.007610102 0.052801486 0.19531149
-0.22355711 -0.15924531 -0.15609963 0.034195274 0.2563957 0.027710821 0.09531163 -0.106199905
-0.20254844 -0.3784551 0.107497714 0.16039571 0.24179287 0.07152952 0.1303729 0.0447017
-0.22171326 0.06506779 -0.15059307 -0.19130005 -0.008243677 0.07661639 -0.0762524 0.0006038216
-0.37627572 -0.13734606 0.012712452 -0.040045105 0.14001799 -0.13724469 -0.1759374 -0.20550905
0.029500501 0.0282916 0.030115694 -0.11361812 -0.11801722 -0.013140984 0.028531374 0.084144406
0.17322646 -0.045574706 -0.14394605 -0.06116222 0.21097381 0.06342592 -0.3101698 0.16828808
0.14203653 0.018165993 -0.09784153 0.15671955 -0.13043822 0.25649464 -0.05327396 -0.22597668
0.129343 0.04689508 0.17304905 -0.049602274 -0.35646906 0.01582109 0.24612176 -0.21144019
0.046003137 0.1330471 -0.0071627116 -0.013262531 0.014982778 0.041994017 -0.02414753 -0.04072015
-0.15663496 -0.051643103 0.08018037 0.10753921 -0.18322949 0.24386644 -0.13581921 -0.03990374
0.0584281 -0.17190823 -0.15760237 0.18586205 0.017755462 -0.053459506 -0.05565117 -0.15857375
-0.04984445 0.12499064 -0.16330418 -0.001288713 -0.040434517 -0.12529355 -0.117820315 -0.082336575
0.17391782 -0.07859143 -0.09161677 0.28280252 0.16951835 0.09300929 -0.028583745 -0.22902207
0.10363812 0.025066823 0.11489194 0.28852704 -0.020472225 -0.1835196 -0.1337048 0.16302808
0.27788728 0.3059995 -0.11728106 -0.0020412966 0.05524404 0.06548113 -0.11017345 0.21090177
0.04293921 0.2784658 -0.030045122 0.21744472 0.05721407 0.13195449 -0.0006491482 0.038376182
0.08915469 0.22569297 0.105149195 -0.09042665 0.06916679 -0.12921312 0.068647616 0.06697532
0.031807728 -0.19229499 0.089924924 -0.13372569 -0.014407455 -0.053860914 0.089500494 -0.1478485
-0.31139076 0.13845971 0.03790006 0.19721135 0.1322893 0.13541828 0.0055959094 0.24916425
0.09057489 0.08919449 -0.09047024 -0.05556124 0.12002667 -0.26419574 0.109362364 -0.20468989

transformer_encoder.layers.0.linear1.bias f4 [128]
00000000: 81eb 9cbe 210c adbe ec58 0ebe d7b0 7cbd
00000010: 0611 94bd 9410 133e 1be5 9bbe 17a9 97bc
00000020: d59c e93d d7cd 773e 7b1d a2be fa7c 283e
00000030: 3d6c 7ebe 3719 ac3d 5ab9 fa3d cc7f afbe
00000040: 0b86 c0bc 7529 5fbe d1d2 133e 3d33 6ebd
00000050: 366a e7bd 78dd 303e e2b5 053d 764a 5fbe
00000060: 79aa 86be b351 c8bc 14bd 43be a586 44bc
00000070: 4878 c23c 72df 7c3e d8c3 123e 48bd 11bd
00000080: 31b3 58be ac31 213e f2d1 cdbd 2235 39bd
00000090: ab91 6cbe b01f bc3c 2eaf 7bbd 8456 213e
000000a0: db4e c93d 01cb 66be b0ac 1ebc 4beb 8cbe
000000b0: e051 11bd 7653 cd3d 9b81 35be c8de a73d
000000c0: 999b 18be 5d9d a73c 9ae7 513e 8463 043e
000000d0: 932f 423e 6c94 c83d 4d23 80bd 897d 81be
000000e0: f6ee d83c 1840 c0bb 7f24 16be 6b69 25be
000000f0: 260c 6abe 03d2 9d3d eb11 3abe 5a5c 913d
00000100: cd68 03be 758a c2bc fc9e 97bd 01df 93be
00000110: be8c 6dbd 1844 53be 122f 30be d37a 95be
00000120: 83c6 2abc d14d 9dbd 7fee 353e 18a3 77be
00000130: 4803 b0bd fd4e 60be e9dd 353e 5451 81be
00000140: 954e a9bc 600e b13d 8a8d d0bc 7dca 77be
00000150: 285c ccbd 47a1 1d3d 197c 8abe ce53 1bbd
00000160: f4dc 30be 491c 303d 2777 6ebe 8567 aa3c
00000170: 33b8 d43d 7435 3cbc 9b69 373e ece3 1c3e
00000180: 8201 67be 73fe 26be dd7e 22bd 13c0 92bc
00000190: 3527 4f3e fa8b 17be 2296 0ebe 834b 6bbe
000001a0: 3ceb a6bd 1de3 63be 8d0e 6dbe 287a 53be
000001b0: ca29 1e3e ab9a 873d ecca eebd a0a3 d2bd
000001c0: bddb 42be 4303 753d bd30 193d 8836 16bd
000001d0: bcbd 2b3d b4d6 13be 7ed8 0b3e 5d63 6cbe
000001e0: 7fcf 3fbc 5020 65be c9a6 3fbd 12a7 04be
000001f0: 4e36 20bd 7488 a5bc a17a aebe e070 b7bd
-0.30648425 -0.33798316 -0.13901109 -0.061692085 -0.072298095 0.14361793 -0.3044823 -0.018513246
0.114068665 0.24199615 -0.31663117 0.16453925 -0.24845977 0.08403247 0.12242384 -0.3427719
-0.023501417 -0.21793158 0.14435889 -0.058154333 -0.11299555 0.17271984 0.03264416 -0.21805748
-0.26301935 -0.02445302 -0.19115096 -0.011994992 0.023738995 0.24694613 0.14332521 -0.035580903
-0.21162106 0.15741605 -0.100498095 -0.045216687 -0.23102443 0.022964329 -0.06144636 0.1575566
0.098294936 -0.22538377 -0.009684727 -0.27523264 -0.035478473 0.100256845 -0.17725222 0.08196789
-0.14903106 0.020460779 0.20498505 0.12928587 0.1896346 0.09793934 -0.06256733 -0.25291088
0.026481133 -0.0058670156 -0.1466236 -0.16153495 -0.22856197 0.07706072 -0.18170898 0.07097693
-0.12832947 -0.023747662 -0.07403371 -0.28881076 -0.05799555 -0.20631444 -0.17205456 -0.2919527
-0.010423305 -0.07680858 0.1776676 -0.24183309 -0.08594376 -0.21905132 0.17760433 -0.2525736
-0.020667354 0.0864532 -0.025458116 -0.24198337 -0.09978515 0.038483884 -0.27047804 -0.03792172
-0.17271787 0.042995725 -0.2328764 0.020801315 0.10386696 -0.011487354 0.17911379 0.1532132
-0.22559169 -0.16308002 -0.039671768 -0.017913854 0.202298 -0.1479949 -0.13924459 -0.22978024
-0.08150336 -0.22254606 -0.23150082 -0.20652068 0.15445629 0.066212974 -0.11659798 -0.10285115
-0.19029136 0.059817564 0.037399996 -0.0366731 0.04192899 -0.14437371 0.13656804 -0.23084779
-0.011707186 -0.22375607 -0.046789918 -0.12954357 -0.03911429 -0.020206667 -0.34077933 -0.08957076

transformer_encoder.layers.0.linear2.weight f4 [15, 128]
00000000: 74ae c83d 2bf2 273d a4f7 c33d 7ba0 b0bb
00000010: c7d3 283d c367 b6bd 616b a4bd b6fb 3d3d
00000020: 56ea 5b3d cb67 dbbd 74fa 9ebd adb8 b33c
00000030: acda e4bd ea6d 343e 7e8c 82bd 8fda 10bc
00000040: c6e4 f7bb c3a6 cf3d c60c 673d 9887 913d
00000050: e7d5 f1b9 16e5 5d3d 22cd e33c e23f 993d
00000060: 17a9 debd 9a98 c2bd d860 2c3e e049 c93c
00000070: 6358 4f3d 9a9a 78bd a348 dbbd aeef b93d
00000080: ffdb d33c 430f 0ebe 8a35 313e fefd 07be
00000090: 6f45 91bd 5b87 8abd 34f6 ccbd 9593 8fbd
000000a0: 36bc d0bd 602d be3d 7ed6 a3bd 02c8 5bbd
000000b0: 0775 af3c 6627 5f3c 3a93 dbbd d1f0 d0bd
000000c0: be08 963c dd83 943d 1571 46be e351 1bbe
000000d0: 7430 4fbd e37d b9bd a001 7f3d 5e1b 19bd
000000e0: e928 25bd b624 67bd d7b6 10bd 498c 99bc
000000f0: 5e84 56bd 1153 943c 5280 873c dbf0 0bbd
00000100: c0a8 d23c f015 5bbe 342c d8bd d0d4 34bc
00000110: f15a b2bd 82e7 d1bc 84a9 b33d abf4 b1bd
00000120: c68e 1d3d baef 28bd 982c eebc 695f c13b
00000130: 4f6e 02be de0e dab9 29b0 d53c 62d5 3bbb
00000140: d8b1 35bc b094 aebd 81fb 4e3d 2f83 1ebd
00000150: fd7f 283d c5e0 ab3c fc2c 143e 73c0 cabd
00000160: c9f3 c1bd 6177 dfbd 76fd d0bd fc16 e7bc
00000170: 3f52 b4bd 59b3 1dbe 4146 f1bd b3c5 163d
00000180: cca5 88bd 27b0 70bd 42bc 47bd 7ee9 56bd
00000190: 1b55 7e3c d4fd ccbc 9dbe 3bbd 336a 923d
000001a0: 547d be3b acaf 4cbd 49cf ccbd 7b18 1e3c
000001b0: 1e93 693d 6a59 0ebe 9940 453d c600 24ba
000001c0: 6a40 65bc 3539 a83d 20d1 623d e6b5 93bc
000001d0: 07bd f2bd f18a 363d 982c 833d 7f50 723d
000001e0: f727 8bbb 3b5a 9139 ab21 34bd c45c f0bd
000001f0: 9ff9 b33d f80d 42bd 192a 043d ff32 25be
00000200: 067c 41bd eb2c 40bd f85c 793b 2b5b 35bc
00000210: f08c 413d 738b 1fbc 5adb e13d a9c6 11bc
00000220: 9386 51bd 095d 9ebc 5ae1 95bb faa8 2cbc
00000230: d51f 613d 834b 6ebd 25d0 d3bd 7f44 32bd
00000240: 1e2d 16bd 0e7c 41bb a82e 1a3c fe88 963d
00000250: d612 1d3d 9685 4cbd 1191 6a3d 342b a1bc
00000260: 3a43 653d acf0 5f3d 8d28 59bc d988 31bd
00000270: 1c87 43bc 5bd8 2a3d 1b26 be3d a96c 01bd
00000280: c36d 12be cbbf c93b fcec 3b3e e8ed 9f3d
00000290: c01e d0bc 8b3b b6bb 1156 88bd 1dbf d93c
000002a0: 3548 a63d e69f 853d c83e ee3c 260d 3e3d
000002b0: 5f35 993d 7c86 d03d 5385 953c ac78 513d
000002c0: d99e 7e3d 5241 66bc 6183 023c f617 803c
000002d0: 5f4f 13bc 2f2b 2c3d 8e8f 85bd 3188 a33d
000002e0: 992d 77bd d132 09bd 0ef4 54bd be30 393d
000002f0: 2627 a53d 0344 a9bb e7f3 e53b abe6 74bd
00000300: b578 cc3d 2c17 2a3d 19db 5e3d 0c9c 6abd
00000310: d61c dbbc bf2c 3ebc cd95 33bd 3257 56bd
00000320: 04a0 813d c1b1 09bc 0e6b 0cbd b38b 683d
00000330: f7fd 85bc 815e a1bd 1d52 1abd 8dd2 ab3c
00000340: d962 30bd 4d54 ef3c 2ecf 33bd 07f3 b1bd
00000350: 1ae2 1a3d 369a b4bb db37 a63c aa32 7fbd
00000360: 9d56 3fbd 715d b03c 5ec9 843c 35df 513d
00000370: 2e2d 0aba d7da cabd 7d50 a03c 07b3 f7bc
00000380: 55ac b63c 22b2 883b 58a6 8cbb 5721 443d
00000390: 4926 6fbd 36df fb3d ab19 afbc 61a6 41bd
000003a0: bb70 19be 2c4c e03d ee7b bf3d 16d9 62bd
000003b0: a605 553d c2e2 b53d d6c8 77bd b55b 863d
000003c0: 3d27 84bd 4f92 20bc 4c70 a23d 95ee 31bd
000003d0: 008a 63bc 358a c5bd b49d 75bd f255 f03c
000003e0: dc1d 8abc c1df c2bd 8bee a7bb fb70 83bd
000003f0: a47c 933c cfbf 163d be34 643d 622f e63d
0.09798899 0.041002434 0.09568718 -0.0053902245 0.04121759 -0.0890651 -0.080282934 0.04638263
0.053690277 -0.10713156 -0.07762614 0.021938646 -0.11174521 0.17620054 -0.06374453 -0.008841171
-0.0075651137 0.10139229 0.056408666 0.071059406 -0.00046126472 0.05417355 0.027807776 0.07482888
-0.10872095 -0.09501763 0.16833818 0.02457136 0.0506214 -0.060694315 -0.10707214 0.090789184
0.025861738 -0.1387301 0.1730558 -0.13280484 -0.070933215 -0.06764098 -0.10007897 -0.07010571
-0.101921484 0.09285998 -0.079998955 -0.05365754 0.021418108 0.013620233 -0.107214406 -0.10202182
0.018314715 0.072517134 -0.19379075 -0.15167956 -0.050583318 -0.09057214 0.06225741 -0.037379615
-0.040322218 -0.056431495 -0.03533062 -0.018743651 -0.05237233 0.018106015 0.01654068 -0.034165245
0.025715232 -0.21395087 -0.10555306 -0.011037067 -0.08708752 -0.025623087 0.08772567 -0.08689245
0.038466237 -0.041244246 -0.029073998 0.0059012664 -0.12737392 -0.00041591277 0.026084976 -0.0028661122
-0.011089765 -0.08524454 0.05053282 -0.038699325 0.041137684 0.020981202 0.14470285 -0.09899988
-0.094703265 -0.109114416 -0.10204594 -0.028209202 -0.0880475 -0.15400447 -0.11780978 0.036809634
-0.06672248 -0.058761742 -0.04876352 -0.05246877 0.01552322 -0.025023378 -0.04583608 0.07149162
0.00581328 -0.04997222 -0.10000474 0.009649391 0.057025068 -0.13901296 0.04815731 -0.0006256219
-0.013992408 0.082140364 0.05537522 -0.018031072 -0.1185246 0.0445661 0.0640499 0.0591588
-0.0042467075 0.00027723782 -0.04397742 -0.11736444 0.08787846 -0.047376603 0.03226671 -0.16132735
-0.04723742 -0.046917837 0.0038049798 -0.011069099 0.04725355 -0.009737837 0.11028166 -0.008897462
-0.05115373 -0.019331472 -0.004573983 -0.010538334 0.054961998 -0.058177482 -0.10342435 -0.043522354
-0.03666412 -0.0029523405 0.009410538 0.07350348 0.03834804 -0.049932085 0.057267252 -0.019673921
0.055972315 0.054672882 -0.013254297 -0.0433434 -0.011934068 0.04171024 0.09284612 -0.031597767
-0.14299683 0.0061568967 0.18352121 0.07809049 -0.025405288 -0.0055612973 -0.06657041 0.026580388
0.08119241 0.06524639 0.02908267 0.046399258 0.07480883 0.10181901 0.01825205 0.051140472
0.062163208 -0.0140536595 0.0079658935 0.015636425 -0.0089910915 0.04203337 -0.065215215 0.07984961
-0.06034622 -0.033495728 -0.05199056 0.0452125 0.080641076 -0.0051655783 0.007017601 -0.059790295
0.099839605 0.041526005 0.054408167 -0.057277724 -0.026747148 -0.011607348 -0.043844033 -0.05232925
0.06329349 -0.008404196 -0.034281783 0.056773853 -0.016356451 -0.07879353 -0.037675966 0.020974422
-0.04306302 0.029215002 -0.043898754 -0.08688932 0.037813284 -0.0055115474 0.020290306 -0.062304176
-0.04671346 0.021528931 0.0162093 0.051238257 -0.00052710145 -0.09905022 0.01956963 -0.030236734
0.022298971 0.0041716257 -0.0042922907 0.047883358 -0.05838612 0.122984335 -0.021374544 -0.047277812
-0.1498441 0.10952029 0.093498096 -0.05538281 0.05200734 0.08881141 -0.060494266 0.065604605
-0.064527966 -0.009800508 0.07931575 -0.04344042 -0.013887882 -0.096455015 -0.05996485 0.029337857
-0.016859941 -0.09515334 -0.005124872 -0.06418034 0.01800377 0.036804017 0.05571436 0.11239506

transformer_encoder.layers.0.linear2.bias f4 [15]
00000000: 586f 903d 1b20 c0bb 34af f9bc 4b8a 593d
00000010: 4401 e6bb 5230 963d f79a c4bb 3582 c4bd
00000020: 92dd 4b3d a8fa aebc 162f 7e3d 6c57 a3bd
00000030: e860 8c3c 34eb e13c 06ab 89bd
0.07052487 -0.0058632023 -0.030479051 0.053110402 -0.007019194 0.07333435 -0.0059999186 -0.095951475
0.049771853 -0.021359757 0.062056623 -0.07975659 0.017136052 0.027577974 -0.06722073

transformer_encoder.layers.0.norm1.weight f4 [15]
00000000: af64 883f 2f7a 7e3f 3fa1 623f 2380 713f
00000010: 7027 653f d0fe 783f ab65 613f fa25 7d3f
00000020: 4b38 763f 63c8 6a3f 3682 7e3f 8ae4 7a3f
00000030: c6c7 6e3f d589 7b3f 7055 873f
1.0655726 0.9940519 0.8852729 0.94336146 0.895133 0.97263813 0.8804576 0.9888607
0.96179646 0.91712016 0.99417436 0.9800497 0.9327358 0.9825719 1.0572948

transformer_encoder.layers.0.norm1.bias f4 [15]
00000000: 7980 c0bc 2760 a4bb 79a2 0fbe 87f9 373d
00000010: 39a7 4bbd 04b2 ee3c e481 86bd 9427 6cbd
00000020: 40c0 3a3d b3eb 49bd afbf 2e3c 3520 3abc
00000030: edab f23c 6205 04bd 5a17 e83c
-0.02349876 -0.005016345 -0.14026822 0.044915702 -0.049720023 0.029137619 -0.065677434 -0.057654932
0.0455935 -0.049297046 0.010665818 -0.011360218 0.029622996 -0.032231696 0.028331447

transformer_encoder.layers.0.norm2.weight f4 [15]
00000000: 4dcb 8a3f 3323 893f c1d0 723f 93e1 813f
00000010: 728c 7d3f 0736 803f 0b95 823f e60d 803f
00000020: 1533 7a3f d161 853f 2f53 7b3f 8e5b 7b3f
00000030: b0a0 813f ac0e 833f 828b 8f3f
1.0843292 1.0713867 0.94849783 1.0146965 0.9904243 1.0016488 1.0201734 1.0004241
0.97734195 1.0420476 0.98173803 0.98186576 1.0127163 1.0238853 1.121445

transformer_encoder.layers.0.norm2.bias f4 [15]
00000000: 6f2b efbc e984 80bc c605 9bbd ff8e 323c
00000010: dc82 e4bc 2f03 013b 341d 2c3c aaf4 b8bd
00000020: 55b3 dbbc fab1 e43a 959a 903c 8032 abbb
00000030: 65f4 3a3d 7493 0cbb b39a 753c
-0.029195515 -0.015688377 -0.075694606 0.010898351 -0.02789443 0.0019685735 0.010505009 -0.09031041
-0.02681891 0.0017448061 0.017651835 -0.005224526 0.04564323 -0.0021450194 0.014990496

transformer_encoder.layers.1.self_attn.in_proj_weight f4 [45, 15]
00000000: b4e5 3ebe 3b23 303e 638f 253e b29b ab3d
00000010: 68bc 52be 36ae 59be 182f 133e 3d8d c23d
00000020: c5b5 adbe 7070 2abd 9f90 33be 9e26 87be
00000030: 74c4 933e 837a db3d 72e7 443e 5496 40be
00000040: 4732 c6bd 1884 253d 1c11 803e bd2b 7d3e
00000050: f9e7 9dbd 8394 3c3e 30c1 1a3c b7cb 59be
00000060: bd66 843e 2165 a3be 2c9e 693d 874e 993d
00000070: 655e 91be 8510 233e 64cb 85be 00f2 00bc
00000080: 73c2 7b3e 6982 ad3e ae33 123e bcb1 e83d
00000090: 53ba 253e 1521 9bbc 4d12 853d fc67 03be
000000a0: 6b0d 07be c9f0 503e 1613 c1be 3939 82be
000000b0: 8fbc 8dbd 2eb8 903d c31f 02bd e27e 7ebe
000000c0: 644d 98be 4ed6 4cbe 3fb7 86be 67c3 823e
000000d0: 5949 2abe dd18 d13e a7b2 983e 8cd9 94be
000000e0: 68ce 8dbe 25dc 9fbe 6ef4 9cbe 6467 6a3e
000000f0: 08bc 34be 179d 903e 8977 42be 85df 383d
00000100: 3617 c9be 0a70 ccbd b15e ab3e 51d2 bcbe
00000110: e97a c23e 2e90 a4be 8498 f03e 926e eebd
00000120: a870 7c3e 91fd 24be c687 a73e 537e c73d
00000130: 9de9 003e eb9a 993d 890e b03e 6b97 3a3d
00000140: 2177 d63d f47d e2bd 4014 f63d ae88 c7be
00000150: 23c7 ab3d a10e 9ebe a6ad 08bd 79f3 98be
00000160: b5bd d33e 107e 7fbe 7b45 913d 19fd cabd
00000170: c58c 623d ab28 a93e 2a84 8dbe dfe8 e0bd
00000180: b5be b53c 1daa 823d 010d 7ebc 94d5 a3be
00000190: dc27 2cbe 94cf 6f3e d363 a63c 8234 44bd
000001a0: 0c03 37be 8bcd b4be 9dd4 1fbe 8d30 903c
000001b0: 3f23 043e 9a6a 233e 8175 63be 6d1c b43c
000001c0: d5a8 04bb 92bd 06be 6ee9 b2be ce20 5bbd
000001d0: eb07 603e df72 32be 5329 ea3d d45c f1bd
000001e0: a72e 0e3e d549 3d3d 44ec 68bd dfe5 b4bd
000001f0: a4ea 703e 595e 2cbc f875 e3be ed90 8a3e
00000200: b9f1 c7bc d5a8 a13e 0737 9abe 23af af3e
00000210: 1425 433d d22e 3cbc 9617 b03e 39bf 693d
00000220: c7ef 083e fef6 113e 5ade 3c3e c19a 613e
00000230: a742 8a3d e791 e9bd 22bd 8cbd 1aba fbbd
00000240: 27e6 7c3e 984a c1be c96e 8b3d 01ce 33bd
00000250: a042 703d 0eb5 8cbd 1267 7bbe ad49 6e3e
00000260: e11e 393e 4a0a 9b3e d215 ecbe eb16 933e
00000270: 0ab7 8cbe 721e 9f3e 4a1a 103d 2560 16bd
00000280: a4ab b63d a874 a7be 116c 9b3e 2d50 1dbe
00000290: 78f7 923e a38b 073e 7582 283e 47b2 023e
000002a0: 87c8 d23d fb89 183d 7fd5 35be 9d03 8fbe
000002b0: 910e adbe 7ac4 ae3e e4cf 4b3e 0e8f 963e
000002c0: d7c8 653a 850f bd3a 654d 063e b564 53be
000002d0: 29e1 a53e dd85 9dbe eef3 8abe 5c83 983d
000002e0: 48ad f23d 3d52 263d df9b 123e 064e 053e
000002f0: c6e3 ac3d 53ef 09be e9cf 2a3e 862f a4be
00000300: 0cb7 663e 5baa a7be 8fb5 6ebc 07e0 4fbe
00000310: 26dd 29bd 3a94 80bd e1bd 9abe a3f8 4a3e
00000320: 0bbe 5bbd d71f f83d bac6 47be 78f2 a63d
00000330: 2879 5c3d e14b dc3d c481 4dbe 36ed 35be
00000340: ac6c 62be 336e 22be 8b58 92ba 7999 a13e
00000350: ced8 be3e d11e fb3c 6be8 203e 8467 bdbe
00000360: b71f 173e e354 4b3c 5e97 0fbe a0d2 37bb
00000370: 98d3 5c3e 0a8c 95be 2b28 033e 5c0f a63e
00000380: 98a4 443d a25c 8f3e f59b 8d3e 903b 22bc
00000390: caef 0ebe 6c92 223e d6b7 6e3e 7091 87be
000003a0: 67e2 9bbe 0471 9cbd 8b95 04be ad85 f03d
000003b0: 7045 cfbe 8510 403e 5e05 c9be b5e6 8fbe
000003c0: acca a5be 2461 803e acf9 023e faea cfbd
000003d0: 8bd4 993d 96f6 8d3e da32 9cbe fdea 6c3e
000003e0: 703c bc3d 327b 20bc 7789 6fbe ca66 9dbd
000003f0: fc5d 68be 0e81 173e 786b 193d 9b81 b03e
-0.18642312 0.1720094 0.16167979 0.08379306 -0.20579684 -0.21257862 0.14373434 0.09499595
-0.33927742 -0.041611135 -0.17535637 -0.2639665 0.2886082 0.10716727 0.19228914 -0.18807346
-0.096775584 0.040409178 0.25013053 0.24723716 -0.07710261 0.18416028 0.009445474 -0.21269117
0.25859633 -0.31913093 0.05703561 0.07485681 -0.2839233 0.1592427 -0.26131737 -0.007870197
0.24585895 0.33888558 0.14277527 0.11362025 0.16184358 -0.018936673 0.06497631 -0.12832636
-0.13188712 0.20404352 -0.37709874 -0.25434282 -0.0692073 0.070663795 -0.03176857 -0.2485309
-0.29746544 -0.20003626 -0.2631168 0.25539705 -0.16629542 0.40839282 0.298238 -0.29072225
-0.27696538 -0.31222644 -0.30655235 0.22891003 -0.17649853 0.2824485 -0.18990912 0.04513504
-0.3927552 -0.09982307 0.3347068 -0.3687921 0.37984398 -0.3214125 0.4699136 -0.11642183
0.2465235 -0.16112353 0.32720774 0.09740891 0.12589116 0.075002514 0.3438609 0.04555456
0.10471941 -0.1105918 0.12015581 -0.38971466 0.08387592 -0.30870536 -0.03336873 -0.29873255
0.41355672 -0.24950433 0.070933305 -0.09911556 0.05531003 0.3303884 -0.27639896 -0.10981917
0.022185663 0.06380103 -0.01550603 -0.31998885 -0.1681208 0.23419029 0.020311272 -0.047901638
-0.17872256 -0.35313067 -0.1560845 0.017601276 0.1290407 0.15958634 -0.22212793 0.02198621
-0.0020242233 -0.13158253 -0.34943718 -0.053498082 0.2187802 -0.17426632 0.11433663 -0.11785284
0.13884984 0.04621299 -0.056865945 -0.08832907 0.23527008 -0.010520541 -0.4442594 0.27063695
-0.024407255 0.3157412 -0.30120108 0.34313306 0.047642782 -0.011485772 0.34392995 0.05706713
0.13372718 0.14254376 0.18444195 0.2203169 0.06750994 -0.11404782 -0.06872012 -0.122913554
0.24697171 -0.37752223 0.0680824 -0.043897633 0.05865729 -0.06870471 -0.24551037 0.23270293
0.18078186 0.30281287 -0.46110398 0.28728423 -0.27483398 0.31077915 0.03518132 -0.036712784
0.089194566 -0.3270619 0.30355886 -0.15362616 0.2870443 0.13236861 0.16456015 0.1276332
0.10292154 0.037240963 -0.17757224 -0.27932444 -0.33800176 0.34134275 0.19903523 0.29406017
0.0008765584 0.0014424181 0.13115461 -0.20643885 0.32398346 -0.30766192 -0.2713923 0.0744693
0.11849457 0.040605772 0.14317273 0.13018045 0.08441882 -0.13470201 0.16680874 -0.32067508
0.22530764 -0.32747158 -0.014569654 -0.20300303 -0.04147067 -0.06278272 -0.3022299 0.1982141
-0.053648036 0.12115448 -0.19509402 0.08151716 0.05382648 0.1075666 -0.20069033 -0.1776627
-0.22111768 -0.1586235 -0.0011165304 0.31562403 0.37274784 0.030654343 0.1571366 -0.3699304
0.14758192 0.012410375 -0.14022586 -0.0028049126 0.21565092 -0.29208404 0.12808292 0.32433593
0.04800853 0.2800036 0.27658048 -0.009901896 -0.1395866 0.15876168 0.23312315 -0.26478148
-0.3044617 -0.076387435 -0.12947671 0.11744247 -0.40482664 0.18756302 -0.39261907 -0.28105703
-0.3238119 0.25074112 0.12790555 -0.1015224 0.075112425 0.27727193 -0.30507547 0.23136516
0.09191215 -0.009794997 -0.23392282 -0.07685621 -0.22692102 0.14795324 0.037456006 0.3447388

transformer_encoder.layers.1.self_attn.in_proj_bias f4 [45]
00000000: 1e71 83bc f945 a53a 4700 84bd 3b12 2f3c
00000010: 1691 6bbd a755 263d 79bd 443d 2f70 16bc
00000020: 7e91 243d e8e6 c13d 18ad 563c 4ebb 93bd
00000030: 8a82 37bd 9969 60bc ee34 083d 2c00 94ba
00000040: 7d56 df3b 475c 99ba 0b04 e8ba f0fe 793b
00000050: 2033 8f3b 4e63 4b3c c961 8138 ef57 443c
00000060: 74e1 d13c f07a 06b8 2aaf 6fbc 0dee b83b
00000070: 4b9a 84bb 9379 0c3c 2970 483c ff2e 49bc
00000080: c47f 7ebc 2ff9 9a3b 11dc 3cbc 7324 83bc
00000090: 9eb5 94bc c52e 09bc 3a08 7e3c 2d47 3f3c
000000a0: 8a2e 1cbd 1f83 3c3d 81e2 c53c 926e 7dbd
000000b0: 1953 11bc
-0.01604515 0.0012609354 -0.064453654 0.010685499 -0.05751141 0.04060903 0.048032258 -0.00918202
0.040177815 0.0946787 0.013102792 -0.0721346 -0.044802226 -0.013697051 0.033253603 -0.0011291555
0.00681573 -0.0011700474 -0.00177014 0.003814634 0.0043701082 0.012413813 6.169413e-05 0.011983856
0.0256202 -3.2062584e-05 -0.014629165 0.0056436122 -0.0040467135 0.008573907 0.012233772 -0.012279271
-0.015533391 0.004729412 -0.011527077 -0.016008591 -0.018153008 -0.008372967 0.015504891 0.0116746845
-0.03813032 0.046023484 0.024155857 -0.061873026 -0.00886991

transformer_encoder.layers.1.self_attn.out_proj.weight f4 [15, 15]
00000000: 3754 b9bd bfc5 afbd ef75 e33d e10c 473e
00000010: 5cb4 75be 1e3e 83bd 6d1a 393e acd3 8a3e
00000020: c796 933e 13f4 093e 6a5e 2c3e 470a 93be
00000030: 653a 16bd 07e2 debc b8d8 8a3e 911c 7ebc
00000040: 1d1d 2c3e 08ac 6fbe ce56 02bc 3194 243d
00000050: f4ef 793e 3872 2b3d 5416 643d b3da 86bd
00000060: 3d44 13bd d9ae 883e de02 2e3e 02db 3a3e
00000070: 31c3 65be 97bf 0dbe 8317 8fbe 8253 a13e
00000080: ca05 0b3e 656e d03d 6d3c 94be d572 19be
00000090: 7e90 8bbd bb23 e13c 6d25 643e 1cc0 02be
000000a0: 2a89 ecbd 8016 3abd fb61 4bbc 7711 cfbc
000000b0: c4b2 54bd ba74 f83c 0bba cebd ed0b 37be
000000c0: 6d11 843c 9b72 25be d542 adbd 7c4c ecbd
000000d0: 2480 bbbe ab01 5a3d 8ab6 ffbd 01d8 86bd
000000e0: 3ef2 173d cf58 4bbc 192d e5bd 1f08 97bd
000000f0: 7e25 8ebe 3553 7c3c bf50 4e3e 220e 723e
00000100: edbe 553e d547 6cbd eeab 983d 3128 e1bd
00000110: 9b5c bd3b fe10 6d3e 20fa 19be e9ec 66be
00000120: 5613 533e 9f73 453d 7068 6e3e 1cd9 0bbe
00000130: e6d6 8abc b1f6 4cbe e808 40be 9126 10be
00000140: a26c 0ebe a464 a6bd 97ee 02be 5bd4 1dbe
00000150: 84b1 9bbd 5cb3 2e3d f9e2 173e ab18 7d3e
00000160: 0cce 3d3d 7e25 89be a32e 9bbd a5af 6bbd
00000170: 0fa7 a83e ff66 653e 16d3 aa3e 1678 8b3e
00000180: e0f1 febc 2df4 2dbe 4aff d3bd 0929 793e
00000190: 99f6 1fbe 8aac acbc 6eb4 5c3d 9239 933d
000001a0: cba1 57be ff12 93bc e27c 663e 2b42 5bbe
000001b0: 55b8 37bd 5c8b 00bd ede3 05bc 5d6b cbbc
000001c0: 986e b43e fdcf 253e 369c 5c3e e3a9 69be
000001d0: 5050 50be 091b 113d e9e1 84be 5de1 fe3d
000001e0: e0d4 bdbd 6eda 46be b0dd 9a3d b19d 7abe
000001f0: 5fcf d23d 6541 c2bd 348f 2cbe 6556 e63c
00000200: acac 25be 0060 9d3e adc7 7abd 334c 54bd
00000210: e38b 8fbd 0b22 63be eba3 cebc c467 60be
00000220: 3070 78bd c601 f2bd 27b8 ea3d 1d30 603e
00000230: 77c9 55be 4142 463e a019 8e3d 049d 20bc
00000240: dd6e 9e3e a3d8 91be 91d0 943d c419 503d
00000250: 92f5 2d3d af8d 38bd c99d 513e 1b3c 85be
00000260: f949 8dbd aad7 913e 94c1 87bd 7239 993c
00000270: dd61 6abe 4e1a d8be 9f08 3abe cca4 05be
00000280: c82d c2bd b73e c43d 6de1 5ebd df9e 59bd
00000290: b9f5 9dbe ad0a 983e c8c6 34bb 8103 983d
000002a0: 376f 343d ca02 9d3e 2954 8cbd e3a4 c6bd
000002b0: 4623 19bd 8921 50be 4cdf 58bd 8473 863b
000002c0: f42a a53d dc9d 8f3d ac38 0a3c c99d a63e
000002d0: f6e3 99bb ffdf 213d 9db7 61be 42f6 78be
000002e0: 3eb0 8bbe 7767 5a3e 62b3 833e a21d 49be
000002f0: 0b5a 3b3e 22e7 fabd 5887 1b3e 0ed7 4a3e
00000300: e981 0ebe 1e4e a03a 168a 96be 01d6 81bb
00000310: f31f 903e 68b6 f9bd 2443 403e 5a64 823d
00000320: c169 8bbe f7c8 cc3c 15e2 543d 662a 4bbe
00000330: 2992 5e3e 6154 5fbe 2506 353e 4dfe 3cbe
00000340: cd81 c0bd 1c1a 8a3e 654f 9fbb 3833 69be
00000350: fead 70bd fd20 023e a09c d2bd 0cc9 45be
00000360: 5058 fa3d 110f 4c3d 7d91 96bd d5f1 523e
00000370: 3061 05be 9621 343d a4bc 80bd d3d6 67be
00000380: 7db4 c4bd
-0.09049266 -0.08582639 0.111064784 0.19438507 -0.23994583 -0.06408332 0.18076487 0.27114618
0.2882597 0.13472013 0.16832891 -0.28718778 -0.036676783 -0.027207388 0.27118468 -0.01550974
0.16807981 -0.23405468 -0.007955266 0.04018039 0.24407941 0.041856974 0.055685356 -0.06584682
-0.03595375 0.26695898 0.16993281 0.18247607 -0.22437741 -0.13842617 -0.27947626 0.31509024
0.13576427 0.10177306 -0.2895235 -0.14985211 -0.06814669 0.027482858 0.22279902 -0.12768596
-0.115495995 -0.045431614 -0.012413497 -0.025276883 -0.051928297 0.030329097 -0.10094079 -0.17875643
0.01612159 -0.16157 -0.08460013 -0.11538026 -0.366212 0.053224247 -0.124859884 -0.06584168
0.037096255 -0.01241131 -0.11190242 -0.07374596 -0.2776298 0.0154006975 0.2014799 0.23638204
0.20873614 -0.057685692 0.07454668 -0.10993994 0.0057788617 0.23151013 -0.15036821 -0.22551312
0.20612845 0.048205968 0.23282027 -0.1365704 -0.016948175 -0.2001598 -0.18753397 -0.14077212
-0.13908628 -0.081246644 -0.12786327 -0.15413038 -0.07602218 0.04265152 0.14832677 0.24716441
0.04633908 -0.26786417 -0.075772546 -0.057540555 0.32939956 0.22402571 0.3336417 0.27240056
-0.031121194 -0.16987677 -0.10351427 0.2433206 -0.15621413 -0.021078367 0.05388301 0.07188715
-0.21057813 -0.017953394 0.22508577 -0.2141196 -0.044853527 -0.031382903 -0.0081720175 -0.024831468
0.35240626 0.16192622 0.21543965 -0.22818713 -0.20343137 0.035426173 -0.25953606 0.124453284
-0.09269118 -0.19419262 0.07561815 -0.24474217 0.10293459 -0.09485129 -0.16851503 0.028117368
-0.1617915 0.30737305 -0.061225582 -0.05183048 -0.07009103 -0.22180955 -0.025224647 -0.21914583
-0.060653865 -0.118167445 0.114609055 0.21893354 -0.20877634 0.19361211 0.06938481 -0.00980306
0.30943957 -0.28485593 0.072663434 0.050805822 0.042470522 -0.045056995 0.20470347 -0.2602242
-0.06898875 0.2848485 -0.06628719 0.01870415 -0.22888894 -0.4220757 -0.18167351 -0.13051146
-0.09481388 0.095822744 -0.0544142 -0.053130027 -0.30851534 0.29695645 -0.0027584303 0.07422543
0.044051375 0.3066619 -0.0685199 -0.096994184 -0.037387155 -0.20325293 -0.052947327 0.004103126
0.08064833 0.07012531 0.008436363 0.32542256 -0.0046963645 0.03952026 -0.22042699 -0.2431269
-0.272829 0.21328531 0.25722796 -0.1964021 0.18296067 -0.12251116 0.15188348 0.198086
-0.13916744 0.0012230312 -0.29402226 -0.003962279 0.28149375 -0.12192994 0.18775612 0.06366797
-0.2722912 0.024998171 0.05197342 -0.19840392 0.21735443 -0.21809532 0.17678125 -0.18456383
-0.093997575 0.26973045 -0.0048617595 -0.22773445 -0.058759682 0.12707897 -0.1028378 -0.19314975
0.122238755 0.049819056 -0.073519684 0.20600064 -0.13025355 0.043977343 -0.0628598 -0.22640543
-0.09604738

transformer_encoder.layers.1.self_attn.out_proj.bias f4 [15]
00000000: ac24 28bd cace 423b fcb8 ec3c 0439 be3c
00000010: 909c 9e3b 1675 dbbc d3c7 173d 1f7d 5c3b
00000020: cff0 18bd baee 473a fc19 3fbc 3a5c d6bb
00000030: 01e6 b43c 4e87 823c 91bf c93c
-0.041050598 0.0029725307 0.028896801 0.023220547 0.004840441 -0.02678923 0.0370558 0.0033643914
-0.037339028 0.00076268206 -0.01166391 -0.006541756 0.02208233 0.015933659 0.024627479
