Result/FD004/pgr.pth (torch, 755000 bytes, 9 tensors)

multihead_attn.in_proj_weight f4 [579, 193]
0	0xbd832cd5	-0.064050354
1	0xbd9955fb	-0.074871026
2	0x3d93f143	0.072237514
3	0x3d86af30	0.06576383
4	0x3d966d26	0.07345037
5	0x3c542004	0.012947086
6	0x3da6e542	0.08149196
7	0x3d33f110	0.043931067
8	0xbd9622c9	-0.073308535
9	0x3d3dfd61	0.04638422
10	0x3d9730ee	0.073823795
11	0xbd7494fc	-0.059712395
12	0x3d180cf7	0.03712174
13	0xbd5c1af8	-0.053736657
14	0x3da3f555	0.08005778
15	0x3d68db93	0.056850027
16	0x3c986df1	0.018607112
17	0x3cdd0199	0.0269783
18	0xbbd6c500	-0.006554246
19	0x3d897f70	0.0671376
20	0x3d063ba4	0.03277172
21	0x3d4f7371	0.050647203
22	0x3d8d215a	0.06891127
23	0xbda82284	-0.08209708
24	0xbb874f0e	-0.004129297
25	0x3d0ac72f	0.033881363
26	0x3e018ce9	0.12651409
27	0x3d8dda03	0.06926348
28	0x3d32028e	0.043459468
29	0x3bafa027	0.005359668
30	0xbdbef3af	-0.09323823
31	0x3a4d5773	0.00078331603
32	0x3b41e503	0.0029585965
33	0x3d08c008	0.03338626
34	0x3d969b8f	0.07353889
35	0x3d644c72	0.055736966
36	0xbcdaa788	-0.026691213
37	0x3da9bd75	0.08288089
38	0x3d87214e	0.06598149
39	0xbc864ebc	-0.016394965
40	0xbc119031	-0.008884476
41	0xbd6e80ce	-0.058228306
42	0xbcd747b9	-0.026279317
43	0xbd03b2eb	-0.03215305
44	0x3d02bd83	0.031919014
45	0x3c73cf0a	0.014880905
46	0xbd721212	-0.059099264
47	0xbda110d2	-0.07864536
48	0xbd868a5e	-0.0656936
49	0xbd58f187	-0.052964713
50	0xbcb9caeb	-0.022679767
51	0x3d98b984	0.07457259
52	0xbd0f0e00	-0.03492546
53	0xbc257a8a	-0.010100016
54	0x3dc62b5c	0.09676239
55	0xbbd26f56	-0.0064219637
56	0x3cc7562b	0.02433308
57	0xbdce01f4	-0.10058966
58	0xbd4b766d	-0.049673487
59	0x3cd6754b	0.026178977
60	0x3d58422b	0.052797478
61	0x3d58803c	0.05285667
62	0xbdce9912	-0.100877896
63	0x3bfde98c	0.007748788
64	0x3dd9c588	0.10633379
65	0xba9147fe	-0.0011084077
66	0xbccebf9d	-0.025237853
67	0xbd97987a	-0.074021295
68	0x3d0944ad	0.03351276
69	0xbccb4469	-0.024812894
70	0x3ce8f2a1	0.028436007
71	0xbd856627	-0.06513625
72	0xbd938bb9	-0.07204384
73	0x39cc94ea	0.00039020862
74	0x3dc19256	0.094517395
75	0xbd93f116	-0.07223718
76	0xbd77aab8	-0.060465544
77	0x3d71717c	0.058946118
78	0xbda1bcf2	-0.078973666
79	0xbd733c5f	-0.059383746
80	0x3d252496	0.040318094
81	0xbe046b66	-0.12931594
82	0x3dcc8dff	0.09988021
83	0x3d9b710f	0.075899236
84	0xbb7facbd	-0.0039012872
85	0xbdd96f42	-0.10616924
86	0x3d33576e	0.04378455
87	0x3c61b3de	0.013775794
88	0xbda4c08f	-0.0804454
89	0xbbcb0ccd	-0.0061965943
90	0xbde6318b	-0.11239918
91	0x3d85dad6	0.0653588
92	0x3d676d69	0.056500826
93	0x3dde71ed	0.10861573
94	0xbadd7793	-0.0016896598
95	0xbde4014c	-0.1113306
96	0xbd6a2efc	-0.057173714
97	0xbceb58d7	-0.028728886
98	0xbd4eadbc	-0.050458655
99	0x3cad9002	0.021186832
100	0xbda16d2c	-0.07882151
101	0xbd1dcf92	-0.038528033
102	0x3d422368	0.047397047
103	0xbd1d504f	-0.038406666
104	0x3dbe5af5	0.092946924
105	0xbdb53050	-0.088471055
106	0xba11844a	-0.00055510236
107	0xbc34e557	-0.011041007
108	0xbd2dd48b	-0.042439025
109	0x3c952103	0.018204218
110	0x3dc50b0e	0.09621249
111	0x3d05aefa	0.032637574
112	0x3d8398f4	0.06425658
113	0x3c96a163	0.018387502
114	0x3daeeb16	0.08540933
115	0x3c298d02	0.01034856
116	0xbdd7385d	-0.10508797
117	0xbd11abc5	-0.035564203
118	0xbdd029c3	-0.101642154
119	0xbdba5c8e	-0.09099685
120	0x3c95e191	0.018296035
121	0x3d90b7cd	0.07066307
122	0xbd3cd9a6	-0.046106003
123	0x3d67ca8a	0.05658964
124	0xbda08402	-0.078376785
125	0x3db30bce	0.08742486
126	0x3db9e711	0.090772755
127	0x3d944e06	0.07241444
128	0xbcfd7a6e	-0.030942168
129	0x3dcb886a	0.09938128
130	0xbb02499d	-0.0019880303
131	0x3d4f407c	0.050598606
132	0xbdcb126c	-0.09915623
133	0x3d861b2d	0.06548152
134	0xbb48cf00	-0.003064096
135	0xbdd2924d	-0.10281811
136	0x3d2390b0	0.039932907
137	0x3d23ef4c	0.040023133
138	0x3d0ba614	0.03409393
139	0xbcb0704a	-0.021537919
140	0xbcea9112	-0.028633628
141	0x3d321e67	0.043486025
142	0x3d324b9e	0.043529145
143	0x3d5d75a9	0.054067288
144	0x3c59d4f7	0.013295404
145	0xbd8b47d3	-0.06800809
146	0xbc81789a	-0.015804578
147	0x3ca1ed23	0.019766396
148	0x3d845f5a	0.06463499
149	0x3ce289c7	0.027653588
150	0xbceccb7b	-0.02890562
151	0xbc501da2	-0.0127023775
152	0x3c623fc8	0.013809152
153	0x3ca1ce93	0.019751823
154	0x3d17ca9f	0.03705847
155	0x3c202d6e	0.009776456
156	0x3dab65cc	0.083690256
157	0xbc513411	-0.012768761
158	0xbc04efa2	-0.008113774
159	0x3d39f8c6	0.045403264
160	0x3cdb4d67	0.026770307
161	0x3dd5a260	0.10431361
162	0x3d8bc4ea	0.06824668
163	0xbd635bc8	-0.05550745
164	0xbbca7af1	-0.0061792065
165	0xbcf51c65	-0.029920766
166	0xbd687cc7	-0.056759622
167	0x3ce70c8f	0.02820423
168	0xbc14ea4c	-0.009089064
169	0xbd08215e	-0.033234946
170	0x3d78f468	0.06077996
171	0xbd7c340d	-0.061573077
172	0x3d2e3725	0.04253306
173	0xbd105c01	-0.03524399
174	0x3d064d57	0.0327886
175	0x3d74e0b4	0.059784606
176	0x3da28cc0	0.07937002
177	0xbdc3df17	-0.095640354
178	0x3a178674	0.0005780228
179	0x3d207d29	0.039181862
180	0x3d4a77d2	0.049430676
181	0xbdcd7335	-0.100317396
182	0x3d60e7c4	0.05490853
183	0xbd45497b	-0.04816578
184	0xbd6b19f6	-0.057397805
185	0xbd88c34d	-0.06677876
186	0xbc678126	-0.0141299125
187	0xbd632241	-0.05545259
188	0xbc233db8	-0.009963445
189	0xbc03429f	-0.008011489
190	0x3d74e517	0.05978879
191	0x3da00047	0.07812553
192	0xbdc51f6f	-0.09625136
193	0x3dfdb223	0.123874925
194	0x3de7cc45	0.11318258
195	0xbddc3503	-0.10752299
196	0x3d84b3d5	0.06479613
197	0x3d958f13	0.0730268
198	0xbd4c5df8	-0.049894303
199	0xbd828ed2	-0.06374897
200	0x3c8cea8c	0.017201684
201	0xbd99940d	-0.074989416
202	0x3da68798	0.08131331
203	0x3c9b5ba5	0.018964598
204	0xbce16463	-0.027513688
205	0x3d50d08f	0.050980147
206	0xbcebbd23	-0.02877671
207	0x3cc5f279	0.024163472
208	0xbc98cd06	-0.01865245
209	0xbdc05e8a	-0.09393032
210	0x3d65da5a	0.05611644
211	0xbd9631af	-0.07333695
212	0xbdb65de5	-0.08904628
213	0xbde0d58d	-0.109782316
214	0xbc2e2542	-0.010629
215	0x3d506f15	0.050887186
216	0x3d679fac	0.05654876
217	0x3df25fd4	0.11834684
218	0xbd8a7aee	-0.06761728
219	0xbdc9390f	-0.09825336
220	0xbc8ad91a	-0.016949225
221	0x3dc57098	0.09640616
222	0x3d6c1c38	0.0576441
223	0xbc99c82d	-0.018772209
224	0xbbfc28b3	-0.0076952814
225	0x3dcf3be1	0.10118843
226	0x3d99092b	0.07472452
227	0xbc993b63	-0.018705076
228	0xbd21a978	-0.03946826
229	0x3d82cecf	0.06387102
230	0xbd8511a8	-0.06497508
231	0x3c8c59eb	0.01713272
232	0x3d87f53f	0.06638574
233	0x3ca74803	0.02042008
234	0x3cab13b3	0.020883417
235	0xbdb5d1e5	-0.08877925
236	0xbd58343d	-0.052784193
237	0x3dd66eaa	0.10470326
238	0x3d8ba2c0	0.068181515
239	0x3d3cd30d	0.04609971
240	0x3d6c0d53	0.057629894
241	0xbdcd4f1c	-0.100248545
242	0xbc08a969	-0.008341172
243	0x3d9d4b15	0.076803364
244	0x3b96ed07	0.0046058926
245	0x3c6334e8	0.013867594
246	0x3d61c2be	0.05511736
247	0xbde0d617	-0.109783344
248	0x3a42070b	0.0007401562
249	0xbd0e44e3	-0.034733664
250	0x3e10fb93	0.14158468
251	0x3d95aca3	0.073083185
252	0xbbae5d14	-0.0053211544
253	0x3d930958	0.071795166
254	0x3d982a67	0.074299626
255	0x3d62eaf6	0.055399857

multihead_attn.in_proj_bias f4 [579]
0	0x3d127cab	0.035763424
1	0xbd40f942	-0.04711271
2	0x3d2b3618	0.041799635
3	0xbca24daf	-0.019812433
4	0xbd3f2e52	-0.046675034
5	0x3ca7cbf3	0.020482993
6	0x3d4884a7	0.048954632
7	0xbd3ee48a	-0.04660467
8	0xbb598215	-0.0033189107
9	0x3d6498da	0.055809833
10	0x3d60932b	0.05482785
11	0xbd38bae7	-0.04510012
12	0xbd0eedae	-0.034894638
13	0xbc67310b	-0.014110814
14	0xbd2082ba	-0.03918717
15	0x3c6aa126	0.014320647
16	0x3caba5f9	0.020953165
17	0x3d6b39e3	0.057428252
18	0xbcf4e33c	-0.02989351
19	0x3d1abcf3	0.037777852
20	0xbb4b7d60	-0.003105007
21	0x3d952ac7	0.0728355
22	0xbd417609	-0.047231708
23	0xbd2ab820	-0.0416795
24	0x3d6571cb	0.056016725
25	0x3c836935	0.016041378
26	0x3cead1f5	0.028664568
27	0x3d704e8f	0.05866867
28	0x3d111bbe	0.035426848
29	0x3cfde113	0.030991113
30	0xbd2acff8	-0.04170224
31	0x39dcf3ea	0.000421434
32	0xbc938823	-0.018009251
33	0x3c6cd54e	0.014455153
34	0x3c6f4cd0	0.014605716
35	0xbc64e67a	-0.0139709655
36	0xbc80c30e	-0.01571801
37	0x3c124de4	0.008929703
38	0xbbc45ab3	-0.0059922575
39	0xbc91e0d4	-0.017807402
40	0xbbc16c8d	-0.005902833
41	0xbd50569d	-0.05086385
42	0x3c20357c	0.009778377
43	0xbd334c20	-0.04377377
44	0xbc56fed2	-0.013122277
45	0x3bb1c11c	0.0054246318
46	0x3cd565d5	0.026049534
47	0x3bcbd0c9	0.0062199575
48	0x3cc2b4c4	0.023767836
49	0x3c8d7352	0.017266903
50	0xbd1b5c34	-0.03792973
51	0xbc34fab5	-0.011046101
52	0xbac3bf19	-0.0014934271
53	0x3d66d4ae	0.05635517
54	0x3d41010f	0.04712015
55	0x3caec63c	0.02133476
56	0xbd27f374	-0.04100366
57	0x3d24978f	0.0401836
58	0x3d428c9f	0.047497388
59	0x3d871052	0.0659491
60	0xbd152213	-0.03640945
61	0x3d653eaa	0.055967964
62	0xbcf9c4e1	-0.030489387
63	0xbcfb3f8f	-0.030669956
64	0xbd8b990d	-0.068163015
65	0xbd73f38e	-0.059558444
66	0x3d107898	0.035271257
67	0xbcb832cb	-0.022485157
68	0xbd80913b	-0.062777005
69	0x3d5043b9	0.050845835
70	0xbc83be7b	-0.01608204
71	0x3d47da45	0.048792142
72	0xbd02003c	-0.031738505
73	0x3c435259	0.011921489
74	0xbd0cc603	-0.034368526
75	0xbd5cc021	-0.053894166
76	0xbd5563d0	-0.05209714
77	0x3c6d8f07	0.014499432
78	0xbcde328d	-0.027123714
79	0xbc4310be	-0.011905847
80	0xbd57253d	-0.052525748
81	0xbc56f0ba	-0.013118917
82	0xbd17f23f	-0.03709626
83	0x3d46f249	0.048570905
84	0xbbb7bf12	-0.005607494
85	0x3d22628b	0.03964476
86	0x3d816fb5	0.063201346
87	0x3d65bb6f	0.056086954
88	0xbc17290f	-0.009226098
89	0x3c8ddf74	0.017318465
90	0xbd8cf2b0	-0.068822265
91	0xba871853	-0.0010306932
92	0xbd53ccbd	-0.051708926
93	0x3d4e7ec3	0.05041386
94	0x3d111cb4	0.035427764
95	0xbd58872c	-0.052863285
96	0xbccc2c62	-0.024923507
97	0x3d4c5aae	0.049891166
98	0xbc94daf4	-0.018170811
99	0xbd108a3a	-0.035288073
100	0x3d3d8385	0.046268005
101	0x3d3deeff	0.046370503
102	0xbd81bafa	-0.06334491
103	0xbd5ce23f	-0.053926703
104	0x3d25964e	0.040426545
105	0xbdb37c43	-0.087639354
106	0x3c8a7578	0.016901717
107	0xbd86c530	-0.06580579
108	0x3d89f826	0.06736784
109	0x3d216fa9	0.039413128
110	0x3d02d0fe	0.03193759
111	0xbd203d35	-0.03912087
112	0x3ca3af00	0.019980907
113	0x3c197b5b	0.009367789
114	0xbd15fcac	-0.03661792
115	0xbd277b00	-0.040888786
116	0x3cc3b45d	0.023889715
117	0x3cafe969	0.021473603
118	0xbd8cda3d	-0.06877563
119	0xbd459df4	-0.04824634
120	0xbd1c8ee3	-0.038222205
121	0x3cf9189f	0.030407248
122	0xbcc26dbc	-0.023733966
123	0x3bb0d0bb	0.0053959764
124	0x3cfe8988	0.03107144
125	0xbc939fe2	-0.018020574
126	0x3d9f3772	0.07774247
127	0xbd12dc53	-0.03585465
128	0x3cce5112	0.025185142
129	0xbbacf3b4	-0.005278075
130	0x3d8236f6	0.06358139
131	0x3d73db9f	0.05953562
132	0xbd4991d8	-0.049211353
133	0xbcdf667a	-0.027270544
134	0x3d11fa2a	0.035638966
135	0x3d216c07	0.039409664
136	0x3a2c9f13	0.0006584983
137	0xbda6c739	-0.081434675
138	0x3d54c467	0.051945116
139	0xbd831582	-0.06400587
140	0x3d3d1ee4	0.046172038
141	0xbd50bc31	-0.050960723
142	0xbd3535de	-0.044240825
143	0xbccb908d	-0.0248492
144	0x3d8763f8	0.066108644
145	0xbd90a5f9	-0.07062907
146	0xbd044188	-0.032289058
147	0xbcf54739	-0.029941188
148	0x3d3104fd	0.043217648
149	0xbd9045ca	-0.07044561
150	0x3d95d859	0.07316656
151	0x3cfd34b8	0.030908927
152	0x3d1972a7	0.037462857
153	0xbd7f67dd	-0.06235491
154	0xbd127bd3	-0.03576262
155	0x3c61cc4b	0.013781617
156	0xbd022513	-0.031773638
157	0x3cea3a28	0.028592184
158	0x3c7546ab	0.014970462
159	0x3d3fc740	0.04682088
160	0x3c25973b	0.010106857
161	0xbb28fef5	-0.0025786732
162	0x3c28a3e4	0.010292981
163	0xbca64789	-0.020297782
164	0x3b15f5fc	0.0022882214
165	0x3cbdfc06	0.023191463
166	0xbd4d055d	-0.050053943
167	0x3ca004d8	0.01953356
168	0xbd0b8b21	-0.03406823
169	0x3d151138	0.036393374
170	0xbd608266	-0.054811858
171	0x38b53bea	8.6419124e-05
172	0x3d89b1c6	0.06723361
173	0x3c8a4ae6	0.016881417
174	0x3d9cd8fe	0.076585755
175	0x3ad4c4b7	0.0016232942
176	0xbd1fe079	-0.039032433
177	0xbd7db4c2	-0.061939962
178	0x3da55d6a	0.08074458
179	0x3d2e36c2	0.04253269
180	0xbd8f25ec	-0.06989655
181	0xbd26f0ce	-0.040756993
182	0xbadda4b4	-0.0016910047
183	0xbd26c41d	-0.040714372
184	0x3d27a132	0.040925212
185	0x3d9ae43c	0.075630635
186	0x3d11e30c	0.03561692
187	0x3d67d02e	0.05659502
188	0x3cde0b86	0.027105104
189	0x3d4b3e38	0.049619883
190	0xbcfd1d59	-0.030897783
191	0xbd055c31	-0.032558624
192	0x3cd726c3	0.0262636
193	0x398b53b8	0.0002657452
194	0xb8c78a19	-9.514782e-05
195	0xb9672c0c	-0.00022046285
196	0xb92ca5f6	-0.00016465024
197	0xb955751d	-0.00020356891
198	0x396940a9	0.000222447
199	0x381e01b2	3.7671714e-05
200	0x3904370d	0.00012609009
201	0x3870a0b9	5.7370144e-05
202	0xb8f63baa	-0.000117413074
203	0x38eb3c1a	0.00011216868
204	0x3699bf6a	4.582039e-06
205	0xb95bf038	-0.00020974956
206	0x3879baac	5.9540078e-05
207	0xb89ba116	-7.4209805e-05
208	0xb91745fb	-0.00014426552
209	0xb9556335	-0.0002035022
210	0x389c42d1	7.451105e-05
211	0xb8d3303c	-0.000100702484
212	0x38e7c276	0.000110511595
213	0xb979ea06	-0.00023833671
214	0x37c90b3f	2.3966304e-05
215	0x39137153	0.00014061229
216	0x344dab4c	1.915443e-07
217	0xb89affe2	-7.390954e-05
218	0x38b39c60	8.564512e-05
219	0xb8fce2ef	-0.00012058566
220	0xb9152230	-0.00014222483
221	0x3872c79d	5.78832e-05
222	0x394ff789	0.00019833272
223	0xb921a8ad	-0.00015416993
224	0x3941b25e	0.00018472361
225	0xb947f1f7	-0.00019068258
226	0xb8600b37	-5.3416206e-05
227	0x38b0e127	8.434272e-05
228	0x38cc02a7	9.727972e-05
229	0x38cd7669	9.797217e-05
230	0xb940cccf	-0.00018386844
231	0x38b7af65	8.75879e-05
232	0xb940a4f0	-0.00018371991
233	0xb9405fe7	-0.00018346273
234	0xb8eb8bcd	-0.00011231713
235	0x394e8a8d	0.00019697305
236	0xb7a65d10	-1.9832078e-05
237	0xb8670876	-5.508257e-05
238	0xb8837594	-6.2684674e-05
239	0x38dd2bca	0.000105462575
240	0xb8959688	-7.132912e-05
241	0xb8a8f124	-8.05578e-05
242	0x39465d29	0.00018917456
243	0xb963453b	-0.00021674197
244	0x394b017d	0.00019360143
245	0x38cb8c52	9.705931e-05
246	0xb930869e	-0.00016834817
247	0x39083a70	0.0001299174
248	0xb94046a7	-0.00018336867
249	0xb91db196	-0.00015038843
250	0x38aa8fe5	8.133034e-05
251	0x38b97950	8.844084e-05
252	0xb8f544f8	-0.00011695357
253	0xb870b9e0	-5.739357e-05
254	0xb80b622b	-3.323161e-05
255	0xb89c90be	-7.46562e-05

multihead_attn.out_proj.weight f4 [193, 193]
0	0x3d2f3b99	0.042781446
1	0xbcdbb004	-0.02681733
2	0x3d830dd1	0.0639912
3	0xbd3fda0d	-0.04683881
4	0x3d9bb679	0.07603163
5	0x3ce910d7	0.028450413
6	0xbd122613	-0.03568084
7	0x3bbae2d5	0.00570331
8	0xbd279f8b	-0.040923636
9	0x3c5e0b5a	0.013552511
10	0xba52c0ce	-0.00080395944
11	0x3d097550	0.033559144
12	0xbc55c8b2	-0.013048338
13	0x3b2da343	0.0026495017
14	0xbca6ac1d	-0.020345742
15	0xbc3eb19d	-0.011639026
16	0xbd90c0e8	-0.07068044
17	0xbbb25ea6	-0.005443412
18	0x3d1d7952	0.03844578
19	0x3cf38184	0.029724844
20	0xbb80cd83	-0.003930749
21	0xbc273127	-0.01020459
22	0xbceaed45	-0.028677592
23	0x3cabeeb8	0.020987853
24	0x3d1f7c32	0.0389368
25	0x3cc335df	0.023829399
26	0x3ccbce1b	0.024878552
27	0xbd307c4b	-0.043087285
28	0x3bd8a0c2	0.0066109607
29	0x3c971c03	0.018445974
30	0x3d0aa218	0.03384599
31	0xbbe5dfeb	-0.0070152185
32	0x3cf06a04	0.029347427
33	0x3d067156	0.03282293
34	0xbcd56af0	-0.026051968
35	0x3da7e236	0.08197443
36	0x3d0ea205	0.034822483
37	0xbca45f56	-0.020064991
38	0x3cd43c4e	0.025907662
39	0xbbb79004	-0.005601885
40	0x3d5235e4	0.051320925
41	0x3d24ba5a	0.04021678
42	0x3d886278	0.066594064
43	0x3d2fddb5	0.042936046
44	0x3d34f579	0.044179413
45	0x3c65dc5d	0.0140295895
46	0x3cd9fb45	0.026609072
47	0x3cad969b	0.021189978
48	0xbd156812	-0.036476202
49	0x3d576d83	0.052594673
50	0x3ba54617	0.0050437558
51	0x3c40eb95	0.011774917
52	0xbb97a1c8	-0.00462744
53	0x3cba9f9c	0.022781186
54	0xbcd56c7f	-0.026052712
55	0xbd762b4c	-0.060099885
56	0xbd55db28	-0.052210957
57	0xbcece3db	-0.028917244
58	0x3d2764de	0.04086768
59	0x3d3ad389	0.045611892
60	0xbbcfbbe4	-0.006339537
61	0xbc5036e8	-0.012708403
62	0x3ac0b85d	0.0014703382
63	0x3cda00a8	0.026611641
64	0x3dee05bb	0.11622187
65	0x3d82541c	0.06363699
66	0xbdbc9030	-0.09207189
67	0x3c451963	0.012029978
68	0xb9a56ba5	-0.00031551454
69	0x3da8896c	0.08229336
70	0x3d6e5a66	0.05819168
71	0xbcce9227	-0.025216175
72	0x3d21174d	0.039328862
73	0x3c05c251	0.008164004
74	0xbc394cca	-0.011309812
75	0xbc05ffbe	-0.0081786495
76	0xbda728bc	-0.08162066
77	0x3cd970be	0.026543017
78	0xbcbb9876	-0.022899847
79	0x3d38a4d5	0.04507907
80	0x3d2d182b	0.042259376
81	0xbb1bacc7	-0.0023754106
82	0xbb94dc48	-0.004542861
83	0xbd2120ef	-0.03933805
84	0x3d1241b9	0.03570721
85	0xbb5a4a95	-0.0033308615
86	0x3c3f0f96	0.011661431
87	0x3c19f815	0.009397526
88	0xbd2f8a99	-0.042856786
89	0x3d2d143c	0.042255625
90	0xbc32c253	-0.010910588
91	0xbd6d4701	-0.057929043
92	0xbd4ebbab	-0.050471943
93	0x3bdf8000	0.0068206787
94	0x3d1e9a7e	0.038721554
95	0xbd1b335f	-0.03789079
96	0x3cdf2d04	0.027243145
97	0xbc8868e1	-0.016651573
98	0xbd0fa229	-0.035066757
99	0x3cca3a60	0.024686038
100	0x3c536ebc	0.012904819
101	0x3cb8c4f7	0.022554858
102	0x3c84d0bd	0.016212815
103	0xba8bd517	-0.0010668364
104	0xbd5311e2	-0.051530726
105	0xbd028255	-0.031862576
106	0xbd8fd7ee	-0.07023607
107	0x3d393153	0.045213055
108	0xbc37e462	-0.011223884
109	0xbd51fe6c	-0.051268026
110	0x3c94686f	0.018116204
111	0xbd6220a2	-0.055206902
112	0x3ba19080	0.004930556
113	0xbd5c7576	-0.053822957
114	0xbc4a1468	-0.012333967
115	0x3caf2a06	0.021382343
116	0x3bf1a361	0.0073742126
117	0xbd880401	-0.06641389
118	0x3c921593	0.017832553
119	0x3d5082c8	0.050905973
120	0x3c852d20	0.016256869
121	0xbd1d75f1	-0.038442556
122	0x3c33e197	0.010979078
123	0xbd1238e9	-0.035698805
124	0xbd029e43	-0.03188921
125	0xbd567096	-0.052353464
126	0xbcab1939	-0.02088605
127	0x3d693e45	0.05694415
128	0x3d32a1fe	0.04361152
129	0xbce9ddf7	-0.028548224
130	0x3d00c9e4	0.031442538
131	0x3da92cc5	0.08260492
132	0x3b993cb7	0.004676427
133	0x3d163efb	0.036681157
134	0x3b6c3239	0.0036040677
135	0xbbba6ba5	-0.0056891018
136	0xbcef3841	-0.029201629
137	0xbc0840fe	-0.008316277
138	0x3d20c52d	0.03925054
139	0x3d2b3b8b	0.04180483
140	0xbcf442e6	-0.029817056
141	0xbd297609	-0.041372333
142	0xbbcc966a	-0.0062435167
143	0x3bbea77f	0.005818307
144	0x3c13c8e9	0.009020069
145	0xbc0309a7	-0.007997907
146	0xbd866024	-0.06561306
147	0x3cda50f9	0.026649939
148	0xbc95bc9f	-0.018278418
149	0xbc852c3b	-0.016256442
150	0x3ce62040	0.02809155
151	0xbc29c216	-0.010361215
152	0xbc795d82	-0.015220048
153	0xbab92da7	-0.0014127985
154	0xbd430fdc	-0.047622547
155	0xbcb9d186	-0.022682916
156	0xbd77147d	-0.060322274
157	0xbd79b9de	-0.060968272
158	0x3d00b893	0.031426024
159	0xbc6ee111	-0.014580027
160	0x3c9937e9	0.018703418
161	0x3c04d05e	0.008106319
162	0x3d005e3f	0.03133988
163	0x3ca01923	0.019543236
164	0x3dc031b0	0.09384477
165	0x3ca2f554	0.019892372
166	0xbcc7cffd	-0.024391169
167	0x3c05458d	0.008134258
168	0x3c97a2d9	0.018510269
169	0xbc43c937	-0.011949829
170	0xbc1c58d2	-0.009542661
171	0x3cd6eb3c	0.026235215
172	0xbca22023	-0.019790715
173	0x3c5a05ce	0.013307048
174	0x3d82c5d1	0.06385387
175	0x3bf91860	0.0076017827
176	0xbd50bd9e	-0.050962083
177	0xbd4b1b29	-0.04958645
178	0x3d4dc30f	0.05023485
179	0x3d6351eb	0.055498045
180	0x3d846b40	0.06465769
181	0x3d8850fd	0.06656072
182	0x3d429c7e	0.047512524
183	0x3bf40224	0.0074465442
184	0x3d4232c1	0.047411684
185	0xba2fa806	-0.00067007577
186	0xbd603ff7	-0.0547485
187	0x3c421d48	0.0118478015
188	0x3db71cce	0.08941041
189	0xbc84b909	-0.016201513
190	0xbd07ad0f	-0.033124026
191	0x3ae414d1	0.0017401223
192	0xbd81d939	-0.0634026
193	0xbd0c5d98	-0.034268945
194	0xbd225af2	-0.039637513
195	0xbd00aba4	-0.03141369
196	0xbcea7e3b	-0.028624645
197	0xbd335fa9	-0.0437924
198	0xbc86f2ee	-0.01647326
199	0x3b31f91e	0.0027156542
200	0xbc3fbc67	-0.011702633
201	0xbc92469f	-0.01785594
202	0x3d2ef11f	0.04271042
203	0xbd802b49	-0.06258256
204	0x3cdb6818	0.026783034
205	0x3be58b1c	0.0070051085
206	0x3c6e7187	0.014553434
207	0x3cd43bb4	0.025907375
208	0x3da1ba5f	0.078968756
209	0xbafb39f4	-0.0019167052
210	0xbc6c2a5f	-0.014414399
211	0x3d2c1a4a	0.04201726
212	0x3d295fa2	0.04135097
213	0xbc08d735	-0.008352091
214	0xbc28c0a3	-0.010299834
215	0x3caecd53	0.02133814
216	0xbb22b72d	-0.002482842
217	0x3d8ef3e0	0.06980109
218	0xbd0fb0b6	-0.035080634
219	0x3d801dd5	0.0625569
220	0x3bf6b53c	0.007528929
221	0x3d466761	0.048438434
222	0xbca3cf91	-0.019996436
223	0xbcc351d8	-0.023842737
224	0xbd869339	-0.06571049
225	0x3c4008e5	0.011720871
226	0xbd1f5112	-0.038895674
227	0x3d54de05	0.051969547
228	0x3d3417a1	0.043967847
229	0xbbb24763	-0.005440639
230	0x3d0cf3cc	0.03441219
231	0x3db8c5f1	0.09022129
232	0xbcef25be	-0.029192802
233	0x3c736275	0.014855017
234	0x3c573e15	0.01313736
235	0xbd331c3c	-0.0437281
236	0xbc862d26	-0.01637895
237	0x3bec188f	0.007205076
238	0x3a9a99b8	0.0011795079
239	0xbd23d0eb	-0.03999416
240	0xbd08d191	-0.033402983
241	0x3d38ce1a	0.04511843
242	0x3d79874b	0.06092004
243	0xbcaacff5	-0.020851115
244	0x3cc7069b	0.024295142
245	0xbbab1b13	-0.0052217334
246	0x3b77e107	0.0037823336
247	0x3d3d51ed	0.04622071
248	0x3a697fa3	0.0008907264
249	0xbc41a959	-0.011820161
250	0xbd6ce635	-0.05783673
251	0xbcb1ecaf	-0.021719305
252	0xbb318e7e	-0.0027092989
253	0xbb92b4c5	-0.004477116
254	0x3c2530c7	0.01008243
255	0x3cfded7d	0.030997032

multihead_attn.out_proj.bias f4 [193]
0	0xbd403e3c	-0.04693435
1	0xbcfccc6c	-0.030859195
2	0x3d10f3f1	0.03538889
3	0x3c9ed9e0	0.019391
4	0xbdf93ab6	-0.12169401
5	0x3d2c4382	0.042056568
6	0x3d31adf7	0.043378796
7	0x3dc6ab30	0.0970062
8	0x3d1d4e9c	0.038405046
9	0xbdd56475	-0.10419551
10	0xbd863ae9	-0.06554205
11	0x3da61ba0	0.08110738
12	0x3ddb8312	0.10718359
13	0x3dae34ea	0.08506186
14	0xbdafa47c	-0.08576295
15	0xbaad3983	-0.0013215992
16	0xbd28cf4c	-0.04121332
17	0x3d0fb2ed	0.035082746
18	0xbd7942f8	-0.060854882
19	0x3ba10404	0.004913809
20	0x3e5c576c	0.21517724
21	0xbdba9a8a	-0.09111507
22	0xbe141b90	-0.1446364
23	0xbdb001c0	-0.08594084
24	0xbc72b996	-0.014814755
25	0x3c04544a	0.008076737
26	0x3d10bc7d	0.035336006
27	0x3d48bb1c	0.049006566
28	0x3c99117b	0.018685093
29	0x3cbc2d4b	0.022970816
30	0xbd27c86a	-0.040962614
31	0xbe0ce930	-0.13760829
32	0xbe031034	-0.1279915
33	0x3c9b987e	0.018993612
34	0x3d3f700c	0.046737716
35	0x3e37505e	0.17901751
36	0xbcd73649	-0.026271002
37	0xbcbcb0a8	-0.023033455
38	0xbdd8bb54	-0.10582605
39	0xbd77ef5d	-0.06053101
40	0xbc4c82b7	-0.012482337
41	0x3d030d01	0.031994823
42	0x3dcb3e17	0.09923952
43	0xbd292887	-0.041298416
44	0xbdd16a33	-0.10225334
45	0x3da5a83c	0.08088729
46	0x3de6f0aa	0.11276372
47	0xbe16dfcd	-0.1473381
48	0xbc913419	-0.017725037
49	0xbe1ab504	-0.15108114
50	0xbdd43a05	-0.10362629
51	0x3e1f3987	0.15549289
52	0x3d946d7e	0.072474465
53	0xbdbe11a6	-0.0928071
54	0xbc67f632	-0.014157819
55	0xbdeb1bf3	-0.1147994
56	0x3c1ccf05	0.009570842
57	0xbda9a2c0	-0.08282995
58	0x3d84fbfd	0.064933755
59	0xbd572f59	-0.05253539
60	0x3d667074	0.056259587
61	0x3db1d5b7	0.08683341
62	0xbd479551	-0.048726384
63	0x3e2b0d3e	0.1670427
64	0x3ec4ce0e	0.38438457
65	0x3e5cf6c8	0.21578515
66	0xbc0193a8	-0.007908739
67	0xbde07681	-0.10960103
68	0xbdd2f31f	-0.10300278
69	0x3ce3313a	0.027733434
70	0x3d49d521	0.04927552
71	0xbe3915c2	-0.18074706
72	0x3cf9abc6	0.030477416
73	0x3d455af8	0.048182458
74	0x3e4c5a10	0.19956231
75	0xbd866b6a	-0.06563456
76	0xbd4f9f3f	-0.05068898
77	0xbe40fc0e	-0.18846151
78	0x3d183b40	0.03716588
79	0xbc4034d6	-0.011731347
80	0xbe093e35	-0.13402636
81	0x3e03ae51	0.12859465
82	0x3e3fef4e	0.18743631
83	0x3b496cf1	0.00307351
84	0x3bd6cd8d	0.0065552653
85	0x3da18bd7	0.078880005
86	0xbdb31a44	-0.08745244
87	0xbdb9e382	-0.09076597
88	0x3e2826d4	0.16421062
89	0x3d62c384	0.05536224
90	0xbd9b363e	-0.07578705
91	0x3de8d3c2	0.113685146
92	0xbd7c56c6	-0.06160619
93	0xbd967aa7	-0.07347613
94	0x3c16f7af	0.009214326
95	0x3e2c6282	0.16834453
96	0x3da60647	0.08106666
97	0x3dd74921	0.10511995
98	0xbc080ad2	-0.008303361
99	0xbd7a107f	-0.06105089
100	0xbd644396	-0.055728517
101	0xbc8c2775	-0.017108658
102	0xbe654146	-0.22388181
103	0x3d5cf3c6	0.053943418
104	0x3d7df6cd	0.062002946
105	0xbd0be95b	-0.034158092
106	0x3d7f41bd	0.062318552
107	0xbd9fb021	-0.07797266
108	0xbde354fc	-0.11100194
109	0xbdc0bc5a	-0.09410925
110	0xbc7fbeeb	-0.015609483
111	0x3c6be59b	0.014398004
112	0x3d2fa2a9	0.042879734
113	0xbd386986	-0.04502251
114	0xbd0973d3	-0.033557724
115	0x3e0a7856	0.13522467
116	0x3da462f4	0.08026686
117	0x3ca1ba2a	0.01974209
118	0x3d417560	0.04723108
119	0x3dde1311	0.108434804
120	0x3d92f095	0.07174794
121	0x3e0073a3	0.12544112
122	0x3dd4b4f6	0.10386078
123	0xbd9059fd	-0.07048414
124	0x3da89832	0.08232154
125	0x3e3163b0	0.17323184
126	0xbda61f87	-0.08111482
127	0x3d79aed1	0.060957734
128	0x3da74c97	0.08168905
129	0x3d894174	0.06701937
130	0xbdae2f94	-0.085051686
131	0x3b170682	0.002304465
132	0xbd586816	-0.05283364
133	0x3c087990	0.008329764
134	0x3d6809d7	0.05665001
135	0x3c09b58b	0.0084051
136	0xbd518ac3	-0.051157724
137	0x3df3c13c	0.11902091
138	0x3e53fbb0	0.2070148
139	0xbe135baf	-0.14390443
140	0xbcff8618	-0.03119187
141	0xbe277045	-0.16351421
142	0xbd1c5c2c	-0.03817384
143	0xbdc575d8	-0.096416175
144	0xbdb9fda4	-0.09081581
145	0xbdebed7d	-0.11519907
146	0x3d63e2f7	0.055636372
147	0xbe052967	-0.13004075
148	0x3da8e540	0.08246851
149	0x3cff62b7	0.031175
150	0xbc7b1764	-0.015325401
151	0xbd274f3b	-0.040847044
152	0x3b8d9d08	0.004321698
153	0x3e0a1350	0.1348393
154	0xbdb4b569	-0.08823664
155	0xbcc19819	-0.023632096
156	0xbd8f6f4f	-0.07003652
157	0x3cdefbb1	0.027219625
158	0x3d78db09	0.060755763
159	0x3cd32cd5	0.025778214
160	0xbdac8f1c	-0.084257334
161	0x3cce9763	0.025218671
162	0x3d8369d3	0.06416669
163	0xbdb66d3f	-0.08907556
164	0xbd703b25	-0.058650155
165	0x3e31a501	0.173481
166	0x3d9d5880	0.07682896
167	0x3d08a66d	0.03336184
168	0x3e43f776	0.19137368
169	0xbc632027	-0.013862646
170	0x38965cf2	7.16987e-05
171	0xbdf63922	-0.12022616
172	0x3d89d8df	0.06730818
173	0xbe08ebfc	-0.13371271
174	0x3c3f7591	0.011685745
175	0xbd3835b1	-0.04497308
176	0xbdf30f24	-0.11868122
177	0x3d5fa8ae	0.054604225
178	0x3d31993b	0.043359023
179	0xbd898f39	-0.06716771
180	0x3da861b0	0.082217574
181	0x3c27cbd0	0.010241464
182	0x3e66383d	0.2248239
183	0x3e0011c7	0.12506782
184	0x3e1ae2a5	0.1512552
185	0x3e026490	0.12733674
186	0x3d2d4237	0.042299476
187	0x3cbb6567	0.0228755
188	0xbdedddc1	-0.11614562
189	0xbe281adb	-0.16416495
190	0x3b75e45f	0.0037520153
191	0x3de6714a	0.11252077
192	0x3e4cdab4	0.20005304

Dense1.weight f4 [193, 193]
0	0xbcf1f453	-0.029535448
1	0x3cf4999d	0.029858405
2	0x3df3e492	0.11908831
3	0x3da4aeec	0.08041176
4	0x3ae7fa8f	0.0017698574
5	0x3bafef7d	0.0053691254
6	0x3c0e6862	0.008691879
7	0xbd41aad7	-0.047282066
8	0x3cce6f64	0.0251996
9	0x3d1461b3	0.036225986
10	0xbd286b7d	-0.041118134
11	0xbdb2522b	-0.087070785
12	0x3ce17d6c	0.027525626
13	0x3df6c771	0.12049759
14	0xbd15a906	-0.036538146
15	0xbe00adf0	-0.12566352
16	0x3cd6ab51	0.026204737
17	0x3c0e6806	0.008691793
18	0x3d0bbaa7	0.034113552
19	0xbe031c2c	-0.12803715
20	0x3c96045f	0.018312631
21	0x3ddecfb8	0.10879463
22	0x3b8d4993	0.0043117492
23	0x3d28090b	0.04102425
24	0xbda5efd2	-0.08102383
25	0xbc17e40e	-0.009270681
26	0x3d6c2cf8	0.057660073
27	0x3abdafc5	0.0014471939
28	0xbd653d2a	-0.055966534
29	0x3d48edff	0.049055096
30	0xbd816c3f	-0.063194744
31	0x3e1aa1c1	0.15100767
32	0x3d0b3385	0.03398468
33	0x3d64e4bd	0.055882204
34	0x3d65b47c	0.056080326
35	0x3d6b1a78	0.05739829
36	0x3daf1666	0.08549194
37	0x3de0a32b	0.10968622
38	0xbca2b3d2	-0.019861136
39	0x3d4cf691	0.05003983
40	0xbc469e83	-0.012122753
41	0xbe025226	-0.1272665
42	0xbc5c09d0	-0.013430074
43	0x3bafccdc	0.0053649973
44	0xbd8cd212	-0.06876005
45	0xbd85a43a	-0.06525464
46	0x3d05a77e	0.032630436
47	0x3d0608a0	0.03272307
48	0xbb1f2257	-0.0024281943
49	0x3d4a643a	0.04941199
50	0x3dc95b96	0.09831922
51	0xbce94e3a	-0.028479684
52	0x3d078b49	0.033091817
53	0x3d4f6a44	0.050638452
54	0x3d9513f8	0.07279199
55	0x3d04cedd	0.032423843
56	0xbd90d188	-0.07071215
57	0x3db2169a	0.08695717
58	0xbb6a9746	-0.0035795732
59	0x3dc3963f	0.095501415
60	0xbab2129d	-0.001358587
61	0xbde17ee4	-0.110105306
62	0xbddfc5b4	-0.10926381
63	0x3b17614a	0.002309876
64	0x3c5fd535	0.013661672
65	0xbe0550ac	-0.13019055
66	0x3cb2416d	0.021759713
67	0x3d0dd768	0.034629256
68	0x3e04053b	0.1289262
69	0xbd01cedc	-0.031691417
70	0xbe191713	-0.14950208
71	0x3dcc4dad	0.09975753
72	0x3d6b9742	0.057517298
73	0xbc85c0c4	-0.01632727
74	0xbdc0864a	-0.094006136
75	0x3ddf4fe5	0.109039105
76	0x3e25b3b3	0.16181831
77	0x3dda34f8	0.10654634
78	0x3d831141	0.06399775
79	0x3d239221	0.03993428
80	0x3e274f29	0.16338791
81	0xbd8af7a7	-0.06785517
82	0x3cb49532	0.022043798
83	0x3d12b9dd	0.035821784
84	0xbd672d13	-0.05643947
85	0xbd2d44dd	-0.042302
86	0xbd6caebd	-0.05778383
87	0xbd1885a2	-0.037236817
88	0xbe14a2ed	-0.14515276
89	0xbd29b381	-0.041430954
90	0x3e0eb71d	0.1393704
91	0xbd71b0a0	-0.059006333
92	0x3dc4a5e9	0.09601957
93	0xbc3a8740	-0.011384785
94	0xbb52d4a4	-0.00321702
95	0xbe258e43	-0.1616755
96	0xbdb1a7d3	-0.08674588
97	0xbe8f95c9	-0.28043965
98	0x3ce5b9aa	0.028042633
99	0xbd1cd61c	-0.038290128
100	0x3cb72c07	0.022359861
101	0xbdf86707	-0.12129026
102	0x3d8447dc	0.064590186
103	0x3de08580	0.10962963
104	0xbe13c2b3	-0.1442974
105	0xbd60c32a	-0.054873623
106	0xbdaf1081	-0.0854807
107	0x3e10e02e	0.14148018
108	0xbd1507c8	-0.036384374
109	0x3e336c4c	0.1752178
110	0xbd9d7882	-0.07689001
111	0x3d216a26	0.03940787
112	0xbd4ecdbc	-0.050489172
113	0xbd8cdfd2	-0.06878628
114	0x3dea4af2	0.11440076
115	0x3d1a6af7	0.037699666
116	0x3c98a111	0.01863149
117	0x3d65eb5b	0.056132656
118	0xbd11f118	-0.035630316
119	0xbcf9be3f	-0.030486224
120	0xbe28d350	-0.1648686
121	0x3bf60974	0.007508451
122	0xbdabd672	-0.083905116
123	0xbda3eecd	-0.08004532
124	0x3bdb2fb2	0.0066890353
125	0xbba76916	-0.0051089628
126	0x3d22d3b6	0.039752685
127	0xbd92c103	-0.0716572
128	0x3c836bcf	0.016042618
129	0xbcb93d75	-0.022612313
130	0x3d03cff2	0.032180734
131	0x3bf03dcd	0.007331586
132	0xbda0892b	-0.07838663
133	0x3be0aa07	0.0068562063
134	0xbd0608b6	-0.03272315
135	0x3d39fbe8	0.045406252
136	0x3d3ee7e3	0.046607863
137	0x3ce4f7e3	0.027950233
138	0xbd49862e	-0.04920023
139	0x3b93eed2	0.0045145536
140	0x3c63661d	0.013879326
141	0xbd06c5f4	-0.032903627
142	0x3be809fa	0.0070812674
143	0xbd4e2b06	-0.050334
144	0xbbbdfcdd	-0.005797966
145	0xbd345d2e	-0.044034176
146	0x3ceb5c93	0.028730666
147	0x3c7ec82c	0.015550654
148	0xba0ba8c5	-0.0005327578
149	0xbd4ddec5	-0.050261278
150	0xbd3c088f	-0.0459066
151	0x3ce92d32	0.028463934
152	0xbc87ac11	-0.01656154
153	0x3cd47489	0.025934475
154	0x3d9f20a4	0.077698976
155	0x3d854d64	0.06508902
156	0xbcef4a88	-0.029210344
157	0xbda57c45	-0.08080343
158	0xbc0cbcf7	-0.008589975
159	0x3b03baa2	0.0020100255
160	0xbb42788c	-0.0029673902
161	0xbd3ae4fb	-0.04562853
162	0xbc0591a9	-0.008152404
163	0x3d14b0d6	0.036301456
164	0x3d58e1c9	0.0529497
165	0xbc6d56d8	-0.014486037
166	0x3d71476e	0.05890601
167	0xbce28e05	-0.02765561
168	0xbd6ffc94	-0.058590487
169	0x3d8bf496	0.068337604
170	0xbd894ed6	-0.0670449
171	0x3cba1cf0	0.022718877
172	0x3d30551f	0.043049928
173	0x3c4917e2	0.0122737605
174	0x3d81fc8d	0.06346998
175	0xbd1c2b6b	-0.038127344
176	0x3d527469	0.05138055
177	0xbaf1fd9b	-0.0018462421
178	0xbd38efce	-0.04515057
179	0x3b8eee6f	0.0043619196
180	0x3d755300	0.059893608
181	0x3da0c0fb	0.07849308
182	0xbd591d24	-0.053006306
183	0x3d2b6ed0	0.041853726
184	0xbd83a23b	-0.064274274
185	0xbd94e3ff	-0.07270049
186	0x3ca7cc5a	0.020483185
187	0xbcd2df58	-0.025741264
188	0x3d4d583e	0.050132982
189	0x3dabab69	0.08382303
190	0x3d5ad8cc	0.05342941
191	0xbc91f3be	-0.01781642
192	0x3c8b2916	0.016987365
193	0xbd4e3fdb	-0.050353866
194	0xbe30a1a5	-0.17249162
195	0x3d599869	0.053123865
196	0xbd241e46	-0.040067933
197	0xbd09d6bc	-0.033652052
198	0xbda57f26	-0.08080892
199	0x3c1c63b6	0.009545257
200	0x3d796258	0.060884804
201	0x3cc2512f	0.023720352
202	0xbcaea3ac	-0.02131828
203	0x3cfb8846	0.030704629
204	0xbc3c7d4f	-0.011504485
205	0x3e09c75a	0.13454953
206	0x3d9ba149	0.07599122
207	0xbd8f8c95	-0.07009236
208	0x3dd54f1c	0.104154795
209	0x3d5012d7	0.050799217
210	0xbc447112	-0.011989849
211	0xbd055323	-0.03254999
212	0xbd30cd3e	-0.043164484
213	0x3d2993ad	0.0414006
214	0xbb46badc	-0.003032378
215	0x3ca0d96e	0.019634929
216	0xbd80b328	-0.06284171
217	0xbd86d856	-0.065842316
218	0x3c291453	0.010319787
219	0x3dbf2bb6	0.09334509
220	0x3d729ccf	0.059231576
221	0xbd704075	-0.05865522
222	0x3da0557a	0.07828803
223	0xbd9a62d4	-0.07538381
224	0xbc0205a1	-0.007935912
225	0xbd0c8a3f	-0.03431153
226	0x3dd0107f	0.101593964
227	0x3a3f6bda	0.0007302143
228	0x3c5fcd8e	0.013659848
229	0xbcd1d0d7	-0.025612278
230	0x3d22a86a	0.039711393
231	0x3dc4ab33	0.09602966
232	0x3d812df9	0.06307597
233	0xbc80fbff	-0.015745161
234	0xbd4baec8	-0.04972723
235	0x3d4b6ff2	0.049667306
236	0xbd386b3b	-0.045024138
237	0x3a9067f2	0.0011017306
238	0x3d87499a	0.06605835
239	0xbc296514	-0.01033904
240	0xbc516e0d	-0.012782586
241	0x3d5e6d10	0.05430323
242	0x3c8aa391	0.016923698
243	0xbc6f8d33	-0.014621067
244	0xbd32f30b	-0.043688815
245	0xbd28f429	-0.041248474
246	0x3da6abf7	0.081382684
247	0xbd10f0f0	-0.035386026
248	0xbd5100bb	-0.051026087
249	0xbbbbcc0c	-0.0057311114
250	0x3b6f5985	0.0036521864
251	0xbcd26c9a	-0.02568655
252	0x3d7ac2e4	0.06122102
253	0x3d14d04e	0.036331467
254	0xbb88507a	-0.004159984
255	0x3dc41b84	0.09575561

Dense1.bias f4 [193]
0	0x3c0d9c7d	0.008643267
1	0x3d3a7807	0.045524623
2	0xbd12795f	-0.03576028
3	0x3d4735d6	0.048635326
4	0xbc2e6456	-0.010644039
5	0x3d0f8e50	0.03504783
6	0x3acea8c4	0.0015766849
7	0xbdcf4493	-0.10120501
8	0xbcfa3e8e	-0.030547407
9	0xbca59495	-0.020212451
10	0xbd5383f8	-0.051639527
11	0xbd1c6939	-0.038186286
12	0xbda768f8	-0.08174318
13	0x3bc2b3d3	0.005941847
14	0xbda25a08	-0.07927328
15	0x3c23b532	0.009991931
16	0xbe1eb3db	-0.15498297
17	0xbcd92930	-0.026508898
18	0xbcab4267	-0.020905687
19	0x3d8a7e82	0.06762411
20	0xbd84302f	-0.06454503
21	0xbd6afcfd	-0.057370175
22	0xbd171639	-0.036886428
23	0xbd540e38	-0.051771373
24	0xbd3c6685	-0.045996208
25	0x3c6fd694	0.014638562
26	0x3c7b0512	0.015321033
27	0xbd9f80ac	-0.07788214
28	0xbdbcc76c	-0.09217724
29	0x3d494644	0.049139276
30	0xbd1d0f95	-0.03834494
31	0xbca086ff	-0.019595621
32	0xbd2f5a58	-0.042810768
33	0xbd8ab101	-0.06772042
34	0xbb6c2534	-0.0036032917
35	0xbce3db01	-0.02781439
36	0xbd11a52a	-0.035557903
37	0x3d0f236e	0.034945898
38	0x3b88f0a4	0.004179077
39	0xbde86c99	-0.11348838
40	0xbd69f1fc	-0.05711554
41	0xbcc5e81c	-0.02415853
42	0xbddedc29	-0.10881836
43	0x3d600847	0.054695394
44	0xbb043b59	-0.0020176976
45	0xbd80a7d0	-0.06282008
46	0xbd3ff1fb	-0.04686163
47	0xbd66a89e	-0.05631315
48	0xbd4fbe6e	-0.050718717
49	0xbdceae2a	-0.10091813
50	0xbd66605e	-0.056244247
51	0xbc6e0e69	-0.014529803
52	0xbdf84019	-0.12121601
53	0x3d914942	0.07094051
54	0xbd26846b	-0.040653627
55	0xbdca700c	-0.098846525
56	0xbdca6d71	-0.098841555
57	0xbd30b84d	-0.043144513
58	0xbd5f0bba	-0.054454543
59	0xbdc684bf	-0.09693288
60	0xbd922c60	-0.0713737
61	0xbd7ac9e3	-0.06122769
62	0x3d845bf6	0.06462853
63	0xbd23ade2	-0.03996075
64	0xbde9b6fe	-0.11411856
65	0x3b86fde1	0.00411962
66	0xbbb5f8e3	-0.0055533512
67	0xbc6dc68e	-0.014512671
68	0x3d33c535	0.043889243
69	0x3d645c7b	0.05575226
70	0xbd2bb4bb	-0.041920405
71	0xbbc3f4ce	-0.0059801107
72	0x3c63cd11	0.013903872
73	0xbd9a543f	-0.075356
74	0xbbb0aa34	-0.0053913835
75	0xbccea664	-0.025225826
76	0xbcea8182	-0.028626207
77	0x3d4d2684	0.05008556
78	0xbe1413dc	-0.14460701
79	0xbd07b0c0	-0.033127546
80	0x3a1c1789	0.0005954435
81	0xbe29bdb4	-0.16576272
82	0xbcc0db91	-0.023542197
83	0xbca746cd	-0.020419503
84	0xbd2ddd38	-0.0424473
85	0x3d1e9215	0.038713533
86	0x3cf0a3ea	0.029375035
87	0xbd6b5923	-0.057458054
88	0xbd88894c	-0.06666812
89	0xbd7f0a71	-0.062265817
90	0x3b867c75	0.004104192
91	0xbd9beada	-0.07613154
92	0x3dada4be	0.08478688
93	0xbdb243de	-0.08704351
94	0x3c2e2ed3	0.010631281
95	0xbdf12c77	-0.11776059
96	0x3beb21e9	0.0071756733
97	0xbd8792fc	-0.06619832
98	0x3cafa7f5	0.021442393
99	0xbd174cdc	-0.036938533
100	0x3c51e86f	0.012811764
101	0xbdad8918	-0.08473414
102	0x3d86f79c	0.065901965
103	0xbb655699	-0.0034994243
104	0x3d164713	0.036688875
105	0xbddd9ee0	-0.108213186
106	0xbaa928dd	-0.0012905855
107	0x3dc104d7	0.09424751
108	0x3d188fbd	0.037246455
109	0xbd92d43c	-0.07169387
110	0xbd479d7b	-0.04873417
111	0xbcbaaa5c	-0.022786312
112	0xbcebf8f6	-0.028805237
113	0xbbc3215f	-0.005954906
114	0xbda5fbdd	-0.0810468
115	0xbdb116c0	-0.08646917
116	0xbc31915f	-0.010837882
117	0xbd99fbb0	-0.07518709
118	0x3d6b7cea	0.057492174
119	0xbd69795a	-0.057000495
120	0xbcc7830a	-0.024354476
121	0xbcb03108	-0.021507755
122	0xbd55de67	-0.052214053
123	0xbdc0e296	-0.09418218
124	0x3a0c2398	0.000534588
125	0xbd46a25e	-0.04849469
126	0x3db4421a	0.0880167
127	0xbda070d4	-0.0783402
128	0xbce89d2a	-0.028395254
129	0xbd128c88	-0.035778552
130	0x3ab94b1c	0.0014136764
131	0xbd3a25ea	-0.045446314
132	0xbc12345b	-0.008923615
133	0x3c8a6060	0.016891658
134	0xbd919044	-0.071075946
135	0xbd1e151c	-0.03859435
136	0x3c927e85	0.017882595
137	0xbd3a7994	-0.045526102
138	0xbd49c2db	-0.049258094
139	0x3c0b6bd7	0.008509598
140	0xbcaf62f3	-0.021409487
141	0x3d48156c	0.048848554
142	0x3ce7b3ec	0.028284036
143	0xbdb297f2	-0.087203875
144	0xbddc630f	-0.107610814
145	0xbc28a957	-0.01029428
146	0x3d377964	0.0447935
147	0xbd67b302	-0.0565672
148	0xbded5072	-0.11587609
149	0xbdb50300	-0.08838463
150	0x3d916549	0.07099397
151	0xbda23f35	-0.07922212
152	0xbd3e5007	-0.04646304
153	0xbd4d072d	-0.05005567
154	0xbdd15704	-0.10221675
155	0x3c1c4dc3	0.009540024
156	0x3db37537	0.08762591
157	0xbdca7fb5	-0.098876394
158	0xbdc377a9	-0.09544308
159	0xbc89c087	-0.016815437
160	0xbd4dd808	-0.05025485
161	0xbdc9fa12	-0.0986215
162	0xbd419904	-0.047265068
163	0xbc61dc0d	-0.013785374
164	0xbdc6a556	-0.09699504
165	0xbb5f555d	-0.003407798
166	0xbdb34a16	-0.08754365
167	0xbd2ed3bc	-0.042682394
168	0xbdcdc46b	-0.100472294
169	0xbd850c78	-0.06496519
170	0x3d73cdfb	0.05952261
171	0x3cecdefb	0.02891492
172	0xbe023964	-0.12717205
173	0x3d83e5a2	0.06440283
174	0xbd4a0b1d	-0.049327005
175	0x3c3be6e8	0.011468627
176	0xbd73da07	-0.0595341
177	0xbe0d8585	-0.13820465
178	0xbc6b1242	-0.014347615
179	0xbc990402	-0.018678669
180	0xbcaae86d	-0.020862782
181	0xbd2270ca	-0.039658345
182	0xbc9ab0bf	-0.018883107
183	0xbdc380db	-0.095460616
184	0xbd7cae82	-0.06168986
185	0xbdbcf4cd	-0.092263795
186	0xbc415850	-0.0118008405
187	0xbd095139	-0.033524726
188	0xbdb4c2d2	-0.088262215
189	0x3d91fc85	0.071282424
190	0xbe2c2ef6	-0.16814789
191	0xbc1b2d2e	-0.009471221
192	0xbd621203	-0.05519296

Dense2.weight f4 [1, 193]
0	0xbc3e0926	-0.011598861
1	0x3dc9ca27	0.098530106
2	0x3c97fbef	0.018552748
3	0xbc9608f3	-0.018314814
4	0xbd9e665c	-0.07734367
5	0x3de492a7	0.11160784
6	0x3c7010fb	0.014652486
7	0x36d691b0	6.3946572e-06
8	0xbd05730e	-0.032580428
9	0x392edb2d	0.00016675582
10	0x3c97045b	0.018434694
11	0xbcdaf133	-0.02672634
12	0xbceac192	-0.028656755
13	0x391bca8f	0.00014857411
14	0x3ce8eb51	0.02843252
15	0xbd3491ac	-0.044084236
16	0xb9098b70	-0.00013117283
17	0x39dba092	0.0004189057
18	0xb96b8779	-0.00022461814
19	0xbd847337	-0.06467288
20	0xb895852a	-7.1296774e-05
21	0x394df2ec	0.00019640819
22	0x3cae0010	0.021240264
23	0xb900c706	-0.00012281173
24	0xbb654c9a	-0.0034988285
25	0x3a6a6109	0.0008940851
26	0xbc8037ab	-0.015651545
27	0xbd4b009d	-0.04956113
28	0xbc59fb61	-0.013304562
29	0xbc6b6a80	-0.014368653
30	0xba802f8e	-0.0009779797
31	0xbad70451	-0.0016404485
32	0xbd2fc1d3	-0.042909455
33	0x371c95d8	9.333213e-06
34	0xbaca30a8	-0.0015425878
35	0xbb298c31	-0.0025870914
36	0x3aca41da	0.0015431002
37	0xba311393	-0.0006754931
38	0x3bfceeaa	0.0077188807
39	0x3bbce773	0.0057648956
40	0xbd1bff58	-0.03808531
41	0x3d39e14a	0.045380868
42	0x3876eb30	5.8870006e-05
43	0xbd480894	-0.048836306
44	0x3d116446	0.03549602
45	0x3cd0410c	0.025421642
46	0x3bf9b7ca	0.0076207863
47	0x3e1f1b0d	0.15537663
48	0xbc5011e0	-0.012699574
49	0x3c5de1cc	0.013542604
50	0xbca1ab81	-0.0197351
51	0xb9af2e87	-0.00033413267
52	0xbb8a30b3	-0.004217231
53	0xbce6c550	-0.028170258
54	0x3c86be8e	0.016448285
55	0xb8a72c96	-7.971485e-05
56	0x3ceb877b	0.028751126
57	0xbb19b6f8	-0.0023455005
58	0x3a52815e	0.00080301415
59	0xbcaa9c0b	-0.02082636
60	0xbbe68f3d	-0.0070361183
61	0x3d318768	0.043342024
62	0xbd460e83	-0.048353683
63	0x3ad5f53f	0.0016323699
64	0x3d30dc39	0.04317877
65	0x3d6d82cd	0.05798607
66	0xbd3630e9	-0.044480238
67	0xbd4afd33	-0.049557876
68	0xbdcf1a5d	-0.1011245
69	0x3dbb55dc	0.09147236
70	0x3db8ecb4	0.090295225
71	0xbcbb6645	-0.022875914
72	0x3deee387	0.11664491
73	0xbd869a58	-0.065724075
74	0xbcafc031	-0.021453949
75	0x3cc91b4f	0.024549155
76	0x3d1cbb16	0.038264357
77	0xbda166ef	-0.07880961
78	0xbb8e5995	-0.004344175
79	0x3d97a26d	0.07404027
80	0x3da155c2	0.07877685
81	0x3d6cab67	0.05778065
82	0xbce75e06	-0.028243076
83	0x3d0ef09f	0.034897443
84	0x3e0f5154	0.13995868
85	0xbc768f8c	-0.015048873
86	0x3d30119f	0.042985555
87	0x3be63e62	0.0070264796
88	0x37f49b88	2.9159492e-05
89	0x3b85d24d	0.0040839077
90	0xbdd2abde	-0.10286687
91	0x3c225840	0.009908736
92	0xbe13ecf8	-0.14445865
93	0xbcc31eaf	-0.023818342
94	0x3c367256	0.011135658
95	0xbb9a86cb	-0.0047157756
96	0xbc73b31a	-0.014874244
97	0x3caa9151	0.020821245
98	0x3dd433f3	0.10361471
99	0xbd832c56	-0.06404941
100	0xba1cc3ec	-0.00059801224
101	0xbd6203e1	-0.05517948
102	0xbdae5a84	-0.08513358
103	0xba0d6758	-0.00053941226
104	0x3d7ad19b	0.06123505
105	0x39c592de	0.00037684193
106	0x3d5054ce	0.050862126
107	0xbdd22177	-0.10260289
108	0xbdbe1091	-0.092805035
109	0x3cfa65ea	0.030566175
110	0x3c4d2182	0.012520196
111	0x3c1a5a10	0.009420887
112	0x3ccbd428	0.024881437
113	0x3dd7507d	0.10513399
114	0xbcd32b9b	-0.025777629
115	0xbc63633b	-0.013878639
116	0xbc66fbb6	-0.0140980985
117	0xbcc6b294	-0.024255075
118	0x3e4149ca	0.18875805
119	0xbd457a08	-0.04821208
120	0x3c7f7642	0.01559216
121	0xbbe61a3d	-0.007022171
122	0x398411a2	0.0002519014
123	0xbcbeaffa	-0.023277272
124	0xbc019cae	-0.0079108905
125	0xbb868697	-0.0041054
126	0xbdafb869	-0.08580095
127	0xbbf28a69	-0.0074017537
128	0xbc9f07bf	-0.019412873
129	0x3c9ff45c	0.0195257
130	0x3d34613c	0.044038042
131	0x3db4a45e	0.08820413
132	0xbdaf90cc	-0.0857254
133	0xbc81d106	-0.01584674
134	0xbaefc8bc	-0.0018294076
135	0xbc71bca5	-0.014754449
136	0xba9047cb	-0.0011007724
137	0x39a0305c	0.0003055361
138	0xbce2cfb5	-0.027686933
139	0x3e0210d5	0.12701733
140	0xbcf6f912	-0.030148063
141	0xbd5bd2a7	-0.05366769
142	0x3946b288	0.0001894926
143	0xbd9601e6	-0.07324581
144	0xba95a73a	-0.0011417635
145	0x3ca1d782	0.019756082
146	0x3ce31b39	0.027722942
147	0xbc3b6e54	-0.0114398785
148	0x3c3ba2d1	0.011452393
149	0xbd1667e3	-0.036720168
150	0xbd1023b6	-0.035190307
151	0x3cb059dd	0.021527225
152	0xbc939ba1	-0.018018546
153	0xbb4a26bb	-0.003084584
154	0x3c9ee66a	0.01939698
155	0xbb5dd1c9	-0.0033846966
156	0x3e02e83e	0.12783906
157	0x39fe7ae1	0.00048538207
158	0xbccde776	-0.025134783
159	0x3cc9ccca	0.024633784
160	0xbd18bc75	-0.0372891
161	0x3d5187f7	0.051155057
162	0x395e220e	0.00021184256
163	0xbc8ec4d2	-0.017427836
164	0x3cc5a076	0.024124365
165	0xbd3f097b	-0.0466399
166	0xbd060beb	-0.03272621
167	0x3c129e16	0.008948823
168	0x3db44224	0.08801678
169	0xb97394dc	-0.0002322974
170	0xbc9d9033	-0.019233799
171	0x3e01cc86	0.12675676
172	0x3d4d628a	0.050142802
173	0x3de5d1aa	0.11221631
174	0xba445a71	-0.00074902835
175	0x3cb7d64e	0.022441056
176	0x3b95ebf9	0.0045752493
177	0x3ca9085b	0.020633867
178	0xbccd0e99	-0.025031375
179	0x3dcd13ca	0.1001354
180	0xba1c2fc7	-0.0005958047
181	0x3c652063	0.013984772
182	0xbca906e4	-0.020633169
183	0xbb8dc5dd	-0.0043265657
184	0xba890bac	-0.0010455749
185	0xb98788f0	-0.00025851233
186	0x390c8b76	0.00013403394
187	0x3d15b254	0.03654702
188	0xbbf45bef	-0.0074572484
189	0xbd34673e	-0.044043772
190	0x3d643a7e	0.055719845
191	0xbc0b87e8	-0.008516289
192	0xba25aad6	-0.0006319707

LN.weight f4 [193]
0	0x3f4a8974	0.79115987
1	0x3f473bb5	0.7782548
2	0x3f4d2070	0.8012762
3	0x3f365dbc	0.7123678
4	0x3f39647f	0.7241897
5	0x3f400e78	0.7502208
6	0x3f77998a	0.96718657
7	0x3f58ff5d	0.84764653
8	0x3f68381f	0.90710634
9	0x3f5cc5e2	0.86239445
10	0x3f3fbdec	0.7489917
11	0x3f61dc04	0.8822634
12	0x3f669891	0.9007655
13	0x3f581d21	0.8441945
14	0x3f5b2944	0.8560984
15	0x3f431c75	0.76215297
16	0x3f45a03f	0.7719764
17	0x3f2c9242	0.6741067
18	0x3f176012	0.59130967
19	0x3f5c9245	0.8616069
20	0x3f8332c2	1.0249865
21	0x3f3e08eb	0.7423236
22	0x3f85a244	1.0440145
23	0x3f5e37eb	0.86804074
24	0x3f37be7d	0.7177504
25	0x3f543eba	0.82908213
26	0x3f4d3ed1	0.80173975
27	0x3f392294	0.7231839
28	0x3f353b86	0.7079395
29	0x3f453930	0.77040386
30	0x3f4f8989	0.81069237
31	0x3f43e613	0.7652294
32	0x3f6cd27a	0.9250866
33	0x3f53235b	0.82475823
34	0x3f4d7719	0.80259854
35	0x3f6795ba	0.9046284
36	0x3f444770	0.76671505
37	0x3f383044	0.7194865
38	0x3f66459f	0.89949983
39	0x3f50096b	0.8126437
40	0x3f589c43	0.84613436
41	0x3f58cff6	0.84692323
42	0x3f543a3d	0.82901365
43	0x3f5598ce	0.83436286
44	0x3f6261d6	0.88430536
45	0x3f2934fa	0.6609646
46	0x3f64a0b4	0.89307714
47	0x3f6beffe	0.92163074
48	0x3f3dcc6d	0.74140054
49	0x3f222083	0.6333086
50	0x3f62d6f3	0.88609236
51	0x3f379f25	0.7172721
52	0x3f5ec499	0.87018734
53	0x3f53d467	0.82745975
54	0x3f55c8c7	0.83509487
55	0x3f47f9b4	0.7811539
56	0x3f28d274	0.65946126
57	0x3f726707	0.9468846
58	0x3f3abbf8	0.7294307
59	0x3f1a9160	0.60378075
60	0x3f4d53f1	0.8020621
61	0x3f1fb246	0.623814
62	0x3f549070	0.83032894
63	0x3f616979	0.88051564
64	0x3dce6378	0.10077566
65	0x3f9d2a9b	1.2278627
66	0x3f8ffbfc	1.1248775
67	0x3f5745a7	0.84090656
68	0x3f849f93	1.0361198
69	0x3f5ba635	0.85800487
70	0x3f8aaffb	1.0834955
71	0x3f874a85	1.0569617
72	0x3f7010b0	0.93775463
73	0x3f64b940	0.8934517
74	0x3f86e86a	1.0539677
75	0x3f821973	1.0164016
76	0x3f894a95	1.0725886
77	0x3f90d659	1.1315414
78	0x3f6c0192	0.92189896
79	0x3f697b68	0.9120393
80	0x3f993874	1.1970353
81	0x3f69b2d0	0.9128847
82	0x3f830a3d	1.02375
83	0x3f7504d2	0.9571048
84	0x3f5aa92d	0.8541439
85	0x3f7f6d60	0.9977627
86	0x3f92e9f1	1.1477643
87	0x3f74e538	0.9566226
88	0x3f92eb76	1.1478107
89	0x3f81309a	1.0092957
90	0x3f8a73e6	1.0816619
91	0x3f849418	1.0357695
92	0x3f9baefa	1.2162774
93	0x3f489973	0.78359145
94	0x3f6e08a9	0.92981964
95	0x3f87df86	1.0615089
96	0x3f695f7c	0.9116132
97	0x3f8fb263	1.1226314
98	0x3f674b34	0.90349126
99	0x3f6a12b5	0.91434795
100	0x3f63bede	0.88963115
101	0x3f8bf2c5	1.0933462
102	0x3f814582	1.0099337
103	0x3f7cad8a	0.987023
104	0x3f907763	1.1286434
105	0x3f58adcd	0.846402
106	0x3f791379	0.9729534
107	0x3f87652a	1.0577748
108	0x3f86fb77	1.0545491
109	0x3f97b56d	1.1852242
110	0x3f4add03	0.7924349
111	0x3f6e7ff2	0.9316398
112	0x3f72dcd7	0.94868225
113	0x3f8bfb09	1.0935985
114	0x3f69b96d	0.9129856
115	0x3f8c2b58	1.0950727
116	0x3f5dffca	0.8671843
117	0x3f4abc82	0.7919389
118	0x3f810fbf	1.008293
119	0x3f86fc9f	1.0545844
120	0x3f9bf17a	1.2183068
121	0x3f83cfa9	1.0297748
122	0x3f8950f2	1.0727828
123	0x3f5f87c4	0.87316537
124	0x3f541ff7	0.82861274
125	0x3f83da8c	1.030107
126	0x3f7c55a3	0.9856817
127	0x3f9c8d0a	1.2230542
128	0x3f562173	0.8364479
129	0x3f79a9d2	0.9752475
130	0x3f473e90	0.7782984
131	0x3f81c025	1.0136763
132	0x3f684035	0.9072297
133	0x3f4c5e8f	0.79831785
134	0x3f51805e	0.818365
135	0x3f695a72	0.91153634
136	0x3f220475	0.6328805
137	0x3f7753e8	0.96612406
138	0x3f3da198	0.740747
139	0x3f7746fa	0.96592677
140	0x3f255864	0.64588
141	0x3f68230e	0.9067849
142	0x3f7cd4b3	0.98762053
143	0x3f4f01f6	0.8086237
144	0x3f6f2e06	0.934296
145	0x3f769ad6	0.9633001
146	0x3f81c45f	1.0138053
147	0x3f5a94be	0.8538321
148	0x3f54d6e1	0.8314038
149	0x3f2bf1b2	0.6716567
150	0x3f88978d	1.067125
151	0x3f803bc8	1.0018244
152	0x3f7e2e90	0.992898
153	0x3f845d84	1.0341039
154	0x3f79f79e	0.9764346
155	0x3f6a7868	0.91589975
156	0x3f7edc80	0.99555206
157	0x3f40be17	0.75290054
158	0x3f360b6c	0.7111118
159	0x3f321ff4	0.69580007
160	0x3f69b920	0.91298103
161	0x3f6035a9	0.8758188
162	0x3f4e3b88	0.8055959
163	0x3f60798d	0.8768547
164	0x3f6737e4	0.9031966
165	0x3f5ffca1	0.87494856
166	0x3f55f316	0.83574045
167	0x3f6463fa	0.8921505
168	0x3f68e20c	0.9096992
169	0x3f499038	0.78735685
170	0x3f2e9acf	0.6820497
171	0x3f4329fe	0.7623595
172	0x3f7c11e4	0.984648
173	0x3f878024	1.058598
174	0x3f767732	0.9627563
175	0x3f58a2f9	0.84623677
176	0x3f487772	0.7830726
177	0x3f5efcab	0.8710429
178	0x3f447bec	0.7675159
179	0x3f7b267c	0.981056
180	0x3f304b3d	0.68864805
181	0x3f7d27a1	0.98888594
182	0x3f8dcab1	1.1077482
183	0x3f6e516a	0.9309298
184	0x3f760c41	0.9611245
185	0x3f55f54d	0.83577424
186	0x3f8b03f6	1.0860584
187	0x3f4a6dbc	0.7907369
188	0x3f42d910	0.7611246
189	0x3f8278b4	1.0193086
190	0x3f6a036e	0.91411483
191	0x3f614735	0.8799928
192	0x3f5f0398	0.8711486
