Result/FD004/predictor.pth (torch, 6856 bytes, 8 tensors)

params f4 [8]
000000 14 a4 c7 42 fe a6 c7 42 dc aa c7 42 6e aa c7 42
       99.820465 99.82616 99.83371 99.83287
000010 0c a3 c7 42 b0 a2 c7 42 10 b2 c7 42 c4 a7 c7 42
       99.81845 99.81775 99.84778 99.82767

dnn.0.weight f4 [10, 65]
000000 15 d0 9c 3c 81 8a 9b bc db a6 c0 3d 7b 5e 8b bd
       0.01914219 -0.018986942 0.09406825 -0.0680513
000010 53 d8 bd 3d 59 f6 8a bd 01 ba 08 bd 48 88 a4 bd
       0.09269776 -0.06785268 -0.033380512 -0.08033806
000020 11 db 94 3d 81 4c ac 3d ce c9 4c 3e 6e 0a 17 bd
       0.07268346 0.084130295 0.19998857 -0.03687518
000030 8d 73 01 bd cf d0 01 be a2 64 ae bc 58 cd e4 3c
       -0.03160434 -0.1267731 -0.02128822 0.027929947
000040 6f 4a 9a 3d 6e 15 84 3d 40 52 b3 b9 97 6a bc 3c
       0.07533728 0.064494 -0.00034202822 0.023000045
000050 48 64 2d 3e 66 e0 2b 3b 92 59 a8 bd 65 38 45 3e
       0.16932786 0.0026226281 -0.08220209 0.19259794
000060 e5 6e 09 be 09 85 c3 bd b7 91 a8 be 71 8f 49 3e
       -0.13421209 -0.09546859 -0.32923672 0.19683625
000070 42 1e e4 bd ba 7f 34 b9 b0 f5 29 bd db 98 ab 3d
       -0.11138584 -0.0001721372 -0.04149407 0.08378764
000080 72 df 47 bd 5e 56 e1 3d 2f 26 4f 3e 7b 62 a5 bd
       -0.04879708 0.11002801 0.2022941 -0.08075424
000090 c2 56 2a 3d 75 48 02 bd 27 c7 f4 3d 95 1b 06 bd
       0.041586645 -0.03180738 0.11952048 -0.032741148
0000a0 5b 82 72 bd 72 f8 07 3d 03 ae 96 3c bc 3b 50 bd
       -0.059206348 0.03319592 0.018393522 -0.050838217
0000b0 ae a6 56 3d 1d e5 5f be f9 e8 af 3d 6a a7 88 bd
       0.052405052 -0.21864744 0.08589358 -0.06672557
0000c0 e9 46 b9 bd a6 13 db 3b 4c 70 0a 3e 13 f6 41 bb
       -0.09046728 0.006685692 0.135194 -0.0029596135
0000d0 1a 34 f0 bd 2b 5b 92 bd 07 71 14 be 37 41 fd bd
       -0.117286876 -0.07146295 -0.14496242 -0.12365954
0000e0 39 75 f5 bd 0c dd b5 bc d7 a1 96 bb ae 45 1e bd
       -0.11985249 -0.02220013 -0.0045969295 -0.03864067
0000f0 ed a6 0f 3d ec d5 83 bc 5c 16 23 be 61 0a 2e bc
       0.035071302 -0.016093217 -0.15926498 -0.010622592
000100 b0 07 04 be 43 2a 83 bc 2b 3b 1a bc e7 fa 23 3e
       -0.12893558 -0.016011363 -0.009413521 0.1601368
000110 49 0c aa bd 78 ce aa bd 29 51 b9 bd a5 94 62 3e
       -0.083031245 -0.08340162 -0.09048683 0.22127016
000120 ae 4c 85 bc d3 bd 7b 3e 6f 1d 66 3d ea 3f dc 3c
       -0.016271915 0.24584131 0.056180414 0.026885945
000130 be 55 15 3c d7 b2 93 3c 28 9a ac 3c c2 00 50 bc
       0.009114681 0.018029613 0.021069601 -0.012695493
000140 aa 8a df bd 9e 93 83 3c 7f cb 01 3d 31 56 9e bd
       -0.1091512 0.0160616 0.03168821 -0.077312835
000150 e6 83 da 3d 63 49 be bc cd fc 30 3d 0e 55 28 be
       0.10669689 -0.023228353 0.04320984 -0.16438696
000160 8a 4a 0c 3e 71 be 64 bd ca 99 d7 3c 1d 0b 97 be
       0.1370031 -0.05584568 0.02631845 -0.29500666
000170 70 c1 22 3e 99 72 15 bd 6a 3d 2c 3c b4 25 91 bd
       0.15894103 -0.036486242 0.010512689 -0.070872694
000180 2b 3c a2 3d 64 d1 dc bd c5 a0 e0 3d 1c 9f d4 3d
       0.079216324 -0.107821256 0.10968164 0.1038191
000190 8a 5a 80 3c 91 0e 84 3d 9d 72 42 bd 9a 39 16 3e
       0.015668172 0.06448091 -0.047472585 0.14670411
0001a0 96 98 05 3d d0 43 33 3d 15 25 23 bd 34 3a 5e 3c
       0.03261622 0.043765843 -0.039830286 0.013563681
0001b0 6b 61 ab bd 81 b0 30 3b f0 2c 1e be 33 7c 1b 3e
       -0.083681904 0.0026960673 -0.1544683 0.15184097
0001c0 05 c5 52 be 5b 3b fa 3d ab c1 dc 3c 18 16 fa bc
       -0.2058297 0.122183524 0.026947817 -0.030528113
0001d0 10 16 d1 3c cc 6f a5 bd 21 7c 19 3d 6a ea 88 3d
       0.025523216 -0.08077964 0.037471894 0.06685336
0001e0 02 6d 46 bc f3 0f 83 bd f5 8f 22 3e 0d 27 76 3e
       -0.01211095 -0.063995264 0.15875228 0.24038334
0001f0 ae 02 de bc 73 d3 62 be b9 16 a5 bc 01 63 03 be
       -0.027100887 -0.22150974 -0.020152437 -0.12830736
000200 bc 49 4b 3e fb e8 22 bd e9 97 e1 3c a6 b1 94 bd
       0.19852346 -0.03977297 0.027538257 -0.07260446
000210 09 ea cc bd 3e 65 2a 3e f1 b9 f9 3d c6 70 81 3c
       -0.10005576 0.16640183 0.12193669 0.015800845
000220 13 e2 2a bd 72 0c 1a be 74 fc 0c 3e 18 45 c5 3d
       -0.041719507 -0.1504381 0.13768178 0.09632319
000230 f5 d6 c8 3d a5 8d 65 bd 87 8c 09 3e 5f 17 99 bd
       0.09806625 -0.056043286 0.13432513 -0.07475161
000240 31 f4 91 bd 2f 23 b3 bd f2 a3 4c bd fe 00 e6 bc
       -0.07126654 -0.08746945 -0.049961038 -0.028076645
000250 51 e2 6e 3d 9f 61 25 3e 35 81 38 3e 4c 79 f6 3d
       0.0583213 0.1615052 0.18018039 0.12034854
000260 39 5f 0f 3a 9e 91 0d 3e 31 8a cf bd 8e d3 c8 3a
       0.00054692064 0.1382508 -0.1013378 0.0015321837
000270 08 71 02 be 7d ad db 3d d3 f1 3a bd 79 c0 fe 3d
       -0.1273843 0.1072645 -0.045640778 0.12439055
000280 fa 82 9b 3c b7 62 c0 3d 47 fc 9a 3d 95 14 55 3e
       0.018983353 0.09393828 0.07567649 0.20808633
000290 bd b2 08 3e d2 57 ab 3d c3 79 42 3d c9 27 78 bd
       0.13349433 0.0836636 0.047479402 -0.060584817
0002a0 27 d9 0e bd c8 46 2e 3d f6 85 06 be 8f 4c fb 3c
       -0.03487506 0.04254797 -0.1313704 0.030676154
0002b0 a3 48 df bc fb a2 22 3e 1c 61 12 3d 57 20 24 be
       -0.027256316 0.15882485 0.035737142 -0.16027962
0002c0 cc 3a 3f 3e 64 6a d7 bc a8 f1 b5 bd 26 1c be 3d
       0.18674773 -0.026295848 -0.08883983 0.09282713
0002d0 3f 44 b1 3d e1 5e 07 3e e0 90 29 3d 5c ca e4 3d
       0.08655595 0.13219787 0.04139793 0.111714095
0002e0 7a e3 ac be 6c 9f bb ba 93 57 f9 3c 8c 2a 74 3e
       -0.337673 -0.0014314479 0.030437266 0.23844355
0002f0 6e 7c 1d 3e 3d 07 0b ba 86 56 66 bd 40 6e ce 3c
       0.15379497 -0.0005303508 -0.05623486 0.025199056
000300 05 ab 58 bd e3 21 c8 3d 3c 64 49 be 8b 6a d4 be
       -0.052897472 0.097720884 -0.19667143 -0.41487536
000310 6a 51 6e 3e 0c e9 60 bc 78 c4 b4 bd 27 42 1c 3e
       0.23273245 -0.013727438 -0.08826536 0.1525961
000320 0f 20 90 bd aa d6 0e 3e d8 eb 36 bd b6 39 66 3e
       -0.07037365 0.13949075 -0.044658512 0.22482952
000330 69 58 21 3e 45 e5 47 3d 8c d8 92 3e 73 b2 16 bd
       0.15756382 0.048802633 0.28680837 -0.036791276
000340 75 42 89 bb 7b 2c e1 3d 59 37 52 3e 5b 5c b1 bd
       -0.0041888305 0.10994812 0.20528926 -0.086601935
000350 df ef f1 3d cc df e5 3d 37 b6 0f 3d d6 49 c1 3c
       0.1181333 0.112243265 0.035085883 0.023594778
000360 c6 e7 e6 be c9 82 26 3d e3 d0 95 be b2 56 76 3b
       -0.45098704 0.04065207 -0.2926093 0.0037588296
000370 4a 38 1f 3e 06 18 13 bd a9 5a 82 bc 19 13 e1 3d
       0.15548816 -0.035911582 -0.01591237 0.10989971
000380 7f 5f 54 3e 63 d5 93 be f4 34 20 bd b5 8a f7 bd
       0.20739554 -0.2887374 -0.039113 -0.12087003
000390 d4 18 ef 3c 2f c5 99 bd db ae 0f 3d 96 90 0c be
       0.029186644 -0.07508313 0.035078865 -0.1372703
0003a0 c9 55 e7 bd cd 8c 4f 3e 70 25 45 be c1 95 46 3c
       -0.11295659 0.20268555 -0.19252563 0.012120665
0003b0 02 77 64 3d f6 1c 0f 3d 1e 80 e8 bd c6 d6 0e bd
       0.055777557 0.03493973 -0.113525614 -0.034872793
0003c0 61 3e 98 bd a9 f7 6a 3d c6 c7 f5 bd 2b 6d 10 be
       -0.07433773 0.057365093 -0.120009944 -0.14104144
0003d0 e2 de e2 3d 4c 0a 53 3b 1d c2 84 bc 90 72 85 bd
       0.11077668 0.0032202182 -0.016205842 -0.06515992
0003e0 32 e8 85 bd a6 ad e8 bd 0c ea 7f be 27 cf 3c 3e
       -0.06538428 -0.11361246 -0.24991626 0.18438397
0003f0 51 b8 4a be 4c ea e1 3c a8 ae 16 3d 36 2f 92 bd
       -0.19796874 0.027577542 0.03678766 -0.07137911

dnn.0.bias f4 [10]
000000 46 37 cc bc 74 3e 8b 3b 2d 3c cd bd 3b 7a b7 3d
       -0.0249287 0.0042493884 -0.10021243 0.089588605
000010 c7 83 b3 be 38 9b 14 be f4 4e b4 3c 3b 92 26 bd
       -0.35061476 -0.14512336 0.022010304 -0.0406668
000020 d6 77 a4 bd 2e b1 5d 3d
       -0.080306694 0.05412405

dnn.2.weight f4 [10, 10]
000000 8e a3 20 3d 57 45 b5 bd e3 97 3a be 46 fa 07 be
       0.039218478 -0.08851116 -0.18222003 -0.13279065
000010 70 27 26 3e a5 1e 15 3e 44 68 11 3e 19 91 87 3b
       0.16225982 0.14562471 0.1419993 0.00413717
000020 21 a5 53 be ca 9a cb bd 93 5b 16 3e 23 a0 77 3e
       -0.2066846 -0.09941633 0.1468337 0.24182181
000030 71 7c 11 be ac 1d 75 be 1d bb 1a 3e 1c 3f 88 bc
       -0.14207627 -0.239371 0.1511044 -0.016631655
000040 79 22 a9 be 11 87 00 bd f9 fb 78 3b 95 b8 41 be
       -0.33034113 -0.03137881 0.0037991984 -0.18918069
000050 20 e0 96 be 24 be 7d be 3d 3e 49 3e e8 03 86 3e
       -0.2946787 -0.24779564 0.19652648 0.26174855
000060 53 2a 73 be fc 09 5e be ec 4e a0 3e ff da 51 be
       -0.23746614 -0.21683496 0.31310213 -0.20493697
000070 7f 00 35 3e 54 ef 01 3e cd 17 82 3d d7 6f 01 be
       0.1767597 0.12688953 0.06352196 -0.1264032
000080 8b 03 b4 bc 61 8d 65 3e 6e 76 13 be c2 72 9d be
       -0.021974346 0.22417213 -0.14400646 -0.30751616
000090 60 c1 a5 3d 94 5e 53 be e0 db 1f 3d 1d 05 8b 3e
       0.08093524 -0.20641547 0.03902805 0.2715234
0000a0 3b 04 d3 bd cd 30 7f 3e 5c cc 56 3d 9f 39 46 bd
       -0.10303541 0.2492096 0.052440986 -0.048394796
0000b0 91 e1 54 bd a2 c2 fb 3d 21 8e 7e 3d 97 99 57 3e
       -0.05197293 0.12292983 0.062147263 0.21054684
0000c0 69 5b 10 3e 17 ce 9f 3e 4c 5e 5f be 65 9d eb 3d
       0.1409737 0.31211922 -0.21813315 0.1150463
0000d0 63 86 4a 3e 1c 1c 23 3e ea aa 8c be b2 da 40 3e
       0.19777827 0.15928692 -0.27474147 0.18833426
0000e0 e6 d0 58 be c5 3a 90 be 45 02 7b bd 2d 64 83 3e
       -0.21173438 -0.28169838 -0.06128146 0.25662366
0000f0 71 1f e5 3d 10 d0 1a bc 82 18 00 3e ff 21 1d bc
       0.111876376 -0.00944902 0.12509349 -0.009590625
000100 80 10 61 3e 0c 88 b2 3d f1 1f 7f bd 63 5a 77 be
       0.2197895 0.08717355 -0.06228632 -0.24155574
000110 96 fc 14 be 88 22 71 3e 9c 40 9b be 64 3f c6 3d
       -0.14549479 0.23548329 -0.3032273 0.096800596
000120 2e a7 a5 be 83 0c 56 3d 1f 77 95 be 35 75 93 bd
       -0.3235411 0.052258026 -0.29192445 -0.0720009
000130 96 81 3f bd 5d e5 cf bd 13 e6 80 be 9c 2b e3 bd
       -0.046754442 -0.101511694 -0.25175533 -0.11092302
000140 c3 ab 05 3d 99 18 43 3e d4 bc 91 3e 05 8f c7 bd
       0.032634508 0.19052352 0.28464377 -0.09744076
000150 63 f9 5e be e6 51 2f be 64 c1 02 3e 0f 4a 0f 3e
       -0.21774821 -0.17121086 0.12769085 0.13993095
000160 0c f3 97 3e 60 3d 33 bc 0e 6d 29 3e 99 73 7e be
       0.29677618 -0.010939926 0.16545507 -0.24848785
000170 fc 41 53 3e 59 e7 30 3e ee e3 4b 3e ed 10 93 bc
       0.2063064 0.17275752 0.19911167 -0.017952407
000180 b9 64 4f 3e c2 f5 9f 3e 2b ed a3 be 38 82 83 be
       0.20253266 0.31242186 -0.32016882 -0.25685287

dnn.2.bias f4 [10]
000000 80 c4 b8 3d 51 26 32 be 3d 17 9b be 0e a4 af 3d
       0.090218544 -0.17397429 -0.30291167 0.08576213
000010 c7 d7 86 3e f7 14 a3 bd 5a 09 4b 3d 75 d8 a1 3e
       0.263365 -0.07962983 0.049569465 0.31610456
000020 ba 07 8a be 98 cc 86 bd
       -0.2695902 -0.06581992

dnn.4.weight f4 [10, 10]
000000 83 2e 8b 3e 78 0f 33 be b7 c3 d1 bd 49 fc 59 3e
       0.27183923 -0.1748637 -0.10242408 0.21287645
000010 22 f5 3f 3e da 8f 44 3e 7a 48 07 3d fb 3c 9b 3e
       0.18745854 0.191955 0.033028103 0.30319962
000020 f0 36 71 be ee a9 71 be 2e 27 5f 3e dd ff af 3d
       -0.23556113 -0.2359998 0.2179229 0.08593724
000030 07 33 ab 3e 58 1d 81 be 37 cb 6b be 17 bd 03 3c
       0.33437368 -0.252177 -0.23026739 0.008040688
000040 8e d3 35 3d a4 7a 8f 3e 71 1e 9f 3d 14 cb 61 3e
       0.044391207 0.28023255 0.07769478 0.22050124
000050 16 a9 0e 3e 9f c8 a8 3d 3b 28 49 3e 85 ab f9 bd
       0.13931689 0.082413904 0.19644253 -0.12190918
000060 03 0a 3f bc 46 cd 85 be 56 aa 12 bd 97 57 8a be
       -0.011660102 -0.26133174 -0.035806976 -0.2701995
000070 06 05 57 be b5 e0 27 bd a5 f7 37 3e dd 48 49 be
       -0.2099801 -0.04098578 0.17965563 -0.19656701
000080 fc 8f 13 3e 76 64 06 3e 64 38 48 bb 0a 00 89 be
       0.14410394 0.1312426 -0.003055119 -0.26757842
000090 64 e7 e2 bd 19 82 0e be 31 68 59 be e4 9c 16 be
       -0.110792905 -0.13916816 -0.21231152 -0.14708287
0000a0 f6 89 be 3d bb 9c 89 bd f6 30 1f 3a 4f cd 26 be
       0.09303658 -0.06719347 0.00060726644 -0.16289257
0000b0 fd 3c 18 be e3 8b c4 bd 85 3e 6a be 2c 48 21 bd
       -0.14867015 -0.09596994 -0.22875412 -0.03937547
0000c0 41 58 2c be 4c 8e d2 39 53 ad a3 3a 43 03 6c 3e
       -0.16830541 0.0004016034 0.0012487568 0.23048119
0000d0 31 3b 08 3e 69 81 ce 3e 94 0a 87 3c 0d 03 40 bd
       0.1330383 0.40333107 0.016484536 -0.04687791
0000e0 c1 dd 78 be db 1e 4c 3d 04 6e 0d 3d 15 24 28 3e
       -0.24303342 0.049834114 0.034528747 0.16420014
0000f0 76 be 7d be 2e 95 23 be 58 03 44 3e 13 9a 6c be
       -0.24779686 -0.15974876 0.191419 -0.2310565
000100 97 7e 65 3e 20 64 8f 3e 93 3f ee bd 4d 61 77 3d
       0.22411571 0.28006077 -0.116332196 0.060395528
000110 9a 41 48 be a0 37 81 be 18 f1 22 3d a2 38 24 bc
       -0.19556275 -0.2523775 0.039780706 -0.010023268
000120 71 02 19 3d 30 08 60 3e 17 c4 27 3e a7 86 10 be
       0.037355844 0.21878123 0.16383396 -0.14113866
000130 93 10 2f be 21 e9 90 3e d3 e9 8a 3e 29 1b b4 bd
       -0.17096166 0.28302863 0.2713152 -0.08794243
000140 90 ee ac bd 4b 30 39 bd c9 be 26 be 91 7b af 3d
       -0.0844394 -0.04521207 -0.16283716 0.0856849
000150 b9 5e 79 be cf 54 d9 3d e9 ab 7d be f7 fb 23 be
       -0.2435254 0.10611879 -0.2477261 -0.16014086
000160 e8 ba 1a 3e 0e b5 2d bd 66 a1 b7 bb 66 0e 72 be
       0.15110362 -0.042408995 -0.005603957 -0.23638305
000170 20 16 4f be ab e5 83 3b dd 23 29 3e 9f 8e c6 3d
       -0.20223284 0.0040251813 0.16517587 0.096951716
000180 da 73 85 3e 23 80 59 be f1 ab 83 3d f5 21 03 3d
       0.2606495 -0.21240287 0.064292796 0.032014806

dnn.4.bias f4 [10]
000000 9c ea 67 3e 40 f2 ef bd 4b 9c 5f be ba c9 30 3e
       0.2264809 -0.117161274 -0.21836965 0.17264453
000010 4a 43 e1 bd 4d 08 50 be a0 8f 73 3e a4 90 9f 3e
       -0.109991625 -0.20315666 0.23785257 0.3116504
000020 5d 52 46 bc d9 43 19 be
       -0.012104598 -0.14967288

dnn.6.weight f4 [1, 10]
000000 62 62 8d 3e 66 f1 e8 bd 77 f2 24 3e 25 ea 3e be
       0.27614123 -0.11374168 0.16108118 -0.18644007
000010 9a 2e 2b 3e 78 9d 30 3d 20 4b 4f 3e 22 f8 db 3d
       0.16716996 0.043118924 0.20243502 0.10740687
000020 6f 90 b6 b8 c9 d0 e7 bd
       -8.705339e-05 -0.113191195
