Result/FD002/DeepHPM.pth (torch, 755000 bytes, 9 tensors)

multihead_attn.in_proj_weight f4 [579, 193]
00000000: 0f84 22bd 2f64 8bbd a8e4 ae3d 58cd 773d
00000010: d510 523d 8a60 2b3d 8388 4c3d f6cb 883d
00000020: d277 92bd 0cf0 853d a1c0 c03d 9fb4 1bbd
00000030: a688 8f3d b96f 13bd a8e8 733d 43e4 3e3d
00000040: 069e 173d b36a 8dba 494a dbbc e2eb a83d
00000050: 5289 613d 761d 3d3d 715a 6e3d eefa 4bbd
00000060: 6790 c4bc ca0e 5e3d a48c b53d ed31 ac3d
00000070: 38de b53c eebf 0fbc bb24 88bd 887c 393d
00000080: bf1a 873c 79b3 e83c 5d63 c83d a002 a73d
00000090: 0523 d4bc 3268 da3d aa54 983d 324f d13c
000000a0: 1a02 f33b 8ac0 85bd 17bb fabb 9214 c7bc
000000b0: 6c0b 473c a407 0d3b a0da 90bc df6b c2bd
000000c0: bcf9 31bd ed9c abbd 5e6c dc3c 2e64 d73d
000000d0: 3483 6dbb 22a9 30bc 02a0 bf3d 1ced 253d
000000e0: 26ab 12bc 0995 afbd 5d8f eabc eeb7 3e3d
000000f0: d181 8d3d 81af 403c d586 c9bd 7b5d 063d
00000100: 8daf fe3d 9167 86bc 4f47 fdbc 905b 92bd
00000110: 85f1 9f3c 6572 f1bc 7bb1 0d3c b335 18bd
00000120: 9081 9bbd b576 0f3c 3526 b93d b024 b3bd
00000130: 102b 47bd 9206 073d 44f1 c1bd 0aad 57bd
00000140: 9001 873c c8ae fabd c2ad 033e 5b63 a93d
00000150: 90be 0a3c ed85 dbbd 0372 543d 25dc 7e3c
00000160: d7f3 6ebd 3505 ba3a c149 d2bd 1c73 6a3d
00000170: 8d75 903d 632e e33d 8324 51ba fcb3 bdbd
00000180: 683c 5fbd 684c cabc f9f5 68bd 4bef 963c
00000190: 90da b1bd 1963 16bd 7e17 ce3c 1214 07bd
000001a0: cd81 8c3d 08db 91bd 9d9e 27bb 36cd b4bc
000001b0: f497 65bd e39f f73c 498b c13d fe75 bc3c
000001c0: d808 7c3d b93a 0b3d eca7 b43d b634 53bc
000001d0: b71f e2bd 9f4b 45bd 0404 c6bd ea20 c6bd
000001e0: 64cb 1f3c 9077 a03d 6798 16bd 41d7 723d
000001f0: 558f c1bd 78b3 883d 51aa d33d 04ed 7f3d
00000200: 56dc 27bd f1f8 b93d 3610 d33b 0cab 873d
00000210: e557 f2bd 8dcd 183d acf7 a43b 6b9c d1bd
00000220: 666e 873d 2850 353d 92f5 413d 501a 80bc
00000230: e569 1fbc 1dab 473d 72c0 733d 0ab3 993d
00000240: cbd6 c13b 60bf 56bd 2051 02bd 2f08 ffbb
00000250: 8192 b03d f9d0 353d 5a66 debc 6e32 d1bc
00000260: b3d0 b53c ded2 26bc 0d87 853d 7989 4ebc
00000270: 864c ba3d eb7a dbbc 1dc4 fbbc 0a26 653d
00000280: f609 373d beeb b93d cd1a 893d dc45 1ebd
00000290: 841d e83c a26a 4fbd 3d95 11bd 5f33 4f3d
000002a0: 2002 9bbb ce7d 49bc 0e78 903d 0a9e 1abd
000002b0: eb1d e03c 0085 29bd 085e fc3b 85d5 933d
000002c0: 280d 613d 47d4 97bd 689a b3bc dd1c 3e3d
000002d0: b10b 8b3d 44c1 9ebd 87b1 833d 0358 07bd
000002e0: 35e9 10bd c990 b7bd 78df 40bc d7e3 63bd
000002f0: f7a9 1c3c 6d8e 97bc 2603 433d 0eae 993d
00000300: 422e 97bd ba64 f03d 99f3 e83d 4b1b 07be
00000310: 06ab 963d 0020 db3d 8200 94bd c80b 27bd
00000320: 6d6e 88bc 6642 98bd 6344 683d 64cd c2bb
00000330: 4274 97bd 9405 a53c 089a 0bbd 200f 253d
00000340: 808e 2f3b 9fe6 dfbd 1990 9c3d d86e 38bd
00000350: 0534 d4bd 4bf7 03be b32e 84bc 3b6f 563d
00000360: 7bf9 ff3c 701a 133e 2528 d8bd 8725 9ebd
00000370: 8a46 47bd 04e6 f33d 427c b63d f447 88bd
00000380: 4466 1bbd 8155 ea3d ce7b b93d 6bb6 13bd
00000390: 5e36 9cbd 26ec 793d 56ac c1bd 7c0c 98bc
000003a0: 4ad4 1f3d abd8 cebc e0b5 0dbb f217 d6bd
000003b0: ab4e 7abd 8794 eb3d 31bd 933d bddc 603a
000003c0: 1607 be3d b3b1 1abe 00a7 173d cdc5 363d
000003d0: 2df5 acbc 25a9 debb 40d0 ca3d d12c 0dbe
000003e0: 5b3f 85bd 75e8 80bb 9bc9 d13d f3f2 823d
000003f0: 6327 afbc 2160 a73d 55fe c43d 7b22 c63d
-0.039676722 -0.06806218 0.085397065 0.060498565 0.051285584 0.041840114 0.049934875 0.066795275
-0.0715176 0.06539926 0.09411741 -0.03801405 0.070084855 -0.03599522 0.05954805 0.046604406
0.037015937 -0.0010789245 -0.02676882 0.08248116 0.0550626 0.046170674 0.05819172 -0.049799852
-0.023994638 0.054213323 0.08864716 0.0840796 0.022200689 -0.008773787 -0.06647631 0.045284778
0.016492246 0.028405892 0.09784577 0.081547976 -0.025895605 0.10664405 0.074380234 0.025550459
0.007416022 -0.065308645 -0.0076516974 -0.0243018 0.012148719 0.0021519447 -0.017682374 -0.09493231
-0.043451056 -0.083795406 0.026907142 0.10517155 -0.0036241533 -0.010782512 0.09356691 0.04050933
-0.008951938 -0.08573348 -0.028632814 0.046562128 0.06909526 0.011760593 -0.0984017 0.032803994
0.124358274 -0.016406806 -0.030917792 -0.071463704 0.019524345 -0.029473493 0.008648272 -0.037160587
-0.075930715 0.008756329 0.090404905 -0.08747232 -0.048625052 0.03296525 -0.09469846 -0.052655257
0.016480237 -0.12240368 0.12859252 0.08270904 0.008468285 -0.10718904 0.051866543 0.015555416
-0.058338013 0.0014192226 -0.10267974 0.057238683 0.07053671 0.11092832 -0.0007978158 -0.09262845
-0.054500967 -0.024694636 -0.056875203 0.01842465 -0.086842656 -0.0367156 0.025157686 -0.032978125
0.06860695 -0.07121855 -0.0025576719 -0.022070508 -0.056053117 0.030227607 0.09450395 0.023005482
0.06153187 0.03399155 0.08821091 -0.012890985 -0.110412054 -0.04816782 -0.09668735 -0.096742466
0.009753082 0.07835305 -0.036766436 0.059287313 -0.094511665 0.06674856 0.1033522 0.062481895
-0.040981613 0.09080685 0.0064411415 0.066244215 -0.11833171 0.037305404 0.0050344076 -0.102349125
0.06612854 0.044265896 0.047353335 -0.015637547 -0.009729837 0.04874717 0.059509702 0.07504852
0.005915498 -0.052428603 -0.031815648 -0.007782958 0.086216934 0.044388745 -0.027148414 -0.025536742
0.022194242 -0.010182111 0.065198995 -0.012606018 0.09096627 -0.02679201 -0.030733163 0.05594448
0.044687234 0.090781674 0.06694565 -0.03864084 0.028334387 -0.050638802 -0.035542715 0.0505861
-0.004730478 -0.012298061 0.070541486 -0.037748374 0.027358016 -0.041386604 0.007701639 0.0721846
0.054944187 -0.074135356 -0.021924213 0.046414245 0.06789339 -0.07751706 0.06430345 -0.03304292
-0.035378654 -0.089631625 -0.011772029 -0.055637207 0.009562007 -0.018500531 0.047610424 0.075039014
-0.0738187 0.11737962 0.113745876 -0.13194005 0.07356839 0.10699463 -0.07226659 -0.04078272
-0.016654218 -0.074345395 0.056705844 -0.0059448946 -0.07395221 0.020144261 -0.034082443 0.040297627
0.0026787817 -0.10932659 0.07644672 -0.045027584 -0.103614844 -0.12887304 -0.01613555 0.05235217
0.031246891 0.14365554 -0.10554532 -0.077220015 -0.048651256 0.119091064 0.08910419 -0.06654349
-0.037939325 0.1144209 0.09056817 -0.03606264 -0.07627557 0.061016224 -0.094566986 -0.01856064
0.039020814 -0.0252498 -0.0021623299 -0.10453786 -0.06111018 0.11502939 0.0721382 0.00085778144
0.09278695 -0.1510685 0.037024498 0.04462223 -0.021113003 -0.006795066 0.09903002 -0.13786627
-0.06506225 -0.003933961 0.10243531 0.06393995 -0.021381086 0.08172632 0.096188225 0.096745454

multihead_attn.in_proj_bias f4 [579]
00000000: 2c0a 3d3d 5980 adbd e322 033d e468 2ebd
00000010: 5e5e 83bd e015 993c bdfc 963d 6c15 83bd
00000020: bd03 e1bb 0c4d 9b3d a259 9b3d dded 8cbd
00000030: a5bb eabc b8dd 50bd 30e2 7dbd bf81 56b9
00000040: 8084 52bc 0eb5 963d d2e7 39bd ff68 4a3d
00000050: 53ea aabc dbed a93d 0b24 24bd bea9 81bd
00000060: 2a56 a43d 3afa a73c de40 b43c b91b 5b3d
00000070: d2f8 5b3d 1d25 e63c d13b 2ebd 2273 ab3c
00000080: 728b f0bc df74 7e3d d5ce 433d 5ae6 37bd
00000090: cf51 1a3c a73e debb f833 d13c c691 81bc
000000a0: def3 f9bc 3c1b 39bd c3be e33c cb2a 63bd
000000b0: b698 1b3d 94f1 313d 7e3c 7f3d 4069 9d3b
000000c0: b703 c8bb 7c09 453d 7a4d 3abd 8c2d d4ba
000000d0: 7500 47bc ae0e 253d 0c4a 973d b6fb 1d3b
000000e0: 8504 86bd 9d64 813d a285 503d 669b 1c3d
000000f0: c742 2dbd 1183 143d eb5d 02bd 793e 063c
00000100: 6c07 33bd 91be 1bbd a692 e03c d5e5 a63c
00000110: 6791 64bd 236a 7e3d b21d 12bd f77a 783d
00000120: 4f3a 21bc 0ab4 8dba f0d9 49bd 6d5a 7abd
00000130: 9a98 63bd f943 ee3c c625 ebbc 9f5a c9bc
00000140: fc65 85bd 8d94 62bc 5903 69bd 416b 613d
00000150: 0484 72bb 5160 f3bb 8413 a83d b1a7 b33d
00000160: a728 8a3b 94fa 163d 0063 5dbd 497b 663c
00000170: f009 54bd fb2e 4b3d 57ed 303d 48d7 8fbd
00000180: 0c71 09bd 8b3f 2cbb ad06 873c c404 80bd
00000190: 8f63 933c 800c 693d 670e 92bd 1e7b 60bd
000001a0: 5896 5d3d 11ee 34bd db3d d93c fb5a 84bd
000001b0: 5890 813d 49f4 403d 8aac 833d 857d 71bd
000001c0: 4e1d 073d 3ca5 543c 9e81 6bbd 1d65 47bd
000001d0: bc18 073d d9f4 413c 6454 97bd aeea 99bd
000001e0: b46d 25bd c445 093d 6843 a63c d699 283d
000001f0: 3437 913c 0d09 68bd 0aeb 2b3d 7858 26bd
00000200: a2ef 2c3d c14a c0bc 85ba 033d 7076 3c3d
00000210: 7d0b 07bd acbc 7cbd 311f 4e3d 22ff 52bb
00000220: 8726 cdbc db80 9bbd caf5 a03d 8f6f 49bd
00000230: 64c1 e53b 4fbe 31bb f173 9dbd 7517 5cbd
00000240: d1f9 6c3d 800a 70bd f070 51bd b678 7fbd
00000250: 8060 823d 9710 aebd aa46 a53d b033 943d
00000260: 609c dd3c 52fb 48bd 6aa3 40bd e074 093d
00000270: fc91 2bbd aad5 423c 95c1 e23c 0609 753d
00000280: b113 86bc e1e7 e5bc f620 a43b d296 0abd
00000290: e75b 5b3b 710c 6b3c 9575 7dbd 66ed e13c
000002a0: 5808 1ebd a575 9c3b 52fd 91bd a0fc c83c
000002b0: e5af a73d 10b5 093d a509 8f3d f702 f13c
000002c0: 4d97 b9bd ec20 23bd 7e34 aa3d e180 453d
000002d0: 319b 87bd cfb2 7cbd 0099 5c3d ddd9 73bd
000002e0: a06a 7e3d 1372 7e3d 4356 b1bc d356 473d
000002f0: cb3d 543d b073 8f3d 7e11 7fbd d54e 1cbd
00000300: 3e63 053d 21ab 9139 8cf1 a9b8 c20b 8ab9
00000310: 7c25 4fb9 8333 64b9 e836 4339 2443 5938
00000320: 246b 0139 470e 2338 6dff 1db9 d64e ba38
00000330: 9d02 03b7 c47b 3ab9 f228 9438 b06b 0db8
00000340: 6501 16b9 8294 82b9 bb12 8c38 ad32 dab8
00000350: 3009 e638 ac97 87b9 d768 3cb8 be1b 8039
00000360: a72b 3037 68bc 10b9 bf73 b238 b7e0 28b9
00000370: 19fe 5db9 bcb3 a437 350f 5139 5def 55b9
00000380: b02c 7539 7266 4fb9 de76 93b8 6d6e 2838
00000390: b178 3239 fdef e338 2c83 4db9 7f3a 0c39
000003a0: c161 0eb9 1728 73b9 f6f6 0bb9 a0ba 4c39
000003b0: 27cf 39b7 3f9a 0eb8 7e15 bcb8 2161 c938
000003c0: 6c9f 40b9 f350 15b9 0814 6c39 7684 56b9
000003d0: 8d58 7e39 c68e 1339 823e 46b9 674a 1139
000003e0: 6071 13b9 3e86 3ab9 1994 d138 35a0 4338
000003f0: 328a 3cb9 0458 67b6 834b 72b8 ca67 78b8
0.04615228 -0.08471746 0.032015692 -0.0425805 -0.064144835 0.018687189 0.07372425 -0.0640057
-0.0068669007 0.07583055 0.075854555 -0.06881306 -0.028653929 -0.050992697 -0.061983287 -0.00020456965
-0.012848973 0.07358752 -0.045387097 0.04941654 -0.020863688 0.082973205 -0.040073436 -0.06331204
0.08024247 0.02050506 0.022003587 0.053493235 0.05370409 0.028093869 -0.042537514 0.020928923
-0.029363368 0.062123176 0.047804672 -0.044897415 0.009418919 -0.006782371 0.025537476 -0.01581658
-0.030511793 -0.04519199 0.027800923 -0.055460732 0.037987433 0.043443277 0.06231355 0.0048038065
-0.0061039585 0.048104748 -0.045484044 -0.001618789 -0.012146105 0.040297203 0.0738717 0.002410633
-0.06543831 0.063180186 0.050908692 0.038234137 -0.042300012 0.036257807 -0.03182785 0.008193606
-0.04370825 -0.038023535 0.027413677 0.020373264 -0.05580273 0.06211294 -0.03567285 0.060664143
-0.009840562 -0.0010811102 -0.049280107 -0.061121393 -0.055565454 0.029085146 -0.028704535 -0.024579344
-0.065135926 -0.013829363 -0.05688796 0.055033926 -0.0037004957 -0.0074272533 0.08206847 0.08772219
0.004216272 0.036860064 -0.054049492 0.014067479 -0.05176729 0.04960535 0.043195095 -0.070234835
-0.033555076 -0.0026282992 0.016482675 -0.06250909 0.01799181 0.056896687 -0.07131653 -0.054804914
0.054098457 -0.04417235 0.026518753 -0.06462666 0.063263595 0.04710797 0.064293936 -0.058957595
0.03298693 0.012978848 -0.05749666 -0.048680414 0.032982573 0.011838161 -0.07389143 -0.07515465
-0.040387824 0.0335138 0.020295814 0.041162334 0.017726518 -0.056649256 0.041972198 -0.040611714
0.04222072 -0.023473145 0.0321603 0.04601139 -0.03296994 -0.06170337 0.050322715 -0.0032195528
-0.025042785 -0.075929366 0.078593805 -0.049178656 0.0070115793 -0.002712149 -0.0768813 -0.053733308
0.05785543 -0.058603764 -0.051133096 -0.06237098 0.06366062 -0.08499258 0.08070119 0.07236421
0.027052104 -0.049067803 -0.047030844 0.033558726 -0.04188727 0.011891762 0.027680198 0.05982306
-0.016366811 -0.02806467 0.005008812 -0.03383524 0.0033471526 0.014346228 -0.061879713 0.02757902
-0.038582176 0.0047747665 -0.07128395 0.024534523 0.08187846 0.03361994 0.069842614 0.029420359
-0.090620615 -0.03982632 0.08310793 0.04821861 -0.06621397 -0.061693963 0.05385685 -0.059533942
0.062113404 0.06212051 -0.021647578 0.048666786 0.051816743 0.070044875 -0.06227254 -0.038161118
0.032565348 0.00027784056 -8.1035396e-05 -0.0002633017 -0.00019755022 -0.00021762964 0.00018617103 5.179936e-05
0.00012342312 3.8875525e-05 -0.0001506784 8.8838555e-05 -7.808817e-06 -0.00017784449 7.0648166e-05 -3.371731e-05
-0.00014305634 -0.0002490618 6.679209e-05 -0.00010404489 0.00010968966 -0.0002586221 -4.4920333e-05 0.00024434732
1.0500581e-05 -0.00013803097 8.509261e-05 -0.00016105441 -0.00021170861 1.9634019e-05 0.00019937458 -0.00020402433
0.00023381668 -0.00019779222 -7.031647e-05 4.0157163e-05 0.00017020364 0.00010868905 -0.00019599189 0.00013373232
-0.00013578591 -0.0002318922 -0.00013348073 0.0001952448 -1.1075091e-05 -3.399909e-05 -8.968542e-05 9.6025185e-05
-0.00018369936 -0.00014239903 0.00022514176 -0.00020457976 0.00024256315 0.000140722 -0.00018906037 0.00013855995
-0.00014061248 -0.00017788351 9.993482e-05 4.6640827e-05 -0.00017980559 -3.4472914e-06 -5.7767622e-05 -5.922447e-05

multihead_attn.out_proj.weight f4 [193, 193]
00000000: f4b8 7a3c 3f27 3d3c 100e 023d e759 41bc
00000010: 5066 0d3d ef9a 183d 64dd a83c ee9a 873c
00000020: 4bb9 cbbc f4a1 d73b 01db b43c e695 7d3d
00000030: b392 b5bc 61db 4dbd af73 6d3b 5fbe f0bc
00000040: 47b8 36bd fe17 f83c b020 df3b 1edc 853d
00000050: 3b0c 8dbc 2291 313b 141c debc 3ef0 823c
00000060: 3c26 eb3c 40bb a8bc 4f75 063c b87e a7bc
00000070: 3a4a ce3c 497a 80bc 84c1 b83b 6c56 213c
00000080: 1980 04bd f109 1a3d 2106 fbbc d6e9 103d
00000090: 394b 0b3b d8ed ccbc 51f1 3e3c 9243 383c
000000a0: 1bab 8f3d 3a31 0a3d 9fcf 033d 5fa1 8f3d
000000b0: 2857 1a3c 24ee 473d c7c1 e13c ed04 b2ba
000000c0: 91a7 37bd 0900 183c 2029 f63a 0245 773c
000000d0: 0434 3ebc 9b79 b93c 3675 8cbc 5088 a4bc
000000e0: 5371 46bd 5725 c8bc 7a60 833c 38db c63c
000000f0: 5442 b03b 3d10 b2bc 3c0d 363b 76af f43a
00000100: 318d 283d 0ebd 5d3d 2173 18bd 33cb f83c
00000110: e597 84bb d8d5 8d3d ab56 833d 1a95 ea3c
00000120: 2d9a ce3c 9e52 a33c e288 08bd 6a95 74bc
00000130: 676c 38bd f0f4 333c e26f c03b cd14 573c
00000140: ac56 3b3d bcd1 c9bc ec12 e73b 0f37 0fbd
00000150: 5584 0a3d 1d16 cb3c 250e 60bb b3de ef3c
00000160: ae13 e6bc 127c 713b 41d5 1e3c 5a9a 25bd
00000170: feab 00bd f053 9c3a e0db 8b3c 6606 b2bc
00000180: b292 7f3d 8558 cabc 727a 2abc 8f80 dfbc
00000190: 62b1 cd3c ee1c b93c 8731 93bc d2fe 0b3d
000001a0: 7fb1 01bc b4f3 a9bc 1672 4dbd cb42 433d
000001b0: bdeb 48bb 4040 9dbd efe6 1c3d 32b0 ffbc
000001c0: e569 44bd 3baa 39bc f02e 29bd e32c 5d3c
000001d0: 5572 9fbb d423 40bd 1c84 f03c 7fdd bd3c
000001e0: d4a5 a63c b28e 6e3b c5cd 2f3a 507d e2bc
000001f0: 0554 9abc af9f c4bc 3526 04bc 5504 cb3d
00000200: 1228 533d f421 aebb c90d f43c 31da 873d
00000210: ad1f 803c c553 97bb b4d9 ccb9 24f1 5f3a
00000220: e91c 62bd 6f23 8f3c fe1b f13c cb56 143d
00000230: 480a 5cbb cb88 f2bc 2bb3 453d 0d6f b13c
00000240: 6ca7 f6bc d9fd 06bc 2f2f b3bc b07b 9f3c
00000250: 982b 673c 168f 873c 6ad2 e2bc 9acd aa3c
00000260: 01fe 73bc a283 3f3c 452d ee3b feaf c3bb
00000270: 66fb 0cbd 716b 51bd 0906 1c3d 0524 6b3b
00000280: 3b18 e63c dfac 193d 4e5f d3bb 2f18 403d
00000290: b98d 763d 25f6 ba3c a3a0 08bc ab43 14bc
000002a0: c833 463d 5d5d 51bc c7c8 99bb eece 003d
000002b0: 2562 c7bc 8e67 11bc bbf7 113d 18c7 a43c
000002c0: b6c6 ecbb ddf2 b4bd 3bf6 c63c d602 6b3d
000002d0: 3e13 fd3c 5ffb 4e3d c46c 023d 2b43 253d
000002e0: 9bb7 823d 7385 293c 43a5 09bc 7639 483c
000002f0: 44f3 943d 7c38 94bc 9031 e038 a207 3c3d
00000300: b59a 85bd 888b 44bc dfd2 0fbd 62bd 6fbc
00000310: f73d e2bc 353b dfbc b345 5bbc 68aa eb3b
00000320: 0244 ae3c 8166 7739 6c01 4c3d 8b94 37bd
00000330: d7fc 2c3c b850 1bbd 856d 2c3d 65be 9c3c
00000340: 5b61 843d 9861 413d cec7 d1bc 9a5d 273d
00000350: 4bdb 243d 6520 68bc f53f 61bc f3f5 253c
00000360: 38a1 7c3c 6f48 613d 48fc 02bd d30f 4b3c
00000370: 2fd1 b0bb 998b 1f3d d285 ffbc 5fae 03bd
00000380: d41f 37bd 9604 d13c 8d64 64bc 46ce 173d
00000390: 1d79 b73c 043a 613c 727f 323c 1aef c03d
000003a0: f4df 07bd cf39 5b3c 83a9 973c f83c 42bd
000003b0: 20b0 cdba 71a4 acba 68b1 23bd 1014 0bbd
000003c0: 3070 8a3b 29c3 bf3c d87e c43c 6819 7fb9
000003d0: 6ab5 d63c c398 7e3b e7cc 15bc f3a3 0c3d
000003e0: 5538 c73c 8064 693c 3f3e 71bd f517 aabc
000003f0: 9829 1e3d b5ff b33c abbe b0bc 8327 203d
0.015302885 0.0115450015 0.031751692 -0.01180122 0.0345214 0.03725713 0.02061338 0.016553368
-0.024868628 0.0065805856 0.022077085 0.061910532 -0.022164678 -0.050258044 0.0036232283 -0.029387651
-0.044609334 0.030284878 0.0068093166 0.06536125 -0.017217746 0.0027094563 -0.027112998 0.015983697
0.028704755 -0.0205971 0.0082066795 -0.020446166 0.025181878 -0.01568331 0.0056383032 0.009847265
-0.032348726 0.037607137 -0.03064257 0.035379253 0.0021254553 -0.025015756 0.011654214 0.011246579
0.07015058 0.033738352 0.032180425 0.07013201 0.009420194 0.048811093 0.02755822 -0.001358179
-0.04483754 0.009277352 0.0018780567 0.015092136 -0.011609081 0.022640994 -0.017145734 -0.02008453
-0.04844792 -0.024431868 0.016037215 0.024274454 0.0053790007 -0.021736259 0.0027778884 0.0018668014
0.041150276 0.054135375 -0.03721917 0.03037033 -0.0040464276 0.06925553 0.06413015 0.02863555
0.025220001 0.019936856 -0.033333667 -0.014928201 -0.045025256 0.010983691 0.0058727125 0.013127518
0.045736954 -0.024636142 0.007051816 -0.034964617 0.033817608 0.024790818 -0.0034188118 0.029280996
-0.028085556 0.0036847633 0.009694398 -0.040430404 -0.031414025 0.0011926871 0.017072618 -0.021731567
0.06239576 -0.024700413 -0.01040517 -0.027282981 0.025108997 0.022596803 -0.017967952 0.034178562
-0.0079158535 -0.02074609 -0.05015763 0.04767112 -0.003065809 -0.0767827 0.038306173 -0.031211946
-0.04795255 -0.01133209 -0.04130453 0.013499471 -0.0048659244 -0.04690917 0.02935987 0.023176907
0.020342745 0.003640097 0.0006706382 -0.027647644 -0.018838892 -0.024001924 -0.00806575 0.09912936
0.051551886 -0.005314106 0.02979173 0.066334136 0.015640104 -0.0046181404 -0.00039072114 0.00085427077
-0.055203352 0.01747295 0.029432293 0.036215585 -0.0033575464 -0.029606244 0.04826657 0.021659398
-0.03010913 -0.008239233 -0.021873085 0.019468158 0.014109515 0.01654772 -0.027688224 0.020849992
-0.014892102 0.011689099 0.00726858 -0.0059719076 -0.03441944 -0.051127855 0.038091693 0.0035879624
0.028087726 0.03751838 -0.00645057 0.046898063 0.06019375 0.022822449 -0.00833908 -0.009049336
0.048389226 -0.012778607 -0.004693124 0.031447344 -0.024338791 -0.008874787 0.035636645 0.020114467
-0.0072258366 -0.08835385 0.024287334 0.05737575 0.030892964 0.050532695 0.03184201 0.04034726
0.06382676 0.010346758 -0.008401218 0.012220731 0.07272962 -0.01809334 0.00010690384 0.045905717
-0.06523649 -0.0119961575 -0.03511321 -0.014632555 -0.027617438 -0.027249912 -0.013383317 0.007191945
0.021272663 0.00023593941 0.049806044 -0.044819396 0.010558329 -0.037918776 0.042096633 0.019133756
0.064638816 0.047212213 -0.02560797 0.04086075 0.040248197 -0.01416788 -0.013748159 0.01012944
0.015419297 0.05500072 -0.031978875 0.0123939095 -0.0053960304 0.03895149 -0.03119174 -0.032148715
-0.044708088 0.025514882 -0.013939989 0.037061952 0.022396619 0.013746742 0.010894643 0.09420605
-0.033172563 0.013380482 0.018513447 -0.047421426 -0.0015692748 -0.0013171566 -0.03996411 -0.03395468
0.0042247996 0.02340849 0.023986265 -0.0002432816 0.026209552 0.0038848377 -0.009143091 0.03433604
0.024318853 0.0142451525 -0.058897253 -0.020763377 0.038613886 0.021972517 -0.021575293 0.03910018

multihead_attn.out_proj.bias f4 [193]
00000000: c645 48bc a022 c1bd 1cd7 da3d 589e 253d
00000010: 912f d8bd 1a29 dbbd 3163 653d 8765 f63d
00000020: 1016 0b3e 4aa6 17be c465 893d 658e 99bb
00000030: 5964 ec3d 4fc4 1e3e 2531 9fbc 7296 5f3c
00000040: 7aac 5ebd 983c b1bc 36c4 ae3d 49d1 c13c
00000050: d090 f03d 4ba3 b83d 4923 5abc aebd f4bc
00000060: 649c e4bd 4a90 943d 0091 273e 2029 083e
00000070: 1712 893d ed3c 32bc b15d 8d3d d4c3 b3bd
00000080: 0c6c 95bd 956e 71bd 3e92 d83b 575d 163e
00000090: e366 5c3d 65ef 8fbb f7ce 44bb 2b1c 6c3d
000000a0: dcfb cdbb 3fd9 dc3d d775 65bc 14a0 d33d
000000b0: 48f8 46bd aa06 373e 056b cb3d aa1c 10be
000000c0: 170f 583d 8652 29be a303 ddbd 12cc 943d
000000d0: 96c1 063e 9526 3cbe 452b e13d ddae 90bd
000000e0: aadb 20bd 5855 10bd 267d 5d3d 9ce7 9d3c
000000f0: 046d b03b 3a20 2c3e 7eaa b0bd 14fe 35bb
00000100: f931 8a3e 528c 5f3e 44ab 70bb e10d df3c
00000110: de9e f7bd c345 473d f15d 923c 5962 6fbd
00000120: a4ac db3c 57a8 263d 6f04 8c3d 6cf6 adbc
00000130: d330 1dbd 7390 e4bd ee63 ebbc 0596 ddbc
00000140: ee09 28be 9153 223e 8f59 123e 8f46 433c
00000150: 70ab e6bd 70ef 0c3d 2e77 86bd 966d bdbd
00000160: 0d35 093e 64ad 2d3d ad4f ddbd 0e75 073e
00000170: 69e7 803c f9aa 31bd 60e3 50bd 5c5e 383d
00000180: 2e59 dd3d 0f4d c33d dc07 89bd 14fd 233d
00000190: 1609 9dbd 75ec b3bd dfef debd b147 d33c
000001a0: 70ff 16bc 6686 1dbd c02a bb3c 044a 35bd
000001b0: 0917 5bbd ee1f 57bd 59ae f23c 0a20 183d
000001c0: 81b4 86bd fef2 80bd 6aaa bd3c 2f02 523d
000001d0: 8e38 fb3a f78d d1bd e373 01bc ad3a 673d
000001e0: 21a6 2a3d c352 9a3d b9d6 2b3e adc7 cc3d
000001f0: ef57 1bbd 6112 aa3d c401 eabd 3b44 8f3c
00000200: db5f af3d 1a47 52bc f7f9 383d 62d7 17be
00000210: ab5f f7bb 60ea 933c 3c54 953d df35 ddbd
00000220: a601 a2bd 3d49 7e3d 084a 393e 4d37 edbd
00000230: 9f78 463d c051 f1bd 2a90 5f3d a6c2 a1bc
00000240: 7534 7ebd cce7 aabd 1660 5e3c 25ef b1bd
00000250: a085 9d3c f515 543d 6b94 a4bd 2952 713c
00000260: 679d 1a3d dec8 243e 7048 88bd 15cd 30bd
00000270: 8370 ddbd 6515 3f3e 0589 2c3c eca6 75bd
00000280: 356a c7bd d255 8d3d 1bac 333c 34da 00be
00000290: 4b06 103d 6e81 88bb 04dd 54bd 1e2c e93d
000002a0: dcb5 193e f27a 5fbd 04c1 f6bd 487f cabd
000002b0: 8036 663c 472b 13be 0d6c 1dbb a4c0 da3a
000002c0: 9e19 0ebe 9887 70bc 54ca 6e3d b471 0bbe
000002d0: 4e6e 1cbe f97e 493c 5567 303e c97f 3d3e
000002e0: 67c2 8f3d af26 2b3e 6776 983d 2d43 433d
000002f0: 3021 c13d aacb 25be 91b5 97bd c1e0 9c3d
00000300: 011e 4c3e
-0.0122236665 -0.09430432 0.1068556 0.04043421 -0.105559476 -0.10701199 0.0560028 0.120310836
0.13582635 -0.14809528 0.067088634 -0.004686164 0.11542577 0.15504573 -0.019432614 0.013646709
-0.054363705 -0.021635339 0.08533518 0.023659365 0.11746371 0.09015521 -0.013314077 -0.029875603
-0.11162642 0.072540835 0.16363907 0.13296938 0.066929035 -0.010878784 0.06902636 -0.087775856
-0.07295999 -0.05894335 0.0066092303 0.14684044 0.053809058 -0.0043925517 -0.0030030587 0.05764405
-0.0062861275 0.10783624 -0.014005146 0.10333267 -0.048576623 0.17873636 0.09932522 -0.14073434
0.052748766 -0.16535386 -0.10791709 0.07265486 0.13159785 -0.18374093 0.10994581 -0.070646025
-0.039271988 -0.03523764 0.05407443 0.019275479 0.0053840894 0.16809168 -0.08626269 -0.002776985
0.2699125 0.21830872 -0.0036723176 0.027228298 -0.120908484 0.048650514 0.01786706 -0.0584434
0.02681572 0.040687885 0.06836783 -0.021235667 -0.03837664 -0.11160364 -0.028734174 -0.027049074
-0.16410038 0.1585219 0.14291976 0.011918678 -0.11263168 0.034408033 -0.065657005 -0.092494175
0.13399144 0.042401686 -0.108062126 0.13228247 0.015735345 -0.043375943 -0.05099809 0.045011863
0.10808025 0.09536182 -0.06690952 0.040036276 -0.07667749 -0.08785335 -0.108855955 0.025791021
-0.0092161745 -0.03845825 0.022847533 -0.04426004 -0.053488765 -0.052520685 0.029624151 0.03713993
-0.06577397 -0.06296347 0.023152549 0.051271614 0.0019166635 -0.10232156 -0.007901165 0.056452442
0.04166234 0.07535317 0.16781129 0.09999023 -0.037925657 0.08304287 -0.11426118 0.01748859
0.08563205 -0.012834335 0.04516026 -0.14828256 -0.0075492463 0.018056095 0.07291457 -0.10801291
-0.07910471 0.062081564 0.18094647 -0.115828134 0.048454877 -0.11783171 0.054580845 -0.019746136
-0.062061746 -0.08344993 0.013572713 -0.08688191 0.019228756 0.051778752 -0.08036121 0.014729061
0.037747767 0.1609225 -0.06654441 -0.04316433 -0.108124755 0.18660505 0.010530715 -0.059973642
-0.09737054 0.069011346 0.010966326 -0.12583238 0.03516225 -0.00416582 -0.05196859 0.11385368
0.1501078 -0.05456061 -0.120485336 -0.09887558 0.01405108 -0.14371978 -0.0024020702 0.0016689491
-0.1387696 -0.014680766 0.058298424 -0.13617593 -0.15276453 0.012298339 0.17226918 0.18505777
0.07019501 0.16713975 0.074444585 0.047671486 0.09430158 -0.16190973 -0.07407678 0.07660056
0.1993332

Dense1.weight f4 [193, 193]
00000000: 01d3 eabd c3dd be3d 73ca 753d 3009 3d3d
00000010: fe2d c33d 98e8 a13c ec99 313d fae4 febc
00000020: 004b 213d 8212 5d3c 9ee6 36bd a3a6 89bd
00000030: 7f8a 1cbc 24c4 a93d 8d19 1f3d 0e9a 0dbd
00000040: 1a61 febb 614a a7bc f25b 313d 7729 06be
00000050: 8302 463d 1416 3b3d 9e3b b43b 507c ccbc
00000060: 4b11 c2bc a212 953b 89c1 383c fef6 8e3d
00000070: dbe5 c6bc 8e02 0abc 3289 b9bd 5d0a 9b3d
00000080: 0815 933d ac63 673d 65b1 af3c 05ab 5fbc
00000090: 190f 5a3d c3b3 cbbc 0b5c 0cbd f2d0 abbc
000000a0: 9f26 a4bd 2cf5 10be e89e 253d 4267 043c
000000b0: 79c9 04bd a0ec 053d 5f66 123d 4b77 6abc
000000c0: e56c 91bd 6a86 093e 5f25 0f3d e02d cebd
000000d0: 2d81 86bc bb96 a73c b19a 963d 8c9d 8d3a
000000e0: 7f96 04bd dc77 0e3d ccae ad3a 9829 5f3d
000000f0: 8b33 c2bc cf66 90bd 6a92 a0bd d9ac 66bb
00000100: 5f28 143d 03a4 90bd e1ce 15be ab3f a8bc
00000110: 631c 9b3d 5d3d 9fbd 6b61 d1bd adee a33d
00000120: 8d9f 9d3d 35e7 08be 5959 2dbe 78b2 d83d
00000130: 4ef9 bf3d c679 c93d 34f3 273d a4a4 2b3d
00000140: 6fd5 c13c 5eea 19bd 57f0 5c3b c1eb 8bbc
00000150: bd89 2fbd 92ea 4cbd 660a 523e 2acb aebc
00000160: 8f32 8bbd cdac 1dbe df3e 553d 30e9 c2ba
00000170: 6659 78bd 46a9 dabd 929b c0bd 0368 633d
00000180: 2d4d c0bd 7a4c 60be e807 223b be3a 5d3d
00000190: 9680 a93b c0d1 8d3d 297a 8d3d 622c 503c
000001a0: 9c13 ae3b 07ff 78bc dd63 0bbd 6a88 b83d
000001b0: f7ef 4fb9 5116 673e e5ed 03bd 80c8 abbd
000001c0: e7df ecbc 193c b63d 3329 64bd f06e 4d3d
000001d0: 9ad4 643a d8bb c33c 45a2 81bd c18c a93c
000001e0: 0fff 1bbc 091a b1bd 69c2 33bc 9d67 4abd
000001f0: cef7 3ebd 2a66 0abe b78d be3d 9c81 e5bd
00000200: ea0f adbc b35c 96bd 2a25 66bb 0cf1 323c
00000210: 5d98 75bd ec95 74bd 0203 6fbd 227a e33c
00000220: e662 e03b 8397 01bd b84a bebd 7e4a 253d
00000230: 18cb e53c 9367 6d3c e762 6a3b 756e 43bd
00000240: c5a5 5fbc b648 94bd 563b cabc 9aa7 a3bc
00000250: 5a95 a9bc 7c4f 8fbd 0106 053d e19e f93c
00000260: 2ec7 02bc 0bf3 ed3c 97ff 403d ef3e 053d
00000270: 5a87 fdbc d9fc a0bd fd55 2bbd df3e efbb
00000280: da93 41bd 8dd5 97bd e567 12bc e664 833d
00000290: 3d8e 803c b637 fb3b dd7d bc3d 0131 f6bc
000002a0: 1db4 cbbc 7722 863d b88c 75bd c307 233d
000002b0: a58e 703d b26a bf3d 0a64 913d 4800 34bd
000002c0: 4c3e 953c c2ee e23c 9840 bdbd d7ce babc
000002d0: 1cd7 8d3c d152 4d3d 41e7 debd fd9c 983c
000002e0: 9401 64bd 6252 c3bd ba31 313d 7b56 fabc
000002f0: 815f 303b 1437 3c3d 1aac e63d e2c3 d0bd
00000300: f40d 49bc e594 b6bc 2567 33be 3a84 60bd
00000310: aa88 a3bd ab27 b4bc 28f1 d8bc 29e3 013b
00000320: b7cd 1cbc bd7a b7bc b941 fc3c fc33 50bc
00000330: 5dae c43c ac58 2e3c bf3e da3b d9aa cd3c
00000340: 9764 dd3d f71a e53c b021 fabc 24c0 71bd
00000350: 6972 d7bb e5fa ad3c 58de 75bb 3d64 693d
00000360: e326 babc 598f 31bd dc6a 6abc b674 82bd
00000370: b137 bebc 572d b4bd 6064 5f3d 6c8d 5bbc
00000380: 596d 373c 78f6 a63c f325 1f3d 8f59 01bd
00000390: a1d0 6d3c f528 c3bc f304 b53a 72d1 633d
000003a0: 1827 1f3d 1e9d a1bc c566 11be d686 8e3d
000003b0: bdbd c6bd 9fbe 2bbc bdce fdbb 7828 a6bd
000003c0: 26a8 1bbd a161 813d 8c83 543d 5db9 b63b
000003d0: ab16 cabb 1121 513c 5331 ba3d 738b cfbd
000003e0: 443b 123d e06c 74bc fa93 c53b 8d68 b7bc
000003f0: 68a8 0eba 1cab a9b9 78f7 cbbd 027e af3d
-0.11466027 0.093196414 0.060007524 0.04615134 0.09530257 0.01976423 0.043359682 -0.031115044
0.039378166 0.013493182 -0.044653527 -0.067212366 -0.009554504 0.08289364 0.038842726 -0.034570746
-0.0077630403 -0.020421209 0.043300577 -0.13101755 0.04834224 0.045675352 0.005500271 -0.02496162
-0.023689887 0.0045493403 0.011276611 0.06980704 -0.024279526 -0.008423461 -0.09059371 0.07570336
0.07181746 0.05649154 0.021446893 -0.013651614 0.053237054 -0.02486599 -0.034267467 -0.020973656
-0.08015179 -0.14156026 0.040434748 0.008081259 -0.0324187 0.032696366 0.03574216 -0.014310668
-0.07100848 0.13430181 0.03494775 -0.10067344 -0.016419018 0.020457616 0.07353724 0.0010804399
-0.032370087 0.034782276 0.0013250946 0.054483026 -0.023706218 -0.07050859 -0.07840426 -0.003519824
0.036171313 -0.07062533 -0.146297 -0.020538172 0.07573774 -0.07775376 -0.10223659 0.08004508
0.076964475 -0.13369448 -0.16928615 0.10580915 0.09373723 0.098376796 0.04100342 0.04190506
0.023661343 -0.037577026 0.003371259 -0.01708019 -0.042855967 -0.05002839 0.20511779 -0.02133711
-0.06796753 -0.1539795 0.05206191 -0.0014870521 -0.060632132 -0.106768176 -0.09404673 0.055519115
-0.0938972 -0.21904173 0.002472395 0.0540111 0.0051727993 0.06924772 0.06908066 0.012705894
0.005312396 -0.015197522 -0.034030784 0.09010394 -0.00019830452 0.22567107 -0.032209296 -0.08387852
-0.028915359 0.088981815 -0.055703353 0.050154626 0.000872919 0.023893282 -0.063297786 0.020697
-0.00952126 -0.08647544 -0.010971644 -0.04941522 -0.046623044 -0.13515535 0.09304374 -0.11206362
-0.021125752 -0.073419 -0.0035117366 0.010921728 -0.059959758 -0.05971329 -0.058352478 0.027768198
0.006847727 -0.031638633 -0.09291595 0.040354244 0.028050944 0.014490026 0.0035764517 -0.047712762
-0.013650362 -0.07240431 -0.024686497 -0.01997738 -0.0207011 -0.06997582 0.03247643 0.030471267
-0.007982058 0.029046556 0.04711875 0.03253072 -0.03094833 -0.07860727 -0.04183005 -0.007301196
-0.047260143 -0.074137785 -0.008935903 0.06415729 0.015692824 0.0076665534 0.09203694 -0.030052664
-0.024866158 0.065495424 -0.059948653 0.039802324 0.058729786 0.093465224 0.07099159 -0.04394558
0.018218182 0.02770174 -0.09240836 -0.022803707 0.017314486 0.050127808 -0.10883952 0.018629545
-0.055665568 -0.09537198 0.043260314 -0.030558815 0.0026912394 0.045950964 0.112632945 -0.10193612
-0.012271393 -0.022287795 -0.17519815 -0.0548136 -0.07985051 -0.021991571 -0.02648218 0.0019819236
-0.009570531 -0.022397393 0.030793058 -0.012707707 0.024008924 0.010641258 0.006660312 0.02510588
0.108102016 0.02796696 -0.030533642 -0.05902113 -0.006574918 0.0212378 -0.003751656 0.05698036
-0.02272362 -0.043349598 -0.014307704 -0.06369917 -0.023219915 -0.087977104 0.054539084 -0.013400417
0.011195504 0.020381197 0.03885455 -0.03157955 0.014515073 -0.02382324 0.0013810679 0.055619664
0.038855642 -0.01972824 -0.1419936 0.06959312 -0.097041585 -0.010482459 -0.0077455924 -0.081131876
-0.038002156 0.06317449 0.051883265 0.0055762962 -0.006167253 0.012764231 0.09091439 -0.1013402
0.03570105 -0.014918536 0.006029603 -0.02238872 -0.00054419646 -0.00032361678 -0.0995931 0.08568956

Dense1.bias f4 [193]
00000000: 4fa9 043d c1d6 523d 45e4 27bc 9b0a 703d
00000010: 6259 a8bd 3f53 55bd 4ffe 823c 0be9 bdbd
00000020: fb8e eabc b003 8abb e293 6dbd 5ccf e23b
00000030: d6d5 b7bd f56b 7b3c f937 7dbd ee58 b6bc
00000040: b3ab 15be 7932 933c a274 e93c 06dd 61bb
00000050: 7f34 1fbd ab9c 65bd 626d 33bd f8db 38bd
00000060: 28d5 9abd 645c 983c 96a5 263d 4b23 09be
00000070: d057 aabd 3f34 6c3d c868 4fbd e2e0 93bc
00000080: 7659 a7bd 20c9 3cbd c552 123b 8411 bebc
00000090: 4c65 c0bc 5d28 1e3d 73e8 2e3d de55 01be
000000a0: 1b64 fcbc e4eb e03c 4ecb 13be 96a0 10b9
000000b0: 3ca0 193c 9798 46bd 51c7 12bd 21fe 21bd
000000c0: ad23 0fbd 8d4d afbd c87f afbd e65a c5bb
000000d0: 690c 0cbe d567 303d ee06 17bd 84e1 ddbd
000000e0: 6e5d a4bd c67f 36bd e167 c7bc bec3 93bd
000000f0: 4bba b9bd 470e 72bd b403 763d 4c0d e2bc
00000100: 1994 24be 86f7 a43b 720d 293d 189b 6fbd
00000110: 6a3e 4abc 2ab3 fb3c aa51 b2bc 14e2 7abd
00000120: 39d3 9abb 752a 13be feef 93bd 08dd 5fbd
00000130: 89e0 24bd 5f57 dd3c 59f6 0bbe 3c1b 95bd
00000140: 6fbb 57bd 8742 ecbd f75e 23bd d05b 2ebd
00000150: f7ba c0bd 47ed 473d 8f71 5fbd a971 763b
00000160: 4f03 02bd 761f 91bd 1e22 e03c 100e a2bd
00000170: ed73 823d 59f5 a5bd d76b 913d 936b fcbd
00000180: 622b 053d 5259 54bd f3aa 11bc d4e7 a7bd
00000190: 0f94 183d 5d3a b6bd eb42 2b3c 4ad0 ba39
000001a0: 71f0 05bc 43a5 04be 3169 1dbd 458f af3d
000001b0: f10b dd3c 3efd a5bd 5bd2 c3bd 4f0f b6ba
000001c0: 0305 91bd 28e9 a6bd 15de cbbd 5835 9bbd
000001d0: 2c64 9e3a ba95 84bd dbc1 093d 3a31 7abd
000001e0: 86b7 19bd 97e0 41bd d754 02bd ebe3 a4bd
000001f0: 284a c63c 928f b8bc 3290 953d 9603 93bd
00000200: 0538 34bd 9034 4ebd 53b1 123b 6ba7 d9bd
00000210: 3130 08be 8f9a 9d3c 8158 4cbd b81b 03bd
00000220: 8708 e33c 4944 e03b b957 44bd 981c 5cbc
00000230: 5ac0 40bd fa39 1cbb e29a 2f3c 9b62 17bd
00000240: 4214 dfbd 10ab 303c 9800 2a3d 83d1 ecbd
00000250: af7e 44bd 6f1e d3bd 1216 413d 445b e8bd
00000260: 2fdb a3bd e8bf 26bd 38f2 d9bd 8e62 973c
00000270: cef9 043d c33b b6bd 1103 8ebd e0d0 323d
00000280: 96ec 223b 4b3c aabd 9820 25bd 1ae4 43bc
00000290: 85b7 eebd b1b4 cdbc af30 b3bd becb 23bd
000002a0: c970 5dbd 611a 6abd 62ef 733d 0d4e 823b
000002b0: 60a7 debd ddfd 373d 96d1 25bd 7037 b93c
000002c0: d71d 46bd 45f0 5fbd 3d08 1c3c 6b9c d2bc
000002d0: edfb 3d3a ceb1 1b3b 2959 ecbc 6fc3 b3bd
000002e0: df7f 26bd 1202 aabd e95b 8e3c 0e09 e9bc
000002f0: da7e acbd 80a0 d5bb 7742 23be 0afc bbbc
00000300: d246 3bbd
0.032388028 0.051474337 -0.010247295 0.058603864 -0.082201734 -0.052081343 0.015990404 -0.09272965
-0.028632632 -0.0042118654 -0.05800236 0.006921692 -0.08976333 0.015345563 -0.061820958 -0.022259202
-0.1461628 0.017968403 0.028497998 -0.0034464016 -0.038868424 -0.056057613 -0.043805487 -0.045131654
-0.075601876 0.018598743 0.04068526 -0.1339237 -0.0831753 0.057667013 -0.050637037 -0.018051568
-0.0817136 -0.046090245 0.0022327167 -0.023201711 -0.023485802 0.038612712 0.04270215 -0.12630412
-0.030809453 0.027456231 -0.14433023 -0.00013792733 0.009376582 -0.048485365 -0.035834614 -0.039548997
-0.034946132 -0.085597135 -0.08569294 -0.006022799 -0.13676609 0.043067772 -0.036871843 -0.10834029
-0.08025633 -0.044555448 -0.024341526 -0.07215069 -0.09068736 -0.059095647 0.060062125 -0.027594231
-0.1607212 0.00503439 0.041272588 -0.05849752 -0.012343982 0.03072508 -0.021767456 -0.06125076
-0.0047248867 -0.14371665 -0.07223509 -0.05465415 -0.040253196 0.0270192 -0.13668193 -0.07280585
-0.052668985 -0.115361266 -0.039885487 -0.042568028 -0.09410661 0.04881027 -0.054551657 0.0037604368
-0.031741437 -0.07086079 0.027360018 -0.079128385 0.06369767 -0.08103437 0.07100647 -0.12325206
0.032512076 -0.051842995 -0.008890855 -0.081985146 0.037250575 -0.08897851 0.010452966 0.00035631872
-0.0081750015 -0.12953667 -0.038430396 0.08572248 0.026983233 -0.08104943 -0.095616065 -0.001389006
-0.07081034 -0.0814994 -0.09954468 -0.07578534 0.0012084297 -0.064738706 0.03363214 -0.061082102
-0.037528537 -0.047333326 -0.03181919 -0.080512844 0.024205282 -0.022529397 0.07302894 -0.07178418
-0.043998737 -0.050343096 0.0022383526 -0.106276356 -0.13299634 0.019238738 -0.04988909 -0.032008857
0.027714027 0.0068440777 -0.04793522 -0.013434552 -0.04705844 -0.0023838268 0.010718079 -0.036959272
-0.10892536 0.010782972 0.041504472 -0.11563399 -0.047972377 -0.10308539 0.04714019 -0.113455325
-0.0800079 -0.04071036 -0.10641903 0.018479612 0.032464795 -0.088981174 -0.069341786 0.04365623
0.0024860254 -0.08312281 -0.040314287 -0.011956239 -0.11656097 -0.025110574 -0.0874952 -0.039989226
-0.05406264 -0.057154063 0.059554465 0.0039765895 -0.10871768 0.044919837 -0.04048308 0.022609442
-0.0483683 -0.0546725 0.0095234485 -0.025709352 0.00072473177 0.0023757103 -0.028851109 -0.087775104
-0.04064929 -0.08301176 0.01737781 -0.0284467 -0.084226325 -0.006519377 -0.15943323 -0.02294733
-0.045721836

Dense2.weight f4 [1, 193]
00000000: e419 eabc ce49 803e e2d7 383a 86eb 1ebd
00000010: d176 dcb8 c48e 90b8 f31f 843c 635a 9d3a
00000020: 79c3 16bc ebd9 c43c 3573 303c 5a63 e8bd
00000030: 80b9 99bc d9b0 e43a 5ca0 0c3d a062 14bc
00000040: 2cb0 1d3c 7e15 1abd b8dc f03b d8cc 32b8
00000050: d440 d337 d15b a5ba 6ee6 4439 631e 88ba
00000060: fd08 d5bc de3b 9b39 ca43 29bd e861 7ab9
00000070: d03c 1339 f4fb dbbc 417c b839 701e 9d3a
00000080: cc05 7f38 af9e 5f38 554c 3a39 5030 8639
00000090: 2556 693c ded7 63bb c1a3 883c 385b 9ab9
000000a0: 4274 22be c354 d538 8632 483d ab26 803a
000000b0: 7b5d 733d 4094 323d 718a 443d 36b1 0039
000000c0: 5489 02bd 0f17 e339 aee0 c7bc 8954 5b3a
000000d0: e2a3 92b8 5a2f 3cbc 0587 443c 04ef 1a39
000000e0: c263 913c bcf0 31bb 8960 933c 4f4c 1db9
000000f0: 07f0 d83a 97e7 3e3d 034f 36bd 68e8 b239
00000100: e1b0 b53c 65ea bf3c ed2f d1bd 638c 18bc
00000110: 2807 cbbb 92f5 293d 4fcc c93c 47f9 443b
00000120: 37a0 923d bbff adbc d854 9238 468a 1d3d
00000130: 8df0 0f3c 59b5 e9bc 556a 72bd 643f ae3d
00000140: 97b3 c93c fefa bd3a 50b5 9c37 f73d 193d
00000150: 3b40 823c 054c d9bc ffd3 44ba 8f7e 65bc
00000160: 9260 a7b9 ee86 aeba cddf e7bc fd43 82bb
00000170: 6407 60bd 70aa e8bc f88a 1c3d fc96 bb38
00000180: 4299 31bd 212b 37bc dce6 0f3e 33e8 173d
00000190: f9e2 223c 0468 7dbb 654c 8dbd e1b7 0fba
000001a0: 9069 273e 22ab 213d fa76 b838 008d acbd
000001b0: 5b01 41bd ca5a 1c3d a237 44b9 06fc 02bb
000001c0: 3352 c93c e2b4 a2ba 1c73 94bc cd4a 99bc
000001d0: bc89 09bd 2dbf 9dbb 5e6d 843e ac3d 3e37
000001e0: 1f9b 78bb 39a7 333c e9a2 983b 1430 033a
000001f0: c795 04bd 297e 20bc a88e 11bd 9e0d 08bc
00000200: 483c 0abd d82d 7abb e0d2 603c 4bd8 113d
00000210: 81df e2ba 4231 1ebd 42f7 1839 b89b a5bc
00000220: 4e32 643c c55e 2c3d e3be f9bc 6978 133e
00000230: aa19 95b9 ef6c 23bc a292 47bc e7a2 14bd
00000240: 1553 5939 0d22 893c 449c a93c 27a1 98bb
00000250: d40c acbd 9d94 e6b9 4db6 d2bc 9c59 dfb9
00000260: c270 4cbb 2988 55bc d4ba a63c e5fc 823a
00000270: 26a6 e73c 046f 4db8 db16 20bd c701 11bd
00000280: 6288 d5bc af27 953a a01c 4b3b acfa 1b39
00000290: 5460 9b3c 65b6 6abc f358 17bd 53d8 63b8
000002a0: 46ee 9738 6989 f33b c618 32bd f780 403e
000002b0: ceca 773c 3c01 8b3d 18a3 8d39 5d80 293d
000002c0: 7ea0 b538 9471 b6bd ec8e 1236 30f7 363e
000002d0: a46f 8239 8a9b 3f3c bb8f 29bc d662 8538
000002e0: d4fc c53a 7814 3b3a 55d6 01ba 6b82 473d
000002f0: 52da 3b39 5a48 e639 2029 6c39 572a 87bc
00000300: cab8 54b9
-0.028576799 0.25056309 0.0007051212 -0.03879883 -0.00010512549 -6.893047e-05 0.016128516 0.0012005087
-0.009201878 0.024029693 0.010769655 -0.11347075 -0.018765211 0.0017447724 0.034332618 -0.009056717
0.009624522 -0.037618153 0.0073505305 -4.2629283e-05 2.5183348e-05 -0.0012615864 0.00018777858 -0.0010385033
-0.026005263 0.00029608508 -0.041324414 -0.00023878331 0.00014041667 -0.026853539 0.0003518779 0.001198722
6.0802136e-05 5.331513e-05 0.00017766778 0.00025594467 0.01424173 -0.0034766118 0.016679646 -0.00029441132
-0.15864661 0.000101724196 0.048876308 0.0009777149 0.05941532 0.043598413 0.04798359 0.00012273047
-0.031869248 0.00043313994 -0.024399128 0.0008366784 -6.992348e-05 -0.011485899 0.011995082 0.00014775625
0.017747764 -0.0027151546 0.017990367 -0.00015001114 0.0016551026 0.04660758 -0.044508945 0.00034123962
0.022179069 0.023427198 -0.10214219 -0.009310815 -0.0061959215 0.04149396 0.024633555 0.0030055807
0.07159465 -0.021240106 6.977626e-05 0.038461946 0.008785379 -0.028528856 -0.059183437 0.085081846
0.024621768 0.0014494357 1.868108e-05 0.03741261 0.015899768 -0.026525507 -0.00075083965 -0.014007225
-0.00031924673 -0.0013315359 -0.028304959 -0.00397539 -0.05469455 -0.028401583 0.03821847 8.944978e-05
-0.04335905 -0.011179716 0.1405291 0.037086677 0.00994181 -0.0038666734 -0.06899337 -0.0005482417
0.16348863 0.039469846 8.795965e-05 -0.08425331 -0.047120433 0.03817252 -0.00018712741 -0.0019986643
0.024575328 -0.0012413526 -0.018121295 -0.018712426 -0.03357862 -0.0048140497 0.2586469 1.1339242e-05
-0.0037934256 0.010965162 0.0046580923 0.00050044176 -0.0323694 -0.009795704 -0.03553644 -0.008304028
-0.033748895 -0.0038174298 0.0137221515 0.035606664 -0.0017309041 -0.038621195 0.0001458796 -0.020215854
0.013928009 0.042082567 -0.03048653 0.14401402 -0.00028438616 -0.009974702 -0.012180956 -0.03628817
0.00020725683 0.01673987 0.020704396 -0.0046578827 -0.08400884 -0.00043979744 -0.025721693 -0.0004260064
-0.0031195139 -0.013032951 0.020352758 0.0009993581 0.028277468 -4.89792e-05 -0.039084297 -0.035402086
-0.026066009 0.0011379624 0.0030992404 0.00014875334 0.018966831 -0.014325713 -0.036950063 -5.4322485e-05
7.244623e-05 0.007432152 -0.043480657 0.18799196 0.015124036 0.06787345 0.0002701513 0.041382182
8.6606466e-05 -0.08908382 2.1838887e-06 0.17867732 0.0002487871 0.011694798 -0.010349209 6.360344e-05
0.0015105256 0.0007136534 -0.00049528974 0.04870836 0.0001791504 0.00043922925 0.00022522034 -0.016499681
-0.00020286735

LN.weight f4 [193]
00000000: 4c8a 493f 0dea 4c3f 0cd3 893f b8f6 413f
00000010: 6b88 613f 6dfa 353f a63b 423f 7613 613f
00000020: 47cf 7c3f 0b6b 493f 1ed5 5f3f ea51 443f
00000030: f3d8 753f f912 743f de77 443f 111a 4a3f
00000040: 6b1a 453f 80fe 543f 3efe 463f 0289 513f
00000050: 75e3 583f a8c4 5c3f 604c 643f 7ec1 6a3f
00000060: 35ea 563f 66f2 4f3f 0cd8 573f 79fa 553f
00000070: 6aff 623f 4925 563f d1b1 743f 9bdc 473f
00000080: cd47 4b3f 909b 523f fc0e 463f be96 713f
00000090: b7fe 463f 731b 563f ce3d 6c3f cee2 663f
000000a0: 82dd 593f a8af 833f 55cc 3a3f aeed 6e3f
000000b0: 6ec7 6b3f aa42 663f 6e4c 583f ab07 633f
000000c0: b2be 553f c8dd 563f 8275 363f 2c5c 3d3f
000000d0: 55d8 623f 646d 763f 3565 633f 0563 413f
000000e0: 2830 553f e189 553f c794 3a3f f79f 473f
000000f0: ee19 583f 1319 573f 0df1 583f 1e76 3c3f
00000100: 5653 903e 7006 9d3f eb0a 8a3f 7432 843f
00000110: 9e49 563f 23a0 903f 0686 803f f4d4 793f
00000120: 43d4 4f3f b6dc 853f f0ad 863f 2010 823f
00000130: 27e4 923f faa9 9a3f faed 613f 52aa 823f
00000140: f246 893f 6a9d 7a3f e6d3 863f e7d9 673f
00000150: 3a2a 3b3f 99f1 783f 4882 9b3f 9696 6b3f
00000160: 3041 553f f922 933f faf4 8d3f 7f64 473f
00000170: 890e 973f d684 913f 0bd9 833f 9088 863f
00000180: 11b6 5f3f 55ce 763f 4eff 713f ea03 853f
00000190: 3a6f 7f3f 114f 7e3f 3a46 853f daf6 943f
000001a0: 60cb 833f af42 773f 7748 343f bf40 883f
000001b0: 24b5 6f3f e966 933f ed54 4d3f 02b9 813f
000001c0: 8244 663f 4434 953f 4d50 8d3f c504 693f
000001d0: cea3 493f 4843 603f 0a92 813f 326d 6b3f
000001e0: 3a4d 8c3f 2eba 873f 61d3 883f 429b 723f
000001f0: 207e 743f f8bd 8d3f 66fc 823f aa4c 9e3f
00000200: 555e 4d3f b11a 4a3f 01e8 613f c89a 573f
00000210: 6909 5c3f 20b5 483f 10a7 503f 4c40 3c3f
00000220: b23a 343f daa4 6c3f 84d1 4e3f 8775 703f
00000230: 3f79 5d3f b9f7 653f 5dc4 603f d656 593f
00000240: ad73 643f 9600 403f ed99 783f 62eb 3d3f
00000250: d6c1 4e3f 6812 4c3f 0d3c 713f 9bcf 533f
00000260: 3e58 463f f9b1 323f bb35 703f c13e 463f
00000270: 6e62 603f 8d6b 693f 3813 133f ec80 323f
00000280: 23ba 4b3f d4e5 683f 802b 393f a1a0 723f
00000290: 4123 6d3f 9d75 113f be39 293f f2ea 403f
000002a0: d23c 593f d50b 2d3f 6ac7 6b3f f1a2 3e3f
000002b0: 25f1 403f b046 793f 62c9 573f 87ee 533f
000002c0: 38ec 343f f74c 583f ff9e 1f3f cd64 753f
000002d0: 5b20 2f3f c16c 323f cb9f 6e3f 13b2 593f
000002e0: 547b 463f f2ef 423f 5b0a 653f ab11 363f
000002f0: 3207 483f 04b8 503f 1e5b 3d3f 8abc 603f
00000300: a333 5d3f
0.7872665 0.80044633 1.0767531 0.7576709 0.8809878 0.71085244 0.75872266 0.8792032
0.9875378 0.7867896 0.87434566 0.7668749 0.96034163 0.9534145 0.767454 0.78946024
0.76993436 0.83200836 0.7773169 0.8184968 0.8472207 0.86237574 0.8917904 0.91701496
0.8395112 0.81229246 0.84314036 0.83585316 0.8867098 0.8365064 0.95583826 0.7807099
0.79406434 0.8226862 0.77366614 0.9437064 0.77732414 0.83635634 0.92281806 0.90189826
0.8510362 1.0287981 0.72968036 0.9333142 0.9210118 0.8994547 0.8449162 0.88683575
0.834941 0.8393216 0.7127305 0.7396877 0.88611346 0.96260667 0.88826305 0.75541717
0.83276606 0.8341351 0.72883266 0.7797846 0.84414566 0.84022635 0.84742814 0.7361773
0.2818858 1.226759 1.0784582 1.0327897 0.8370608 1.129887 1.0040901 0.97590566
0.8118326 1.0457981 1.0521832 1.0161171 1.1475877 1.2083123 0.8825375 1.0208228
1.0724776 0.97896445 1.0533416 0.9056687 0.7311131 0.9724365 1.2149134 0.9202665
0.83302593 1.1495048 1.1090386 0.7788772 1.1801311 1.1368663 1.0300611 1.0510426
0.87387186 0.9640859 0.9453019 1.039182 0.99779093 0.99339396 1.0412056 1.1637833
1.029644 0.96586126 0.7042307 1.0644759 0.93635774 1.1515781 0.8020771 1.0134585
0.89948285 1.1656575 1.1040131 0.910229 0.7876557 0.87602663 1.0122693 0.91963494
1.0961068 1.0603693 1.0689508 0.94768155 0.9550495 1.1073599 1.0233276 1.2367146
0.80222064 0.7894698 0.88244635 0.8422055 0.8595186 0.78401375 0.8150492 0.7353561
0.7040206 0.92439044 0.80788445 0.9392933 0.8651313 0.8983112 0.87799627 0.84898126
0.8923901 0.75000894 0.9710987 0.7418729 0.8076452 0.79715586 0.94232255 0.82738656
0.77478397 0.69802815 0.93831986 0.77439505 0.8765019 0.91179734 0.574512 0.6972797
0.795809 0.9097569 0.72332 0.9477635 0.9263192 0.5682009 0.6610373 0.753585
0.8485843 0.6759618 0.92101157 0.7446738 0.7536796 0.97373486 0.8429166 0.8278584
0.7067294 0.8449244 0.62351984 0.95856935 0.68408746 0.69697195 0.93212575 0.85037345
0.77531934 0.7614738 0.89468926 0.7112071 0.7813598 0.81530786 0.7396716 0.8778769
0.86406916

LN.bias f4 [193]
00000000: f23e 6e3d a0ee b63d b09d 333d 47ca 533d
00000010: e0b9 c03d c4a9 0c3e 54e1 e73a 40d7 ed3c
00000020: 116a 0c3d 7ce8 073e ff46 883d faf7 b53c
00000030: d84c 303d ecd2 763d 45ec 4a3d 6e32 ff3c
00000040: 977a e73d d58d 003d d9a2 64bb 27f7 c6bc
00000050: 443d 6a3d e869 36bd a98a 423b f2b0 fe3c
00000060: c64a e13d b8ca d03c 0b48 a2bd b59b 2bbb
00000070: ec71 2b3c 743c ec3c 327d 883c 63ba ef3d
00000080: 6dbe 9e3d 1414 c03d 1ba1 d43d 44f8 efbc
00000090: 71c2 4cbb 5716 ee3c c169 4d3d ed99 a43d
000000a0: 0525 173d 7a35 5abd 023f b03d 484a de3b
000000b0: ad00 d83c f6bb febc f27b 9c3d 8bf6 033e
000000c0: c02a 15bd a846 1d3e 7762 d33d 2c55 963d
000000d0: ac15 8f3d 3258 813d 0c3c 243d b34f c03d
000000e0: 4e18 913d 39b4 5f3d 35d5 823d 1f1f 8c3d
000000f0: f2d0 ad3d 0ab7 56bd aac7 f53d f17e 003e
00000100: 8615 38bf 4dfb 913d 901c 323d 56fe 4b3c
00000110: de31 b83d cc62 543c 78bf be3c 04e8 683c
00000120: 35a1 ae3d f585 5ebc 45f3 b33c bb50 b73c
00000130: d3fe 6f3b 30d1 233d b765 ea3d 17b0 533d
00000140: 20a6 d73d 4023 e63d 090b 35bb 7da4 f83c
00000150: 8563 4a3d 9d4d 9b3d 86c6 39bc 19d3 0d3c
00000160: 014f de3d 318e 54bd d071 123d 2250 d9bc
00000170: cb4e 233c a99e 8b3d 6c22 2dbc c612 323d
00000180: c0a3 993d 8244 213d 5ad9 263c 76fb 4c3d
00000190: 842c 8e3d c20f 17bd 76a6 b53b 6c57 323d
000001a0: dbac 183d 5bb4 353d 5189 283d cc9e 103d
000001b0: 52ea 7e3d ba96 4bbc 8c35 213c ecea 343d
000001c0: 9ca9 5e3c e1a5 7ebc d155 2cbb 4457 bc3d
000001d0: 513c 9c3d 4a23 923d 6518 b73c 6be4 a9bb
000001e0: 0b1e 033d bcd0 17ba b19c fd3c 8c19 be3d
000001f0: 7a52 b53d 100b 9d3c b9d1 3abc cdba 513b
00000200: d704 6e3c 14e9 d43d e011 bc3d 8e30 b03b
00000210: 4eb6 3d3c aa46 333d 3f6b c83d 6ed4 673d
00000220: 8700 0a3e 388a 193d eddf 373d 1f70 df3c
00000230: 901c 553c 5b6e 1a3c 6cdb bd3d 8bf1 863d
00000240: 2f35 713d 7d32 f93d 4b4d 7c3c 3bda 893d
00000250: be6e 1b3d fd42 c83d 87dc 45bc 0b3a 35bc
00000260: 7cb0 803d 3cb8 2fbb e804 443b efad 723a
00000270: 601f e73b 91b4 8e3d 92a3 6e3d f2d8 193d
00000280: 8285 b83d ef7d 443d 0288 743c 309d c5bb
00000290: 4ffe 7a3d b13b 16bd c599 d1bb 6dab 523d
000002a0: 9cdc 07b9 d58e 4b3d b1fa 003d 0664 373d
000002b0: d6b1 033c 6190 f1bc e309 b1bc 92e1 9b3d
000002c0: 8c81 533d ebcd 4d3d d4f8 6e3d 935d 123d
000002d0: ac5d f63d dc16 db3c e6ae 773d a22a 2f3d
000002e0: 68be 313c 6443 cf3d e6e1 853c 7724 b53d
000002f0: 5cbf d13d d462 2a3d 85bc 6ebd fcde 053d
00000300: a6ee a33c
0.058165498 0.08932233 0.043851554 0.05170658 0.09410453 0.13736635 0.0017691054 0.029033303
0.03428084 0.1327228 0.066541664 0.022212971 0.043042034 0.060259745 0.04954173 0.031151976
0.11302679 0.03138526 -0.0034887104 -0.024287773 0.057187334 -0.044534594 0.0029684699 0.031090233
0.1100059 0.025487289 -0.07923897 -0.0026185338 0.010464173 0.02883742 0.01666126 0.11705472
0.077511646 0.093788296 0.10382291 -0.029293187 -0.0031243826 0.029063387 0.050149683 0.080371715
0.03690054 -0.053273655 0.08605768 0.0067837574 0.02636751 -0.031095486 0.07640828 0.12887017
-0.036417723 0.15358984 0.10321515 0.07340464 0.069865555 0.0631565 0.040096328 0.093902014
0.07084714 0.054615233 0.06388322 0.068418734 0.08487119 -0.052420653 0.120009735 0.12548424
-0.7190784 0.0712801 0.04348427 0.012450775 0.089938864 0.012963008 0.023284659 0.014215473
0.085268416 -0.0135817425 0.021966586 0.022377362 0.0036620393 0.03999442 0.11445182 0.051681604
0.10529733 0.11237192 -0.0027624986 0.030351872 0.049411315 0.07583163 -0.011338836 0.008656287
0.108549125 -0.051893417 0.03575307 -0.026527468 0.009967516 0.068173714 -0.010567289 0.043474935
0.07501936 0.039371975 0.010183657 0.0500445 0.069420844 -0.036880262 0.0055435253 0.043540403
0.037274223 0.044361454 0.04114658 0.03530769 0.062235184 -0.012426073 0.009839427 0.04416935
0.013590243 -0.015542478 -0.0026296268 0.09196332 0.07628692 0.07135637 0.0223505 -0.0051847002
0.032011073 -0.0005791297 0.030958505 0.092822164 0.08853622 0.019170314 -0.011402541 0.003200221
0.014527521 0.103960186 0.09183097 0.005376882 0.011579109 0.043768562 0.097860806 0.056599073
0.13476764 0.03748533 0.044891287 0.027275143 0.013007298 0.009425725 0.09270367 0.065890394
0.05888861 0.12167833 0.015399287 0.06731077 0.03794741 0.09778402 -0.012076504 -0.011061202
0.06283662 -0.0026812693 0.002991015 0.00092574855 0.0070533007 0.06968034 0.05826146 0.03756041
0.090098396 0.047971662 0.014925005 -0.006030701 0.061277684 -0.03667802 -0.0063965046 0.051433016
-0.00012956787 0.049696762 0.031489078 0.044773124 0.008038005 -0.02948779 -0.02161116 0.076113835
0.051637217 0.050245207 0.05834277 0.03573377 0.12029585 0.026744299 0.06046953 0.042765267
0.010848619 0.101202756 0.016343068 0.08844846 0.10241577 0.041598156 -0.058285255 0.032683358
0.020011257
