Result/FD002/MLP.pth (torch, 6856 bytes, 8 tensors)

params f4 [8]
00000000: 39a0 c742 25a3 c742 03a7 c742 95a6 c742
00000010: 339f c742 d79e c742 35ae c742 eba3 c742
99.812935 99.81864 99.826195 99.825356 99.810936 99.810234 99.84025 99.82015

dnn.0.weight f4 [10, 65]
00000000: 48fb 063e 444f 873d fccb 103e 7d86 263c
00000010: 42d3 ad3d e5fc 163b 2f44 bdbd 4c5d 383e
00000020: d6ce 02be 5dfd dc3d 1f53 0f3e bf94 b53d
00000030: e376 0d3d 4eb3 f6bd 5b3d 4d3e b739 9c3e
00000040: 70c9 d13d b37d 8c3d 3802 81be 5c64 f7bd
00000050: 9cb1 653d e76f c9bd 9ee4 d1bd 5d4e a5bd
00000060: f0f4 e33c 0dde 45be 4bd8 07be 7dff 173e
00000070: 821a bdbe c81c 28be eef8 233d c917 563c
00000080: 9b98 d2bd e51a 973c 2369 103e 6726 52be
00000090: 1f89 4fbd 2565 92bd 9b20 88bd 94f4 a5bc
000000a0: 6ab8 26be cafc 003d 10b3 f13d 9116 2d3e
000000b0: 3546 f43c 4689 dcbd 42c3 b4bd 39de 8abb
000000c0: 6b09 0fbe b63e bbbb d508 063e 0cf4 373e
000000d0: e367 b0bc a01b 2fbc 22ef bf3d 8ea0 0bbe
000000e0: ddc1 c4bd 2ef2 83be 5f03 91bd 15a8 4a3e
000000f0: 1072 953d 8a40 53bc 1dc6 85bd f077 8b3c
00000100: 0a62 bfbd 83c3 48bd 4433 85bd d3b7 2a3e
00000110: c444 1e3d f084 5e3d 0664 e3bc 1e07 0b3e
00000120: 076b 61bc d51e 303e 060a 77bd fa6d b3bc
00000130: 8c1a 45be 97d8 6ebd 6df2 b4bd a4c8 04be
00000140: ae4d 94bc ea47 98bd e187 273e 1da6 63bd
00000150: bd70 b8bd 4fae 9abd 0897 0ebd 5f07 e2bd
00000160: 6436 75be f180 ee3d 08e2 8ebe 342f 86bd
00000170: e6fd 9dbd 7115 6ebc dde3 c93d 3379 10be
00000180: fd1d b3bd 119b 89be a7fb 0c3e c280 25b9
00000190: 0ddf 77be 449b f03d 47b9 08be 2911 ebbd
000001a0: fa44 ab3c 23a9 54be eddc 1cbe 08be 21bc
000001b0: 5dae 123d 297b af3d 823e 2abd 2179 e1bd
000001c0: 5b89 2e3e bc02 8e39 f382 163e dc89 39be
000001d0: 9416 18bd 94b1 40be 85dd be3d fc97 1f3e
000001e0: c86f 8abe 9e28 4e3e 3ea9 29bd 6d15 033c
000001f0: 0b19 91bd f8de 9bbd 75d0 333d ed06 3c3b
00000200: 87af dc3d 902c 173c e11a 293e b38b ec3d
00000210: e3ba 2dbd 0f62 873e 38a2 3a3e 8816 f63d
00000220: 8248 1bbe 2198 59bc 86c9 58bd 9b42 1a3e
00000230: a9e3 fa3d 7c41 aebd bc8a 713e 92c1 f83c
00000240: c0a0 e03d b73e b03d 5a6a c73d fa9f f0bd
00000250: b054 27bd 5283 23bd f483 ce3d a383 5cbd
00000260: 53e1 02be f834 dfbd a2fe bf3d 8fee 25be
00000270: 3fe3 60bd a031 883c d323 32be a4ce 383d
00000280: c1d4 6a3d 4ebe d73c eeb6 963d 6a4b 4f3e
00000290: d5ac 3a3e ff4d 6b3c 7038 c2bd 00b2 14be
000002a0: a6be 56be 0a7e df3c a750 6abe 7e44 81bd
000002b0: 8395 833d 4d4d b63e cc70 b6bd c090 15be
000002c0: 3f4a 7b3d 0c1b 4c3d dd10 1bbe 3148 1e3e
000002d0: b013 813d adc3 4a3e 6fc1 5f3d 6445 9a3e
000002e0: f91a 18be 4164 6fbd 3d76 ac3d 10be 053c
000002f0: b9b9 073e 0cf4 c13d 3a90 443c dc57 49bd
00000300: 0355 d53d fcee 593e 06a9 9dbe 205e b2bc
00000310: 487c 963d 8813 e4bd c4c2 9ebd 464f 0a3c
00000320: af90 b3bd 873c 8dbd 057d 19be 0084 55bd
00000330: de7f 803d fb43 b8bc 5804 3c3e 3dfc fabd
00000340: 7b68 e3bc c0d3 4e3e 159c b83c d723 63bd
00000350: b00d 793c 1abd 843d 9a0b a13d 1704 1dbe
00000360: bbd7 8abd 1e8c f93d fe5a 093e e8b8 2dbe
00000370: af9b 7b3e ad3f c1bb c3f1 d43c fcd6 273e
00000380: 8717 923d 90d7 903d 08ca 1a3d 5256 8bbd
00000390: fbf2 19be 8ea6 f3bd 9011 563e 7e28 18bd
000003a0: b91d 173d e784 733e 0b6e 39be 93b5 093e
000003b0: 4ed0 4d3d 1953 da3a a7c3 f4bd 50e7 413c
000003c0: d1dd 70bd 9fcd 91bd a558 50be d380 0f3d
000003d0: 7988 d43c 08f9 083c f29f 45bd 2dd5 48bd
000003e0: 64c7 0ebd eb4e 13bc 2aab a73d 1d86 eabb
000003f0: f741 583d 0aab 1dbb 68a0 7c3c f0a8 7bbd
0.13181794 0.066069156 0.14140314 0.0101639 0.0848756 0.002303892 -0.092415206 0.1800434
-0.12774214 0.10790513 0.13996552 0.08866262 0.034537207 -0.120459184 0.20042937 0.30512783
0.10243499 0.06859913 -0.25197005 -0.12079689 0.056077585 -0.09835797 -0.102486834 -0.08071587
0.027826756 -0.19322987 -0.13266103 0.14843555 -0.36934286 -0.16417229 0.04003232 0.013067194
-0.102830134 0.018445441 0.14102606 -0.20522462 -0.05066788 -0.07148198 -0.06646844 -0.020258226
-0.16281286 0.03149108 0.118017316 0.1690314 0.029818634 -0.1076837 -0.08826305 -0.004237917
-0.13968436 -0.005714263 0.13089307 0.1796419 -0.021533912 -0.010687739 0.09371783 -0.13635466
-0.09607289 -0.25770706 -0.07080721 0.1979068 0.07297146 -0.012893805 -0.06531928 0.017024964
-0.09344871 -0.04901458 -0.06503919 0.16671686 0.0386398 0.054325998 -0.027757656 0.13576934
-0.013758427 0.17199261 -0.060312293 -0.021903027 -0.19248408 -0.058312025 -0.088353015 -0.12967163
-0.018103447 -0.074355915 0.16360427 -0.05557834 -0.09005878 -0.07552778 -0.034812003 -0.11036562
-0.2394653 0.11645687 -0.27906823 -0.06551972 -0.07714443 -0.014531479 0.098579146 -0.14108734
-0.08745954 -0.2687612 0.13767873 -0.00015783592 -0.24206181 0.117483646 -0.13351928 -0.114778824
0.020906914 -0.20767646 -0.15318651 -0.009871967 0.035810817 0.08568413 -0.04156352 -0.11009432
0.17044584 0.00027086388 0.1469839 -0.18118995 -0.037130907 -0.1881774 0.09319595 0.15585321
-0.27038407 0.20132682 -0.041421168 0.008000714 -0.07084855 -0.07610887 0.043899972 0.0028690652
0.10775667 0.009226933 0.1651416 0.11550083 -0.042414557 0.26442 0.18225944 0.12016016
-0.15164378 -0.013280899 -0.052926563 0.1506447 0.12250454 -0.08508584 0.23588079 0.030365739
0.10968161 0.08605712 0.09737082 -0.11749263 -0.04085225 -0.03992016 0.10083762 -0.053836476
-0.12781267 -0.10898775 0.09374739 -0.16204284 -0.05490422 0.016625226 -0.17396478 0.045118943
0.057331804 0.026335862 0.0735911 0.20243612 0.18229993 0.014361857 -0.09483421 -0.14521027
-0.20971164 0.02728178 -0.22882329 -0.06311892 0.064250015 0.3560585 -0.08908233 -0.14605999
0.061350103 0.04983048 -0.15143152 0.15457226 0.06302583 0.19801207 0.054627832 0.30131066
-0.14854039 -0.05844522 0.0842099 0.00816299 0.13254441 0.09470376 0.011997277 -0.049156055
0.10416605 0.21282572 -0.30793017 -0.021773398 0.073479235 -0.11136538 -0.07751992 0.008441752
-0.087678306 -0.0689631 -0.14989097 -0.052127838 0.06274389 -0.022493353 0.18361032 -0.12255142
-0.027759781 0.20197964 0.022535363 -0.0554541 0.015201017 0.06481381 0.07863541 -0.15333591
-0.067794286 0.12184928 0.13413617 -0.16965067 0.24571107 -0.0058974833 0.025994187 0.16390604
0.07133394 0.07072365 0.03779033 -0.06803574 -0.15034096 -0.11897002 0.20905137 -0.03714799
0.03689358 0.23781167 -0.18108384 0.13448171 0.050247483 0.0016656845 -0.1195138 0.011834934
-0.05880529 -0.07119297 -0.20346315 0.035034966 0.025943981 0.008360155 -0.04824824 -0.049031425
-0.034858122 -0.0089909835 0.08186944 -0.007157101 0.052797284 -0.0024058246 0.015419103 -0.06144041

dnn.0.bias f4 [10]
00000000: e434 cebc 05eb abbd 9447 5dbe 062a 593d
00000010: 5496 bbbe 34cf 02be d3e7 613c 9ab3 c7bd
00000020: 23e3 9ebc 1cbb 6d3d
-0.025171705 -0.08394436 -0.21609336 0.053018592 -0.3663813 -0.12774354 0.013788181 -0.09751053
-0.019395417 0.05803977

dnn.2.weight f4 [10, 10]
00000000: c033 1e3d 36c9 a2bd 9918 3bbe 39b8 57be
00000010: 95a5 253e 7f30 273e 9f7f 333e 1df1 39bb
00000020: e82c 4ebe 5ba0 59bd db9d 2d3e df6a 1d3e
00000030: 525f f6bd ca58 2fbe 6903 313e 344d 83bd
00000040: b365 95be 50e9 163b dce6 b6bc 710d 36be
00000050: 839e a1be 45cc 8bbe 4767 333e cfc4 833e
00000060: c67a 84be 3167 8ebe 68ec 953e 9485 3dbe
00000070: a7f7 493e ed6b e23d 5634 393d 6573 bbbd
00000080: 4044 23bd fcc6 373e d9c8 25be bda9 83be
00000090: 4eb8 1b3d 72a8 80be bb7a 743d 7665 903e
000000a0: 545a c1bd 0143 813e b1c8 793d 946d 46bd
000000b0: bbd8 31bd 731d ea3d d30d 603d 7483 4e3e
000000c0: 8909 093e a313 a33e a5f8 57be fa04 0a3e
000000d0: 87e3 513e 3797 143e aefa 88be b116 2e3e
000000e0: 3dbd 57be dbdb 90be d50a 89bd 2a09 723e
000000f0: c467 d33d 4c6b c73c 5c46 ef3d 35c0 86bc
00000100: ba8d 583e 0c25 f03d af8a 7abd 4360 7abe
00000110: 733e 0dbe 0326 7c3e 1ca1 95be cd33 ad3d
00000120: b72e a0be ecbf 853d 2dfe 8fbe b02e d5bd
00000130: 51f9 58bd 574f 9fbd 3100 86be 9d97 fdbd
00000140: 544b 003d 7669 4a3e e52a 913e 4953 b7bd
00000150: 6f1f 60be 5062 2cbe a84c 163e 29f5 173e
00000160: b9d0 973e 4ce3 813b 115d 2a3e 8b60 74be
00000170: ea5b 543e 2ab0 433e 07f9 4c3e 08b1 19bc
00000180: ae3a 503e c103 963e 5665 a5be 9f00 87be
0.03862357 -0.07948534 -0.18271102 -0.21066369 0.16176446 0.16327094 0.17529152 -0.0028372474
-0.20134318 -0.053131443 0.16954748 0.153728 -0.120299 -0.17123714 0.17286457 -0.0641121
-0.29179153 0.0023027249 -0.02232688 -0.17778565 -0.31566247 -0.27304283 0.17519866 0.2573609
-0.2587492 -0.27813104 0.29281926 -0.18507987 0.19723378 0.110557415 0.045215927 -0.09152869
-0.03986001 0.17947 -0.16189899 -0.25715438 0.038017564 -0.25128514 0.059687357 0.2820241
-0.09441057 0.25246432 0.06098241 -0.048444346 -0.04341958 0.11431398 0.054700684 0.20167333
0.13382544 0.3185092 -0.21090944 0.13478461 0.20496951 0.14510809 -0.26753753 0.17000844
-0.21068282 -0.28292736 -0.06691519 0.23636308 0.10322526 0.024343155 0.11683342 -0.016449073
0.21147814 0.11725816 -0.061167415 -0.24450783 -0.13793354 0.24623875 -0.2922448 0.08457146
-0.3128564 0.06530747 -0.28123608 -0.104092956 -0.05297214 -0.07778805 -0.2617202 -0.123824336
0.03132184 0.19766793 0.28353038 -0.08951432 -0.21886991 -0.16834378 0.1467768 0.14839615
0.2965143 0.0039638635 0.16637065 -0.23864953 0.20738187 0.1911017 0.20016871 -0.009380586
0.20334885 0.2929974 -0.32303876 -0.2636766

dnn.2.bias f4 [10]
00000000: b1c8 b93d f36d 48be 7a31 90be 7d48 d43d
00000010: b776 823e bbc0 b1bd 7914 6d3d cb5f 9c3e
00000020: bb74 89be ddf6 88bd
0.09071482 -0.19573192 -0.28162748 0.103653885 0.25481197 -0.086793385 0.057880852 0.30541834
-0.2684687 -0.066877104

dnn.4.weight f4 [10, 10]
00000000: 7863 953e c51b 2bbe feeb b7bd c00b 2b3e
00000010: 9895 663e 9dbb 3e3e ef23 033d 3268 9a3e
00000020: 4d74 68be b4fe 75be dee6 633e 90d0 b23d
00000030: c201 a53e 2d1a 81be 6b7f 84be 8314 1f3c
00000040: 6c8e 2f3d 5555 903e 3e56 a33d 54f0 693e
00000050: 01be 083e b227 8f3d 65a6 613e d4fa f6bd
00000060: 2520 923c 9abc 87be b9ba 05bd dee0 8cbe
00000070: 89dd 53be 09ff 32bd 97ed 2e3e b8c5 47be
00000080: 09e0 073e 170a 113e c413 aabc 4876 83be
00000090: 5504 eabd 5680 09be 779f 58be 7071 15be
000000a0: 42d0 c43d 67f5 98bd b0af 903c 092f 25be
000000b0: cac9 fcbd 2b06 d0bd f0a6 68be dbf6 28bd
000000c0: 0cca 30be ae8f edbb 43bf fd3b 6c72 5a3e
000000d0: eebe 113e 4390 d13e d98f 523d cedf 45bd
000000e0: f249 70be f387 2b3d ecdd 143d 177d 283e
000000f0: f11a 6bbe 3467 21be 617f 573e 3257 81be
00000100: 7bd9 853e 1918 8c3e 0e83 ecbd 1afc 6b3d
00000110: bda7 3fbe d0ce 83be 5645 6d3c 2f84 97bc
00000120: 5528 713d b62f 683e 921f 4e3e a2e1 1dbe
00000130: 3205 2dbe 161f 903e 0461 8c3e d32a bdbd
00000140: 9d97 2cbe e4a1 ef3d af48 94be 4e96 623d
00000150: 153f 3ebe eea3 c4bc 165e 91be e72a 1dbe
00000160: 28c7 573e b81d 1ebd e94f 7fbc a708 5fbe
00000170: fbdd 61be 3c64 003b ca5d 243e b8af e03d
00000180: ce4e 823e 052e 52be a1b3 8b3d 8d0b f93c
0.2917745 -0.16709812 -0.08980559 0.16703701 0.22518003 0.18626256 0.03201669 0.3015762
-0.22700615 -0.24022943 0.22256038 0.087311864 0.32227904 -0.25215283 -0.25878462 0.00970948
0.042860433 0.28190103 0.07975434 0.22845584 0.1335373 0.06989993 0.2203613 -0.120595604
0.017837593 -0.2651108 -0.032648776 -0.2751531 -0.20689978 -0.04370025 0.17082821 -0.19509017
0.13269056 0.14164005 -0.020761378 -0.2567618 -0.114266075 -0.13427863 -0.21154581 -0.14594054
0.096100345 -0.07468682 0.0176619 -0.16131224 -0.12343176 -0.101574264 -0.22719932 -0.041251045
-0.17264575 -0.007249794 0.0077437474 0.21332711 0.1423299 0.40930375 0.051406715 -0.04830914
-0.23465708 0.0418777 0.036344454 0.16453968 -0.22959496 -0.15762025 0.21044685 -0.25261837
0.26142487 0.27362135 -0.11548434 0.05761347 -0.18716331 -0.25743723 0.014481863 -0.018495647
0.058876354 0.2267445 0.2012923 -0.15418103 -0.16896513 0.28148717 0.27417767 -0.09236684
-0.16854711 0.117008 -0.28961703 0.055319123 -0.18578751 -0.024003949 -0.28392094 -0.15348397
0.21072066 -0.03860256 -0.015583017 -0.21780644 -0.22057335 0.0019590994 0.16051403 0.10971016
0.25450748 -0.20525368 0.06821371 0.030401016

dnn.4.bias f4 [10]
00000000: 7283 643e 3397 ebbd 2b88 65be 20c4 363e
00000010: 1fc1 e5bd eab9 58be d547 6f3e dc27 9e3e
00000020: 5596 85bb 4d43 10be
0.22315767 -0.11503448 -0.22415225 0.17848253 -0.112184756 -0.2116467 0.23367245 0.30889785
-0.004076759 -0.14088173

dnn.6.weight f4 [1, 10]
00000000: eb37 8b3e 5b15 22be c43a 393e 1c0a 38be
00000010: 9c16 123e aba2 733d ed16 4c3e b6b4 d13d
00000020: 7094 b5bb bdb6 dfbd
0.271911 -0.15828459 0.18088824 -0.17972606 0.14266437 0.059481304 0.1993062 0.10239546
-0.005541377 -0.109235264
