Result/FD002/xNN.pth (torch, 54146 bytes, 28 tensors)

feature_embedding.weight f4 [15, 14]
0	0xbe6cb52e	-0.2311599
1	0xbe2553ef	-0.161453
2	0xbe23176f	-0.15926908
3	0xbe1904a5	-0.14943178
4	0xbd5f0e56	-0.05445703
5	0xbed560a5	-0.41675296
6	0x3deac744	0.11463788
7	0x3e42f7ae	0.19039795
8	0xbd5d1947	-0.053979184
9	0x3e0ae3a6	0.13563403
10	0xbe0c7ea3	-0.13720183
11	0x3d4f75ff	0.05064964
12	0xbdfa97c3	-0.122359775
13	0xbe0e6ca7	-0.13908635
14	0xbe4c11b6	-0.19928631
15	0x3de248cc	0.11049041
16	0xbe667dbc	-0.22508901
17	0x3e9b2065	0.30298153
18	0x3e3c454b	0.18385808
19	0x3dd0e260	0.101994276
20	0xbcf171de	-0.029473241
21	0xbdfe5b89	-0.12419803
22	0x3e4c3a8f	0.19944213
23	0xbea025cb	-0.31278834
24	0xbe843d98	-0.25828242
25	0xbd81a944	-0.06331113
26	0xbe54293b	-0.20718853
27	0x3d67dad3	0.05660517
28	0xbe8de352	-0.27712494
29	0xbe763f74	-0.24047643
30	0xbe62630c	-0.22108096
31	0x3e897d50	0.26853418
32	0xbd6dcd35	-0.05805703
33	0xbe9cc4cb	-0.3061889
34	0xbe9ec7df	-0.31011865
35	0xbdebbe3a	-0.11510892
36	0x3cafbd51	0.021452578
37	0xbe259feb	-0.16174285
38	0xbe192b2d	-0.14957877
39	0xbc4ad32d	-0.01237945
40	0x3d06810f	0.032837924
41	0xbdc5f7ca	-0.09666403
42	0xbd47a033	-0.048736762
43	0xbddec485	-0.10877327
44	0x3d0f9efe	0.035063736
45	0x3d38e38f	0.04513889
46	0xbe34fbb3	-0.1767414
47	0xbe35855b	-0.17726652
48	0xbe26aae3	-0.16276126
49	0x3e334ed5	0.17510541
50	0x3e43a9d8	0.19107759
51	0xbe1846a4	-0.14870697
52	0xbde94583	-0.113902114
53	0x3e4f76f5	0.20260222
54	0x3e022f84	0.12713438
55	0x3d70c434	0.058780864
56	0x3ce53898	0.027981088
57	0x3e1683da	0.14698735
58	0x3d88b687	0.06675439
59	0xbdf5bfeb	-0.11999496
60	0x3e82fa38	0.25581527
61	0x3d0b2734	0.033972934
62	0xbe98839f	-0.2978792
63	0xbda6cf25	-0.081449784
64	0xbe55e885	-0.2088948
65	0xbdf87337	-0.121313505
66	0xbd37fe39	-0.04492018
67	0xbe056ade	-0.13029048
68	0x3e0c598e	0.13706037
69	0x3c890a61	0.016728582
70	0x3c8f01c6	0.0174569
71	0x3ba3f3b6	0.005003418
72	0xbd8227a8	-0.0635522
73	0xbbf776c8	-0.0075520016
74	0x3d526c35	0.051372726
75	0x3ead16bb	0.33806404
76	0x3d23e52d	0.04001348
77	0x3ccc0334	0.024903871
78	0xbbcf8096	-0.0063324673
79	0x3f064fb1	0.5246535
80	0xbd05462b	-0.03253762
81	0xbd1b85b7	-0.037969317
82	0x3b3ac6a8	0.0028499756
83	0xbba003ee	-0.004883281
84	0x3e4c1253	0.19928865
85	0xbdd69ed4	-0.10479513
86	0xbd148990	-0.036264002
87	0xbe27f942	-0.16403678
88	0xbe24dfb9	-0.16100968
89	0xbdaf91d6	-0.08572738
90	0xbe9abc61	-0.30221847
91	0x3e263241	0.16230108
92	0xbe4395a2	-0.19100049
93	0x3eaea5a1	0.3411074
94	0xbce5c460	-0.02804774
95	0xbc4eb04d	-0.012615276
96	0xbe216c6a	-0.15764013
97	0x3d3508e7	0.044197943
98	0xbdb7f689	-0.0898257
99	0xbe41509a	-0.18878403
100	0xbdbc84df	-0.09205031
101	0x3e6f0978	0.23343456
102	0x3d96da1e	0.07365821
103	0xbe1f8d45	-0.15581234
104	0x3af77205	0.0018878585
105	0xbdb0f06d	-0.086396076
106	0xbdfcafe7	-0.12338238
107	0xbe2f2484	-0.17103773
108	0x3db0391c	0.08604643
109	0xbe0a4d94	-0.13506156
110	0x3cc01185	0.023445854
111	0x3e37b346	0.17939481
112	0xbdef2e87	-0.11678796
113	0xbe21e50a	-0.15810028
114	0xbe641e6b	-0.22277229
115	0xbe14626f	-0.14490674
116	0x3e6a7ae3	0.2289844
117	0x3db6d658	0.089276016
118	0xbe18c11f	-0.1491742
119	0x3e7aeaa3	0.2450357
120	0xbdbef938	-0.093248785
121	0xbebfd2bf	-0.37465474
122	0xbe940f65	-0.28917995
123	0xbe954026	-0.29150504
124	0xbe3b8397	-0.18311916
125	0xbd535d87	-0.051602867
126	0x3eb92ce9	0.36167076
127	0x3dbd456b	0.09241756
128	0xbd2b4069	-0.041809473
129	0xbe0e55fe	-0.13899991
130	0x3e376ca1	0.17912532
131	0xbe686fee	-0.22698948
132	0x3e5b7316	0.2143062
133	0xbe4e08e1	-0.20120575
134	0xbe2791f3	-0.16364269
135	0xbe544706	-0.20730218
136	0x3ea463c1	0.32107356
137	0x3e2e40a2	0.17016843
138	0xbd5150c3	-0.05110241
139	0xbdbab45b	-0.09116431
140	0xbe6df3c3	-0.23237519
141	0x3cc26f78	0.023734793
142	0xbd57ebbb	-0.052715044
143	0x3d95e7e9	0.07319624
144	0xbd444de9	-0.047925863
145	0xbe820a94	-0.25398695
146	0xbd716dcc	-0.0589426
147	0xbe7b59b6	-0.24545941
148	0x3e41ff5e	0.18945071
149	0x3e3cc797	0.18435512
150	0xbe514f85	-0.2044049
151	0x3e7ddbbc	0.24790853
152	0x3ba7bd60	0.005119011
153	0x3e5244e9	0.205341
154	0x3e06d62e	0.1316764
155	0xbe34d45f	-0.17659138
156	0x3deb2ede	0.114835486
157	0x3c9b90b6	0.018989902
158	0x3d43a39f	0.047763463
159	0xbe882094	-0.26587355
160	0xbeaa348c	-0.33243215
161	0x3deab161	0.114596136
162	0xbdfcd3b3	-0.12345066
163	0xbcd130aa	-0.0255359
164	0xbea1aa5b	-0.31575283
165	0xbe80cec6	-0.25157756
166	0x3d04250b	0.03226189
167	0x3db30cc2	0.08742668
168	0xbd24826c	-0.040163442
169	0x3c4b819d	0.012421039
170	0xbdf93dd6	-0.121699974
171	0xbd742647	-0.059606817
172	0xbea53a5a	-0.3227108
173	0x3dcc90e3	0.099885724
174	0xbdceb86c	-0.100937694
175	0x3dcf3c3b	0.1011891
176	0xbe91cebe	-0.28478044
177	0x3e8615f2	0.26188618
178	0x3d8f72d8	0.070043266
179	0xbd56c92b	-0.052437942
180	0x3e3682a3	0.17823271
181	0xbd247963	-0.040154826
182	0xbb11d030	-0.0022249334
183	0x3e048faf	0.12945436
184	0x3cb00b16	0.021489661
185	0x3d39a03a	0.04531882
186	0x3db6ab2e	0.08919369
187	0x3ee3c9a8	0.4448979
188	0xbe67b28c	-0.22626704
189	0x3d207594	0.03917463
190	0x3e19df3e	0.15026566
191	0x3e45f80a	0.193329
192	0xbded9842	-0.116013065
193	0x3cd76be8	0.02629657
194	0x3d77d1d8	0.060502857
195	0x3d32b817	0.043632593
196	0x3dfe2102	0.124086395
197	0x3d3fc21d	0.04681598
198	0xbe651e00	-0.22374725
199	0x3e919eb0	0.2844138
200	0xbe4e1034	-0.20123369
201	0x3dd5eb62	0.10445286
202	0x3cabc7a4	0.02096922
203	0x3de2ee81	0.11080647
204	0x3e85b405	0.26113907
205	0xbe0af6f3	-0.13570766
206	0x3e1019a0	0.14072275
207	0xbe704276	-0.23462853
208	0x3e438bf4	0.19096357
209	0xbdf70fc0	-0.12063551

feature_embedding.bias f4 [15]
0	0xbe109f37	-0.14123236
1	0xbdf40c29	-0.11916382
2	0x3e12d8ba	0.14340487
3	0x3d5d7528	0.054066807
4	0xbe2310ff	-0.15924452
5	0xb885220a	-6.3482745e-05
6	0x3b9782e1	0.0046237563
7	0xbbc12da8	-0.005895335
8	0x3cf99dc3	0.030470734
9	0x3d3d0a0a	0.046152152
10	0xbe01e016	-0.12683138
11	0xbe8922ed	-0.2678446
12	0x3dca77a2	0.098860994
13	0x3e304dc8	0.17217171
14	0x3e1274fe	0.14302441

transformer_encoder.layers.0.self_attn.in_proj_weight f4 [45, 15]
0	0xbd8657fa	-0.06559749
1	0x3d9e8958	0.0774104
2	0x3e2d8e43	0.169488
3	0x3e11c621	0.14235736
4	0xbd61c954	-0.055123642
5	0xbe7484ee	-0.23878834
6	0x3e3c4365	0.18385084
7	0x3dedb9db	0.11607715
8	0xbe4579f0	-0.19284797
9	0x3d8e7b0e	0.069570646
10	0xbe73fe78	-0.23827541
11	0xbe15bb4c	-0.1462223
12	0x3e32e108	0.17468655
13	0x3e3ac59b	0.18239443
14	0x3ea08f0f	0.31359145
15	0xbe410b15	-0.18851884
16	0xbd51d5b7	-0.051229205
17	0x3d4a4be9	0.0493888
18	0x3e685b31	0.22691037
19	0x3e1f7474	0.15571767
20	0x3a598e85	0.000829913
21	0x3e421205	0.18952186
22	0xbcb5939e	-0.022165116
23	0xbe8a133e	-0.26967806
24	0x3e16cff6	0.14727768
25	0xbe815476	-0.2525975
26	0xbc7738cc	-0.015089225
27	0x3e1c8274	0.15284139
28	0xbe94266c	-0.28935564
29	0x3e0c398d	0.13693829
30	0xbe9e1eaf	-0.30882785
31	0xbd57210a	-0.052521743
32	0x3e158d65	0.14604719
33	0x3e867d38	0.2626741
34	0x3dcb4823	0.09925868
35	0x3d345c20	0.04403317
36	0x3e12c9e0	0.14334822
37	0xbe0329d4	-0.12808925
38	0x3cee7a75	0.029111126
39	0xbe088c0e	-0.13334677
40	0xbe6f1604	-0.23348242
41	0x3e83cd65	0.2574264
42	0xbea4bcde	-0.32175344
43	0xbe573ea8	-0.21019995
44	0x3c3acf37	0.011401943
45	0xbd1d9536	-0.038472377
46	0x3d1b8ab7	0.037974086
47	0xbe583ada	-0.211162
48	0xbe75ca14	-0.24002868
49	0xbe91d75c	-0.2848462
50	0xbeac5ce4	-0.3366462
51	0x3e173a8b	0.14768426
52	0xbe1f7188	-0.15570652
53	0x3e8135fd	0.25236502
54	0x3e507a83	0.20359235
55	0xbe9be821	-0.30450538
56	0xbe9988d2	-0.29987198
57	0xbe7b260c	-0.24526232
58	0xbe8335a5	-0.25626865
59	0x3e658993	0.22415762
60	0xbca24eea	-0.01981302
61	0x3e8116bb	0.25212654
62	0x3d03ddb2	0.032193847
63	0x3e1d61d3	0.15369348
64	0xbe42080b	-0.1894838
65	0xbe726259	-0.23670329
66	0x3eb0f0b1	0.34558633
67	0xbe59517c	-0.2122249
68	0x3eb7765b	0.35832486
69	0xbe566451	-0.20936705
70	0x3e9d545a	0.30728418
71	0x3c410027	0.0117798215
72	0x3da63757	0.08116024
73	0xbc8e13bd	-0.017343396
74	0x3eb577da	0.35443002
75	0xbb30670a	-0.0026916885
76	0x3e2bdd85	0.16783722
77	0xbcb648c5	-0.022251496
78	0x3e8cb3d6	0.27480954
79	0xbc1c507e	-0.009540675
80	0x3e7e69fc	0.24845117
81	0x3d61f7b4	0.05516787
82	0x3dc480b1	0.095948584
83	0xbe9d6e8b	-0.307484
84	0x3cc635a5	0.024195502
85	0xbe8344ac	-0.2563833
86	0xbe0b942a	-0.13630739
87	0xbe1d6ad1	-0.15372778
88	0x3ea6eb10	0.32601213
89	0xbe54a705	-0.20766838
90	0x3e10b710	0.14132333
91	0xbe645381	-0.22297479
92	0xbce0a016	-0.027420085
93	0x3e6c6686	0.23085985
94	0xbe8f3ba8	-0.27975202
95	0xbdd9a503	-0.106271766
96	0x3d766d20	0.060162663
97	0x3ce1ea4d	0.027577544
98	0x3d976f07	0.07394224
99	0xbe49f63d	-0.19722839
100	0xbe0076ac	-0.1254527
101	0x3e8379d3	0.25678882
102	0xbd1c76bc	-0.03819917
103	0xbe1cebdc	-0.15324348
104	0xbe7336af	-0.23751329
105	0xbe944867	-0.2896149
106	0xbe7dafbe	-0.24774072
107	0x3cad283d	0.021137351
108	0x3dd55c2a	0.104179695
109	0x3e817ebb	0.25292
110	0xbe46c900	-0.19412613
111	0x3db11911	0.08647359
112	0x3d87cfc0	0.06631422
113	0xbcbfb00f	-0.023399381
114	0xbe0e7ad7	-0.13914047
115	0x3bb285c5	0.0054480755
116	0x3ebbb31b	0.36660084
117	0xbe46a9f8	-0.19400775
118	0x3e316aca	0.17325893
119	0x3a8ce1e7	0.0010748476
120	0x3d370b80	0.0446887
121	0x3da56c80	0.08077335
122	0xbdbec2bd	-0.09314487
123	0xbdac6f51	-0.084196694
124	0x3d8836be	0.06651066
125	0x3dd8b27c	0.10580918
126	0xbe9712f5	-0.2950665
127	0x3e870626	0.26371878
128	0x3ccdae03	0.02510739
129	0x3e19e4d0	0.15028691
130	0xbe68e679	-0.22744168
131	0x3e24b34b	0.1608402
132	0x3e33d9a0	0.17563486
133	0xbc630c74	-0.0138579495
134	0x3eb664f7	0.35623905
135	0xbd4625c6	-0.048375867
136	0x3e02d3ac	0.12776059
137	0xbd36e3f9	-0.044651005
138	0x3ca6f624	0.02038104
139	0x3cc1ba16	0.023648303
140	0x3e7f2fb0	0.24920535
141	0x3dcae02b	0.09906038
142	0xbe5df3c9	-0.21675028
143	0x3c470f48	0.012149639
144	0x3e02d9b9	0.12778367
145	0xbe9d097b	-0.30671296
146	0xbe1e58e0	-0.1546359
147	0x3dc97f4b	0.09838732
148	0xbdad4492	-0.084603444
149	0xbdba6992	-0.09102167
150	0xbe365903	-0.17807393
151	0x3e27bd3a	0.16380778
152	0x3e70c2ce	0.23511812
153	0x3ea5da0e	0.32392925
154	0xbe8a9adc	-0.27071273
155	0x3e9304a3	0.28714475
156	0xbe36b6b0	-0.17843127
157	0x3e971ef2	0.29515797
158	0x3daca3f2	0.084297076
159	0x3d9d5aff	0.07683372
160	0x3c9922af	0.018693296
161	0xbe44c6d6	-0.19216475
162	0x3e73dbda	0.23814335
163	0xbdd86178	-0.10565466
164	0x3eac01b2	0.33595043
165	0x3d4e63f8	0.050388306
166	0x3e59decf	0.21276401
167	0x3e21b7e4	0.15792805
168	0x3de0dfc9	0.10980184
169	0x3cc92276	0.024552565
170	0xbe348960	-0.1763053
171	0xbe2bc966	-0.16776046
172	0xbe3b6cfb	-0.18303291
173	0x3eaf893e	0.34284395
174	0x3e6fc68e	0.23415586
175	0x3ea1751c	0.3153466
176	0x3cfad0f4	0.030617215
177	0x3dd82ce1	0.10555435
178	0x3e4af86c	0.19821328
179	0xbdee8d57	-0.11648052
180	0x3e7a140d	0.24421711
181	0xbe65473e	-0.22390458
182	0xbe64e9fd	-0.22354884
183	0x3dc05bd9	0.093925186
184	0x3de20f58	0.11038083
185	0x3cf102d0	0.029420286
186	0x3e071625	0.13192041
187	0x3e16a424	0.14711052
188	0x3d237ee8	0.03991595
189	0xbe2175d7	-0.15767609
190	0x3e1c03d5	0.15235837
191	0xbe8ee0f6	-0.27906007
192	0x3e9ee562	0.3103438
193	0xbe89a5c6	-0.26884288
194	0xbc8cce46	-0.017188203
195	0xbe2485db	-0.16066687
196	0xbca19d30	-0.019728273
197	0x3c85c186	0.01632763
198	0xbe43520c	-0.19074267
199	0x3e60308b	0.21893518
200	0xbe23991f	-0.1597638
201	0xbc196aa6	-0.009363806
202	0xbe81949c	-0.25308692
203	0xbcee6cb3	-0.029104566
204	0xbd4a25cf	-0.049352463
205	0x3d538067	0.051636126
206	0xbe7ea5be	-0.24867913
207	0xbea08925	-0.31354633
208	0xbe9093a5	-0.28237644
209	0xbe94a0c4	-0.29028904
210	0xbdb2b39c	-0.08725664
211	0x3df46717	0.11933725
212	0x3e31cb3b	0.17362683
213	0xbe45a1b8	-0.19299972
214	0x3d28e86f	0.04123729
215	0xbec85af4	-0.39131892
216	0x3e29e0b0	0.16589618
217	0xbdadc620	-0.08485055
218	0xbe020ebc	-0.12700933
219	0x3d207125	0.039170403
220	0x3e2d704d	0.1693737
221	0xbeb383ba	-0.35061437
222	0x3dfda96d	0.12385831
223	0x3e74ce38	0.23906791
224	0x3dff397a	0.12462135
225	0x3dff3114	0.12460533
226	0x3e48fc18	0.19627416
227	0xbda9f28b	-0.082982145
228	0xbe758fd2	-0.23980644
229	0x3de624b6	0.11237471
230	0x3e72284e	0.23648188
231	0xbe8d0ace	-0.27547306
232	0xbe834719	-0.2564018
233	0xbd96a2e7	-0.0735529
234	0xbe4a4362	-0.19752267
235	0x3db090b7	0.08621352
236	0xbea21bfa	-0.3166197
237	0x3e6ef075	0.23333915
238	0xbea1fb76	-0.31637162
239	0xbe04d8c2	-0.12973312
240	0xbe93c597	-0.28861687
241	0x3e724a6a	0.23661199
242	0x3e0090d7	0.12555252
243	0xbe27b76c	-0.16378564
244	0x3cc39247	0.023873461
245	0x3e8b3cd6	0.27194852
246	0xbe95fc88	-0.2929423
247	0x3e8566b2	0.26054913
248	0x3d62abed	0.055339742
249	0x3e06748f	0.13130401
250	0xbe5d9151	-0.21637465
251	0xbcbd9e53	-0.023146784
252	0xbe562de9	-0.20915951
253	0x3e120be8	0.14262354
254	0xbd26d355	-0.040728886
255	0x3e97d41f	0.29654023

transformer_encoder.layers.0.self_attn.in_proj_bias f4 [45]
0	0x3d9c5511	0.07633413
1	0xbcba30d7	-0.022728367
2	0xbdb30d08	-0.0874272
3	0xbd9fce09	-0.0780297
4	0x3dad1c0b	0.084526144
5	0xbc558825	-0.013032948
6	0x3dd2e5b3	0.10297718
7	0xbe06b966	-0.13156661
8	0xbdca79c6	-0.09886508
9	0xbd6d54c3	-0.057942163
10	0x3df74618	0.12073916
11	0x3df3b53a	0.118998006
12	0x3da8c732	0.082411185
13	0xbdd61ec8	-0.1045509
14	0xbdd6a5d1	-0.10480846
15	0x3a85b897	0.0010202107
16	0xba626d0b	-0.00086374645
17	0xba11e1c9	-0.00055649556
18	0xbc369017	-0.011142752
19	0x3c190de0	0.009341687
20	0x3a65926b	0.0008757475
21	0xbb65f765	-0.0035090086
22	0x3bd6c0c6	0.006553742
23	0xbb5093ec	-0.003182645
24	0xbab7d737	-0.0014025931
25	0x3b012dc0	0.0019711107
26	0xbc704718	-0.014665388
27	0xbbe16742	-0.0068787644
28	0xbc6aeb57	-0.014338336
29	0xbb3ffc2e	-0.0029294598
30	0x3943f9c4	0.00018689694
31	0x3cf29db5	0.029616216
32	0xbb0cabb4	-0.0021464648
33	0x3c6542d4	0.013992984
34	0xbc9e62a6	-0.019334149
35	0xbce32e7d	-0.027732128
36	0xbb37bd1b	-0.00280363
37	0x3cc5d3e0	0.024148881
38	0xbc7c49d9	-0.015398466
39	0x3d0ee1af	0.034883197
40	0xbd02a7d6	-0.031898342
41	0x3b3e3057	0.0029020512
42	0x3ac4f809	0.0015027534
43	0x3b5b1c91	0.0033433775
44	0x3cfc9360	0.030831993

transformer_encoder.layers.0.self_attn.out_proj.weight f4 [15, 15]
0	0xbccf13bd	-0.025277967
1	0xbde07bdb	-0.109611236
2	0x3d67a130	0.056550205
3	0x3e4673d4	0.19380122
4	0xbe4fa6c9	-0.20278467
5	0xbd0689df	-0.032846328
6	0x3e3b581e	0.18295333
7	0x3e08669a	0.1332039
8	0x3e62fc26	0.221665
9	0x3dbf8aa8	0.093526185
10	0x3e420fb4	0.18951303
11	0xbe1c40ca	-0.1525909
12	0x3d2ec14d	0.042664815
13	0x3d2083de	0.03918826
14	0x3d90bbbe	0.07067059
15	0x3bae2e10	0.0053155497
16	0x3e2062ef	0.1566274
17	0xbe4a3796	-0.19747767
18	0xbc337926	-0.010954177
19	0x3dd9d621	0.10636545
20	0x3e1fb91e	0.1559796
21	0x3d885dec	0.06658539
22	0x3dfe5d52	0.12420143
23	0xbdbbdeae	-0.09173332
24	0xbc317f06	-0.010833507
25	0x3e22454d	0.15846749
26	0x3e501993	0.20322256
27	0x3e12f1d8	0.14350069
28	0xbe6bae3c	-0.23015684
29	0xbd600ee4	-0.0547017
30	0xbe296164	-0.16541058
31	0x3e424d3b	0.18974774
32	0x3e04d819	0.1297306
33	0x3dfc0b80	0.12306881
34	0xbe6a3c09	-0.22874464
35	0xbe055263	-0.1301971
36	0xbe08d8a4	-0.13363892
37	0x3e1e12ea	0.15436903
38	0x3e6901b1	0.22754551
39	0xbd6692b4	-0.05629225
40	0xbe4a72fa	-0.19770423
41	0xbcd2b154	-0.025719322
42	0x3d0818e0	0.033226848
43	0x3c71140d	0.014714253
44	0x3db6faa2	0.08934523
45	0xbc8ff416	-0.017572444
46	0xbe1e725a	-0.15473309
47	0xbe6f1312	-0.23347118
48	0x3d5a0091	0.053223196
49	0x3d036fc0	0.032088995
50	0xbe3b6ea0	-0.18303919
51	0xbe00434d	-0.12525673
52	0xbeacfedd	-0.33788195
53	0x3ca19438	0.019723997
54	0xbdcf446e	-0.10120474
55	0xbe07e3d7	-0.13270508
56	0x3d19398e	0.037408404
57	0xbd97ca4c	-0.07411632
58	0xbe1fdbdd	-0.15611215
59	0x3cb34c4f	0.021886973
60	0xbe127c31	-0.14305188
61	0xbdc92db3	-0.098231696
62	0x3e2ec4bb	0.17067234
63	0x3e1cd2cc	0.15314788
64	0x3e0607e4	0.13088948
65	0xbc794f80	-0.015216708
66	0x3d9db407	0.07700353
67	0xbdeed7f4	-0.116622835
68	0x3c91e0bc	0.017807357
69	0x3e34c077	0.17651545
70	0xbcc6c7f6	-0.02426527
71	0xbe37bb8d	-0.17942639
72	0x3e1ec359	0.15504207
73	0x3e0a166c	0.13485116
74	0x3e08c2b1	0.13355519
75	0xbdcb9538	-0.099405706
76	0xbd1a4e3c	-0.037672266
77	0x3d832098	0.06402701
78	0xbdd5a83b	-0.10432478
79	0xbe11cb5f	-0.14237736
80	0xbd9fc68e	-0.07801543
81	0xbe08a902	-0.13345721
82	0xbe1c07bd	-0.15237327
83	0xbddfd0ee	-0.10928522
84	0xbe198a16	-0.14994082
85	0xbdb99ae3	-0.090627454
86	0x3e5701eb	0.20996825
87	0x3dd88521	0.10572267
88	0x3c75fd81	0.015014053
89	0xbe319b61	-0.17344429
90	0xbbcba2f9	-0.006214496
91	0xbd901230	-0.07034719
92	0x3da7b272	0.081883326
93	0x3d5c150a	0.053731002
94	0x3e03b36a	0.1286141
95	0x3e7aa44d	0.24476738
96	0x3cb300dd	0.021850998
97	0xbe549c90	-0.20762849
98	0xbe3faaf8	-0.18717563
99	0x3e32f135	0.17474826
100	0xbda2f8fc	-0.07957646
101	0xbd412b6d	-0.047160555
102	0x3cbd6d66	0.023123454
103	0xbd02fe55	-0.03198083
104	0xbe7358fa	-0.2376441
105	0x3d02a647	0.031896856
106	0x3d8f8999	0.070086665
107	0xbe0f08f3	-0.13968258
108	0xbd310a49	-0.0432227
109	0xbd7037a3	-0.05864681
110	0x3de27ba3	0.11058738
111	0xbe1d66a8	-0.15371192
112	0x3ea34d16	0.3189475
113	0x3e7ed1fa	0.24884787
114	0x3e1a93b5	0.15095408
115	0xbdead9f0	-0.114673495
116	0xbd743986	-0.05962517
117	0x3e2cd5eb	0.16878478
118	0xbdc19744	-0.0945268
119	0xbd4aa8d8	-0.04947743
120	0xbe2d8824	-0.16946465
121	0x3d572d83	0.052533638
122	0x3d15c547	0.03656509
123	0xbe2a787b	-0.16647522
124	0xbd44d732	-0.04805679
125	0x3c171528	0.009221353
126	0xbe7a82d0	-0.24463964
127	0xbe2d163c	-0.16903013
128	0xbddf327e	-0.108983025
129	0x3e41ad00	0.1891365
130	0xbdb358c6	-0.087571666
131	0xbc5ab050	-0.0133477
132	0x3d9a30a2	0.07528807
133	0xbe6d4277	-0.23169886
134	0xbe3f4645	-0.1867915
135	0xbdfbb954	-0.12291208
136	0xbe51d1ff	-0.20490263
137	0xbe045c49	-0.12925829
138	0x3c236c78	0.009974591
139	0x3e6886c6	0.22707662
140	0xbe1eabbc	-0.15495199
141	0x3e48e759	0.19619502
142	0xbe0293e5	-0.1275173
143	0xbd9bf3e9	-0.076148815
144	0x3e64bf40	0.22338581
145	0xbda2a3bb	-0.07941385
146	0x3db2adea	0.08724578
147	0x3c7a19ca	0.015264938
148	0x3ded52e7	0.11588078
149	0xbe55c56c	-0.20876092
150	0x3de05c7a	0.109551385
151	0xbe53717a	-0.20648757
152	0xbe1c09d6	-0.15238127
153	0x3eae1bc0	0.34005547
154	0x3d0c1526	0.034199856
155	0xbcc5f69d	-0.024165446
156	0xbe22ece3	-0.15910678
157	0xbec79d8f	-0.38987395
158	0xbe1d4c0c	-0.15361041
159	0xbe1f98c0	-0.15585613
160	0xbe66faac	-0.22556561
161	0x3d83eefd	0.06442068
162	0xbe0ecf1e	-0.13946196
163	0xbe2fea01	-0.17179109
164	0xbe3d092f	-0.18460535
165	0x3e9bc714	0.30425322
166	0x3dac29fc	0.084064454
167	0x3df82d56	0.12118022
168	0xbc0089a8	-0.00784532
169	0x3e334aa1	0.17508937
170	0x3aafe627	0.0013420031
171	0xbdc4189a	-0.09575005
172	0xbd3eaa3d	-0.04654907
173	0xbe0f0cc8	-0.1396972
174	0xbdc749ab	-0.09730848
175	0x3dbc1b5a	0.091849044
176	0x3df4fa16	0.119617626
177	0x3e2eeb48	0.1708194
178	0x3d511bcc	0.0510519
179	0x3e890b6b	0.26766524
180	0xbc0e49e5	-0.00868461
181	0xbdacb4d3	-0.08432927
182	0xbce81666	-0.028330993
183	0xbe4ead15	-0.20183213
184	0xbda636ba	-0.08115907
185	0x3dab5384	0.08365539
186	0x3e985d28	0.29758573
187	0xbdf536eb	-0.119733654
188	0x3e204017	0.15649448
189	0xbd7cc154	-0.06170781
190	0x3d6b8e3a	0.057508685
191	0x3e620aae	0.22074386
192	0xbe243555	-0.1603597
193	0x3d1b9479	0.03798339
194	0xbdd4ebf6	-0.103965685
195	0x3d17d08d	0.037064124
196	0x3e5c24c0	0.21498394
197	0xbd95f1c3	-0.07321503
198	0x3e0f5878	0.13998592
199	0xbd6f5ed9	-0.058440063
200	0xbe5c5591	-0.21517016
201	0xbd20da22	-0.039270528
202	0x3d06dd85	0.0329261
203	0xbe180b07	-0.14847957
204	0x3e4cc003	0.19995122
205	0xbd667e31	-0.05627269
206	0x3e8145e6	0.2524864
207	0xbda331d5	-0.07968489
208	0x3d237fcd	0.039916802
209	0x3deb809d	0.114991404
210	0xbdac39c4	-0.084094554
211	0xbdec6e68	-0.11544496
212	0xbd8f8179	-0.07007117
213	0x3dd1fcd7	0.102533035
214	0xbe371772	-0.17880037
215	0xbddd1c28	-0.10796386
216	0x3e061fd2	0.13098076
217	0x3ded883d	0.11598251
218	0x3c91dca8	0.017805412
219	0x3e36c4b2	0.17848471
220	0xbc2e0fe3	-0.010623905
221	0x3c3fc17a	0.011703843
222	0x3d96797e	0.073473915
223	0xbe46de45	-0.19420727
224	0xbdecf4b2	-0.115701094

transformer_encoder.layers.0.self_attn.out_proj.bias f4 [15]
0	0xbc86ea3b	-0.016469112
1	0xbd364c74	-0.044506505
2	0x3d218e13	0.039442133
3	0xbc3cc227	-0.011520899
4	0x3ca27d4e	0.01983514
5	0xbd3588c6	-0.04431989
6	0x3d5c982b	0.053856056
7	0x3ce98137	0.028503997
8	0xbd1bc158	-0.038026184
9	0x3ceb52a3	0.028725928
10	0xbc80b64b	-0.015711924
11	0x3b6138f0	0.0034366213
12	0xbc0614e4	-0.008183692
13	0x3d298727	0.041388657
14	0x3c2cc6d0	0.0105454475

transformer_encoder.layers.0.linear1.weight f4 [128, 15]
0	0xbd7c10b7	-0.061539378
1	0x3ca4f9dd	0.020138675
2	0xbe072057	-0.1319593
3	0xbc8bf572	-0.01708481
4	0xbd19cb06	-0.037547134
5	0x3d0cf5bd	0.03441404
6	0x3e342c40	0.17595005
7	0xbe43ef6c	-0.19134301
8	0xbe177858	-0.14792001
9	0x3d5a1bac	0.053249046
10	0x3d93a464	0.072090894
11	0x3e453f41	0.1926241
12	0x3e275c19	0.16343726
13	0xbd84d046	-0.064850375
14	0xbd331de2	-0.04372967
15	0x3e55df70	0.20886016
16	0xbc719840	-0.014745772
17	0xbd75817e	-0.059937946
18	0x3e0c6304	0.13709646
19	0x3e5d998e	0.21640608
20	0x3d37cdd4	0.044874027
21	0xbc9a1f7c	-0.018813841
22	0xbddd1994	-0.10795894
23	0x3e1140d0	0.1418488
24	0xbd17de5c	-0.037077293
25	0xbe79fbe6	-0.24412498
26	0xbde0f33c	-0.10983893
27	0x3de7d002	0.11318971
28	0x3e76205a	0.24035779
29	0xbe0d6dce	-0.13811418
30	0x3e5547df	0.20828198
31	0xbe355602	-0.1770859
32	0x3de1b8a3	0.11021545
33	0xbe4d76b1	-0.20064808
34	0x3e8535ab	0.26017508
35	0x3e12f896	0.1435264
36	0x3e2c5c52	0.16832092
37	0xbe3368aa	-0.17520395
38	0x3e2db3af	0.16963075
39	0xbe604b95	-0.21903832
40	0x3e5f91f4	0.2183302
41	0xbd45c456	-0.048282944
42	0x3e224311	0.15845896
43	0xbca926b4	-0.020648338
44	0x3a313827	0.00067603815
45	0x3e08e76c	0.1336953
46	0x3e0b246a	0.1358811
47	0x3e000484	0.12501723
48	0xbe3b4aff	-0.18290327
49	0xbe0a851f	-0.13527344
50	0xbd5a86f5	-0.05335136
51	0x3d915603	0.070964836
52	0x3e85d7ba	0.2614115
53	0x3e5979a8	0.21237814
54	0x3e1dc4fd	0.15407176
55	0x3d3716fb	0.04469965
56	0xbdf792f8	-0.12088579
57	0x3ccf22c7	0.025285138
58	0x3b83dced	0.004024139
59	0x3e59f2d3	0.21284036
60	0x3c7ea5e1	0.015542478
61	0xbdaedd57	-0.08538311
62	0x3d985f16	0.07440011
63	0xbcebf749	-0.028804438
64	0xbd2ca35d	-0.042147983
65	0x3e51ba95	0.20481332
66	0xbe209318	-0.15681112
67	0x3e064ccf	0.13115238
68	0xbe160761	-0.14651252
69	0x3e448692	0.1919196
70	0x3c9b478f	0.01895502
71	0x3da220b6	0.07916395
72	0xbe10c1ee	-0.14136478
73	0x3ca7ebc4	0.020498164
74	0x3dc314c6	0.095254466
75	0x3d10f10c	0.03538613
76	0x3e39a44b	0.18129079
77	0xbe14e7d8	-0.14541566
78	0xbe509400	-0.20368958
79	0xbe21e72f	-0.15810846
80	0xbe4ef69c	-0.20211262
81	0xbde689f2	-0.1125678
82	0xbd420830	-0.04737109
83	0x3b262c55	0.0025356014
84	0x3da136ed	0.078718044
85	0x3e212b2d	0.15739127
86	0xbcd5fc8e	-0.026121404
87	0x3d143dfd	0.03619193
88	0x3d98de72	0.07464303
89	0xbe3c42d0	-0.18384862
90	0x3ce3d7fc	0.02781295
91	0x3da9a8b0	0.08284128
92	0xbe3e6bee	-0.1859586
93	0x3c2c8d0c	0.010531675
94	0xbdafd61f	-0.08585762
95	0x3e503412	0.20332363
96	0xbe9951a9	-0.29945114
97	0xbc919bb0	-0.017774433
98	0xbde41dd9	-0.111385055
99	0xbd70b4d1	-0.05876619
100	0x3e5b5461	0.21418907
101	0x3e1ac6c1	0.15114881
102	0x3e5bc6c2	0.21462539
103	0xbd2dbd49	-0.042416845
104	0xbe5b3004	-0.21405035
105	0xbeb48be1	-0.3526297
106	0x3e25c19e	0.1618714
107	0x3e1c72bb	0.15278141
108	0x3e8c6762	0.27422625
109	0x3d8c6a5b	0.06856223
110	0x3dd64349	0.104620524
111	0xbc788ed3	-0.015170771
112	0xbe6b74e4	-0.22993809
113	0x3d9f40c9	0.07776029
114	0xbe638776	-0.22219643
115	0xbe188707	-0.14895259
116	0xbcede59c	-0.02904015
117	0x3d9e5096	0.07730214
118	0xbd446b39	-0.047953818
119	0xbcd9f24a	-0.02660479
120	0xbe963e00	-0.29344177
121	0xbded4469	-0.11585314
122	0xbe1701d4	-0.14746791
123	0xbe1f993e	-0.15585801
124	0x3e0eee7e	0.13958165
125	0xbd60f025	-0.05491652
126	0xbe2878b7	-0.16452299
127	0xbe75b958	-0.23996484
128	0x3dd9e5a7	0.10639506
129	0x3dadc959	0.0848567
130	0xbcbea6f4	-0.023272969
131	0x3c9840c7	0.018585576
132	0xbd8bb4ee	-0.06821619
133	0xbd5a7fca	-0.053344525
134	0x3d6e6dfd	0.05821036
135	0x3dea1110	0.11429036
136	0x3e89aa91	0.26887944
137	0x3d7cd07e	0.06172227
138	0xbe23a9dd	-0.15982766
139	0xbdb53016	-0.08847062
140	0x3e00d593	0.12581472
141	0xbcc98ec6	-0.024604212
142	0xbe3451a8	-0.17609274
143	0x3dd60c9e	0.10451625
144	0x3caccb94	0.021093167
145	0xbd776dff	-0.060407635
146	0xbda13d27	-0.07872992
147	0x3ddc6648	0.10761696
148	0xbdb4ff7d	-0.08837793
149	0x3ee6658d	0.44999352
150	0xbdcdfe9a	-0.10058327
151	0xbe15fb7c	-0.14646715
152	0x3e418c93	0.18901281
153	0x3c545fca	0.012962291
154	0x3e43b280	0.19111061
155	0xbd986d6b	-0.07442745
156	0xbe626612	-0.22109249
157	0xbd3a6720	-0.045508504
158	0x3e8df022	0.2772227
159	0xbe68b538	-0.2272538
160	0xba9a00de	-0.0011749526
161	0x3e193f21	0.14965488
162	0xbd39bc7d	-0.045345772
163	0xbd0d9127	-0.034562256
164	0xbda39b1f	-0.079885714
165	0x3e02923b	0.12751095
166	0x3d09ec84	0.033672825
167	0xbd4dde35	-0.05026074
168	0xbe32311f	-0.1740155
169	0xbddbc7aa	-0.10731442
170	0x3db322f5	0.08746902
171	0x3dcdfcf1	0.1005801
172	0x3bc34de8	0.005960215
173	0x3e740eba	0.23833743
174	0xbe37af66	-0.17938003
175	0xbd353fa1	-0.044250134
176	0xbd19495b	-0.037423473
177	0xbe179743	-0.14803796
178	0xbe2b4046	-0.16723737
179	0x3e3bd711	0.1834376
180	0x3bbdd47f	0.005793154
181	0x3c11d51d	0.008900908
182	0xbe175ec7	-0.14782248
183	0xbe461f36	-0.19347844
184	0xbe2d528a	-0.16926017
185	0x3e3b1b78	0.18272197
186	0xbe56e43c	-0.20985502
187	0xbd268404	-0.040653244
188	0xbd09dda0	-0.033658624
189	0xbe2d2a3d	-0.16910644
190	0xbdf350e8	-0.11880666
191	0xbcc56c75	-0.024099568
192	0x3e81936d	0.2530779
193	0xbd00d875	-0.03145643
194	0xbdada730	-0.08479154
195	0x3e88798e	0.2665524
196	0x3e76766f	0.24068616
197	0x3db03432	0.086037055
198	0xbd764662	-0.060125716
199	0xbe8642ca	-0.2622283
200	0x3e3f7c2f	0.18699716
201	0x3d6cc1a6	0.057801865
202	0x3d8755bd	0.0660815
203	0x3e84661d	0.25859156
204	0x3ba2f7bc	0.00497338
205	0xbdf35ae3	-0.1188257
206	0xbe1e6c66	-0.15471038
207	0x3e6d79e4	0.23191029
208	0x3e6cc5e9	0.23122372
209	0x3e1a5b1d	0.1507382
210	0xbe128bdc	-0.14311165
211	0x3cb8238c	0.022477888
212	0x3d351787	0.04421189
213	0x3d9b6561	0.07587696
214	0xbdf99542	-0.12186672
215	0x3e2a306a	0.16620031
216	0x3c779e12	0.0151133705
217	0x3e8e46e1	0.2778845
218	0xbcb4e370	-0.022081107
219	0x3e649680	0.22323036
220	0x3d141f67	0.03616276
221	0x3e743093	0.23846655
222	0x3c38f654	0.011289198
223	0x3da3db13	0.080007695
224	0x3e012c1f	0.12614487
225	0x3e247443	0.16059975
226	0x3da8bab2	0.08238734
227	0xbdda5a26	-0.10661726
228	0xbdbcb9a0	-0.09215093
229	0xbdc13fe3	-0.094360135
230	0x3e011643	0.12606148
231	0x3e209f8e	0.15685865
232	0x3bad1a86	0.005282703
233	0xbe252fe1	-0.16131546
234	0x3e25e392	0.16200092
235	0xbe39d2fd	-0.18146892
236	0x3d21241a	0.03934107
237	0xbda9e6d5	-0.08295981
238	0x3dc86059	0.09784002
239	0xbdc3f2f7	-0.09567826
240	0xbebf2b3e	-0.3733768
241	0x3ddabd8c	0.106806844
242	0xbc979823	-0.018505162
243	0x3e3355c3	0.17513184
244	0x3e01a05a	0.12658826
245	0x3e3eea6a	0.1864411
246	0x3cd8bd33	0.026457405
247	0x3e3b4aab	0.18290202
248	0x3e212b1c	0.15739101
249	0x3e1e0ef5	0.15435393
250	0xbdb7b0ff	-0.08969306
251	0xbde8dcea	-0.11370261
252	0x3e2a8bc5	0.1665488
253	0xbe1546aa	-0.14577737
254	0x3e050f5d	0.12994142
255	0xbe6e9554	-0.23299152

transformer_encoder.layers.0.linear1.bias f4 [128]
0	0xbea214b4	-0.3165642
1	0xbea32ca0	-0.31869984
2	0xbe12b20f	-0.14325736
3	0xbd76ec0a	-0.0602837
4	0xbe217390	-0.1576674
5	0x3dde1d67	0.10845452
6	0xbea8f4c8	-0.32999253
7	0xbd24f604	-0.04027368
8	0x3d3ae86b	0.045631807
9	0x3e25b95f	0.16183995
10	0xbe911ec5	-0.28343788
11	0x3de7bc5e	0.11315225
12	0xbe88808e	-0.2666058
13	0x3e51a35c	0.20472473
14	0x3e1fa675	0.15590842
15	0xbeaa4dcc	-0.3326248
16	0xbd00ebcb	-0.03147487
17	0xbe88c763	-0.2671462
18	0x3e506ac5	0.2035323
19	0xbd90957c	-0.07059762
20	0xbdd94f1a	-0.106107906
21	0x3e27d49b	0.16389696
22	0xbc5b373d	-0.013379869
23	0xbe64b5fe	-0.2233505
24	0xbe80973a	-0.25115377
25	0xbcc781a9	-0.024353819
26	0xbe80b89d	-0.2514085
27	0xbd53d779	-0.051719163
28	0xbb88bc01	-0.0041728024
29	0x3e42825d	0.18995042
30	0x3df92a8d	0.12166319
31	0x3c63050e	0.013856186
32	0xbe7a1beb	-0.24424712
33	0x3e24be85	0.16088302
34	0xbe4f4acd	-0.20243378
35	0xbd8f6c78	-0.07003111
36	0xbe670608	-0.22560894
37	0x3cbfe557	0.023424787
38	0xbdc77100	-0.0973835
39	0x3df42c8f	0.119225614
40	0x3dd993a7	0.106238656
41	0xbe644224	-0.22290856
42	0xbcbfcfec	-0.023414575
43	0xbe7af5f6	-0.24507889
44	0xbd1d6626	-0.038427494
45	0x3e0e624a	0.13904682
46	0xbe21563f	-0.15755557
47	0x3dabc96d	0.08388028
48	0xbe17fdcd	-0.14842911
49	0xbc0766d3	-0.008264261
50	0x3e1afa20	0.15134478
51	0x3e2650af	0.16241716
52	0x3e5740f8	0.21020877
53	0x3c61c74a	0.013780424
54	0x3bce3530	0.0062929615
55	0xbe7f3440	-0.24922276
56	0x3d2be33b	0.04196475
57	0xbd56f17f	-0.052476402
58	0xbe0a4292	-0.13501957
59	0xbe2f905d	-0.17144914
60	0xbe37b5b4	-0.17940408
61	0x3d9c7d93	0.07641139
62	0xbe2d652e	-0.16933128
63	0x3d8679a0	0.06566167
64	0xbe094277	-0.1340426
65	0xbd867ae9	-0.06566412
66	0xbd2e88a3	-0.042610776
67	0xbe873149	-0.2640479
68	0xbd76dc21	-0.060268525
69	0xbe5ee736	-0.21767887
70	0xbe282f8f	-0.16424392
71	0xbe8d603d	-0.27612486
72	0xbc84e71b	-0.01622348
73	0xbd1b1fbc	-0.03787206
74	0x3e300c6f	0.17192243
75	0xbe687100	-0.22699356
76	0xbdffd505	-0.12491802
77	0xbe834205	-0.25636306
78	0x3e10b703	0.14132313
79	0xbe888c2a	-0.26669437
80	0xbd5977b7	-0.053092685
81	0x3dc1fcd4	0.09472051
82	0xbd8347d3	-0.06410184
83	0xbe9769c9	-0.29572895
84	0xbdeae514	-0.114694744
85	0x3cdcf369	0.026971536
86	0xbe628565	-0.22121198
87	0xbd092462	-0.033481963
88	0xbe62bb6d	-0.2214181
89	0x3d4a2a07	0.049356487
90	0xbe5f61b9	-0.21814622
91	0x3bbef593	0.0058276146
92	0x3d6b4595	0.057439405
93	0x3c9a77ca	0.018855948
94	0x3e0bba5a	0.13645306
95	0x3dd8ed94	0.105921894
96	0xbe65ac54	-0.22429019
97	0xbe38cb12	-0.18046215
98	0xbca8aa27	-0.020588947
99	0x3a6d042d	0.0009041455
100	0x3e49df32	0.19714049
101	0xbdcabf7f	-0.09899806
102	0xbdacf26a	-0.08444674
103	0xbe7e605c	-0.24841446
104	0xbe0d6b22	-0.13810399
105	0xbe62b392	-0.22138813
106	0xbe5beba3	-0.21476607
107	0xbe3fc800	-0.18728638
108	0x3e15bca6	0.14622745
109	0x3db20e16	0.08694093
110	0xbde13655	-0.10996691
111	0xbe04c82a	-0.12966982
112	0xbe37cc30	-0.17948985
113	0x3d8acd1d	0.067774035
114	0x3cf90b3b	0.030400863
115	0xbc80927c	-0.01569485
116	0x3d6e2fe0	0.058151126
117	0xbdfb3d8d	-0.12267599
118	0x3e051078	0.12994564
119	0xbe9a6b8c	-0.30160177
120	0x3db1a86b	0.08674701
121	0xbe78fa80	-0.24314308
122	0xbd4630aa	-0.048386253
123	0xbe089752	-0.13338974
124	0xbcbf15d5	-0.02332584
125	0xbbcf7b63	-0.0063318475
126	0xbeac0705	-0.33599105
127	0xbe11a4db	-0.14223044

transformer_encoder.layers.0.linear2.weight f4 [15, 128]
0	0x3dbb5422	0.091469064
1	0x3d2b6cb3	0.04185171
2	0x3da4b4d6	0.08042304
3	0xbd06d7d3	-0.03292067
4	0x3c89b777	0.016811116
5	0xbd8da826	-0.069168374
6	0xbd6ad2f2	-0.05733008
7	0x3c84558c	0.016154073
8	0x3da3a9e6	0.0799139
9	0xbd4a06e2	-0.04932297
10	0xbc82a468	-0.015947536
11	0xbc69cb9c	-0.014269736
12	0xbe2f0d40	-0.17094898
13	0x3deddf47	0.116148524
14	0xbd174c7f	-0.036938187
15	0x3cda0382	0.026613
16	0xbc7e9920	-0.0155394375
17	0x3da60d94	0.081080586
18	0x3d2dc4be	0.042423956
19	0x3c8d64b4	0.017259933
20	0x3ce8a15c	0.028397255
21	0x3d5548b8	0.052071303
22	0x3cca11b6	0.024666648
23	0xbc99dea6	-0.018782925
24	0xbdced287	-0.10098749
25	0xbd5c79e8	-0.053827196
26	0x3d8cfc01	0.068840034
27	0x3c9dc02f	0.01925668
28	0x3d1fdedc	0.039030895
29	0xbc24fae0	-0.010069579
30	0xbd9bf63d	-0.076153256
31	0x3dfc540d	0.12320719
32	0x3d7b6305	0.06137373
33	0xbd9b3c15	-0.07579819
34	0x3d004b9e	0.031322114
35	0xbe1cfdb3	-0.15331154
36	0xbd8cb208	-0.06869894
37	0x3c286420	0.010277778
38	0xbd4fc478	-0.050724477
39	0xbd86cb2a	-0.06581719
40	0xbd65ad96	-0.056073748
41	0x3d73ffee	0.059570245
42	0xbd9713bd	-0.07376812
43	0xbd32d112	-0.043656416
44	0x3b07766c	0.002066995
45	0x3c4e085f	0.012575238
46	0xbd90cff4	-0.07070914
47	0xbda744df	-0.08167433
48	0x3db31b32	0.087454215
49	0xbc551fb9	-0.013008052
50	0xbccb1499	-0.024790095
51	0xbdc188bc	-0.09449908
52	0x3ab69431	0.0013929663
53	0xbd6c33fd	-0.057666767
54	0x3d118cc5	0.03553464
55	0xbdb92e04	-0.0904198
56	0xbc1547e0	-0.009111375
57	0xbd4317fa	-0.047630288
58	0xbc6e5f06	-0.014549023
59	0xbc8b1dae	-0.016981926
60	0xbd3cb96f	-0.04607528
61	0x3c483e54	0.012221891
62	0x3d077103	0.03306676
63	0xbce7b05f	-0.028282342
64	0xbd000c28	-0.031261593
65	0xbd367e20	-0.044553876
66	0xbdda2b37	-0.10652774
67	0xbcaeddc3	-0.021345979
68	0xbda9b695	-0.08286778
69	0xbcf1cb89	-0.029515998
70	0x3deba896	0.115067646
71	0xbdc45edc	-0.095884055
72	0x3d811a91	0.06303895
73	0xbcc5bd57	-0.024138136
74	0xbc876bfa	-0.01653098
75	0x3dbe2d27	0.09285956
76	0xbc252ccf	-0.010081484
77	0x3be25d0e	0.0069080656
78	0x3dc0366d	0.09385381
79	0x3d6e42f1	0.05816931
80	0xbae9ac95	-0.0017827923
81	0xbd1a8aa0	-0.03772986
82	0x3dc4a587	0.09601884
83	0xbd6d9126	-0.057999752
84	0x3c40edfd	0.011775491
85	0x3d1cc264	0.038271323
86	0x3ccd8c9a	0.025091458
87	0xbce4796d	-0.027889932
88	0x3c145f9b	0.009055997
89	0xbd7927c6	-0.060828947
90	0xbdcafe40	-0.099117756
91	0xbd26ae80	-0.04069376
92	0xbde5aeed	-0.11215005
93	0xbe0ee0dd	-0.13952966
94	0xbd70870c	-0.05872254
95	0x3d2d6530	0.042332828
96	0xbd9b96ba	-0.07597108
97	0xbdd0649a	-0.10175438
98	0x3cc568ff	0.024097918
99	0x38d44062	0.0001012094
100	0x3c94b84b	0.018154284
101	0xbaa4e0f5	-0.001257925
102	0xbd5b409e	-0.05352842
103	0x3e07bf2d	0.13256522
104	0xbb96c384	-0.004600944
105	0xbd07b47b	-0.033131104
106	0xbde4f3cd	-0.11179314
107	0x3d44b574	0.04802461
108	0x3d91fd99	0.07128448
109	0xbd3b2809	-0.045692477
110	0x3d272b4f	0.040812787
111	0xbba4a068	-0.0050240047
112	0xbd5286a0	-0.05139792
113	0xbb79c16d	-0.0038109676
114	0x3ce486a6	0.027896237
115	0xbcac97e6	-0.021068525
116	0xbd0b0caa	-0.033947624
117	0x3d69c1b5	0.0570695
118	0x3d291953	0.041283917
119	0x3bff288b	0.0077868155
120	0xbc50abce	-0.012736274
121	0x3c6d2dfa	0.014476294
122	0xbd3f1e5b	-0.04665981
123	0xbdb8d50a	-0.09025009
124	0x3dac7645	0.084209956
125	0x3cddf5c5	0.027094731
126	0xbc30027b	-0.010742779
127	0xbe3a3419	-0.18183936
128	0xbe1bb034	-0.15203935
129	0x3b36fbf8	0.0027921181
130	0xbd3ce305	-0.04611494
131	0x3c083e1b	0.008315588
132	0x3c23fa4f	0.010008409
133	0xbbd91f62	-0.0066260556
134	0x3e00470b	0.125271
135	0x3bb95536	0.00565591
136	0xbd28443f	-0.04108071
137	0xbdc2d625	-0.09513501
138	0xbd03d4b9	-0.03218529
139	0xbd771007	-0.06031802
140	0x3da0b517	0.0784704
141	0xbc23db11	-0.01000096
142	0xbdb43528	-0.08799201
143	0xbd361ab5	-0.044459064
144	0xbd8c4f2f	-0.068510406
145	0xbbcdbec0	-0.0062788427
146	0x3c9e5300	0.019326687
147	0x3da26e6e	0.07931219
148	0x3cc1db6a	0.023664195
149	0xbd412a45	-0.047159452
150	0x3d545f2a	0.051848568
151	0x3c248a91	0.010042802
152	0x3cb7b46a	0.022424895
153	0x3da9d990	0.0829345
154	0x3cd8fe23	0.02648837
155	0xbd137863	-0.03600348
156	0xbcca149d	-0.024668032
157	0xbca4b9c5	-0.020108113
158	0x3e03048b	0.12794702
159	0xbca0f216	-0.019646686
160	0xbdaa3059	-0.08310003
161	0x3d4de8e5	0.050270934
162	0x3e7595ee	0.23982975
163	0x3e33b3c8	0.1754905
164	0xbca98815	-0.020694772
165	0xbbc6d436	-0.006067778
166	0xbcafd8b7	-0.021465642
167	0x3cb17484	0.021662004
168	0x3d58b520	0.05290711
169	0x3d172eb0	0.03690976
170	0x3d222c74	0.039593175
171	0x3d466a3f	0.048441168
172	0x3da6a46d	0.081368305
173	0x3db19b08	0.08672148
174	0xbca5275a	-0.020160366
175	0x3d149d81	0.03628302
176	0x3ce0f8a7	0.027462317
177	0x3b2dddf8	0.0026530009
178	0x3b166230	0.0022946708
179	0x3bebaeef	0.0071924846
180	0xba9a588e	-0.0011775659
181	0x3cbdc0e0	0.023163259
182	0xbd2dbab7	-0.042414393
183	0x3ddf25a7	0.108958535
184	0xbd8e527e	-0.06949328
185	0xbd89feb4	-0.06738034
186	0xbd90a64b	-0.07062968
187	0x3db6825b	0.08911582
188	0x3dfc2ad7	0.123128586
189	0x3cf75d7a	0.03019594
190	0x3d02d1b4	0.03193827
191	0xbd0ce8cf	-0.03440171
192	0x3dc0b1dc	0.09408924
193	0x3dab3773	0.083601855
194	0x3da885be	0.08228634
195	0xbd6d88ca	-0.05799178
196	0xbd449112	-0.047989912
197	0x3dbab2f1	0.091161616
198	0x3d5d8cf3	0.054089498
199	0xbd15f7ed	-0.036613394
200	0x3d332b8d	0.043742705
201	0x3cb5254c	0.022112511
202	0xbce9fa2b	-0.028561672
203	0x3da982e3	0.08276918
204	0x3ba8bcd7	0.0051494646
205	0xbd012090	-0.031525195
206	0xbd57603c	-0.05258201
207	0x3d1469f7	0.03623387
208	0xbd136181	-0.03598166
209	0x3d20ed66	0.0392889
210	0xbcab7732	-0.02093086
211	0xbd934195	-0.07190243
212	0x3d0fbc1e	0.035091512
213	0xbc8e3d8c	-0.017363332
214	0x3d5b4226	0.05352988
215	0xbc87e320	-0.016587794
216	0x3d958140	0.07300043
217	0x3cd222f5	0.025651434
218	0xbc45cdb7	-0.012072972
219	0x3cfce49b	0.030870726
220	0xbd28bbaf	-0.041194614
221	0xbd82a1be	-0.06378506
222	0xbd08282a	-0.03324143
223	0xbd4b5b71	-0.049647752
224	0x3d7aa527	0.061192658
225	0xbc08a601	-0.00834036
226	0x3c920a2c	0.017827116
227	0x3bc54de1	0.006021247
228	0xbc8839b0	-0.01662907
229	0x3e0527fa	0.13003531
230	0xbcc967da	-0.024585653
231	0xbd3d46e7	-0.046210196
232	0xbdb9a61c	-0.09064886
233	0x3db2c55d	0.0872905
234	0x3d103732	0.03520889
235	0xbd2acfc5	-0.04170205
236	0x3d5fd239	0.054643843
237	0x3de8a744	0.113600284
238	0xbd21a63b	-0.03946517
239	0x3d301b64	0.04299487
240	0xbd932e02	-0.0718651
241	0xbc9d5eaf	-0.019210188
242	0x3e0f7f34	0.14013368
243	0xbb71c9b6	-0.003689391
244	0x3d42c2c6	0.04754903
245	0xbcb93f5c	-0.02261322
246	0xbd491f1e	-0.04910194
247	0x3c8a0b36	0.016851049
248	0xbd6ac302	-0.05731488
249	0xbcea0258	-0.02856557
250	0x3d67b771	0.056571428
251	0xbd11fd2d	-0.035641838
252	0x3dce2c10	0.10066998
253	0x3d95f9ab	0.07323011
254	0x3d1dcbeb	0.03852455
255	0xbd657a31	-0.056024734

transformer_encoder.layers.0.linear2.bias f4 [15]
0	0x3d96361d	0.0733454
1	0xbb19da75	-0.0023476158
2	0xbd4ed5b3	-0.05049677
3	0x3d8635f9	0.06553263
4	0xbd073ff0	-0.03301996
5	0x3d9af3a6	0.075660035
6	0xbc55c3cb	-0.013047169
7	0xbd9548a2	-0.07289244
8	0x3d950f69	0.0727833
9	0xbd40486e	-0.046944074
10	0x3d773828	0.06035629
11	0xbd7ecb4d	-0.0622056
12	0x3ca7e330	0.020494074
13	0x3cf683ad	0.030092085
14	0xbd93b178	-0.07211584

transformer_encoder.layers.0.norm1.weight f4 [15]
0	0x3f98ca42	1.1936724
1	0x3f7f74f0	0.9978781
2	0x3f6f4f72	0.934806
3	0x3f828090	1.0195484
4	0x3f6293f1	0.8850699
5	0x3f8414b0	1.0318813
6	0x3f6639f1	0.8993216
7	0x3f85b816	1.0446804
8	0x3f821558	1.0162764
9	0x3f6545d6	0.89559686
10	0x3f88d301	1.0689393
11	0x3f85e8c5	1.0461661
12	0x3f71e3c1	0.9448815
13	0x3f77c5ba	0.9678608
14	0x3f86bc97	1.0526303

transformer_encoder.layers.0.norm1.bias f4 [15]
0	0xbc474637	-0.012162737
1	0x3b2013be	0.002442583
2	0xbd7ec220	-0.06219685
3	0x3d5fa7e7	0.054603484
4	0xbd8f9bb5	-0.07012121
5	0x3c1dd865	0.009634112
6	0xbda1d022	-0.07901026
7	0xbcb55cb7	-0.022138936
8	0x3d28d2d4	0.041216686
9	0xbd8e2226	-0.06940107
10	0x3c994e72	0.018714163
11	0x3ba7fecf	0.005126811
12	0x3d1a2edc	0.037642345
13	0xbcafc189	-0.02145459
14	0x3c934a02	0.017979626

transformer_encoder.layers.0.norm2.weight f4 [15]
0	0x3f8d663e	1.1046827
1	0x3f82fa2f	1.02326
2	0x3f701014	0.93774533
3	0x3f8528ff	1.0403136
4	0x3f832e6a	1.024854
5	0x3f793b1a	0.97355807
6	0x3f83119d	1.023975
7	0x3f936187	1.1514138
8	0x3f820df6	1.016051
9	0x3f817627	1.0114182
10	0x3f935f08	1.1513376
11	0x3f857c8b	1.0428632
12	0x3f78e03e	0.97217166
13	0x3f8001e5	1.0000578
14	0x3f88cb5a	1.0687058

transformer_encoder.layers.0.norm2.bias f4 [15]
0	0xbc28b263	-0.010296437
1	0xbc0ce925	-0.008600508
2	0xbcba2fdf	-0.022727905
3	0x3c0288e6	0.007967209
4	0xbd641b21	-0.055689935
5	0x3b618543	0.0034411706
6	0xbc1acb2e	-0.009447856
7	0xbd9201ec	-0.07129273
8	0x3cc34994	0.023838796
9	0xbca05940	-0.019573808
10	0x3cf6ecbe	0.030142184
11	0x3a2a53e2	0.0006497485
12	0x3c87b946	0.016567837
13	0xbaf34fae	-0.0018563175
14	0x3c432927	0.011911667

transformer_encoder.layers.1.self_attn.in_proj_weight f4 [45, 15]
0	0xbdcfccbe	-0.10146473
1	0x3d8323e0	0.06403327
2	0x3e32289d	0.17398305
3	0x3d2a1064	0.041519538
4	0xbe26451b	-0.16237299
5	0xbe642d90	-0.22283006
6	0x3e2f211a	0.17102471
7	0x3e4062f3	0.18787746
8	0xbe8daf19	-0.2767265
9	0xbbbe23d1	-0.0058026095
10	0xbea9ff61	-0.3320265
11	0xbe23f434	-0.16011125
12	0x3e4d1018	0.2002567
13	0x3e207eac	0.15673321
14	0x3e4b7b95	0.19871362
15	0xbdeeb8c8	-0.11656338
16	0xbe0d5053	-0.13800173
17	0x3e2eded3	0.17077188
18	0x3ea85566	0.32877654
19	0x3e91b128	0.28455472
20	0xbd8eaf97	-0.06967085
21	0x3ea90931	0.33014825
22	0xbc17098b	-0.009218584
23	0xbedd1fc5	-0.431883
24	0x3e251086	0.16119584
25	0xbe9bed55	-0.30454507
26	0xbdc7cd38	-0.09755939
27	0x3d275653	0.04085381
28	0xbe8b967b	-0.27263245
29	0x3dd32534	0.1030983
30	0xbe5df5e8	-0.21675837
31	0xbca2b901	-0.019863607
32	0x3e54e1d1	0.20789267
33	0x3e8d7c2a	0.27633792
34	0x3e708b03	0.23490529
35	0x3e36f1d0	0.17865682
36	0x3e738d17	0.2378429
37	0xbdb99202	-0.09061052
38	0xbc9e9ae5	-0.019360969
39	0xbdf0dc93	-0.11760821
40	0xbeb5e49a	-0.35525972
41	0x3e84e801	0.25958255
42	0xbea93e0f	-0.3305516
43	0xbe6026fa	-0.21889868
44	0xbd8a4892	-0.06752123
45	0xbd9b6e2d	-0.07589374
46	0x3c4387e2	0.011934252
47	0xbe539288	-0.20661366
48	0xbe4e2599	-0.2013153
49	0xbe84f034	-0.2596451
50	0xbec4f884	-0.38470852
51	0x3e18dd90	0.1492827
52	0xbdeaf773	-0.114729784
53	0x3e8b5ed0	0.27220774
54	0x3e7ac314	0.24488479
55	0xbe6893ab	-0.22712581
56	0xbe8db210	-0.27674913
57	0xbe848d4f	-0.2588906
58	0xbe725309	-0.23664488
59	0x3eb02564	0.34403527
60	0xbd1cd02d	-0.03828447
61	0x3dd19240	0.10232973
62	0x3e3ca759	0.18423213
63	0x3e366d5f	0.1781516
64	0xbdfb4d2a	-0.12270577
65	0xbee7f12d	-0.4530119
66	0x3edfbef0	0.4370036
67	0xbe2b607e	-0.16736028
68	0x3de604f1	0.11231411
69	0xbe7decf4	-0.24797422
70	0x3e0c2436	0.13685688
71	0xbdaf4e47	-0.08559852
72	0xbdfec4d4	-0.12439886
73	0x3d5d0772	0.05396218
74	0x3e8d1a07	0.2755892
75	0x3bc9e1a4	0.0061609317
76	0x3db54232	0.088505164
77	0xbcca1ce4	-0.02467198
78	0x3e71f4a4	0.23628479
79	0x3cde6522	0.027147833
80	0x3e5d9d66	0.21642074
81	0x3de59ca3	0.11211517
82	0x3d85281d	0.065017916
83	0xbe73d865	-0.23813017
84	0x3dc120bb	0.09430071
85	0xbe8cf1a9	-0.27528122
86	0xbe2f28ed	-0.17105456
87	0xbe84e92e	-0.25959152
88	0x3ebeb9da	0.37251168
89	0xbe8f2632	-0.27958828
90	0xbc724cc9	-0.014788815
91	0xbe268e2e	-0.16265175
92	0xbcc5805a	-0.024109054
93	0x3e8e0564	0.27738488
94	0xbe9861c7	-0.29762098
95	0xbd2d9ab3	-0.04238386
96	0x3d5bf249	0.053697858
97	0x3e0b3da6	0.13597736
98	0x3d9d27a0	0.076735735
99	0xbe6187bc	-0.22024435
100	0xbe08c226	-0.13355312
101	0x3e8e1d2a	0.27756625
102	0x3c250a8d	0.010073316
103	0xbe384d1d	-0.17998166
104	0xbe085f5c	-0.13317627
105	0xbeba9a64	-0.36445916
106	0xbe78dfe1	-0.24304153
107	0x3c4a54fc	0.012349363
108	0x3df3c0d2	0.11902012
109	0x3e654f68	0.22393572
110	0xbe6517fb	-0.22372429
111	0x3d369c8d	0.044582892
112	0x3db5e235	0.08881036
113	0xbe03cc70	-0.12870955
114	0xbe6f8a90	-0.23392701
115	0xbdb5fb59	-0.088858314
116	0x3e8da6b3	0.27666244
117	0xbe8310b1	-0.25598672
118	0x3d117994	0.035516337
119	0xbdddb976	-0.108263895
120	0xbbd85647	-0.006602082
121	0xbdfdfd18	-0.124017894
122	0xbd091cfc	-0.033474907
123	0xbe022ffb	-0.12713616
124	0x3e1c4082	0.15258983
125	0x3d026749	0.03183678
126	0xbe384498	-0.17994916
127	0x3e7b73cc	0.24555892
128	0x3d52d126	0.05146899
129	0x3e646272	0.22303179
130	0xbe68a99e	-0.22720954
131	0x3e4ace03	0.1980515
132	0x3dac5291	0.08414186
133	0x3e0990f2	0.13434198
134	0x3e9039dc	0.28169143
135	0x3d0c17c0	0.034202337
136	0x3d41175b	0.047141414
137	0x3de06d3d	0.109583355
138	0x3df1bf2f	0.118040435
139	0x3e008ca3	0.12553649
140	0x3dd89cd8	0.105767906
141	0x3e851990	0.25996065
142	0xbe4fb4ab	-0.20283763
143	0xbcf835c1	-0.03029907
144	0x3e3009d6	0.17191252
145	0xbe899e3d	-0.2687854
146	0xbe3f57e1	-0.18685867
147	0x3b946d92	0.0045296634
148	0x3d6d0a70	0.057871282
149	0xbd50350f	-0.05083185
150	0xbe5471c2	-0.2074652
151	0x3e54f631	0.2079704
152	0x3e356238	0.17713249
153	0x3e9708f7	0.29499027
154	0xbebe6b42	-0.37191206
155	0x3ea29662	0.31755358
156	0xbe800b59	-0.25008658
157	0x3ea2a9d2	0.31770188
158	0x3d21fd3c	0.039548144
159	0xbc17fb54	-0.00927623
160	0x3d3309ee	0.04371064
161	0xbe5a7066	-0.21331939
162	0x3e86de35	0.26341406
163	0xbe925e59	-0.28587607
164	0x3e95fbb0	0.29293585
165	0x3deea216	0.11652009
166	0x3e361dd8	0.17784822
167	0x3db8c14b	0.09021243
168	0x3dcd3db8	0.100215375
169	0x3d02a521	0.03189576
170	0xbe3a1e52	-0.18175629
171	0xbe55bc71	-0.20872666
172	0xbe9102b0	-0.28322363
173	0x3ec5e368	0.3865006
174	0x3e19080a	0.14944473
175	0x3ea9e6fe	0.33184046
176	0xbd4c9fce	-0.04995709
177	0x3d322bb1	0.0434987
178	0x3da86c37	0.08223765
179	0xbe6f3f7c	-0.23364061
180	0x3e9f4c47	0.31112882
181	0xbe5a7e66	-0.2133728
182	0xbe762471	-0.24037339
183	0x3de6f6ee	0.11277567
184	0x3e1d60ff	0.15369032
185	0xbcfad0d5	-0.030617157
186	0x3d9cdb3a	0.07659002
187	0x3e19e137	0.15027319
188	0x3c8db1d2	0.017296705
189	0xbe1bd84a	-0.15219226
190	0x3e19994d	0.14999886
191	0xbea59659	-0.3234127
192	0x3e4c77bd	0.19967552
193	0xbe9fd1de	-0.31214803
194	0xbdab3d2a	-0.083612755
195	0xbe35a3de	-0.17738292
196	0x3c13554f	0.008992507
197	0x3c8ec3d8	0.01742737
198	0xbde2e79f	-0.110793345
199	0x3e33f107	0.17572413
200	0xbdafac12	-0.08577742
201	0x3c53520b	0.012897979
202	0xbda6143a	-0.08109327
203	0x3df9fd4e	0.12206517
204	0xbc4d60b9	-0.0125352675
205	0x3e1e3203	0.15448765
206	0xbe4f099d	-0.20218511
207	0xbe7a0e76	-0.24419579
208	0xbe9d5ad5	-0.30733362
209	0xbe87329d	-0.26405802
210	0xbaf07cc3	-0.0018347729
211	0x3e494dd0	0.1965859
212	0x3e8e7ffb	0.27832016
213	0xbde42d6a	-0.111414745
214	0x3df458fe	0.119310364
215	0xbebb7a39	-0.36616686
216	0x3e80c995	0.25153795
217	0xbd6cee4a	-0.057844438
218	0xbd9f3490	-0.077736974
219	0x3dae1ddf	0.08501791
220	0x3e726e18	0.2367481
221	0xbe850c4c	-0.25985944
222	0x3e23e149	0.16003908
223	0x3ec0930e	0.37612194
224	0x3e5ef376	0.2177256
225	0x3e13b164	0.14423138
226	0x3e49bd20	0.19701052
227	0x3b94bd11	0.00453914
228	0xbe86d6d6	-0.26335782
229	0x3e57ffc9	0.21093668
230	0x3e837a78	0.25679374
231	0xbe8a6808	-0.27032495
232	0xbe9858bf	-0.29755208
233	0xbdfc88d0	-0.123307824
234	0xbe2ac2b6	-0.16675839
235	0xbdbf6365	-0.0934513
236	0xbe907b6c	-0.28219163
237	0x3ecbd4be	0.39810747
238	0xbe8bd1e7	-0.2730858
239	0xbe0132ba	-0.12617007
240	0xbe9491c5	-0.29017463
241	0x3e619677	0.22030054
242	0x3e61be25	0.2204519
243	0xbe4354b1	-0.19075276
244	0x3d92ba07	0.07164388
245	0x3e8a089e	0.269597
246	0xbe8306be	-0.2559108
247	0x3ea98b8b	0.33114275
248	0x3d0b5b0c	0.034022376
249	0x3e722d6c	0.2365014
250	0xbebd4077	-0.36963245
251	0xbc915ecf	-0.017745404
252	0xbdde787b	-0.108628236
253	0x3e4e04fb	0.20119087
254	0xbd74ef34	-0.059798434
255	0x3ea4c141	0.3217869

transformer_encoder.layers.1.self_attn.in_proj_bias f4 [45]
0	0x3d724b3f	0.05915379
1	0x3e006883	0.12539868
2	0x3d0fbad8	0.035090297
3	0x3b8400fa	0.0040284367
4	0x3e3baf80	0.18328667
5	0x3cf6a9c7	0.030110253
6	0xbc2dedb3	-0.010615754
7	0x3c1b511b	0.009479786
8	0x3dd09204	0.101841
9	0x3e1d37a9	0.15353264
10	0xbd15a5e9	-0.036535177
11	0xbd2d1a1e	-0.042261235
12	0xbdcb9543	-0.09940579
13	0xbd86dd61	-0.065851934
14	0x3d4d3d92	0.050107546
15	0x3bde0b84	0.006776275
16	0x3c6b9de6	0.014380908
17	0x3c831bbc	0.016004436
18	0xbcc7f3c6	-0.024408232
19	0x3c1574bb	0.009122069
20	0x3b941ffb	0.004520414
21	0xbb4972dd	-0.003073863
22	0xbc7e5841	-0.015523971
23	0x3c14e81f	0.009088545
24	0xbbf74d86	-0.0075470833
25	0x3c06254c	0.008187603
26	0x3ca894c8	0.020578757
27	0x3c98e65f	0.018664537
28	0x3ccb710a	0.024834175
29	0xbbc63f3c	-0.0060500186
30	0xbccfd30d	-0.025369192
31	0x3baaf815	0.005217562
32	0xbbdecfa5	-0.0067996555
33	0xbb133e8f	-0.0022467708
34	0xbcada3a1	-0.021196188
35	0xbca0292b	-0.01955088
36	0xbd457c40	-0.048214197
37	0x3c993a1a	0.018704463
38	0xbb6de353	-0.0036298826
39	0x3c2a7cd0	0.010405734
40	0xbcc7b26d	-0.024377072
41	0x3d0e92e1	0.034808043
42	0x3b847ff7	0.004043575
43	0xbd9422a4	-0.0723317
44	0xba303a7a	-0.0006722581
